lab02-models/hip-5-model.pth (torch, 181175 bytes, 10 tensors)

conv_block1.0.weight f4 [6, 1, 5, 5]
000000 7b 70 76 be f3 eb 26 be 7b e0 0e be b7 ca 21 3e
       -0.24066345 -0.16300945 -0.1395282 0.15799986
000010 e3 e6 74 3e 60 ab 50 3e 97 61 05 3e 83 cc 3c bc
       0.23916201 0.20377874 0.13025509 -0.011523369
000020 ec 97 0e 3e 1c 7c 62 bc f6 4e bb 3d 7e a0 2c 3e
       0.13925141 -0.013823535 0.0914592 0.16858098
000030 3e df 55 3e db f6 6e 3e 23 eb 84 3e 69 27 2f be
       0.20885941 0.23336355 0.25960645 -0.17104878
000040 ff 4d 3f be 0c 15 62 be b3 4e 06 bd 4d 4a ce 3e
       -0.18682097 -0.22078341 -0.032789897 0.40291062
000050 15 8b d7 3c 5a 11 49 be 1d e9 6e be 44 e0 21 3e
       0.026311437 -0.19635525 -0.23331113 0.15808207
000060 3f 41 f3 3d d1 e2 78 3e 1a 97 ab 3e a8 a8 d4 3e
       0.11877679 0.24305274 0.3351372 0.41534925
000070 ec ae 3e 3e 6d 9d 00 3f f5 a8 a0 3e 0f f9 18 3d
       0.18621415 0.5024021 0.31378904 0.037346896
000080 2c 23 d8 3d ba e7 86 3e f1 02 ac 3d 0b dd 91 bd
       0.105535835 0.26348668 0.083989985 -0.07122239
000090 7d 0c 63 3d c6 15 01 bd 7f dd 35 be dc 8b 0c 3e
       0.05543183 -0.031514905 -0.17760275 0.13725227
0000a0 77 86 ac be ba 34 2f be a8 c5 21 bd b0 27 59 be
       -0.3369634 -0.17109957 -0.03949514 -0.21206546
0000b0 5b f6 47 be 31 86 b0 be b6 d7 7c be eb a4 b9 bd
       -0.19527571 -0.3447738 -0.24691662 -0.09064659
0000c0 16 45 62 be ed ee eb bc ab c8 8a be eb 01 25 be
       -0.22096667 -0.028800452 -0.27106223 -0.16114013
0000d0 d8 32 95 bc ea f4 a0 3e ee 58 09 3d ad 58 57 be
       -0.01821272 0.31436855 0.033532076 -0.21029921
0000e0 83 da 76 be 36 55 ac bd 53 53 be 3e d9 41 81 3c
       -0.24106793 -0.0841469 0.37172946 0.015778469
0000f0 29 f3 a8 be 71 91 c3 bd 24 91 bb 3e 4a 6c ea 3e
       -0.32998016 -0.09549225 0.3663417 0.45785743
000100 ac 37 f5 3c 71 23 39 be 04 5e df 3d 47 df a6 3e
       0.029933773 -0.18079926 0.10906604 0.32592222
000110 15 7c 3b 3e 0e 74 70 3d 2b 9f b9 bd fd 5f e9 bd
       0.18309052 0.05870443 -0.09063562 -0.113952614
000120 49 60 b9 bc 59 41 05 3e 32 c5 90 bb 7a 48 82 be
       -0.02262892 0.1301321 -0.0044180388 -0.2544592
000130 a4 a4 aa 3d 3f 1e 37 3d 77 b3 74 3e d1 5a fb 3d
       0.08332184 0.04470658 0.23896585 0.12273181
000140 d0 a8 9e be 24 57 93 ba 18 eb 8c 3e 15 d2 b9 3e
       -0.3098817 -0.001124118 0.27523112 0.36293092
000150 6e 2e 5b 3d 66 6a 03 bd 64 d1 e0 3d 35 71 1f 3e
       0.053511076 -0.03208389 0.10977438 0.15570529
000160 1a 8a 2e 3e 90 5c 8a be 41 0e 0e be a7 86 2d 3e
       0.17044869 -0.27023745 -0.13872625 0.16945897
000170 fc 39 c5 3e 6b 33 a1 3d d7 a3 6d be 25 90 a2 3d
       0.385208 0.07871135 -0.23207031 0.0793765
000180 b2 21 48 bd fa 44 2f 3e b9 a6 47 3d ea 8a 1b bd
       -0.04886026 0.17116156 0.048742983 -0.037974276
000190 1f e3 44 be be 7c b8 be ae 34 be be a4 49 c0 bd
       -0.19227265 -0.3603267 -0.37149566 -0.09389046
0001a0 dc 9f 7b 3e bd a1 71 be c2 ca 93 be bc d0 06 3d
       0.245727 -0.23596855 -0.2886563 0.03291391
0001b0 80 74 36 3e b7 d2 7f 3e 04 fa ce bd 78 b9 0b bd
       0.17817879 0.24982725 -0.101062804 -0.034112424
0001c0 ca 4d 66 3e 63 b4 ae 3e 8a b0 b9 3e 80 cd 16 3e
       0.22490612 0.34122 0.362675 0.1472683
0001d0 71 29 8f 3e 6d 1b 96 3e d2 fe 93 3e e3 bc 12 3d
       0.27961305 0.293178 0.2890535 0.035824668
0001e0 0d c7 78 3e 2e 27 08 3d cc 3e 0f 3e e6 63 37 be
       0.24294682 0.03324049 0.13988799 -0.17909202
0001f0 fd 1c 40 be 0d 96 e7 3d 73 dc fa 3d 13 6d b3 3e
       -0.18761058 0.11307917 0.122490786 0.35044155
000200 22 42 ed 3e 2c 03 05 3f 1e f6 33 3d eb 65 2d 3d
       0.46339518 0.51957965 0.043935888 0.042333525
000210 7b 36 ce 3e 86 39 56 3e 34 82 f3 3e 14 a3 eb bd
       0.4027594 0.20920381 0.47560275 -0.11505714
000220 34 95 8c bd 69 06 0f 3d 32 6b 14 be 2f f5 ca 3e
       -0.06864396 0.034918223 -0.14494017 0.39640185
000230 90 53 6f be 74 9f 0b be 9e b6 da be 97 7b 9a be
       -0.2337172 -0.13635045 -0.4271745 -0.30172417
000240 76 21 32 be 92 58 a5 be 9a 83 90 be 64 1e a5 be
       -0.17395577 -0.32294136 -0.28225404 -0.3224975
000250 eb 2b 9d be 28 74 13 be
       -0.3069757 -0.14399779

conv_block1.0.bias f4 [6]
000000 bf 18 30 bd 1e e0 1f 3d ee 28 e2 3e 0a 6a 17 bd
       -0.04299235 0.039032094 0.44171852 -0.03696636
000010 a1 0b 02 3f 20 f7 65 3e
       0.50798994 0.22457552

conv_block2.0.weight f4 [16, 6, 5, 5]
000000 d8 ad ad bd 22 d2 d9 3c 99 be a8 bd e3 17 4b bd
       -0.08480424 0.026589457 -0.082394786 -0.049583327
000010 c5 7a 72 bd 49 86 a7 bc bd 6d fa bc fc 41 ee bc
       -0.059199113 -0.020449774 -0.030569905 -0.029084198
000020 df 33 b9 bb 88 b5 6f 3d 0b 57 95 3d 6e a7 31 bc
       -0.0056519355 0.05852273 0.07291993 -0.010843141
000030 f5 05 aa 3a a5 99 6f 3c 08 65 7a 3d 22 24 85 3c
       0.0012971746 0.014624034 0.061131507 0.016252581
000040 c7 3d f3 3c 3e 09 78 bb 8f d8 c7 bd 7f 72 13 3d
       0.029692544 -0.0037847306 -0.09758102 0.035997864
000050 47 16 73 3d 2a 5b d4 3d b2 98 8d bd ec ca 63 bd
       0.059347417 0.10368951 -0.0691389 -0.055613443
000060 d8 c6 62 3d d3 af 6a bd 73 bf 84 bc b5 37 1c bd
       0.055365413 -0.057296585 -0.016204571 -0.038139064
000070 15 ef 9f bd 0b e6 66 bd c5 e2 d3 bd 98 d9 c0 bc
       -0.07809273 -0.05637173 -0.10345987 -0.023541257
000080 e7 5d b9 3c 07 15 6d bd c9 48 05 3d 22 08 3c 3d
       0.022627784 -0.05788138 0.032540116 0.045906194
000090 84 db 14 3d 46 14 ae 3d 97 48 0c bd 50 24 b7 3d
       0.03634216 0.084999606 -0.034248915 0.08942473
0000a0 f4 85 3a 3d 5d c8 8b 3c dd b7 d5 3d 73 fd 88 bd
       0.045537904 0.017063314 0.1043546 -0.066889666
0000b0 e6 6e 23 bd a0 71 4f 3d 96 74 37 3d a7 8b 99 3d
       -0.039900683 0.05064547 0.04478892 0.0749734
0000c0 1e 18 9f bd 69 8b 92 ba 52 bc 41 3c 95 72 8b 3c
       -0.07768272 -0.0011180463 0.011824684 0.01702241
0000d0 c7 7f 20 3d d6 6e 94 3d 1c 23 06 3c af f3 5e bd
       0.039184358 0.07247703 0.008187082 -0.054431614
0000e0 6a ab 3b 3d e0 3f 7d 3d 36 04 f5 3d 7f 28 23 bd
       0.04581777 0.061828494 0.11963694 -0.039833542
0000f0 c2 cc 4c bd c7 18 87 bc 84 ce 44 3d 34 62 b0 bb
       -0.04999996 -0.016491307 0.04804851 -0.0053828005
000100 9e 03 c3 3b d9 a2 06 3d a0 8e e9 3d 2e 05 b8 bc
       0.005951359 0.032870147 0.11404157 -0.022463407
000110 03 ed 73 bd 09 87 4f bd 31 c2 7c bb 85 45 0d 3d
       -0.059552204 -0.05066589 -0.0038567896 0.034490127
000120 4c 80 44 bb 16 54 c6 3c 5f 6c 25 3d 6a bc cf bd
       -0.0029983697 0.024210017 0.040386554 -0.10143359
000130 a8 f8 59 bd 70 60 05 3d e7 79 2b 3a ea dc 3d 3d
       -0.053215653 0.032562673 0.0006541297 0.04635326
000140 eb c9 88 3d d6 74 2b 3d 13 be c0 3d 41 55 9f 3d
       0.06679138 0.04185947 0.09411254 0.07779933
000150 82 41 95 3c b1 43 8d bd 59 c7 0a bd 54 9e d4 3d
       0.018219713 -0.06897677 -0.03388152 0.10381761
000160 8d b0 a2 3d b4 79 d0 bd 7e 4d 3c bd 44 e1 d5 3d
       0.07943831 -0.10179463 -0.04597234 0.10443357
000170 de 8d 3c bd c6 ba 73 bd 14 79 3e 3d a1 64 96 3d
       -0.046033733 -0.059504293 0.046502188 0.07343412
000180 31 2f b1 bc e8 e1 77 3d 77 0d 6e bd 8e e1 82 bd
       -0.021628948 0.060518175 -0.05811831 -0.063906774
000190 a6 ec 47 bc ee a6 41 bd 26 18 ae 3d d1 06 29 3d
       -0.0122024175 -0.047278337 0.085007 0.041266266
0001a0 ef c6 f2 3d 31 2d bc 3d c2 27 50 3d bb b8 08 3e
       0.1185435 0.09188307 0.050819166 0.13351719
0001b0 0d 44 2d 3e 3c 17 98 3d 80 27 31 3d 32 24 a6 3d
       0.1692049 0.074263066 0.04325056 0.081123725
0001c0 4e 9e b8 3d 32 f6 0b 3c 77 eb 66 bc 41 23 0e 3e
       0.09014569 0.008542584 -0.014094225 0.13880636
0001d0 e6 86 21 3c e8 df ac bd da b5 82 3d d3 60 44 3d
       0.009858822 -0.08441144 0.06382342 0.0479439
0001e0 5e 07 31 3d 1e 0b de bc d9 70 9f ba ff 4b 54 3d
       0.043219917 -0.02710491 -0.0012164369 0.051830288
0001f0 43 35 64 bd 01 52 e0 bd 1b a3 df bd 98 a1 f0 bd
       -0.055714857 -0.10953141 -0.10919782 -0.117495716
000200 8b 3b a5 bb 55 1b 54 3d 11 3b 28 bd 75 94 0b be
       -0.0050424985 0.05178388 -0.041071955 -0.1363085
000210 91 8c 8c bd 53 62 59 3d 13 2a f2 3d 17 dc b8 bc
       -0.068627484 0.053072285 0.11824431 -0.022565885
000220 58 30 16 bd bb 7b 87 3d 65 f6 a1 3c 96 30 8e 3c
       -0.036667198 0.066153966 0.01977081 0.017357152
000230 0d ca 9c 3d f9 a0 02 3e a9 c4 31 bd 62 63 99 bd
       0.07655726 0.12756719 -0.04340044 -0.07489659
000240 c7 62 24 3d f2 ce 26 3d c0 f3 eb 3d 8e 58 47 bd
       0.040133264 0.040724702 0.11521101 -0.048668437
000250 86 27 0e 3d dc 01 88 3d ba 50 e0 3c 85 bd 51 3d
       0.03470566 0.0664098 0.027382243 0.05120613
000260 75 25 8c 3d 46 50 cf 3d 61 e0 d9 3b ad 70 30 3d
       0.06843082 0.10122733 0.0066490625 0.043076206
000270 cc 72 cb bc 88 85 1c 3d 2d 1a 0d bd bc e8 ca 3d
       -0.024835013 0.038213283 -0.03444879 0.09907672
000280 77 43 a6 bc 79 4e 8e bc 8d c3 07 bc 0e b3 60 3d
       -0.020295842 -0.017371403 -0.008286369 0.05485826
000290 73 70 93 3d 70 cd b3 bd d3 83 8a bb 94 58 fe bb
       0.07199182 -0.087794185 -0.0042271405 -0.007762024
0002a0 76 23 38 3d ec 52 c1 3c 8b 8d 63 bd bb f2 85 bd
       0.044955693 0.02359911 -0.055554908 -0.06540438
0002b0 d1 d5 0e bc 88 61 be bc e3 f5 9c bd a3 b1 c9 3d
       -0.00871797 -0.023239866 -0.07664087 0.09848335
0002c0 bb 8b 6d 3d 5f 9e 69 3d 6b e2 94 3d 3c d7 86 3c
       0.057994585 0.0570358 0.07269748 0.016460054
0002d0 63 43 3e 3e 02 e0 a4 3d b8 00 4e 3e db f7 40 3e
       0.18580393 0.080505386 0.20117462 0.1884455
0002e0 4a 12 b8 3d f8 35 00 3e 11 10 3c 3e f7 36 3c 3d
       0.08987863 0.12520587 0.18365504 0.045950856
0002f0 32 59 33 3e 53 3a 4e 3d 52 d3 1e bd ec 40 87 bd
       0.17514494 0.05034859 -0.03877575 -0.0660418
000300 03 e4 93 ba 6b 43 60 3d a9 aa 87 3c 63 c5 70 bd
       -0.0011283163 0.054751795 0.01656087 -0.058781993
000310 03 33 6b bb 09 02 05 3d aa d7 84 3d 98 25 b2 3c
       -0.003588856 0.032472644 0.06486447 0.021746442
000320 13 27 95 3d 1a 61 49 bd 4c e6 95 3c 82 ae 8b 3d
       0.072828434 -0.04916487 0.01829829 0.06820394
000330 db 58 9c 3c 91 c4 01 3d c0 09 e2 3c 54 7d 42 bc
       0.019085338 0.0316816 0.02759254 -0.011870701
000340 54 e2 09 bd a2 4b 53 bd 72 12 d9 bd e8 ab 04 be
       -0.03366311 -0.0515858 -0.10599221 -0.12956202
000350 2a 06 da bd a2 a8 4d bd 35 04 6f bd f3 9f f8 bd
       -0.10645707 -0.05020965 -0.05835362 -0.12139883
000360 59 21 03 3d 77 24 1e bc d6 6f 47 3d 3a d4 7e 3d
       0.032014225 -0.009652249 0.04869064 0.062214114
000370 0e f7 48 3d 71 6d cd bc 44 1f 08 bd ad fa 28 bd
       0.049063735 -0.0250766 -0.033232942 -0.041254688
000380 3e 45 b2 3c e1 62 7c bc a2 fa be bd 42 98 0e be
       0.021761533 -0.015404434 -0.09325148 -0.13925269
000390 9b fb b2 bd 93 f8 81 bc e0 c8 7b 3c 21 11 d3 3c
       -0.08739396 -0.0158656 0.015367717 0.025765004
0003a0 66 b3 e0 bd 41 f2 09 be 5b e8 8c bd b8 7a 15 3c
       -0.109717175 -0.13471319 -0.06880256 0.009123497
0003b0 f0 4c 34 bd a8 29 30 3c 8d a4 94 bb f1 64 22 bd
       -0.044018686 0.010752119 -0.0045362175 -0.039647046
0003c0 cd b9 8a bd 25 e2 dc bd f3 c7 7f bd de 76 52 3d
       -0.0677372 -0.10785321 -0.062446546 0.05138289
0003d0 e2 4b 15 3d 49 b5 8a bd 02 24 1b 3d 2c ee 4e 3d
       0.03644932 -0.06772859 0.037876137 0.050520107
0003e0 a5 a2 f4 bc 85 de 80 3c 51 58 1a 3d 5d c0 da 3d
       -0.029862711 0.015731106 0.03768188 0.10681222
0003f0 c7 02 e1 3d 30 1b 5f 3d 01 7a 13 3e 8c 3e d9 3c
       0.10986858 0.054469287 0.1440201 0.026519082

conv_block2.0.bias f4 [16]
000000 80 23 8d bd 3b db c4 bc bf 7e 7a bc d4 40 e8 3b
       -0.06891537 -0.024030318 -0.015289008 0.0070878062
000010 c8 48 2f bc a6 9b 1e bd 7a 2d f2 bb 25 18 a3 bc
       -0.010698505 -0.038722657 -0.007390675 -0.019908974
000020 d0 dd 6e bc e6 c3 20 bc ab 23 94 3a cf 7d 17 3d
       -0.014579251 -0.009812331 0.0011302134 0.036985215
000030 d0 e1 7b 3d c6 a8 eb 3d 78 dd 61 3d e4 04 90 3d
       0.06149465 0.115068 0.05514285 0.07032183

fc1.weight f4 [120, 256]
000000 e7 1d f8 3c 0b 94 67 bd ac 14 b0 3a a6 3f 3f bd
       0.030287696 -0.05653767 0.0013433895 -0.04669156
000010 bb a2 94 3d a3 c9 57 bc ff e2 8f 3d 44 9d cc bc
       0.07257601 -0.0131706325 0.07025718 -0.024977334
000020 bd c7 36 3d 55 64 c0 3d 83 f0 30 3d 4a 29 25 bd
       0.04462408 0.09394137 0.04319812 -0.04032258
000030 0c a0 8d bc 16 45 5d bd 46 bb a3 bc 87 3f 19 bd
       -0.01728823 -0.054020964 -0.01998676 -0.0374141
000040 2c 45 7a bd 1f 6a e2 bc db 11 c6 3c dd 02 73 3d
       -0.061101124 -0.027638493 0.024178436 0.059328903
000050 9e e3 49 3d db d7 a9 3c 0b 36 bb bc 96 07 a6 3b
       0.04928934 0.02073281 -0.022852918 0.0050668223
000060 cb bf 8d 3b 4c 94 84 bd de ad 33 bd 71 25 96 3d
       0.004325842 -0.06473598 -0.043866985 0.0733136
000070 35 95 94 bd ce 41 fe bc 58 c0 37 bd b1 09 18 3c
       -0.072550215 -0.031037237 -0.044861168 0.009279654
000080 e6 0e 33 3c 1f e3 1f bd 39 23 8a bc 12 59 f9 bb
       0.010928845 -0.03903496 -0.016862499 -0.007609495
000090 07 f7 06 bd da 0f 69 3c 8c 3d 43 3c 82 c0 0d bb
       -0.032950427 0.014224971 0.011916529 -0.0021629636
0000a0 c8 0f d8 bc bf ee d9 b9 de 62 27 bd 3e 88 41 bb
       -0.026374713 -0.00041567345 -0.04086577 -0.002953067
0000b0 a5 ca 1e 3d 48 61 79 3c 7a e3 7e 3d 51 c4 93 3c
       0.038767476 0.015220948 0.062228657 0.018037947
0000c0 f6 aa df 3b 0c 91 12 3d f3 e7 d1 bd 0b d7 c2 bb
       0.0068258 0.03578286 -0.10249319 -0.0059460453
0000d0 c6 15 72 bc eb c8 ab 3d ac 93 61 bd c6 dc f4 bc
       -0.014775699 0.083879314 -0.05507247 -0.02989043
0000e0 80 a2 a6 3d cf aa 25 3d bc e0 3a 3b ee 99 85 3d
       0.08136463 0.0404461 0.00285153 0.065235004
0000f0 50 9d bc 3d fa 96 30 bc 68 d4 50 3d fa 61 13 3c
       0.092096925 -0.010778183 0.050983816 0.008995527
000100 bb 4c 26 bd d4 86 a5 3d d8 86 15 bd 6b 6c 4d 3c
       -0.04060052 0.08082357 -0.03650555 0.012538056
000110 2e 02 92 bc 41 da fe bc 00 58 52 3d 2c 1e df b9
       -0.017823305 -0.031109931 0.051353455 -0.00042556354
000120 53 c7 37 3b 16 25 43 bd 1e c2 85 3c 14 77 52 3d
       0.002804239 -0.04764279 0.016327914 0.051383093
000130 64 1e 5e 3d c5 63 bf 3c d1 96 e3 3d 5f ed b0 3d
       0.0542282 0.023363004 0.1111275 0.08639025
000140 65 19 23 3d c1 bf f4 bc 54 7d 9b bb 25 fc f3 bc
       0.03981914 -0.029876592 -0.004745165 -0.029783318
000150 78 0a 8b 39 a9 e1 90 bc 9e 6e c6 bc 2c 94 3d 3b
       0.00026519946 -0.017685728 -0.024222668 0.0028927429
000160 14 e6 88 3d 04 10 81 bc d6 69 f7 3c a5 ce 7a 3b
       0.06684509 -0.015754707 0.030201834 0.0038270142
000170 76 a3 28 bd 8e f9 66 bd 92 c7 86 bb 87 a9 9a bc
       -0.041171513 -0.056390338 -0.004113146 -0.018879665
000180 46 95 97 bc 52 8c 77 3d f6 cc 7a bd ef 66 b1 3c
       -0.018503796 0.060436554 -0.061230622 0.021655528
000190 a6 63 08 3b 78 e5 81 bd b3 f3 4b 3d 2e 59 35 3c
       0.0020811348 -0.06342596 0.049792957 0.011068625
0001a0 50 ae 7f bd 96 1b 27 bd 46 26 4a 3d 8e 3b db bc
       -0.062422097 -0.040797792 0.049352907 -0.026761796
0001b0 38 76 37 3d 41 72 b7 3d 27 36 5d 3d 85 85 e2 bc
       0.044790477 0.08957339 0.05400672 -0.027651558
0001c0 ce a6 8a bc ce fc 36 bc 7e a2 9f bb 11 44 fc bc
       -0.016925242 -0.011168672 -0.0048716655 -0.030794175
0001d0 f4 0e 5f 3c 68 11 32 bd 2c 1f 08 3d 7f ef e4 3c
       0.013614405 -0.04347363 0.033232853 0.027946232
0001e0 96 5e ac 3d db 4a 16 3d 5d da 16 bd 7b 19 b4 bc
       0.08416478 0.03669248 -0.03682934 -0.021984806
0001f0 1c c7 57 3c ab d6 9c bc ca a2 e8 3c 86 e0 07 bd
       0.01317003 -0.01914533 0.028397936 -0.033173107
000200 1d 79 de 3c b0 e2 f3 bc a3 70 33 3d 1e 70 0d bd
       0.02715736 -0.029771179 0.04380859 -0.03453075
000210 a8 f9 97 bc 17 73 8e 3d 2d 4c 8e 3d 0f 3a 31 3d
       -0.018551663 0.069555454 0.06948123 0.04326826
000220 af ab 5a 3d 56 6c c8 3d d4 99 6d bd 85 53 84 bd
       0.053386386 0.097862884 -0.05800803 -0.064612426
000230 36 c4 81 3c c2 d6 84 bd af 47 26 bd b5 49 ca bc
       0.015840631 -0.06486274 -0.040595707 -0.02469335
000240 bf 7d 0b bd 11 d2 1e 3c 64 41 20 3d 88 39 f6 39
       -0.034055468 0.009693638 0.03912486 0.0004696364
000250 a8 8a 29 bd 7a fb 09 3d 53 8a a1 bc df 20 04 bd
       -0.041392 0.033687092 -0.019719278 -0.03225791
000260 e9 d0 26 bd d4 c3 27 3d e5 e4 9f 3c dc cb 47 3d
       -0.040726576 0.04095824 0.019518325 0.0487784
000270 b4 4f 73 3c 03 82 96 bd bb d7 1d 3d 6d 3d 56 3b
       0.014850546 -0.073490165 0.038535815 0.0032690421
000280 b6 bb 3a 3c 43 44 4a 3c f1 0b aa 3d 0a 23 87 3d
       0.011397293 0.012345376 0.08303059 0.0659848
000290 aa 25 20 bd 46 a8 c3 3c 98 4b 17 3c f8 29 00 bd
       -0.03909842 0.02388395 0.009234332 -0.031290025
0002a0 c0 cd 24 bd b4 e9 86 bd 47 21 a2 3d c3 6c d7 3b
       -0.04023528 -0.06587544 0.079165034 0.0065742447
0002b0 df d0 8c bd e7 5c 3d 3d 3e 38 eb 3d 35 a7 2f 3d
       -0.068757765 0.046231177 0.11485337 0.04288407
0002c0 90 36 fc bb 26 b7 16 3d 17 99 68 bd d7 ef 71 3d
       -0.007696934 0.036795758 -0.056786623 0.05906662
0002d0 9f 34 60 3d f7 98 0d 3d ad 94 a5 3c d0 e0 a8 3c
       0.054737683 0.034569707 0.020212496 0.020615011
0002e0 08 62 53 bc fe 21 19 bd 91 7a 61 3d 13 ee bd 3b
       -0.01290179 -0.037385933 0.05504853 0.005796203
0002f0 dc 79 45 3d f5 1d 1e bd 5b cf f5 bc 8f 9c 5a 3c
       0.048211917 -0.038602788 -0.030006101 0.013342991
000300 45 0b 09 bd 77 ef 66 3b e0 fd 88 3d 67 82 8d 3c
       -0.033458013 0.0035237947 0.06689048 0.017274095
000310 f3 19 24 bd f7 77 9b 3c ec 11 96 3d f5 35 18 bd
       -0.04006381 0.018978102 0.07327637 -0.037160832
000320 90 be 78 bd 1e 7c 2a 3d a0 39 30 ba b5 2e 35 3d
       -0.06072861 0.041622274 -0.0006722454 0.044233996
000330 10 b3 39 3d a7 ea 3d bc bd b1 ba 3d 0f db 86 3c
       0.045336783 -0.01159159 0.09115932 0.016461877
000340 28 96 91 bc ff 64 11 bd 94 d6 26 bd ed 59 56 3d
       -0.017771795 -0.035496708 -0.04073198 0.052331854
000350 18 3d 6a 3d 4d 68 3a bb 9c 38 c9 3c 2d f7 2b 3c
       0.05718717 -0.0028443516 0.024563126 0.010495943
000360 83 9c 1b 3d b1 c5 3d 3d 34 61 48 bd c9 01 4a 3c
       0.037991058 0.04633111 -0.048920825 0.012329527
000370 43 d9 ba bc ec 40 50 bd 37 6e 9a 3d b4 b0 5a 3d
       -0.022808677 -0.050843164 0.07540553 0.053391173
000380 49 da 31 3d 24 36 92 bd e0 f5 30 3c ed 5c d3 bc
       0.043421064 -0.07139233 0.010800809 -0.025801146
000390 a9 59 5d bd 09 cc c6 bc 2c 12 4a bd 88 f0 76 bd
       -0.054040585 -0.024267213 -0.049333736 -0.060287982
0003a0 c9 f8 8d bd 0a b0 82 3d a6 51 30 bc 5a 92 64 3d
       -0.06932218 0.06381233 -0.010761654 0.055803634
0003b0 ca d8 ce 3c 72 12 e5 3c f1 fd 61 3d bb 0d 0c 3b
       0.025249857 0.027962897 0.055173818 0.0021370489
0003c0 c5 19 e6 3c 7d 27 e5 3c ef 4c 69 3c 01 11 f1 bc
       0.02808846 0.027972931 0.014239534 -0.029427053
0003d0 1e 76 84 3b c6 ff 1b bd db 85 88 bb 9a e2 6b bc
       0.004042401 -0.03808572 -0.0041663474 -0.014397288
0003e0 ea 1f 46 3c 61 de 80 bd 9f 72 99 3c 14 db 11 bd
       0.01209257 -0.062924154 0.018731413 -0.03560932
0003f0 e4 db b0 3c 3c 5c 16 3d e8 d1 de 3d bd 77 92 3d
       0.021589227 0.036709055 0.1087988 0.071517445

fc1.bias f4 [120]
000000 4a 63 22 3d eb b5 4d 3d 2c b0 1c 3d 16 aa 22 3b
       0.03964547 0.05022232 0.038253948 0.0024820617
000010 73 97 65 bd 27 c5 27 3d 56 1b 7f 3d 1b cb 2b bc
       -0.056052636 0.040959504 0.06228193 -0.010485436
000020 e7 78 3f 3d 6d 22 ca 3c 3d 70 86 3d e4 a7 74 3c
       0.04674616 0.024674619 0.065643765 0.014932606
000030 d5 c2 95 bb 4e 8d c4 bb 35 3d 3e 3d a7 fb 8b bd
       -0.004570345 -0.00599829 0.04644509 -0.06835108
000040 44 a0 10 bc 99 85 0b bd 43 4f ed bc 21 55 0c bc
       -0.008827273 -0.034062956 -0.028968459 -0.008565218
000050 d6 54 1f 3d ca 3f 49 3c a9 f9 04 bd ae eb c2 3c
       0.038899265 0.012283275 -0.032464657 0.023794021
000060 a2 a5 bd 3b 46 88 4e bd 53 e8 36 3d 7f 07 ff 3b
       0.0057875672 -0.05042293 0.044655155 0.007782876
000070 82 10 56 3d cd 0b e0 bc f4 85 31 bc 50 4e 99 bc
       0.052261837 -0.027349377 -0.01083516 -0.0187141
000080 29 3a 6a bd 1c 1d 43 bd 67 6b 64 bc 37 e1 0f bd
       -0.057184372 -0.047635183 -0.013941622 -0.03512689
000090 6f ee 73 bd a3 de 62 bd 5a 44 3f 3d f5 16 11 3d
       -0.05955356 -0.055388104 0.046696045 0.035422284
0000a0 01 7b 58 3c d8 06 85 3d f0 9d 9f bc db 6f 61 bd
       0.01321292 0.06495446 -0.01948449 -0.055038314
0000b0 3c 4c ac 3d f2 bf 6f bd 10 4a 47 bd fe 0d 8c 3c
       0.08412978 -0.058532663 -0.048654616 0.017096516
0000c0 dd bf 0e 3c 81 6f 25 3d 2d 7c ee bc 17 06 da 3c
       0.008712736 0.04038954 -0.029111946 0.026614232
0000d0 29 f7 4e bd 1e 20 0f 3d ac 44 40 bd 07 27 61 bd
       -0.05052868 0.03494274 -0.04694049 -0.05496886
0000e0 be 2a 05 3d 85 f8 91 3d a7 42 3a 3d 61 b8 1a bd
       0.032511465 0.071274795 0.04547372 -0.037773494
0000f0 17 c2 24 3c 25 b5 bc bc a4 d5 9c 3d 6b 4c df bc
       0.01005604 -0.023035595 0.07657936 -0.027258119
000100 2c 4d 55 bd 9d ea 19 3d ac f0 fa 3a 61 57 51 bd
       -0.05207555 0.03757726 0.0019145212 -0.05110872
000110 98 82 b2 3a 1f 79 75 bd e4 0f 5f 3d 24 eb 99 3c
       0.0013619242 -0.059929963 0.054458514 0.018788882
000120 29 18 49 3b 7f a8 dd 3a 4f 91 16 3d 01 e8 92 bd
       0.0030684567 0.0016911178 0.03675967 -0.071731575
000130 6b 4b be bc 89 ba 86 3a 38 65 2e 3d bc 14 1e bd
       -0.023229321 0.001027898 0.042577 -0.038593993
000140 eb c9 53 bd 3a 2d 69 bd e2 c5 1b 3d a7 73 4a bd
       -0.051706236 -0.056927897 0.038030513 -0.0494267
000150 43 88 c0 3c 69 7d 37 3d d9 55 43 3c a3 f6 40 bd
       0.023502475 0.044797335 0.011922323 -0.04711021
000160 86 37 2d bb ed 8c 18 bb 33 e7 13 3d 56 f8 3d 3d
       -0.00264308 -0.0023277358 0.03610916 0.04637941
000170 64 dd b1 3c c5 cc 02 bd ed c1 c0 bc d4 ba cd bb
       0.021712013 -0.031933565 -0.023529971 -0.006278375
000180 4d 1f 7b 3c 80 b8 4c 3c 95 69 2a 3d e9 ee 64 bd
       0.015327287 0.01249516 0.041604597 -0.055891905
000190 ff 18 49 bd a8 ff ec bb 70 5a 56 3c 57 ec ca 3c
       -0.049096104 -0.007232625 0.013083085 0.024770899
0001a0 84 c7 3e bd ec 95 fb bc 7e b3 83 3d d8 98 84 bc
       -0.04657699 -0.030711137 0.0643072 -0.016186163
0001b0 56 13 0f ba c1 d8 ce bb c0 f1 21 bd 59 e9 1f bd
       -0.00054578984 -0.00631246 -0.03953719 -0.039040897
0001c0 59 8d 2c bd f0 aa 3f 3c 09 5a 9f 3d f3 b8 18 3d
       -0.042126987 0.0116984695 0.07780845 0.037285756
0001d0 bc 42 14 3d fb d1 1e 3d d7 73 1c 3c 49 b2 57 bd
       0.036196455 0.03877447 0.009549103 -0.05266026

fc2.weight f4 [84, 120]
000000 9c 6e 6d bd 6f 94 71 bd 25 d5 01 bd e9 aa 6d bd
       -0.057966813 -0.058979448 -0.03169741 -0.05802432
000010 f3 5a 28 bc 65 04 c5 3c 56 25 f3 bb e1 4a ab bd
       -0.01027559 0.024049947 -0.0074202223 -0.083638914
000020 33 44 1a bd f6 d0 d7 3d 27 35 37 3d c2 ea 5b bd
       -0.037662696 0.10537903 0.044728424 -0.05369068
000030 d6 f4 56 bc a3 a0 b5 3d 23 a7 64 3c 69 9d 51 bd
       -0.013119897 0.0886853 0.013955864 -0.05117551
000040 a4 3c 4a bd 03 6b 8a bc f3 36 46 3d 24 23 4a 3d
       -0.049374238 -0.01689673 0.048392247 0.04934992
000050 6c a8 38 bd 1a 9c 99 bd 59 ab 4e 3d 74 da 9a bb
       -0.045082495 -0.07500477 0.05045638 -0.0047257487
000060 28 0c a9 3d 45 12 11 bd b5 e1 ea bd 23 ea cb 3c
       0.08254272 -0.035417814 -0.114688314 0.024891919
000070 34 7d d3 3b 3a 75 c5 3d a3 ba 57 3d ba c9 79 bc
       0.0064541344 0.096415 0.052668225 -0.015245849
000080 7e a0 a0 bd 8a f0 f2 bc c9 f4 cd bd a4 db 6e 3c
       -0.078431115 -0.029655714 -0.10056455 0.014578734
000090 61 ca 5c 3d 48 e5 fe bc 19 df 8f 3c db 2e 08 bc
       0.05390394 -0.03111519 0.017562436 -0.008311952
0000a0 6e 0a 30 3d 17 26 4f 3d 96 5b c0 bd 4b fe 55 bd
       0.042978697 0.050573435 -0.09392469 -0.052244466
0000b0 34 d9 b5 bb 57 d0 6c 3d 85 33 b3 bc 3f 71 95 bd
       -0.0055495743 0.057815876 -0.021875152 -0.072969906
0000c0 e6 4f 19 3d ab f2 55 bc f8 a0 30 3c 83 2b 03 3d
       0.037429713 -0.013058345 0.010780565 0.032023918
0000d0 1a 2e be 3d 1e 24 1a 3d 31 4a 3f 3c 5e f5 aa 3d
       0.09286137 0.0376321 0.011675403 0.08347581
0000e0 72 b9 fc bc e9 8f de bc ab 78 b4 bb 63 82 87 bd
       -0.030850146 -0.027168231 -0.005507549 -0.06616666
0000f0 40 e5 88 3d 93 77 c7 3d 54 96 94 3d 7d 2b 0c bd
       0.06684351 0.09739604 0.07255235 -0.03422116
000100 6b 42 90 bd 45 9e 57 bc 19 98 cc 3c 10 f2 5b bd
       -0.07043918 -0.013160293 0.02497487 -0.053697646
000110 66 01 2d bb ee df b6 bc d2 50 71 bd 57 62 79 3d
       -0.0026398539 -0.022323575 -0.058914967 0.0608848
000120 80 98 30 3d 22 4e 22 bc 21 07 06 3c f6 c3 8f bd
       0.043114185 -0.009906324 0.008180411 -0.070197985
000130 3a b5 64 bd ef b0 88 3d ab 88 03 3d df 82 93 3d
       -0.055836894 0.066743724 0.03211276 0.07202696
000140 2a 8d 29 3c 1b 2a 62 bc 99 54 14 bd 5f 05 a2 3c
       0.010348598 -0.013803984 -0.03621349 0.019777952
000150 fe 6c b5 bd 40 e3 dc bd 97 1b 7b 3d bd b6 69 bb
       -0.08858679 -0.10785532 0.06130561 -0.00356619
000160 2e 46 b5 3d ed 9a 10 bd 55 cf 5b bc 6d fd 95 3b
       0.08851276 -0.035304 -0.013416131 0.00457733
000170 2f da 0e 3d 07 e2 41 bd 14 70 c5 bc 7f 30 65 3d
       0.034876045 -0.047334697 -0.024101295 0.055954453
000180 76 ce 43 3d 73 ca 1a bd d0 3f 51 3c a3 13 b2 bb
       0.04780432 -0.037790727 0.012771562 -0.00543447
000190 8a 3f ed bc 62 a9 83 3b a5 96 94 3d 6b 6f 8e bd
       -0.028960962 0.0040179947 0.07255296 -0.06954845
0001a0 9c 55 b9 bd 28 df b1 bd f8 34 3c 3c c6 8b 85 3d
       -0.09049532 -0.08685142 0.011487238 0.065208
0001b0 7e 3c 74 bd df 67 25 3d 6a 31 0c bc 2c 35 5e bd
       -0.059628002 0.040382262 -0.008556703 -0.054249927
0001c0 dc 4b d1 bc 60 fe 7c 3d 26 05 59 bd eb f6 d0 bc
       -0.025548868 0.06176603 -0.052983426 -0.025508365
0001d0 40 97 1a 3c 1d ec 68 3d 8f 2f 4e 3c f6 60 1b bd
       0.009435475 0.0568658 0.012584581 -0.037934266
0001e0 53 26 2f 3c cc 6c b4 bd d2 f6 1b 3d 88 94 b3 bd
       0.01069029 -0.08809814 0.038077183 -0.087685645
0001f0 6a da 32 3d 78 cf 13 bd b1 f1 b5 bc 64 9b 9b bd
       0.043665327 -0.03608653 -0.022209974 -0.07597998
000200 b1 44 8a bd 09 ce 10 3d 65 ad a2 3d 3e 2e f7 bc
       -0.06751383 0.03535274 0.07943229 -0.030173417
000210 83 bb a7 3d 16 86 52 bb 92 4d 72 bd c8 f6 e9 3b
       0.08190062 -0.0032123378 -0.059156008 0.0071400143
000220 b0 4b 6e bd dd fd 66 3d 4f 0c 1f 3d c9 40 1b bd
       -0.05817765 0.056394447 0.038830098 -0.03790358
000230 fb fd 3e 3d 22 0b 1f bc 9b aa ab bd f7 e9 37 3c
       0.046628933 -0.009707244 -0.0838215 0.011225215
000240 ca 02 43 bc ed b6 90 bd 3b b7 40 3c 66 30 8f 3d
       -0.01190252 -0.0706614 0.011762436 0.06991653
000250 7a ec 58 bc 0c ca a6 bd 4a 58 9b bd 35 d2 50 bd
       -0.013239974 -0.08144006 -0.07585199 -0.05098172
000260 4d fd 55 3d 2d 9f 06 bb 20 0f 16 3b f6 a5 de bc
       0.05224352 -0.0020541654 0.0022897199 -0.027178746
000270 e6 e4 f8 3b 3f 59 96 3c 7f 59 70 bc d8 c9 91 bd
       0.007595646 0.018353103 -0.014669775 -0.07118577
000280 37 94 9a 3d 7e 25 6e bd a7 00 85 bd d6 06 79 bb
       0.07547801 -0.058141224 -0.06494265 -0.003799846
000290 42 da c5 bc da ac 6a 3c ef 2a 84 bd f6 57 0d bd
       -0.024151925 0.014323438 -0.064535014 -0.034507714
0002a0 31 22 87 3c 34 4e 2e bd ca 0a 3e 3d 52 ca 61 3c
       0.016495796 -0.04255505 0.046397008 0.013781147
0002b0 17 a3 d9 bc 36 22 ba 3b 9f 50 9e bc 71 7e b5 3d
       -0.026567025 0.005680348 -0.019325553 0.088620074
0002c0 b9 a9 39 bc 8c 7f 18 3c 9e dc b4 3d 41 a5 fb bb
       -0.011331969 0.009307753 0.08831142 -0.007679612
0002d0 e3 b3 82 3c 6e 5e ca bc a8 a3 8c bd f8 7d b2 3d
       0.015954917 -0.02470323 -0.068671525 0.08715433
0002e0 f5 f8 97 bd 84 71 a8 bd ea 52 99 3d 4a 11 64 bd
       -0.07420532 -0.082247764 0.07486518 -0.05568055
0002f0 db e5 98 bd e9 96 a4 3d 1a 40 49 3d d7 a6 9d 3d
       -0.074657165 0.08036596 0.049133398 0.07697838
000300 50 b9 e2 bc bd 1f b4 3d f7 71 2b 3d ab d8 ba 3c
       -0.027676255 0.08795116 0.041856732 0.022808393
000310 6e b9 44 3d 3b 16 14 3d 10 79 68 3c 01 3c fa 3c
       0.048028402 0.036154013 0.01418902 0.03054619
000320 23 c7 6c bd 38 44 3a 3c c1 1b dc 3c 0a 93 dc 3c
       -0.0578071 0.011368804 0.026868703 0.026925582
000330 22 27 a3 bc 99 cf 4e bd 15 36 51 bd cf 8b 86 bd
       -0.01991612 -0.05049095 -0.051076967 -0.06569635
000340 e4 f2 ac bd bc 46 a8 3c 85 63 d3 3c 71 7d 48 bb
       -0.08444765 0.020541541 0.02580429 -0.0030592347
000350 0a ce 78 bd 3d 11 64 3d ec 56 86 bc 95 25 31 3b
       -0.06074337 0.055680502 -0.01639887 0.0027030457
000360 6b f6 89 bc 57 1e c1 3c 00 78 0d bc 0a 78 a5 bb
       -0.016841134 0.023574037 -0.008634567 -0.00504971
000370 37 a7 ac bc 31 c1 18 3c 1b c2 b1 bd 8d 64 6b 3d
       -0.021075828 0.009323404 -0.08679601 0.05746894
000380 6d ae 2d 3a 9a 91 70 bd bd d4 53 bc d0 c6 c3 bc
       0.0006625418 -0.058732606 -0.012929139 -0.023898512
000390 49 9d 58 bc be 89 44 bd c5 32 68 bd da 23 88 bd
       -0.013221093 -0.047982924 -0.056689043 -0.06647463
0003a0 2a c5 8b bd 07 2c 10 3d 40 7f b8 bd b6 5c 9c bd
       -0.068247154 0.035198238 -0.09008646 -0.07634871
0003b0 50 cb 6d 3d 23 09 6f 3d 4f 79 82 3d 1e e3 64 bc
       0.058055222 0.058358323 0.06370794 -0.013970165
0003c0 68 de 03 3c 43 6e b1 3d ee 3f 43 bd cb eb 8a 3d
       0.008048631 0.08663609 -0.04766839 0.06783255
0003d0 f0 1a a6 bd 1e a5 a3 bd 6e 39 27 bd 4e 1e c3 3c
       -0.08110607 -0.07990478 -0.040826254 0.023818161
0003e0 0e 2c c8 3d 20 4c b2 3d 6a 95 82 bd 6f 48 90 3d
       0.09774028 0.08705926 -0.06376155 0.070450656
0003f0 81 ee ad 3c 41 9b f5 3c 23 7a 85 bd 76 1d a6 3d
       0.021231892 0.029981257 -0.06517436 0.08111088

fc2.bias f4 [84]
000000 4b 63 61 bc 59 fd d6 bc 83 9f 44 bd 0f ed a4 3d
       -0.013756583 -0.026243852 -0.048003685 0.08053028
000010 e4 92 94 3d 82 6d f6 bc 52 5d 50 3d 78 06 9f bc
       0.0725458 -0.030081514 0.050870247 -0.019412264
000020 5f 2a 5c 3d c4 2d 29 bc 9d 69 9d 3d b4 54 f0 3d
       0.053751346 -0.010325853 0.0768616 0.11734906
000030 5c 81 b3 bd 96 fa 7d 3d 77 59 76 3b 4a 31 f4 3c
       -0.08764908 0.062006555 0.0037589946 0.02980866
000040 78 92 69 bd 08 51 25 bd 7d f3 34 bd 53 6b 8b 3d
       -0.05702445 -0.04036048 -0.04417752 0.0680758
000050 91 64 aa bd d1 3e b0 bd 61 2d 9e 3c 60 9d 84 bd
       -0.08319963 -0.08605731 0.019308748 -0.064753294
000060 54 de 73 bd db aa a8 bd a5 7d 0d 3e 71 e6 49 bd
       -0.0595382 -0.08235713 0.13817461 -0.04929203
000070 32 3e 7b 3d 2e b7 f0 3c 95 49 85 3d 2e 71 a8 3d
       0.06133861 0.029384222 0.06508175 0.08224712
000080 64 6e 80 3d 95 97 33 bd aa 23 d2 3d 5b 15 60 3d
       0.06271055 -0.04384573 0.10260709 0.054707866
000090 fe 6b f1 3c 2d d4 e6 3a a9 34 76 bd 4e c0 2c 3d
       0.02947044 0.0017610841 -0.060108814 0.042175584
0000a0 96 70 ac 3d 73 9d ec bb 01 97 b8 3d 41 b6 7e bd
       0.084199116 -0.007220918 0.09013177 -0.06218553
0000b0 fe 27 72 bc 03 f1 a5 bd 09 32 a1 3d 1a c5 ef 3c
       -0.014780043 -0.0810261 0.078708716 0.02926879
0000c0 2a da c0 3d 0f a7 35 bd 6d 8f a4 3b e8 0d 95 bc
       0.094166115 -0.044348773 0.0050219805 -0.018195108
0000d0 80 ac e2 3d 43 59 7c 3d 08 d8 1d 3d 0f bb 7c 3d
       0.11068058 0.061608564 0.0385361 0.06170183
0000e0 75 ef f4 3d 59 7c a4 bd 54 f0 b1 3c d9 55 fd bc
       0.11959735 -0.0803153 0.021721043 -0.030924724
0000f0 18 f9 93 bd 09 3b d0 3d 19 3a c9 3d 6e 20 c8 3d
       -0.07225245 0.1016751 0.098255344 0.097718105
000100 35 7a 22 3e 71 94 15 bd cb b9 c5 3b ee a8 56 3d
       0.15866931 -0.036518518 0.006034111 0.052407198
000110 5e bf bc 3d b5 b1 d8 3d 02 65 a4 bd 8e 88 f1 3b
       0.09216188 0.1058077 -0.08027078 0.007371015
000120 ce 65 32 bd 37 41 48 3d 71 a3 ea 3b 91 6f f4 3c
       -0.04355412 0.04889032 0.007160597 0.029838355
000130 82 3c 12 bd d5 56 23 bd cf 36 58 bd 96 3d 2a bd
       -0.035702236 -0.03987773 -0.052786645 -0.04156264
000140 ba 6c 5b 3d b4 be 8a 3d 45 66 bd bb ed ec 0c 3d
       0.053570487 0.06774655 -0.0057800137 0.034405638

fc3.weight f4 [10, 84]
000000 64 1e d1 bd ff c0 84 3c f7 39 0d bd 91 89 19 be
       -0.10210875 0.016205309 -0.034479108 -0.14993884
000010 f4 d3 0d 3e e7 93 ba bd d5 cf c9 bd a8 0c 5a bd
       0.13850385 -0.091102414 -0.09854094 -0.053234726
000020 bb 51 cc bd 91 eb 07 be 44 24 4a 3d 85 1a 40 3e
       -0.09976526 -0.13273455 0.04935099 0.18760116
000030 b1 b1 ec 3d 0e 7f 34 3c 56 f4 98 bd 4d cb 0c be
       0.115573294 0.01101662 -0.074684784 -0.13749428
000040 3e 52 35 bd 6f a9 da bd 13 e2 c5 bd 3a 53 b4 3d
       -0.044267885 -0.10676848 -0.09662261 0.08804937
000050 fd 75 23 bb 49 95 61 bd cf 7b af 3d 9f 01 64 bd
       -0.0024942153 -0.05507401 0.085685365 -0.05566561
000060 f7 ec 06 bd c8 c9 81 3d b9 be 23 be a2 58 2c 3d
       -0.03294083 0.06337315 -0.15990724 0.042076714
000070 8e 2f e5 bd 34 d7 11 bc 40 10 e5 bd fd 63 ad bc
       -0.11190711 -0.008901406 -0.1118474 -0.021165842
000080 79 da 56 be 65 93 93 bd 73 23 40 3e 08 40 40 3d
       -0.20981778 -0.07205848 0.18763523 0.046936065
000090 21 23 0d 3e 94 1a a2 3c da 36 f6 bd 44 c4 ec bd
       0.13782932 0.019788064 -0.12022181 -0.11560872
0000a0 bb c1 ca bd d3 1a 25 bd 51 ba 6d be e5 63 b4 bd
       -0.099002324 -0.040308785 -0.23215605 -0.08808116
0000b0 a9 11 d7 bd 58 12 dd bc 07 d4 48 be 6e da 33 3e
       -0.10501415 -0.026986286 -0.19612132 0.17563793
0000c0 3f 9a 8e bc bc 9f 36 3d 11 47 ae bd 04 cc eb 3a
       -0.017407535 0.04458593 -0.085096486 0.0017989879
0000d0 80 7e ff ba 2b 6c 19 be ff 93 34 3e 4a 4e 66 bd
       -0.0019492656 -0.14982669 0.17634581 -0.056227006
0000e0 88 7e d8 3c 56 04 d6 bd d9 95 b0 3d 21 27 ac bd
       0.026427522 -0.10450046 0.08622331 -0.08405901
0000f0 08 c7 c2 bd 6e 86 f8 3d 94 83 4b be bd 06 4a bc
       -0.095106184 0.121350154 -0.19874412 -0.012330708
000100 ae 60 98 bd f0 0d be bd 24 42 06 3e c7 a0 de 3d
       -0.07440315 -0.09280002 0.13111168 0.108705096
000110 48 a2 39 3d b0 4d 05 3e 3e 2d 1c 3d 0d c9 96 3d
       0.04532078 0.13017917 0.038129084 0.07362566
000120 fa dc b0 3d f0 e5 dd bd 71 30 bd bd a8 ba 1f be
       0.08635898 -0.10834873 -0.09237755 -0.15598547
000130 22 d3 4e 3e 65 d5 47 bc 56 2a 21 3d 51 0a e0 bc
       0.20197728 -0.012196873 0.039347015 -0.02734867
000140 ce 60 a2 bd 05 3b 13 3e 9a 67 d0 3d a1 df 09 bd
       -0.0792862 0.14377983 0.101760104 -0.033660535
000150 aa ea 89 bd d0 55 88 3d 00 0d 24 3d 01 6e 73 bc
       -0.06734212 0.066569924 0.04005146 -0.01485777
000160 92 fe 9a 3d ce 34 19 bd 45 b5 aa bd 5b a4 66 3d
       0.07568087 -0.037403874 -0.08335356 0.056309085
000170 af 99 62 be 6f 1c 0c be f0 77 b9 3d c1 0f ba 3d
       -0.22128938 -0.13682722 0.090560794 0.09085036
000180 80 01 c8 bc e1 e8 07 3e e3 92 af bc 87 77 90 bd
       -0.024414778 0.1327243 -0.021432346 -0.07054048
000190 5d 08 69 bd cf 55 df bd 99 6e 9d 3c 38 31 e7 bd
       -0.05689274 -0.109050386 0.019217776 -0.112886846
0001a0 10 8a d8 3c 3d 88 50 bd 2c 5a 56 3d da ce 87 bb
       0.02643302 -0.050911177 0.05233209 -0.0041445317
0001b0 ea a6 cd 3d 4e ff c6 3d 83 87 59 3d 48 db 20 3d
       0.10041602 0.09716664 0.05310775 0.039271623
0001c0 a9 0f 0e bd 76 84 54 bd 4d 86 fb bd 85 27 e0 bd
       -0.034682903 -0.051884137 -0.12281475 -0.10945038
0001d0 fb ea 5e 3e fe a9 db 3d 5c 3a 6b be bc 0d 01 3e
       0.21769325 0.10725783 -0.22971481 0.12602895
0001e0 fd 0e a2 bd ba 73 d5 bd 27 d6 87 bd c6 ee e6 3d
       -0.07913015 -0.10422464 -0.06632643 0.11276011
0001f0 57 bc ad 3d 29 fb c0 3c 76 17 71 3d a6 49 79 bd
       0.084831886 0.023557262 0.058860265 -0.060861252
000200 85 3f e5 bd 39 29 1e be af f9 2c 3e e7 48 74 bd
       -0.11193756 -0.15445413 0.16892122 -0.059639838
000210 e7 de 35 3e a9 79 3c 3d e0 a8 18 3e e0 f5 e4 3d
       0.17760812 0.04601446 0.1490817 0.111797094
000220 79 4d 36 3e 89 38 f3 3c e2 28 27 be 47 56 8f bc
       0.17802991 0.029690044 -0.1632419 -0.017497195
000230 70 8d 0d 3e 20 ac ce 3d ae ca f8 3d 98 a1 41 be
       0.13823485 0.10091424 0.12148033 -0.189093
000240 9a 62 84 bd 5a 94 79 3d b8 25 05 3e 95 54 3b 3e
       -0.06464119 0.060932495 0.1300267 0.18293984
000250 84 5a 8a 3e b3 a5 00 be af 30 03 bd e0 e8 21 3c
       0.27022183 -0.12563209 -0.03202885 0.009882182
000260 ca f3 43 3e 23 e4 26 bc 90 56 05 bd 5b b8 a0 bd
       0.19135967 -0.010186228 -0.032553256 -0.07847663
000270 be 7f 00 be c4 6a 88 bd 3c 6c df 3d e0 0d 3e bd
       -0.1254873 -0.06660989 0.10909316 -0.04639995
000280 20 eb 58 be 26 e4 cf bd fc 83 d9 bd ed 55 75 be
       -0.21183443 -0.10150938 -0.10620877 -0.2395856
000290 4f 63 20 be 4d fc c5 3d 3e 99 ad bc bd 95 5a bd
       -0.15662883 0.09667263 -0.021191236 -0.053365458
0002a0 ea c0 f4 bc f5 f9 bc bd f3 a9 30 bd 1d 8a 39 bd
       -0.029877145 -0.09227363 -0.043130826 -0.04529773
0002b0 b4 6f 32 3e a3 5f da 3d 9b 9d f1 3a 7e f8 dc 3d
       0.17425424 0.106627725 0.0018433811 0.107895836
0002c0 ad 85 49 be c0 04 e3 3d 45 82 11 3d 5b 39 15 3e
       -0.196799 0.1108489 0.035524625 0.1457266
0002d0 8c 23 4f bd 58 f1 34 be 77 49 c3 3d a1 ce 00 3e
       -0.05057101 -0.1767019 0.09535497 0.12578823
0002e0 6c 08 e1 3d db 23 ec 3d f5 35 91 3d 8a 26 2b be
       0.109879345 0.115302764 0.070903696 -0.1671392
0002f0 8c 5f a0 bc 6e 97 f3 3d 63 ad 32 3b 10 7b 61 3d
       -0.01957681 0.11894117 0.002726399 0.055049002
000300 47 63 0e 3d ac 22 c2 3d 1d c2 24 be 7d 1b e8 bc
       0.034762647 0.094792694 -0.16089673 -0.02833342
000310 a8 2f ee bd 03 f8 9e bd 72 8d 16 be 45 52 83 3b
       -0.116301835 -0.07762148 -0.14702395 0.00400761
000320 2a 80 6e 3e ba 26 f2 bc 5c 00 56 3e bb 7b 3a be
       0.23291078 -0.029559482 0.20898575 -0.18211262
000330 6c 78 b9 bd ab 36 99 3c cc da 71 bc bb 89 08 bd
       -0.09056172 0.018702826 -0.014761638 -0.033334475
000340 82 31 a2 bb 8f 1b 38 bd 43 98 89 3d e1 a4 38 3c
       -0.0049497494 -0.044948157 0.06718495 0.011269779
000350 01 ca 85 bd e5 ce e4 bc dc 4f ee 3d eb 90 e2 bd
       -0.0653267 -0.027930686 0.11636326 -0.11062797
000360 cc 87 95 3c d8 dd 17 bd 46 e4 b8 3c 3b 46 db 3d
       0.01825323 -0.0370768 0.022569787 0.10706755
000370 68 b2 15 be b0 d8 b7 bb 15 7d 0e 3c 81 7d 96 bd
       -0.14618838 -0.005610548 0.008696814 -0.07348157
000380 78 e6 32 be be 45 82 bd f9 ca 6f 3e 90 55 76 3e
       -0.1747073 -0.063609585 0.23417272 0.24056077
000390 6a d2 23 bd 7e 2c 53 be 67 55 23 be c6 b6 1a 3d
       -0.03999559 -0.20622441 -0.15950547 0.037771963
0003a0 5e 29 2c bd 04 05 d8 3d 5f 52 c5 bd a9 2c 52 be
       -0.04203164 0.10547832 -0.09634852 -0.20524849
0003b0 b3 08 93 3a 26 a2 a5 bd 3e a9 bb 3c 4a 77 83 bd
       0.0011217803 -0.08087568 0.02290785 -0.06419237
0003c0 23 cb a5 3d 64 5a 82 3d 96 d5 98 bd 30 69 31 3d
       0.08095386 0.06364897 -0.07462613 0.043313205
0003d0 a1 11 06 bc 4a 70 a5 3c 2a eb e4 bb d9 23 28 3e
       -0.008182914 0.020195145 -0.0069860416 0.16419925
0003e0 24 74 4c be 09 05 8f 3d 8d 3a 82 3d a7 eb f4 3c
       -0.19966179 0.06983382 0.06358824 0.029897524
0003f0 18 ec 41 bd 54 17 8d 3d 19 26 f7 3c 47 2f 02 3e
       -0.047344297 0.06889215 0.030169534 0.12713347

fc3.bias f4 [10]
000000 c6 81 80 3d a1 c8 29 3e e8 72 88 bc 4e 0e a4 3d
       0.06274752 0.1658044 -0.016656354 0.08010541
000010 fe ef 88 3d 3d 91 f5 bd ba 36 d8 bc 1d 7e 76 3d
       0.066864 -0.11990593 -0.026393283 0.060178865
000020 49 c3 63 bd f4 94 c2 bc
       -0.05560616 -0.023752667
