lab02-models/hip-2-model.pth (torch, 181175 bytes, 10 tensors)

conv_block1.0.weight f4 [6, 1, 5, 5]
0	0x3e87d275	0.26527753
1	0x3e4ea294	0.20179206
2	0xbe1bef0b	-0.15227906
3	0xbdd144de	-0.102182135
4	0xba2ab7b6	-0.00065123604
5	0x3ea82835	0.32843176
6	0x3c3ad7e8	0.011404015
7	0xbdf74514	-0.120737225
8	0xbdfa766a	-0.12229617
9	0xbdd91f25	-0.106016435
10	0x3e955b9e	0.2917146
11	0x3e1c94b6	0.15291104
12	0xbd99102c	-0.07473788
13	0xbe68dcdd	-0.22740503
14	0xbe0846df	-0.13308285
15	0x3e3c618f	0.1839659
16	0xbde0e589	-0.1098128
17	0xbd9df0a2	-0.07711913
18	0xbd0f22bf	-0.034945246
19	0xbd99a661	-0.075024374
20	0x3e86aad1	0.26302198
21	0x3e18339d	0.14863439
22	0x3c020f7a	0.00793826
23	0xbe099262	-0.13434747
24	0x3d018e7f	0.031630035
25	0xbdc1a1e9	-0.0945471
26	0xbdae0a27	-0.0849803
27	0x3c1c0a33	0.009523916
28	0x3e36f557	0.17867027
29	0x3e95a4ff	0.29227445
30	0xbd6d0ac1	-0.057871584
31	0xbdab9958	-0.083788574
32	0x3d881ae4	0.06645754
33	0xbb8b4e8f	-0.0042513083
34	0x3e6a374f	0.22872661
35	0xbe4ef029	-0.20208801
36	0xbdc83d8e	-0.097773656
37	0xbde9a4a4	-0.11408356
38	0x3dc0f6f8	0.094221056
39	0x3e834637	0.25639507
40	0x3d750fd5	0.05982955
41	0x3b2285b1	0.0024798925
42	0xbe32c9a8	-0.17459738
43	0x3e5fd0df	0.21857022
44	0x3e4c8c12	0.19975308
45	0xbe06d378	-0.13166606
46	0xbe08d8cc	-0.13363951
47	0x3de8b0f2	0.11361875
48	0x3e22319a	0.15839234
49	0x3e958ff1	0.2921138
50	0xbc086820	-0.008325607
51	0x3e369809	0.17831434
52	0x3e93120b	0.28724703
53	0x3ec893f1	0.3917537
54	0x3d45655e	0.048192374
55	0x3dba3138	0.09091419
56	0xbe456a30	-0.19278789
57	0x3e697df8	0.2280196
58	0x3ec19324	0.37807572
59	0x3e7777b7	0.24166761
60	0xbd359075	-0.044327218
61	0xbe99370e	-0.29924816
62	0xbede9f05	-0.43480697
63	0xbdf9e63d	-0.122021176
64	0x3ebf25e0	0.37333584
65	0xbdf4d0de	-0.11953901
66	0xbcafec03	-0.021474844
67	0xbe922e6f	-0.2855105
68	0xbde9291d	-0.11384795
69	0xbd1f6a7a	-0.038919903
70	0x3c95fe0b	0.018309614
71	0x3d2a78b6	0.041619025
72	0xbe444517	-0.1916698
73	0xbe98bd16	-0.2983176
74	0x3d60775a	0.054801323
75	0x3cad774e	0.021175053
76	0xbdafe665	-0.08588866
77	0xbde36f7b	-0.111052476
78	0xbe1e714c	-0.15472907
79	0x3cc18eb7	0.023627622
80	0x3d326516	0.043553434
81	0x3d0d524e	0.03450232
82	0xbe459981	-0.19296838
83	0xbe2e49b1	-0.17020299
84	0xbce7c5a9	-0.028292494
85	0xbd828203	-0.06372454
86	0xbe2bb006	-0.16766366
87	0xbdf97f56	-0.121824905
88	0xbe10cdc3	-0.14140992
89	0x3dd5e153	0.10443368
90	0xbbf6a04b	-0.0075264326
91	0xbe512643	-0.20424752
92	0xbd93c7b4	-0.07215825
93	0x3d80b809	0.06285102
94	0x3e9da746	0.30791682
95	0x3e100ae2	0.14066651
96	0xbd61b2e0	-0.05510223
97	0x3e88fe52	0.2675653
98	0x3ee84782	0.45367056
99	0x3e894c21	0.26815894
100	0xbe2aa18c	-0.16663188
101	0x3e40fcbd	0.18846412
102	0xbd6833f2	-0.056690164
103	0xbe144f0e	-0.14483282
104	0x3d86390d	0.0655385
105	0x3e1010d6	0.14068922
106	0xbd9c4972	-0.07631196
107	0xbec7bf26	-0.39013022
108	0xbed73647	-0.42033598
109	0xbec33beb	-0.3813165
110	0x3e10e9be	0.14151666
111	0x3d3ac964	0.045602217
112	0xbec81b80	-0.3908348
113	0xbd43d45c	-0.047809944
114	0xbe230200	-0.15918732
115	0x3df9008e	0.12158309
116	0x3e8e62f2	0.27809864
117	0x3f03096c	0.5118625
118	0x3ee5ff78	0.4492147
119	0x3c99b713	0.018764054
120	0x3c9f8d70	0.019476622
121	0x3e3ec2cc	0.18628997
122	0x3dba69d9	0.0910222
123	0x3e4f4a6e	0.20243236
124	0x3e6c3595	0.23067315
125	0xbc91c49f	-0.017793952
126	0xbe66c639	-0.22536553
127	0xbe6c4aa5	-0.2307535
128	0x3eb0a40a	0.34500152
129	0x3eb0f9c1	0.34565547
130	0xbe93c2ea	-0.28859645
131	0x3ca17049	0.019706862
132	0x3e8c095e	0.27350897
133	0x3ecd6b04	0.4012071
134	0xbe3caaeb	-0.18424575
135	0xbda8a3b7	-0.08234351
136	0x3eabddeb	0.33567747
137	0x3ed89bd0	0.42306376
138	0x3db36efe	0.087614045
139	0xbede6697	-0.43437645
140	0x3c8ea82b	0.017414173
141	0x3e472408	0.19447339
142	0x3e5840e0	0.21118498
143	0xbec257dc	-0.37957656
144	0xbea20ebe	-0.31651872
145	0x3ce92569	0.028460221
146	0x3c720a41	0.0147729525
147	0x3def4c7a	0.116845086
148	0x3dae93f7	0.08524316
149	0xbe2057e7	-0.15658532

conv_block1.0.bias f4 [6]
0	0xbc4c0f0e	-0.012454761
1	0x3dd9ee68	0.106411755
2	0x3d440472	0.047855802
3	0xbda60962	-0.081072584
4	0x3e94a560	0.2903242
5	0xbd910981	-0.07081891

conv_block2.0.weight f4 [16, 6, 5, 5]
0	0xbd63bdec	-0.055601045
1	0x3cb148b8	0.02164112
2	0x3b88c312	0.004173645
3	0xbd9000ab	-0.070313774
4	0xbe0014b9	-0.12507905
5	0x3d4439fe	0.04790687
6	0xbc55e486	-0.0130549725
7	0x3d0efe12	0.03491027
8	0x3bd48526	0.006485599
9	0xbd83a2ba	-0.06427522
10	0x3d3c4d13	0.04597194
11	0x3dc95ed3	0.098325394
12	0x3cf4eb97	0.029897494
13	0xbd97977c	-0.0740194
14	0xbd7ec1ad	-0.062196422
15	0xbd28b9b4	-0.041192725
16	0x3d877c29	0.066154785
17	0xbce89355	-0.028390566
18	0x3c317f89	0.010833629
19	0xbccc639d	-0.024949843
20	0x3d703387	0.05864289
21	0xbd1c87ff	-0.038215633
22	0xbdd1b5a2	-0.10239722
23	0x3ca6d466	0.020364951
24	0x3b89a28d	0.0042002858
25	0xbb30c919	-0.0026975332
26	0xbc460f47	-0.012088603
27	0xbdc7ef3e	-0.09762429
28	0xbd7bbf2a	-0.061461605
29	0x3cda7097	0.026665015
30	0xbdd0f90c	-0.10203752
31	0xbdd3c1e2	-0.103397146
32	0xbd57a785	-0.052649993
33	0xbda9ff98	-0.08300704
34	0xbcba07cd	-0.022708798
35	0xbd406645	-0.04697253
36	0xbd4d1099	-0.050064657
37	0xbd824e5a	-0.063626006
38	0xbac6612b	-0.001513516
39	0x3cfca0aa	0.03083833
40	0xbd8987bf	-0.06715345
41	0x3ad42145	0.0016184231
42	0x3d7345cf	0.059392747
43	0xbd887d1c	-0.06664488
44	0xbd70e443	-0.058811437
45	0xbd0700aa	-0.032959618
46	0xbd6e4b30	-0.058177173
47	0x3c6317ee	0.013860686
48	0xbcada1c4	-0.0211953
49	0xbd16cf5f	-0.03681886
50	0xbdc4d9d8	-0.09611863
51	0x3c658ac8	0.014010139
52	0xbe1a1986	-0.15048799
53	0xbdfd2674	-0.1236085
54	0x3d53964f	0.051657017
55	0xbc84ee76	-0.016226988
56	0xbe16f414	-0.14741546
57	0xbdec0e83	-0.115262054
58	0x3bd3346e	0.006445459
59	0xbdda520c	-0.106601804
60	0xbcac9b3e	-0.021070119
61	0xbd96a37d	-0.07355402
62	0xbe19dcda	-0.15025654
63	0xbd9ff8a5	-0.07811097
64	0xbe000012	-0.12500027
65	0xbe1fe9d1	-0.15616538
66	0xbd1b61ec	-0.037935182
67	0xbdb7ada6	-0.08968668
68	0xbda187b9	-0.07887215
69	0xbdffe35c	-0.12494537
70	0xbe208137	-0.15674292
71	0xbd2b9809	-0.04189304
72	0xbd8fb5fb	-0.07017132
73	0xbda0d0be	-0.078523144
74	0xbd16f73b	-0.03685687
75	0xbde6ee92	-0.112759724
76	0xbc28b875	-0.010297884
77	0xbddf6d5f	-0.10909533
78	0x3d149c46	0.036281846
79	0xbcc5773e	-0.02410471
80	0xbe10e3d5	-0.14149411
81	0xbd850a0f	-0.06496059
82	0x3bfc7676	0.0077045513
83	0xbdb1f8ad	-0.08690009
84	0x3d3f67e8	0.046729952
85	0x3b4420be	0.0029926742
86	0xbdbe67df	-0.092971556
87	0xbd6b263b	-0.057409506
88	0xbd9118d6	-0.07084815
89	0xbdb688b6	-0.08912794
90	0xbdc60a47	-0.09669929
91	0x3d5d8f1f	0.05409157
92	0xbd08312e	-0.033250026
93	0x3cc71808	0.024303451
94	0x3cc5db0f	0.024152307
95	0x3be7fd03	0.007079722
96	0x3cc18a09	0.02362539
97	0x3c6cdc33	0.014456796
98	0xbddd9d65	-0.10821036
99	0xbce3c8e2	-0.02780575
100	0xbd503808	-0.050834686
101	0x3c1ffd10	0.009764925
102	0x3d513f23	0.051085602
103	0xbd764d99	-0.060132597
104	0xbc0455dc	-0.008077111
105	0xbdb99ac9	-0.09062726
106	0xbda4f897	-0.08055227
107	0xbdbfc377	-0.09363454
108	0x3c5039af	0.012709065
109	0xbdec95ae	-0.11551987
110	0xbcda1901	-0.02662325
111	0xbdb1c1cc	-0.08679542
112	0xbd10c447	-0.035343435
113	0xbe04441d	-0.12916608
114	0xbca58598	-0.020205304
115	0xbd3b6395	-0.045749266
116	0xbde335dd	-0.11094258
117	0x3c3e6b84	0.011622313
118	0xbdeb0685	-0.11475853
119	0xbd9b020a	-0.07568748
120	0x3d14cf7a	0.036330678
121	0x3cae7a80	0.021298647
122	0xbdfaf577	-0.1225385
123	0xbda7fc1d	-0.08202384
124	0xbd8bf780	-0.06834316
125	0x3e25d9a8	0.1619631
126	0x3d2cce91	0.042189185
127	0xbdf99531	-0.12186659
128	0xbc06ebe5	-0.008234953
129	0xbda42403	-0.08014681
130	0x3e060086	0.13086137
131	0xbe0656cb	-0.13119046
132	0xbbaa3c49	-0.005195175
133	0xbe178680	-0.14797401
134	0xbcab5082	-0.020912413
135	0x3d5e6e62	0.054304488
136	0xbd5e3b37	-0.05425569
137	0xbda61b26	-0.08110647
138	0xbdac0bee	-0.08400713
139	0xbdc09234	-0.09402886
140	0xbc5dfe7c	-0.013549443
141	0xbdbffa47	-0.093739085
142	0xbdd87b50	-0.10570395
143	0xbe0001fa	-0.12500754
144	0xbc33c9a8	-0.010973372
145	0xbd323d95	-0.04351576
146	0xbd80f7f6	-0.06297295
147	0xbde29dee	-0.11065279
148	0x3c09ec7a	0.008418197
149	0xbd2a1406	-0.041523002
150	0xbd6dda13	-0.0580693
151	0xbd96de89	-0.07366664
152	0xbdece325	-0.11566762
153	0xbdcf70b7	-0.101289205
154	0xbddb4bdd	-0.10707829
155	0xbc80fb06	-0.015744697
156	0xbdd67eab	-0.10473379
157	0xbc1d135d	-0.009587136
158	0x3bbb6e02	0.005719901
159	0xbdebb0cf	-0.11508333
160	0xbd360415	-0.044437487
161	0xbd564dca	-0.05232028
162	0x3d32391c	0.043511495
163	0xbdb1b377	-0.08676808
164	0xbd122629	-0.035680924
165	0xbd27caf4	-0.040965036
166	0x3d352460	0.044224143
167	0xbdbdd395	-0.09268872
168	0xbda2516a	-0.07925685
169	0xbd22eb19	-0.039774988
170	0xbd138d25	-0.036023278
171	0xbdcc575b	-0.09977599
172	0x3d0bca4f	0.034128483
173	0xbd2e7da6	-0.042600296
174	0xbc05fc89	-0.008177885
175	0xbde60361	-0.11231113
176	0xbd96a881	-0.07356358
177	0xbd9dad60	-0.07699084
178	0xbd124a0c	-0.035715148
179	0xbd414ef0	-0.04719442
180	0x3be1a2a4	0.0068858434
181	0xbd4574f8	-0.048207253
182	0xbd8ca2c5	-0.06866983
183	0xbd1694f9	-0.036763165
184	0xbcab2c6c	-0.020895205
185	0xbc8d7a41	-0.01727021
186	0xbd9b3efa	-0.07580371
187	0xbd0e02c2	-0.0346706
188	0xbdd158dd	-0.102220275
189	0xbd4583a8	-0.04822126
190	0xba708510	-0.00091751013
191	0xbd3bb52d	-0.04582708
192	0xbdcde461	-0.100533254
193	0x3bc558a7	0.006022531
194	0xbe0975cd	-0.13423844
195	0xbcc33959	-0.023831056
196	0xbd3e6c00	-0.046489716
197	0xbddc2cd0	-0.10750735
198	0xbdf908dc	-0.12159893
199	0x3c51ffff	0.012817382
200	0xbc1bee61	-0.009517283
201	0x3c4c06c8	0.012452789
202	0xbd256c2f	-0.040386375
203	0x3cc66fba	0.024223197
204	0x3cc0041d	0.023439461
205	0x3dbb8247	0.09155708
206	0xbdfbe798	-0.123000324
207	0xbbff747f	-0.00779587
208	0xbb4b835e	-0.0031053643
209	0xbdfa58c6	-0.122239634
210	0xbc16be0f	-0.009200587
211	0xbdce8912	-0.10084738
212	0xbdedbd0b	-0.11608323
213	0xbc504f18	-0.01271417
214	0xbdeef86b	-0.11668476
215	0xbdf2d6fe	-0.11857413
216	0xbc5ce5d9	-0.013482534
217	0xbdb0ede1	-0.08639122
218	0xbe1043c8	-0.14088356
219	0xbd1776ad	-0.036978412
220	0xbd8c52f2	-0.06851758
221	0xbdd2d8c3	-0.1029525
222	0xbd5580e7	-0.052124884
223	0xbe00d26c	-0.1258027
224	0xbdb240b2	-0.08703746
225	0xbe1203cc	-0.14259261
226	0xbe0a59a7	-0.13510762
227	0xbd9f7e36	-0.07787745
228	0xbc243ef5	-0.010024776
229	0xbd803a78	-0.06261152
230	0xbd892ce2	-0.06698014
231	0xbe0002f9	-0.12501134
232	0xbdf922f9	-0.12164874
233	0xbda84d25	-0.08217839
234	0xbdeffafa	-0.11717792
235	0xbd00d0f8	-0.031449288
236	0xbda07ec8	-0.078366816
237	0xbdfcdb1c	-0.12346479
238	0xbd19681c	-0.037452802
239	0xbd7c3830	-0.061577022
240	0xbcd5c366	-0.02609415
241	0x3d8f612f	0.07000958
242	0xbde073f2	-0.10959615
243	0xbb73ae3c	-0.003718271
244	0xbd59f8e1	-0.053215865
245	0xbdb55291	-0.08853639
246	0x3b846bdb	0.0040411777
247	0xbe0fa2a5	-0.14026888
248	0xbc3c8b31	-0.011507795
249	0xbcec2b6e	-0.028829303
250	0xbd24faa0	-0.040278077
251	0xbe099af2	-0.13438013
252	0xbdf70ac9	-0.12062604
253	0xbdd4b5f7	-0.103862695
254	0xbcf77cab	-0.030210814
255	0xbdd61e29	-0.10454971

conv_block2.0.bias f4 [16]
0	0xbdc469bc	-0.0959048
1	0xbd991c41	-0.07476092
2	0x3d8b7d83	0.06811049
3	0xbd1a2559	-0.037633274
4	0xbd3eb622	-0.046560414
5	0xbde6ec52	-0.11275543
6	0xbd8fa342	-0.07013561
7	0x399d49f2	0.00030000467
8	0xbdc4f758	-0.096174896
9	0xbdd027f5	-0.10163871
10	0xbdcf870a	-0.101331785
11	0xbda9f421	-0.08298517
12	0xbcb61276	-0.0222256
13	0x3ce73d0b	0.02822735
14	0xba1da017	-0.000601293
15	0x3da12ace	0.078694925

fc1.weight f4 [120, 256]
0	0xbd8b98cd	-0.06816254
1	0xbe1939b6	-0.14963421
2	0xbde03611	-0.10947812
3	0xbda96d94	-0.082728535
4	0xbcbad0b3	-0.022804594
5	0xbd632286	-0.055452846
6	0xbd9d41f5	-0.07678596
7	0xbd73c44c	-0.059513375
8	0xbc97f27a	-0.018548239
9	0x3d33a374	0.043857053
10	0xbdef17e5	-0.116744794
11	0xbd854820	-0.065078974
12	0xbb229394	-0.0024807202
13	0xbc79dc7a	-0.01525032
14	0xbda5df79	-0.08099265
15	0xbd7d2837	-0.06180593
16	0x3cea1e39	0.028578864
17	0xbd618322	-0.0550567
18	0xbdbf8d0c	-0.093530744
19	0xbc707e7a	-0.014678592
20	0x3df679be	0.12034939
21	0x3d8d28f3	0.06892576
22	0xbc9cb66b	-0.019129952
23	0xbd9216ba	-0.07133241
24	0x3de586b0	0.1120733
25	0xbd4740bf	-0.04864573
26	0x3dd3a638	0.10334438
27	0x3d97db3e	0.07414864
28	0xbdd8977a	-0.10575767
29	0x3c8c7b98	0.017148778
30	0x3df703d1	0.12061275
31	0xbd8a87c2	-0.06764175
32	0xbd033b42	-0.032038935
33	0x3dc03944	0.093859226
34	0x3e556011	0.20837428
35	0x3e1b9e50	0.1519711
36	0xbd803b00	-0.06261253
37	0x3d43dd68	0.04781857
38	0x3dc1f9a4	0.09471443
39	0x3d0730e8	0.033005625
40	0xbc9d3789	-0.01919152
41	0x3be50f72	0.0069903666
42	0x3ba3f991	0.005004116
43	0x3d08fd19	0.033444498
44	0x3d3c8f4b	0.046035092
45	0x3d2822da	0.041048862
46	0x3df86f2d	0.1213058
47	0x3e6c6f0b	0.23089235
48	0xbd975b85	-0.07390503
49	0xbd25f571	-0.040517274
50	0xbe04f542	-0.12984183
51	0xbcf919f8	-0.03040789
52	0xbe13295c	-0.14371246
53	0xbd5dd99b	-0.054162603
54	0x3bdeec6f	0.0068030874
55	0x3cae9f3b	0.021316161
56	0x3d17d6fc	0.03707026
57	0x3e163861	0.14669944
58	0xbcedf403	-0.029047018
59	0x3d683d17	0.056698885
60	0x3e56c16b	0.2097222
61	0x3e8203a3	0.253934
62	0x3dd55b48	0.10417801
63	0x3d20fca7	0.039303448
64	0x3d0ca1df	0.03433406
65	0xbcece925	-0.028919766
66	0x3dc92616	0.098217174
67	0xbafd570d	-0.0019328311
68	0xbdbe9252	-0.09305252
69	0xbd0444cf	-0.032292183
70	0x3d548da7	0.051892903
71	0xbd8a0399	-0.067389674
72	0xbd71a52c	-0.05899541
73	0xbb0fccae	-0.0021942067
74	0xbe0cffa9	-0.13769402
75	0xbd2e4505	-0.04254629
76	0xbd17865f	-0.03699338
77	0x3d414e25	0.047193665
78	0x3dad9c2b	0.08477052
79	0xbdb2ee22	-0.087368265
80	0xbd04f85e	-0.032463424
81	0xbe1df3df	-0.1542506
82	0xbd17220e	-0.03689771
83	0xbe2540ed	-0.16138048
84	0xbdad2216	-0.08453767
85	0xbbcc7aa4	-0.006240206
86	0xbdc17ccf	-0.094476335
87	0x3d39f2cf	0.045397576
88	0x3d248ecf	0.040175255
89	0x3d8f514f	0.0699793
90	0x3dbc03c8	0.09180409
91	0x3c26584d	0.0101528885
92	0xbe482650	-0.19545865
93	0x3db3068d	0.08741484
94	0x3ec982e5	0.39357677
95	0x3e789a14	0.24277526
96	0x3d1a54ef	0.037678655
97	0x3d4d3546	0.050099634
98	0x3dfa4e68	0.12221986
99	0xbd9d052b	-0.07667001
100	0xbd5345db	-0.05158029
101	0xbdcdb7e0	-0.10044837
102	0xbddbfd6c	-0.10741696
103	0xbe418139	-0.18896951
104	0xbd82f74f	-0.063948266
105	0xbe13dbae	-0.1443927
106	0xbe2bd4f2	-0.16780451
107	0xbe12cff0	-0.14337134
108	0x3d957622	0.07297923
109	0xbdb00db2	-0.08596362
110	0x3c99696b	0.018727025
111	0x3d8f6e69	0.07003481
112	0xbd8e671f	-0.069532625
113	0x3d9a4f28	0.07534629
114	0xbd9e9fc1	-0.077453144
115	0xbcf01422	-0.029306475
116	0xbdbb2fbe	-0.091399655
117	0x3d299f2e	0.04141157
118	0x3d324995	0.043527205
119	0xbd1ba18e	-0.037995867
120	0xbcb0fec4	-0.021605857
121	0xbd69a00e	-0.057037406
122	0xbd7ed2cd	-0.062212754
123	0x3c9eee96	0.019400876
124	0xbb7e0b6d	-0.0038764135
125	0xbca2baaa	-0.019864399
126	0xbcf7460a	-0.030184764
127	0xbd690adf	-0.056895133
128	0x3d1d9a76	0.038477384
129	0xbc4dc907	-0.012560136
130	0xbd565d2f	-0.05233496
131	0xbdad7cd2	-0.08471073
132	0x3c9e87bd	0.019351834
133	0x3d300446	0.042972825
134	0xbdceccd3	-0.10097661
135	0xbdaeab82	-0.08528806
136	0xbdda08df	-0.10646223
137	0xbc0e5ffe	-0.0086898785
138	0xbc82d049	-0.015968459
139	0x3d68b93e	0.056817286
140	0x3d357697	0.04430255
141	0x3dd381f1	0.10327519
142	0xbbb5caed	-0.0055478723
143	0x3c64b20f	0.013958468
144	0xbdbcd68b	-0.09220608
145	0x3ca6d2a3	0.020364111
146	0x3d7ced99	0.06175003
147	0x3e1c8a4b	0.1528713
148	0x3da3dab9	0.080007024
149	0x3d41f0e2	0.047348864
150	0x3d99642e	0.07489811
151	0x3e55b1b2	0.20868567
152	0x3e3f695a	0.18692532
153	0xbd642261	-0.05569685
154	0x3d9290bf	0.071565144
155	0x3e5b2a21	0.2140279
156	0x3db17776	0.086653635
157	0xbd89feed	-0.06738076
158	0xbda691e4	-0.08133295
159	0x3da2bc9c	0.07946131
160	0x3d68f9ca	0.056878842
161	0x3c10af0c	0.008830797
162	0x3d25e4dd	0.040501464
163	0x3dea52f7	0.114416055
164	0x3c88d2bc	0.016702048
165	0xbdd5be2b	-0.10436662
166	0x3d1072cf	0.03526574
167	0x3d80c38d	0.06287298
168	0x3c2f3563	0.010693881
169	0xbe09c546	-0.1345416
170	0xbdbb34c1	-0.091409214
171	0xbcead860	-0.028667629
172	0x3e0be61b	0.13661997
173	0x3c7af31e	0.015316753
174	0x3e4aaa16	0.19791445
175	0x3eb4a9ca	0.3528579
176	0x3c0531d0	0.008129552
177	0x3db25f4b	0.08709582
178	0x3d2618f1	0.04055113
179	0x3e30b3c7	0.1725608
180	0x3c159d1b	0.009131695
181	0x3cec214c	0.028824471
182	0x3d46c177	0.048524346
183	0xbc0b3f90	-0.008499041
184	0x3c2df4d0	0.01061745
185	0xbc223724	-0.009900842
186	0x3dc3ddc9	0.095637865
187	0xbe123005	-0.1427613
188	0xbdd66286	-0.104680106
189	0x3d87761c	0.066143245
190	0x3d2685d7	0.040654983
191	0xbdae5d1a	-0.085138515
192	0xbe0a49fe	-0.13504788
193	0xbce68292	-0.028138433
194	0xbe3794e8	-0.17927897
195	0xbdf351da	-0.11880846
196	0xbd393409	-0.04521564
197	0x3d41a255	0.047273953
198	0xbde5384d	-0.11192379
199	0x3db3434e	0.08753072
200	0xbcbe78a3	-0.023250883
201	0x3d4326ae	0.04764431
202	0xbd2e5b66	-0.042567633
203	0x3db03977	0.086047105
204	0x3e1d6a30	0.15372539
205	0xbe24b4f3	-0.16084652
206	0xbd22c24c	-0.039736077
207	0x3cba7fc8	0.022766009
208	0xbe089c79	-0.1334094
209	0x3d0d617a	0.03451679
210	0x3cc1584c	0.023601674
211	0xbdb20edc	-0.086942405
212	0xbe10d3b4	-0.14143258
213	0x3d219eb6	0.039458
214	0x3c8b4ac4	0.017003424
215	0xbca3fd5a	-0.020018268
216	0xbd92d2cc	-0.071691126
217	0xbd430f12	-0.047621794
218	0xbdad5fb6	-0.08465521
219	0xbdb791dd	-0.08963368
220	0xbc9b69f0	-0.018971413
221	0x3c3d8fe0	0.011569947
222	0xbd4540c5	-0.048157472
223	0x37f6021d	2.932647e-05
224	0xbd339fda	-0.04385362
225	0x3c3eddd6	0.0116495695
226	0xbe084798	-0.13308561
227	0xbec386e1	-0.38188842
228	0xbdecfa20	-0.11571145
229	0xbddba58d	-0.10724936
230	0xbe773b57	-0.2414373
231	0xbeda82cc	-0.42677915
232	0x3e16ca9f	0.14725731
233	0x3e0fc48f	0.14039825
234	0x3d7a180c	0.06105809
235	0x3d42e8de	0.04758536
236	0xbd33fb85	-0.04394104
237	0xbd921f29	-0.071348496
238	0x3e094785	0.13406189
239	0x3e3eaf2a	0.18621507
240	0x3db6ab14	0.08919349
241	0x3da21cd4	0.07915655
242	0xbe028bd3	-0.12748651
243	0xbe0782d5	-0.13233502
244	0xbd7846db	-0.060614448
245	0x3d914ac4	0.070943385
246	0xbe5cc00f	-0.2155764
247	0xbe2cc5e4	-0.16872364
248	0xbda56618	-0.080761135
249	0xbd729845	-0.059227247
250	0xbe42a18d	-0.19006939
251	0xbc47c1da	-0.012192214
252	0x3e107fd4	0.14111263
253	0x3dbe87ae	0.093032226
254	0xbdbe0dfc	-0.09280011
255	0xbcacccc4	-0.021093734

fc1.bias f4 [120]
0	0x3ba79741	0.0051144664
1	0xbdab2f8a	-0.08358677
2	0xbe91c334	-0.2846924
3	0xbcbeb520	-0.023279727
4	0x3bd9d0c8	0.006647203
5	0x3d85c55d	0.06531785
6	0xbbeafbaf	-0.0071711163
7	0x3db4660f	0.08808529
8	0x3c32d887	0.010915882
9	0x3bec7685	0.007216277
10	0x3dd63637	0.104595594
11	0x3d7e59bb	0.062097292
12	0xbdcc234e	-0.09967671
13	0x3d925507	0.07145124
14	0x3de07954	0.109606415
15	0xbda9dd4a	-0.08294161
16	0xbd8dd192	-0.06924738
17	0xbbe4ccd5	-0.0069824257
18	0x3d4fd4d5	0.05074008
19	0xbb987f2a	-0.004653831
20	0xbdaafb67	-0.083487324
21	0xbb78894b	-0.003792363
22	0xbb213c60	-0.0024602637
23	0xbda4fa89	-0.08055598
24	0xbc4a5ae1	-0.012350769
25	0xbda91fb5	-0.08258001
26	0xbd869d42	-0.06572963
27	0x3d3a7e63	0.045530688
28	0xbdadd8e4	-0.08488634
29	0x3d75e9c1	0.06003738
30	0x3e2137aa	0.1574389
31	0xbc2c9aa2	-0.010534914
32	0x3d9201be	0.071292385
33	0x3d41d181	0.04731894
34	0xbcaad9ce	-0.02085581
35	0x3d91eef2	0.07125653
36	0xbd979305	-0.074010886
37	0x3e044277	0.1291598
38	0xbdd31606	-0.10306935
39	0x3dd1a09e	0.102357134
40	0xbdc201d3	-0.09473004
41	0x3d02204c	0.031769082
42	0x3c959af4	0.018262364
43	0x3d846e28	0.06466323
44	0x3cc5f9da	0.02416699
45	0xbd352bd5	-0.044231255
46	0xbd4b8600	-0.04968834
47	0xbd966613	-0.07343688
48	0xbd470534	-0.048588946
49	0x3d7639dd	0.060113776
50	0x3d177407	0.036975887
51	0xbda5017a	-0.08056922
52	0xbcad0cce	-0.02112427
53	0x3bf6c2a8	0.007530529
54	0x3d919c20	0.071098566
55	0x3db085b3	0.08619251
56	0xbdd7e23a	-0.10541196
57	0x3da339cc	0.07970008
58	0xbc50b6ea	-0.012738923
59	0x3c128543	0.008942905
60	0xbdac68a3	-0.08418395
61	0xbe1d5f85	-0.15368469
62	0x3d76d701	0.060263637
63	0xbdbb7022	-0.09152247
64	0xbd7a8611	-0.061163012
65	0xbdb41a68	-0.08794099
66	0x3d3c2cdc	0.04594122
67	0xbd8cd24c	-0.068760484
68	0x3d5a4e0c	0.053297088
69	0x3c585fa2	0.013206394
70	0xbc632a95	-0.013865133
71	0xbd6c1129	-0.057633553
72	0x3da996a0	0.082806826
73	0x3c3511ce	0.011051608
74	0x3e258ae1	0.1616626
75	0xbdd5b10f	-0.10434162
76	0x3ca398c2	0.019970302
77	0xbd3effb9	-0.046630595
78	0xbe452099	-0.19250716
79	0xbdfb9c72	-0.12285699
80	0xb9144c0a	-0.00014142707
81	0x3dd92611	0.10602964
82	0x3ce6cf7b	0.028175106
83	0xbd85048e	-0.06495009
84	0xbca876cc	-0.02056446
85	0xbdb79009	-0.089630194
86	0xbbd79879	-0.0065794555
87	0x3c1c20f0	0.009529337
88	0xbd65116b	-0.055924814
89	0xbc44417e	-0.011978505
90	0x3d7202fb	0.059084874
91	0xbdef95a1	-0.11698461
92	0x3d7915da	0.060811855
93	0xbd7c0a0e	-0.061533026
94	0x3ce7b0a0	0.028282464
95	0x3d999382	0.07498838
96	0x3b32fc4e	0.002731103
97	0xbd8c2177	-0.068423204
98	0x3b7ffba3	0.00390599
99	0xbd01b32f	-0.031665023
100	0xbdd2ceb9	-0.102933355
101	0x3d90da62	0.07072903
102	0xbdbb0f04	-0.091337234
103	0x3d68c525	0.056828637
104	0xbda6638c	-0.08124456
105	0x3d35aea6	0.04435601
106	0x3dadec2c	0.08492312
107	0x3c4eb616	0.012616655
108	0xbcb07a50	-0.021542698
109	0x3cee8e6b	0.029120645
110	0x3c01e071	0.007927046
111	0x3d18f306	0.03734114
112	0x3d32abcc	0.04362087
113	0xbd7a461e	-0.061102025
114	0xbcac39c0	-0.021023631
115	0x3df32226	0.11871748
116	0xbd81e1ce	-0.06341897
117	0xbc15e230	-0.009148166
118	0x3a6b7aba	0.0008982826
119	0xbdecc19f	-0.11560368

fc2.weight f4 [84, 120]
0	0x3cb3e007	0.02195741
1	0xbdc88c5a	-0.09792395
2	0xbe182e35	-0.14861377
3	0x3c12571a	0.008931899
4	0xbdcafc1c	-0.09911367
5	0xbd94b1c9	-0.07260472
6	0x3d47d9b5	0.048791606
7	0xbd94608f	-0.072449796
8	0x3d52d2fa	0.051470734
9	0xbd871aa0	-0.06596875
10	0x3d25165f	0.040304538
11	0xbc8a5300	-0.01688528
12	0xbd24cc71	-0.040234033
13	0x3c176914	0.009241361
14	0xbd9744ca	-0.07386167
15	0xbc0982ad	-0.008392972
16	0xbc3ad013	-0.011402148
17	0xbcab69da	-0.020924497
18	0x3ca27fbd	0.019836301
19	0x3d228103	0.039673816
20	0xbc46616e	-0.01210819
21	0xbd65362c	-0.055959865
22	0x3d038365	0.03210773
23	0x3da67f16	0.081297085
24	0x3c245af3	0.01003145
25	0x3d558ee7	0.052138235
26	0xbd787717	-0.060660448
27	0x3cde4b99	0.027135657
28	0xbdb09d2e	-0.0862373
29	0xbdbe84c9	-0.093026705
30	0xbd93e84d	-0.07222042
31	0x3d945cba	0.07244249
32	0x3d9f08b5	0.077653326
33	0xbddf3673	-0.10899057
34	0xbdde4946	-0.108538195
35	0x3c5c940b	0.013463031
36	0xbdb67c4f	-0.08910429
37	0xbc80e3d6	-0.01573364
38	0xbb8d1a93	-0.0043061464
39	0xbd8f0906	-0.06984143
40	0x3cf5e254	0.030015148
41	0xbe5833c4	-0.21113497
42	0xbdbd1502	-0.092325225
43	0xbd8197c6	-0.063277766
44	0x3d2f6d5b	0.0428289
45	0xbdd26e6d	-0.10274968
46	0x3c861006	0.016365062
47	0x3cbfa270	0.023392886
48	0x3d5bc81a	0.05365763
49	0xbd90d20d	-0.07071314
50	0x3da6f723	0.08152606
51	0x3ca4005a	0.020019699
52	0xbcfa3571	-0.030543061
53	0x3d053a0c	0.03252606
54	0x3d502ba3	0.050822865
55	0xbdbbd99b	-0.09172364
56	0xbbb10e6a	-0.0054033296
57	0xbd64c871	-0.05585522
58	0xbdd78658	-0.10523671
59	0xbd7a8eae	-0.061171226
60	0xbd0201d6	-0.031740032
61	0x3d5c95db	0.05385385
62	0xbdbc02d7	-0.09180229
63	0x3c6446ec	0.013932925
64	0xbdb2d339	-0.08731694
65	0x3d60138e	0.05470615
66	0x3c39f1de	0.01134917
67	0x3cd225b2	0.02565274
68	0xbd94f304	-0.07272914
69	0xbd317ec6	-0.04333379
70	0xbd33f2cf	-0.043932732
71	0xbd94cc41	-0.07265521
72	0x3cc8893e	0.024479505
73	0xbad2cac2	-0.0016082155
74	0x3d5add00	0.05343342
75	0x3d7e03be	0.062015288
76	0x3d2657e8	0.040611178
77	0x3aa6bc05	0.0012720829
78	0xbd86177f	-0.0654745
79	0x3e1bf4e3	0.15230136
80	0x3ca3c1b4	0.019989826
81	0xbe1c1a13	-0.15244322
82	0xbca37cbd	-0.01995694
83	0x3d9296a2	0.07157637
84	0xbc8eb0fa	-0.017418373
85	0xbd73c29d	-0.05951177
86	0xbd92fb33	-0.07176819
87	0x3ba0cbed	0.0049071223
88	0x3e1245c9	0.14284433
89	0xbe175429	-0.14778198
90	0xbe0a3e94	-0.13500434
91	0x3cb6e212	0.022324596
92	0xbd5d9fe3	-0.054107558
93	0x3d0cdfbd	0.03439306
94	0xbdec0e56	-0.11526172
95	0xbe744fb3	-0.23858528
96	0xbdefa2af	-0.11700951
97	0xbdb8b2ae	-0.090184554
98	0x3e2f04b1	0.17091633
99	0x3dc3caf7	0.09560197
100	0x3d99004d	0.074707605
101	0xbe26fe73	-0.16308002
102	0xbdc2b9ae	-0.09508072
103	0xbca60b05	-0.020268926
104	0xbd6c7ec3	-0.057738077
105	0xbba10c60	-0.0049148053
106	0x3c2e48d3	0.01063748
107	0xbd329c49	-0.043606076
108	0xbd424dd4	-0.047437504
109	0x3c126524	0.008935247
110	0xbc140af2	-0.009035813
111	0xbd88d2b6	-0.06680815
112	0x3cbff38d	0.023431564
113	0x3cbeff3d	0.023315066
114	0xbd576455	-0.05258592
115	0xbd7cbf5e	-0.06170594
116	0x3d84da23	0.06486919
117	0xba18421a	-0.000580819
118	0xbd80ad76	-0.06283085
119	0x3cff5968	0.031170562
120	0xbd1a07fe	-0.03760528
121	0xbd8c9367	-0.06864052
122	0xbde10123	-0.10986545
123	0xbad8fb11	-0.0016554316
124	0xbe5034c1	-0.20332624
125	0x3d9ffa4e	0.07811414
126	0xbca66f1c	-0.020316653
127	0xbe04ee0e	-0.12981436
128	0x3e146d04	0.14494711
129	0xbc621e64	-0.013801191
130	0x3d004caf	0.03132313
131	0x3ca9a2cf	0.020707516
132	0x3cc8aa7d	0.024495358
133	0xbdab4a04	-0.08363727
134	0xbe32ee64	-0.17473751
135	0xbc9ee02d	-0.019394005
136	0xbcbd6462	-0.023119155
137	0x3e12f70f	0.14352058
138	0xbe3765da	-0.17909947
139	0xbd73fa42	-0.059564836
140	0x3ceb739c	0.02874165
141	0x3d636bd9	0.055522773
142	0x3d7a4a0a	0.061105765
143	0xbbc8f9ed	-0.006133309
144	0x3b1effac	0.002426128
145	0x3d4dc20b	0.050233882
146	0xbcc4647c	-0.023973696
147	0xbdaee671	-0.08540047
148	0xbdb2bc18	-0.08727282
149	0xbd25b2c0	-0.040453672
150	0xbd16fbab	-0.036861103
151	0x3d3aace5	0.04557504
152	0x3d8daad7	0.06917351
153	0x3d533921	0.051568154
154	0xbdbae3cf	-0.09125482
155	0xbd78d464	-0.060749426
156	0x3c19c059	0.009384238
157	0x3e5f5a54	0.21811801
158	0xbd49e37c	-0.04928921
159	0x3dabdbbe	0.08391522
160	0xbd0ca6bb	-0.034338694
161	0x3e2391c8	0.1597358
162	0x3d78bf0f	0.060729083
163	0xbdd7e38e	-0.105414495
164	0xbe15d19c	-0.14630741
165	0xbdd06ee8	-0.10177404
166	0xbd7f29ef	-0.06229585
167	0xbd1db07c	-0.038498387
168	0xbd2bf011	-0.041976992
169	0x3e57d37b	0.21076767
170	0x3d4e2d2c	0.050336048
171	0xbd9a8bd5	-0.07546202
172	0x3eb0223a	0.34401113
173	0xbde51fbb	-0.11187693
174	0xbe82e7e1	-0.25567535
175	0xbc2263df	-0.009911506
176	0xbdcc061e	-0.09962104
177	0x3cd989a9	0.0265549
178	0x3dac00da	0.083986
179	0xbe32c156	-0.17456564
180	0xbc7ef6fb	-0.015561814
181	0x3eaa1252	0.33217102
182	0xbc8208b7	-0.015873296
183	0x3d9e8adb	0.07741328
184	0xbd5e7856	-0.05431398
185	0x3c97c381	0.01852584
186	0x3df31a5e	0.118702635
187	0x3d8b502e	0.068024024
188	0x3e63b25e	0.2223601
189	0xbdbd42c7	-0.092412524
190	0xbd4cb385	-0.04997589
191	0x3e19f3c1	0.15034391
192	0x3d9b1c92	0.07573809
193	0xbd1c4d84	-0.038159862
194	0x3e79a2f4	0.24378568
195	0x3c19a834	0.009378482
196	0xbdd573bc	-0.10422465
197	0xbd0ec0f6	-0.03485199
198	0xbd3d6b79	-0.046245072
199	0x3dd8195d	0.10551713
200	0x3d922fb2	0.071380034
201	0x3cfbbcf9	0.030729758
202	0x3ddb0387	0.10694032
203	0x3e8b2238	0.27174544
204	0x3d39101a	0.04518137
205	0xbd7d1946	-0.06179168
206	0x3c494c8f	0.012286319
207	0x3d27951e	0.040913694
208	0x3da61a26	0.08110456
209	0x3e396557	0.18105064
210	0xbd4ba9b3	-0.049722385
211	0x3da2d150	0.079500794
212	0xbd1c0126	-0.038087033
213	0xbd3b4de8	-0.045728594
214	0x3d5687f7	0.05237576
215	0x3e0d3292	0.13788822
216	0xbd240378	-0.04004237
217	0x3d9753a9	0.07389004
218	0x3ec6eac4	0.38850987
219	0x3c878454	0.016542591
220	0xbd9e2129	-0.077211685
221	0x3cd0edf9	0.0255041
222	0xbd02462b	-0.0318052
223	0x3d1d87b1	0.038459484
224	0xbc8ba487	-0.017046226
225	0x3d499735	0.049216468
226	0x3e2fed04	0.17180258
227	0x3d887ee9	0.06664831
228	0xbcc27f5f	-0.023742376
229	0xbdf60fe7	-0.12014752
230	0xbdeb506e	-0.1148995
231	0xbdc8d026	-0.09805326
232	0x3df033c4	0.117286235
233	0x3dfc28df	0.12312483
234	0xbdf34b29	-0.1187957
235	0x3ceaa29f	0.028641997
236	0x3e02dd8f	0.1277983
237	0x3d880a6b	0.06642612
238	0x3de0a46f	0.10968863
239	0xbda3055b	-0.07960006
240	0xbdb31b08	-0.0874539
241	0xbd067ca5	-0.032833714
242	0xbeaa594c	-0.33271253
243	0x3d1488a8	0.036263138
244	0xbd859da2	-0.06524207
245	0x3d02f754	0.03197415
246	0xbcf2499b	-0.029576113
247	0x3d52d4f5	0.051472623
248	0x3d4b6b69	0.04966298
249	0xbc193edb	-0.009353365
250	0x3cf558bd	0.02994954
251	0xbd4d267c	-0.05008553
252	0xbd8f0380	-0.069830894
253	0xbd1a69a5	-0.037698407
254	0xbc6aa6d1	-0.014321999
255	0xbd837b91	-0.06420053

fc2.bias f4 [84]
0	0xbdbb0717	-0.09132212
1	0x3e444f71	0.1917093
2	0x3dff0dc5	0.12453798
3	0xbe02621f	-0.12732743
4	0xbdb2230c	-0.08698091
5	0x3dfd13cd	0.12357292
6	0xbe200adb	-0.15629141
7	0x3dba66e7	0.09101658
8	0x3c5e5354	0.013569672
9	0x3d6bb06c	0.057541296
10	0xbd2fa35d	-0.042880405
11	0xbc7e036f	-0.015503748
12	0x3deb234d	0.114813425
13	0x3c2bb360	0.010479778
14	0xbbad65b2	-0.005291664
15	0xbcffa4b2	-0.031206463
16	0x3d492296	0.04910525
17	0xbdb1993c	-0.08671805
18	0x3e3d3fbb	0.18481342
19	0xbd6fd73e	-0.05855488
20	0x3d213d5c	0.039365157
21	0xbcb65991	-0.022259505
22	0x3d7ff74e	0.062491708
23	0x3d3096b7	0.043112483
24	0xbe05a72c	-0.13052052
25	0xbd9bf4a2	-0.076150194
26	0xbdb1cdb8	-0.08681816
27	0x3db804d3	0.08985295
28	0x3d9ed042	0.07754566
29	0xbc24f90c	-0.010069143
30	0x3d45c09d	0.048279393
31	0x3d1772c2	0.036974676
32	0x3b44fe83	0.0030058927
33	0xbe007b5f	-0.12547062
34	0x3e0f653b	0.1400346
35	0xbdd62f79	-0.104582734
36	0xbc691feb	-0.014228801
37	0x3cba2a01	0.022725107
38	0xbdb7eff1	-0.08981312
39	0xbcc5f111	-0.024162801
40	0x3d7dff2a	0.06201092
41	0x3c36f37e	0.0111664515
42	0xbda68c19	-0.0813219
43	0x3e0d618a	0.1380674
44	0xbe1849b3	-0.14871864
45	0xbcdc280d	-0.026874566
46	0xbe1dcf26	-0.15411052
47	0xbdb6b9c8	-0.08922154
48	0xbdd5e4a0	-0.104439974
49	0x3dde2ccd	0.10848389
50	0x3cccc977	0.02499841
51	0xbb2eddda	-0.0026682527
52	0xbc94e23e	-0.018174287
53	0x3d1b16a6	0.037863396
54	0x3ce9505b	0.0284807
55	0xbd5afd8f	-0.05346447
56	0xbdc59d67	-0.09649163
57	0xbc83d290	-0.016091615
58	0xbd2b6568	-0.041844755
59	0xbdf7b196	-0.12094419
60	0xbd3a42ba	-0.04547379
61	0xbe226888	-0.15860188
62	0xbc3be579	-0.011468285
63	0xbd2f6b5c	-0.042826995
64	0xbc91414e	-0.017731335
65	0x3df0610a	0.11737259
66	0x3d2ad8c6	0.041710638
67	0xbddb3a1c	-0.10704443
68	0xbd1e76e4	-0.0386876
69	0xbcc08e0b	-0.023505231
70	0x3d0263c0	0.03183341
71	0xbd6e9729	-0.058249626
72	0x3dbc59fd	0.091968514
73	0xbe00e45a	-0.12587109
74	0xbe303452	-0.17207459
75	0x3dbb1389	0.091345854
76	0x3c8f2275	0.017472485
77	0x3d816f15	0.06320015
78	0x3db4aee4	0.0882242
79	0x3d3bf48b	0.04588751
80	0xbd730fdd	-0.0593413
81	0xbce1808c	-0.027527116
82	0xbd79e258	-0.061006874
83	0xbde52e6d	-0.11190496

fc3.weight f4 [10, 84]
0	0xbdf7fdc8	-0.12108952
1	0xbe034bc7	-0.12821876
2	0x3e089bde	0.13340709
3	0x3b93758b	0.004500096
4	0xbdf1b1b5	-0.11801473
5	0x3d91ffa4	0.07128838
6	0xbd6d944e	-0.058002762
7	0x3d178ec9	0.037001405
8	0xbd66ff6c	-0.056395933
9	0x3c0f5d7b	0.008750315
10	0xbe81e827	-0.2537243
11	0x3d622caa	0.055218376
12	0x3dd8e44c	0.10590419
13	0x3d068c96	0.032848917
14	0x3d856066	0.06512527
15	0xbe3de203	-0.18543248
16	0x3dcfbab8	0.10143036
17	0x3be56e37	0.007001664
18	0x3d0c5b73	0.0342669
19	0x3dbe102e	0.0928043
20	0xbe27fb37	-0.16404425
21	0xbd72c25c	-0.059267387
22	0x3b810cbc	0.0039382856
23	0x3d5807ef	0.05274194
24	0x3cfff9d8	0.031247064
25	0xbda59b83	-0.08086302
26	0xbd609513	-0.05482967
27	0xbe80ecef	-0.25180766
28	0xbdd82e7b	-0.105557404
29	0xbe2f033f	-0.17091082
30	0xbe20f439	-0.15718164
31	0x3e3268b4	0.17422754
32	0xbe3a1ffa	-0.1817626
33	0xbddb83e4	-0.107185155
34	0xbdde7057	-0.10861271
35	0xbaa676dc	-0.0012700218
36	0x3d14b31d	0.03630363
37	0xbe3de446	-0.1854411
38	0x3da36a93	0.07979312
39	0xbc42b168	-0.011883117
40	0xbd6dbde4	-0.058042422
41	0x3dd7a60a	0.10529716
42	0x3cdcf945	0.02697433
43	0x3ba393cc	0.004991984
44	0xbd89ad89	-0.06722552
45	0xba286b21	-0.0006424655
46	0x3e397b18	0.18113363
47	0x3a586731	0.0008255123
48	0x3a2b5c6c	0.0006536904
49	0x3d06377a	0.03276775
50	0xbe0917db	-0.13388006
51	0xbe3e35a8	-0.18575156
52	0xbc1df4bc	-0.009640869
53	0xbdb8b82d	-0.09019504
54	0xbc30c952	-0.010790186
55	0xbd1e3a30	-0.03862971
56	0x3bb9c75f	0.005669519
57	0x3e3089c0	0.17240047
58	0xbd95079a	-0.072768405
59	0xbd84be12	-0.064815655
60	0x3c5cefd1	0.013484911
61	0x3e2109f9	0.1572646
62	0xbe1a939d	-0.15095372
63	0x3cc6f5e8	0.02428718
64	0xbc9cfc4b	-0.019163271
65	0x3e0c3cc5	0.13695057
66	0xbe79e0b3	-0.24402122
67	0xbda3f2b5	-0.08005277
68	0xbcbcf655	-0.023066679
69	0xbe0361dd	-0.128303
70	0xbe8db5f7	-0.2767789
71	0x3ccfb8ad	0.025356615
72	0x3e04a491	0.12953402
73	0x3d2e48a9	0.042549763
74	0xbd5347ad	-0.051582027
75	0x3b43577e	0.0029806788
76	0xbbf35ef0	-0.007427089
77	0x3d8cec01	0.06880952
78	0x3dd3e83d	0.1034703
79	0x3c3c9b3e	0.011511622
80	0xbcbe639b	-0.023240855
81	0x3bbc94c1	0.0057550375
82	0x3c382706	0.011239773
83	0xbcb89846	-0.022533547
84	0x3c071815	0.008245488
85	0xbd354015	-0.044250567
86	0x3e506eb4	0.2035473
87	0xbe116122	-0.1419721
88	0xbdda6c26	-0.10665159
89	0xbe78757b	-0.24263565
90	0xbdb64291	-0.08899415
91	0xbdd197a2	-0.10234
92	0xbce67392	-0.02813128
93	0x3e1295dd	0.14314981
94	0x3df9be6a	0.12194522
95	0x3e13de63	0.14440303
96	0x3e012dca	0.12615123
97	0xbd6d3d20	-0.05791962
98	0x3dc6eb53	0.09712853
99	0x3d44af51	0.048018757
100	0xbe39c3ce	-0.181411
101	0xbb982ff3	-0.004644388
102	0x3e12d52f	0.14339136
103	0x3d01c652	0.031683274
104	0x3e186c8c	0.14885157
105	0xbda0de6d	-0.07854924
106	0xbc920957	-0.01782672
107	0xbe4939cb	-0.19650953
108	0xbdfc2a8a	-0.12312801
109	0x3d002096	0.031281076
110	0xbc228c9d	-0.00992122
111	0xbdf373b9	-0.11887307
112	0xbe069185	-0.13141449
113	0x3d4db5a6	0.05022206
114	0xbe5aa5e0	-0.21352339
115	0xbeb559f8	-0.35420203
116	0x3cf7f5e5	0.030268619
117	0xbe0c9d25	-0.13731821
118	0xbe15ab0f	-0.14616035
119	0xbdf294f9	-0.118448205
120	0xbd341af4	-0.043971017
121	0x3e31d2ff	0.17365645
122	0xbe7e8248	-0.24854386
123	0xbd5fdc46	-0.05465343
124	0xbe89de8e	-0.26927608
125	0xbda0a9b5	-0.07844869
126	0x3d1b2849	0.037880216
127	0xbd4a2043	-0.049347173
128	0xbd9d57b9	-0.076827474
129	0xbdd3155c	-0.10306808
130	0xbe12572b	-0.14291064
131	0xbd06ed92	-0.03294141
132	0xbe026fa8	-0.12737906
133	0x3e1ce8a1	0.15323116
134	0x3e62d4c3	0.22151475
135	0xbdbe3db4	-0.09289113
136	0xbd4dc3cb	-0.05023555
137	0xbe287bf7	-0.16453539
138	0xbd57b665	-0.05266418
139	0xbdf82524	-0.12116459
140	0xbdcfa6e8	-0.10139257
141	0x3defb66e	0.117047176
142	0x3e18cbe2	0.14921525
143	0xbc93ea4b	-0.018056056
144	0xbe1e5d6d	-0.15465327
145	0x3dd9f822	0.10643031
146	0x3d9379d9	0.07200975
147	0x3dad6585	0.08466629
148	0xbd2fea03	-0.04294778
149	0xbe9ecaea	-0.31014186
150	0x3e4f6f7b	0.2025737
151	0xbe033ccf	-0.12816165
152	0x3d4476a4	0.047964707
153	0xbd440454	-0.04785569
154	0x3c6fcecf	0.014636709
155	0x3d147594	0.036244944
156	0x3ca7eaf0	0.02049777
157	0xbcf64b04	-0.030065067
158	0xbe17c7d6	-0.14822325
159	0xbcf4f39c	-0.029901318
160	0xbdb5eefb	-0.088834725
161	0xbd98823f	-0.074467175
162	0xbd8fea25	-0.070270814
163	0x3cdbb00a	0.02681734
164	0xbdae165f	-0.08500361
165	0x3d977562	0.07395436
166	0xbde3fdb4	-0.111323744
167	0x3ca36e91	0.019950183
168	0x3cbf976d	0.023387635
169	0x3ba2eb5a	0.0049719037
170	0xbe5134fd	-0.2043037
171	0x3d809293	0.06277957
172	0x3de4ed51	0.11178077
173	0x3d8dd079	0.06924529
174	0xbe3eb910	-0.18625283
175	0xba38092a	-0.00070204085
176	0xbde7fc40	-0.1132741
177	0x3d726421	0.05917752
178	0xbd88dc34	-0.066826254
179	0xbd941666	-0.07230835
180	0xbd11a230	-0.035555065
181	0x3dda8d11	0.106714375
182	0xbded6b39	-0.11592717
183	0xbe278f6c	-0.16363305
184	0xbe0750d0	-0.13214421
185	0xbcd1acc2	-0.025595073
186	0xbda671c1	-0.081271656
187	0xbdba4030	-0.09094274
188	0xbe0e96eb	-0.13924758
189	0xbdb3c463	-0.08777692
190	0xbd96fa32	-0.0737194
191	0x3e05d3a0	0.1306901
192	0xbd59f007	-0.053207424
193	0xbc23121f	-0.009953051
194	0x3c04bbb4	0.008101393
195	0x3c0fd36e	0.008778436
196	0x3d959950	0.07304633
197	0xbe902675	-0.2815434
198	0x3d6dd724	0.058066502
199	0xbc08b851	-0.008344726
200	0xbcd26d44	-0.025686868
201	0xbe44fa85	-0.1923619
202	0x3d9f13cb	0.07767447
203	0xbe2a4a92	-0.16630009
204	0x3d4bad29	0.049725685
205	0x3e5ac36f	0.21363614
206	0x3c498ce0	0.012301654
207	0x3d6b96c2	0.05751682
208	0xbd8aba97	-0.067738704
209	0x3da6b057	0.08139103
210	0xbcce71df	-0.025200782
211	0xbe32dfb5	-0.1746815
212	0xbd901d79	-0.070368715
213	0x3e4b7f6d	0.19872828
214	0x3e26a6cf	0.1627457
215	0xbdf1473c	-0.11781165
216	0x3d01605a	0.03158603
217	0xbdba0c89	-0.09084422
218	0x3d986947	0.07441955
219	0xbe34fb1b	-0.17673914
220	0x3e00f4cc	0.12593383
221	0x3de2f080	0.11081028
222	0xbe0825af	-0.13295625
223	0x3ca4d512	0.020121131
224	0x3d6c17e1	0.05763996
225	0xbef72488	-0.4827006
226	0x3d415820	0.047203183
227	0x3d616d89	0.0550361
228	0xbe083453	-0.1330121
229	0x3e0688fa	0.1313819
230	0x3d8ed0ab	0.06973394
231	0x3e6511e2	0.22370103
232	0xbc4283d3	-0.01187225
233	0xbe54d225	-0.20783289
234	0xbcf66511	-0.03007749
235	0x3d10a827	0.035316613
236	0x3e0a7819	0.13522376
237	0x3d35f823	0.044426095
238	0xbd9afd77	-0.07567876
239	0xbd80f371	-0.06296433
240	0x3cf5eec1	0.030021073
241	0x3d57c2d0	0.052676022
242	0x3b15518d	0.0022784204
243	0xbe52ea6e	-0.2059724
244	0x3e66b810	0.22531152
245	0xbe0ce699	-0.13759841
246	0x3e4d116e	0.2002618
247	0x3d1f4e88	0.038893253
248	0x3e0331bd	0.12811942
249	0xbe22085b	-0.158235
250	0xbdf5928f	-0.119908445
251	0x3d15f3f7	0.036609616
252	0xbd140270	-0.036135137
253	0x3dfb899b	0.122821055
254	0x3d696bfd	0.05698775
255	0xbe113675	-0.1418093

fc3.bias f4 [10]
0	0xbc9cd485	-0.019144306
1	0x3ce0d995	0.027447501
2	0xbd1b1a1e	-0.037866704
3	0x3e1ac467	0.15113984
4	0xbc8b601a	-0.017013598
5	0x3ca97dbf	0.020689843
6	0x3d875d8f	0.06609642
7	0xbe02b804	-0.12765509
8	0x3cca8599	0.024721907
9	0xbbde79ef	-0.006789438
