lab02-models/hip-1-model.pth (torch, 181175 bytes, 10 tensors)

conv_block1.0.weight f4 [6, 1, 5, 5]
0.2493309 0.058177236 0.21218932 -0.04551119 -0.011014252 0.14848582 0.010766817 -0.074742645
0.2573184 0.06124144 -0.17105927 0.2116896 0.1806137 0.12442012 0.2958494 -0.21135962
-0.13494699 -0.23979524 -0.19912836 -0.15769668 -0.25523865 -0.06725961 -0.045621846 -0.13467331
0.0067709484 0.25433317 0.15030283 0.04366029 0.06887292 -0.21108499 0.32654163 -0.12824897
-0.08877714 0.07736663 -0.26635543 0.27412853 -0.12751612 -0.07247814 0.0018214519 -0.2674678
0.0002591881 -0.09120702 0.08590415 -0.055771522 -0.2144196 0.004694025 0.074942105 0.11259787
-0.16588932 -0.04591027 -0.1376202 0.0691186 0.16056944 -0.10967076 -0.16736557 -0.11514241
0.012659021 -0.22297592 -0.037956487 -0.13084681 -0.17492254 0.0029457388 -0.14236875 0.08920875
-0.13523728 -0.18508849 -0.19852735 0.059701674 0.030463202 -0.019018333 -0.10296685 -0.115948044
0.09201484 -0.013828935 -0.095871136 -0.14758451 0.046196878 -0.13205877 0.0011909492 0.24577479
-0.18186319 0.2958545 0.14629559 0.24590766 0.011104563 0.24736781 0.15927505 0.1628989
0.21659362 -0.037483428 0.17938896 -0.10092082 -0.23842557 -0.21830384 -0.23758112 -0.056891125
-0.24327542 -0.23335218 -0.10689075 0.11411483 0.22817747 0.16300143 -0.34849954 -0.27833056
-0.13139868 -0.18639152 0.28258273 0.178785 0.12184747 0.021751186 0.11348651 0.34628323
0.060093313 0.25519827 -0.06195236 -0.079486884 0.13179733 0.102130815 0.20623927 0.19828711
-0.2025869 -0.26916277 -0.06854533 0.038138576 0.07086728 -0.17835106 0.07828831 0.0419549
0.015270758 0.2819748 -0.13410771 -0.033255067 0.0055325353 0.1157065 -0.017525733 -0.13244824
-0.11662002 0.004100612 0.250405 0.11185601 -0.14450034 -0.19383042 -0.1838755 0.20973703
0.30291465 -0.26001266 -0.078994185 -0.086581066 0.0829945 0.31023487
00000000: 9950 7f3e 414b 6e3d 2848 593e f169 3abd
00000010: 1f75 34bc ab0c 183e 4e67 303c ac12 99bd
00000020: 3dbf 833e 4ed8 7a3d 292a 2fbe 29c5 583e
00000030: ccf2 383e facf fe3d 9379 973e a86e 58be
00000040: 8b2f 0abe e28c 75be 4ee8 4bbe 3d7b 21be
00000050: a4ae 82be 68bf 89bd f9dd 3abd cde7 09be
00000060: d5de dd3b f537 823e fce8 193e 22d5 323d
00000070: 3f0d 8d3d aa26 58be 7730 a73e b353 03be
00000080: cad0 b5bd 6572 9e3d bd5f 88be 935a 8c3e
00000090: 9693 02be 6b6f 94bd c9bd ee3a 8af1 88be
000000a0: a3e3 8739 bfca babd 84ee af3d ae70 64bd
000000b0: d090 5bbe 56d0 993b 3f7b 993d b699 e63d
000000c0: e4de 29be 680c 3cbd 4fec 0cbe 0d8e 8d3d
000000d0: 516c 243e 109b e0bd e161 2bbe c9cf ebbd
000000e0: c867 4f3c cd53 64be 4378 1bbd b5fc 05be
000000f0: e51e 33be 4c0d 413b 1dc9 11be 14b3 b63d
00000100: a47b 0abe d687 3dbe c14a 4bbe be89 743d
00000110: f78d f93c 56cc 9bbc 49e0 d2bd 2b76 edbd
00000120: 4772 bc3d c292 62bc 1658 c4bd 6520 17be
00000130: f038 3d3d 6a3a 07be a019 9c3a 63ac 7b3e
00000140: 583a 3abe 3e7a 973e 83ce 153e 38cf 7b3e
00000150: eaef 353c fd4d 7d3e 0019 233e f8ce 263e
00000160: b8ca 5d3e 3988 19bd bdb1 373e 93af cebd
00000170: d525 74be 0b8b 5fbe 7748 73be ab06 69bd
00000180: 311d 79be e0f3 6ebe 8ae9 dabd 09b5 e93d
00000190: 5ba7 693e d9e9 263e 886e b2be 5881 8ebe
000001a0: 608d 06be 6bdd 3ebe afae 903e 6a13 373e
000001b0: 2b8b f93d 8b2f b23c 9e6b e83d 094c b13e
000001c0: 6824 763d 59a9 823e c2c1 7dbd 05ca a2bd
000001d0: e1f5 063e f629 d13d 6330 533e c70b 4b3e
000001e0: f172 4fbe b4cf 89be 7e61 8cbd 3237 1c3d
000001f0: dd22 913d a9a1 36be 9f55 a03d e7d8 2b3d
00000200: 3432 7a3c 005f 903e 8853 09be 7736 08bd
00000210: 454a b53b 88f7 ec3d 2092 8fbc 83a0 07be
00000220: 7ad6 eebd 6d5e 863b 1635 803e c414 e53d
00000230: e6f7 13be 7b7b 46be dc49 3cbe 4ec5 563e
00000240: a117 9b3e 6120 85be b4c7 a1bd 6a51 b1bd
00000250: 05f9 a93d 1bd7 9e3e

conv_block1.0.bias f4 [6]
0.046684116 -0.07086673 0.08833688 0.12520842 0.1553203 -0.06125606
00000000: d837 3f3d 9322 91bd f7e9 b43d a336 003e
00000010: 490c 1f3e a2e7 7abd

conv_block2.0.weight f4 [16, 6, 5, 5]
0.03187233 0.039368503 0.022315085 0.03720995 -0.010720293 0.004412332 -0.11821045 -0.105250314
-0.05480489 -0.0895865 0.041067593 -0.020129237 -0.04838101 0.0010976995 -0.11645105 0.11280153
0.10417445 0.14830367 0.07055994 0.14230843 0.041275557 0.048163477 0.0005487097 0.1958302
0.16100004 0.078244574 0.015044815 0.0354081 -0.02323655 -0.021170573 0.09700257 0.039549187
0.0015603467 0.046660233 0.060899533 -0.008001129 -0.028080108 -0.049338263 -0.050002202 -0.10700994
-0.022229156 -0.08293277 0.03575536 -0.1310733 -0.04593905 -0.055771284 0.050072078 0.09860828
0.005390574 0.052621372 -0.019703973 0.061852027 -0.016330065 0.05495904 0.026831066 0.09804752
0.07565991 0.083942205 -0.0024754503 0.12904704 -0.0081852 -0.033500403 0.020795032 0.015616153
0.0034806314 0.03221284 -0.057319462 -0.08114843 -0.037887413 -0.12781315 0.010054245 -0.099164456
-0.101581894 -0.07179272 0.039826743 -0.08338542 -0.08938383 -0.21392886 -0.090746656 -0.04229285
-0.2069553 -0.27917564 -0.31545514 -0.29770026 -0.1767733 -0.01863775 -0.15432432 -0.21767953
-0.25032306 -0.04054054 0.09114166 0.019170696 0.03968885 0.10720406 0.15546219 -0.017610421
0.07510131 0.049191877 0.065533005 0.085434094 -0.13209164 -0.029303126 -0.081198856 -0.14655952
-0.17041805 0.098594904 -0.07458909 -0.13844964 -0.2217939 -0.19550386 0.15047309 0.17041655
0.14114696 0.034775104 0.055247825 0.113394976 0.16512781 0.1768373 0.18387942 0.1436178
0.118004 0.027957795 -0.09536866 0.013389681 0.050497428 -0.15644182 0.027610896 0.07653957
-0.050327364 -0.041481663 -0.076597124 -0.10823598 -0.016295474 -0.04281071 -0.067138694 -0.026124494
0.083063476 -0.083378285 -0.110492565 -0.045981374 0.09525973 0.0017634397 -0.12566268 -0.061253637
-0.014986717 0.18028781 0.013105004 -0.02007611 -0.0346074 -0.0074512414 -0.045809805 -0.06409956
-0.06486065 -0.029418303 0.07023958 -0.021526394 0.11462181 0.07023541 0.01855446 0.037775815
0.12426623 0.09942153 0.025583554 -0.010748201 0.03022679 0.135323 0.09965186 0.15039201
0.107722685 0.10099377 0.12643555 0.15993111 0.058765873 0.12141177 0.10948596 0.015418956
-0.07588521 -0.0072294734 -0.09804525 0.042561267 0.020444486 0.011944041 0.054021776 -0.026569033
0.057401888 -0.007384131 0.009327358 -0.06006926 -0.058514684 0.0403814 -0.06086706 -0.07681746
-0.04482087 0.0019156766 -0.015856944 -0.07658102 -0.019369727 -0.1167347 -0.08239449 0.051796157
-0.062094454 0.030545967 -0.009430736 -0.04348125 -0.068493925 0.015736567 -0.0931724 -0.055601284
0.017489715 0.03553968 0.053019315 -0.038725715 -0.068719804 0.07142521 -0.05452754 0.069481954
0.07151199 0.0016072603 -0.044024773 -0.07881939 0.090375945 0.11730228 0.059922215 0.015976287
0.032380477 0.027485128 0.009125082 0.0232014 0.0004344104 0.06973036 0.058512155 0.023320181
0.11970107 0.1502446 0.10110945 0.06918723 0.08684246 -0.0047973287 0.08187594 0.026053697
0.11047257 0.12939247 0.033087783 0.14979455 0.04280473 -0.019196736 -0.060099624 0.044180468
0.031851105 0.047619693 -0.00012901521 -0.019091886 0.079815745 0.031119047 -0.005524082 0.10317763
00000000: 8f8c 023d de40 213d 20ce b63c 7669 183d
00000010: 2ba4 2fbc 5395 903b 5218 f2bd 7a8d d7bd
00000020: 187b 60bd 2079 b7bd 7e36 283d 12e6 a4bc
00000030: 2a2b 46bd afe0 8f3a e37d eebd 7d04 e73d
00000040: 6a59 d53d ebdc 173e bb81 903d 4db9 113e
00000050: 8f10 293d 1147 453d 49d7 0f3a b687 483e
00000060: 32dd 243e b13e a03d 877e 763c 1508 113d
00000070: 945a bebc e96d adbc 49a9 c63d 54fe 213d
00000080: 8c84 cc3a cd1e 3f3d ca71 793d 2b17 03bc
00000090: 4108 e6bc eb16 4abd 1ccf 4cbd 0728 dbbd
000000a0: eb19 b6bc a8d8 a9bd 3674 123d 1438 06be
000000b0: 962a 3cbd 6e70 64bd 6118 4d3d 23f3 c93d
000000c0: 6aa3 b03b 8289 573d 3a6a a1bc 8d58 7d3d
000000d0: a1c6 85bc bb1c 613d d3cc db3c 23cd c83d
000000e0: 95f3 9a3d e4e9 ab3d 2a3b 22bb e824 043e
000000f0: 381b 06bc b837 09bd 585a aa3c e5da 7f3c
00000100: 4e1b 643b 9cf1 033d d0c7 6abd 2631 a6bd
00000110: d52f 1bbd 73e1 02be 8fba 243c bc16 cbbd
00000120: 2b0a d0bd 1008 93bd 5e21 233d fac5 aabd
00000130: df0e b7bd 2b10 5bbe 62d9 b9bd 443b 2dbd
00000140: 17ec 53be 1cf0 8ebe 5683 a1be 2b6c 98be
00000150: 0f04 35be 32ae 98bc 3207 1ebe 62e7 5ebe
00000160: 582a 80be d60d 26bd 7ba8 ba3d dd0b 9d3c
00000170: c790 223d cd8d db3d 7b31 1f3e bb43 90bc
00000180: b7ce 993d 6c7d 493d 2b36 863d 12f8 ae3d
00000190: 0843 07be 1c0d f0bc 964b a6bd b313 16be
000001a0: 1282 2ebe 20ec c93d 2ac2 98bd bec5 0dbe
000001b0: f11d 63be 2a32 48be 9e15 1a3e ad81 2e3e
000001c0: d488 103e 5770 0e3d 8b4b 623d a03b e83d
000001d0: 4417 293e d614 353e e34a 3c3e 8b10 133e
000001e0: 15ac f13d bf07 e53c a550 c3bd 6460 5b3c
000001f0: 64d6 4e3d 4932 20be 3f30 e23c c7c0 9c3d
00000200: 1124 4ebd ade8 29bd f4de 9cbd d3aa ddbd
00000210: 167e 85bc 485a 2fbd 0380 89bd 0903 d6bc
00000220: 2f1d aa3d 3cc2 aabd ed49 e2bd f756 3cbd
00000230: 8917 c33d 3823 e73a b8ad 00be 18e5 7abd
00000240: d98a 75bc 5e9d 383e 5fb6 563c a776 a4bc
00000250: 7dc0 0dbd 8b29 f4bb 10a3 3bbd a146 83bd
00000260: a9d5 84bd a7fe f0bc c5d9 8f3d 1f58 b0bc
00000270: d7be ea3d 95d7 8f3d 86ff 973c d0ba 1a3d
00000280: 4b7f fe3d 849d cb3d 9a94 d13c 3919 30bc
00000290: 2c9e f73c 1d92 0a3e 4616 cc3d 5d00 1a3e
000002a0: b69d dc3d d2d5 ce3d 5278 013e fbc4 233e
000002b0: 7cb4 703d bca6 f83d 2d3a e03d ca9f 7c3c
000002c0: b469 9bbd 38e5 ecbb f3cb c8bd b954 2e3d
000002d0: 327b a73c f0b0 433c f045 5d3d 4da7 d9bc
000002e0: 3e1e 6b3d 95f6 f1bb c6d1 183c 2f0b 76bd
000002f0: 18ad 6fbd f866 253d bd4f 79bd 7952 9dbd
00000300: 1796 37bd 7117 fb3a 6ce6 81bc 83d6 9cbd
00000310: 43ad 9ebc 9a12 efbd 71be a8bd 3528 543d
00000320: c156 7ebd 893b fa3c 6083 1abc 6519 32bd
00000330: 8b46 8cbd f9e9 803c 2cd1 bebd 2cbe 63bd
00000340: 9746 8f3c 0e92 113d c82a 593d db9e 1ebd
00000350: f8bc 8cbd 6147 923d 4558 5fbd 8e4c 8e3d
00000360: e174 923d b5aa d23a 5253 34bd 0f6c a1bd
00000370: 0617 b93d 2e3c f03d ff70 753d b4e0 823c
00000380: 64a1 043d 7e28 e13c 5e81 153c dd10 be3c
00000390: 94c1 e339 cace 8e3d 71aa 6f3d f709 bf3c
000003a0: d625 f53d b8d9 193e 7912 cf3d 09b2 8d3d
000003b0: 76da b13d e932 9dbb 93ae a73d 906e d53c
000003c0: 713f e23d 767f 043e 0e87 073d be63 193e
000003d0: 0354 2f3d 7942 9dbc 062b 76bd 94f6 343d
000003e0: 4e76 023d de0c 433d 4248 07b9 9666 9cbc
000003f0: 7076 a33d 5fed fe3c 5c03 b5bb cb4e d33d

conv_block2.0.bias f4 [16]
-0.018006116 0.08474128 0.10064039 -0.012796763 0.011734429 0.078506246 0.092004664 0.058344547
-0.012630796 0.033908647 0.098367244 -0.050098434 -0.030116314 -0.0024154447 0.05928461 0.004672818
00000000: 9081 93bc d68c ad3d 8c1c ce3d 84a9 51bc
00000010: c341 403c e2c7 a03d f16c bc3d b1fa 6e3d
00000020: 66f1 4ebc cbe3 0a3d c474 c93d 0434 4dbd
00000030: 7db6 f6bc 704c 1ebb 6bd4 723d 701e 993b

fc1.weight f4 [120, 256]
-0.023377927 0.013882029 0.0036699565 0.011789703 -0.05577743 0.0536004 0.0015127413 -0.080820605
-0.029408798 0.02354806 -0.05084899 0.03670756 0.03717318 0.0048026163 0.010558005 -0.01455566
-0.022158967 0.020170862 -0.03472443 -0.035659738 -0.016084699 -0.015748175 0.05004567 0.00736141
-0.010106522 0.030201364 -0.027121032 -0.018471753 -0.025687527 -0.07207846 0.03419733 -0.061247785
-0.06704074 0.041194204 -0.046672545 0.0104751205 0.0118868835 -0.05227062 -0.05843585 -0.016865827
0.00024795893 0.013716053 0.0035432621 -0.060576208 0.028058676 -0.05147549 -0.007224002 -0.03555102
0.011309618 -0.060026012 -0.06405442 0.013298372 -0.06833443 0.031552397 0.026399761 0.040035717
-0.006713007 -0.050723143 0.039588463 0.025929846 0.018392505 0.044001773 0.04748172 0.040358882
-0.018899055 0.036005605 -0.037042852 0.022915687 -0.061046176 0.007871074 -0.045776885 0.014894437
0.05243376 -0.0041715335 -0.0061563603 0.023092866 -0.07067366 -0.040530417 0.026582005 -0.064098805
-0.082489625 -0.07843841 0.013431506 -0.05038265 -0.02601997 -0.0071015623 -0.015891487 0.018025357
-0.0070846635 -0.07850833 0.048083574 0.030710598 -0.07400765 0.021530002 0.03731823 -0.016594965
0.03688779 -0.010605864 -0.05241962 -0.039557867 0.045338366 -0.03367747 0.022170814 -0.06606427
0.013671992 0.009834751 0.014905441 0.035987746 -0.057405513 -0.015956378 -0.026583672 0.024795413
-0.0012891991 -0.058817387 0.04234524 0.0519293 -0.036335763 0.02503152 -0.032715 -0.03420694
0.013818947 -0.03898618 -0.029946914 -0.06965069 -0.061676126 -0.062774196 -0.022856468 -0.047646414
-0.036721293 -0.030399581 -0.021435257 -0.064963646 0.013543834 0.0045656823 -0.011736293 -0.01032532
-0.009926548 -0.03786631 0.020082988 -0.026939388 -0.0475597 -0.038517695 -0.025656246 0.03075917
-0.0139955655 -0.0069707446 -0.015951045 0.01481217 -0.05585487 -0.03088229 -0.06316837 0.031661946
0.03828406 -0.0630466 -0.04927274 0.008387037 -0.04051001 -0.028785003 -0.0403681 0.004313331
-0.00021943027 -0.06499055 -0.067502506 -0.0006324195 -0.01631064 -0.032514714 -0.027421728 -0.0065899137
-0.004286786 -0.0028298064 -0.06632544 -0.018684426 0.0008027171 -0.021622295 0.044863895 0.010413321
0.02793048 -0.020370334 0.025018763 -0.05520166 0.030255208 -0.04124949 0.006585857 -0.050633345
-0.0077230576 -0.026184822 -0.020410523 -0.0052532395 0.027988143 -0.021148602 0.023759745 -0.06684986
-0.029604547 -0.005588859 -0.0035280026 -0.0017957761 0.02751503 0.051515214 -0.04104389 0.03581277
-0.037476763 -0.0050027533 -0.0044204732 0.00179435 -0.03112201 -0.07900659 -0.07419017 -0.008151099
-0.05299605 -0.034797914 0.046677746 0.04346034 -0.052329794 -0.02078857 -0.016793298 0.03919184
-0.025548954 -0.00047399398 -0.033102863 -0.012676968 -0.0044919914 0.03484491 0.0033258763 -0.017308254
-0.06198313 0.042149495 0.01678985 0.014649975 -0.06925158 -0.047597285 -0.049835224 0.004000504
-0.025404735 0.06733913 -0.029115545 -0.03237297 0.06693002 -0.032550253 0.043381352 0.029487954
-0.05800654 0.049309433 -0.04150787 -0.06057096 0.053550154 -0.0041570533 -0.05493028 0.034824535
0.034083188 -0.04952505 -0.044288885 0.00057598733 -0.07036185 -0.033220544 0.03244091 0.039689723
00000000: 1183 bfbc 7371 633c a783 703b 9929 413c
00000010: e076 64bd 188c 5b3d 2d47 c63a 4685 a5bd
00000020: b8ea f0bc dce7 c03c 0847 50bd ab5a 163d
00000030: e842 183d 445f 9d3b 7cfb 2c3c dd7a 6ebc
00000040: b986 b5bc 5d3d a53c 343b 0ebd f20f 12bd
00000050: 0fc4 83bc 5102 81bc b0fc 4c3d fc37 f13b
00000060: d395 25bc da68 f73c ed2c debc 1352 97bc
00000070: a66e d2bc df9d 93bd 8012 0c3d f5de 7abd
00000080: a84c 89bd 41bb 283d b62b 3fbd d79f 2b3c
00000090: 34c1 423c b819 56bd 6e5a 6fbd 342a 8abc
000000a0: 7c00 8239 4cb9 603c 1336 683b c21e 78bd
000000b0: 4fdb e53c f7d7 52bd 52b7 ecbb f29d 11bd
000000c0: fa4b 393c d6dd 75bd f72e 83bd 6ae1 593c
000000d0: ecf2 8bbd 163d 013d 5044 d83c 7efc 233d
000000e0: c9f8 dbbb 12c3 4fbd 8327 223d d46a d43c
000000f0: e1ab 963c 343b 343d 317c 423d 5b4f 253d
00000100: 31d2 9abc 9d7a 133d 3fba 17bd aeb9 bb3c
00000110: 8e0b 7abd adf5 003c 8b80 3bbd cc07 743c
00000120: c8c4 563d 5cb1 88bb 4bbb c9bb 402d bd3c
00000130: 5abd 90bd 3903 26bd 81c2 d93c 3c46 83bd
00000140: 52f0 a8bd 51a4 a0bd d20f 5c3c 0a5e 4ebd
00000150: d527 d5bc 39b4 e8bb dd2e 82bc eaa9 933c
00000160: 7726 e8bb fac8 a0bd 48f3 443d cb94 fb3c
00000170: 5391 97bd b05f b03c 00db 183d 2af2 87bc
00000180: a717 173d 38c4 2dbc f5b5 56bd 6e07 22bd
00000190: b9b4 393d 63f1 09bd 919f b53c b44c 87bd
000001a0: 7e00 603c ef21 213c f335 743c e367 133d
000001b0: 0b22 6bbd f3b6 82bc 00c6 d9bc c01f cb3c
000001c0: 58fa a8ba 80ea 70bd 3472 2d3d d1b3 543d
000001d0: cfd4 14bd e70e cd3c 2a00 06bd 941c 0cbd
000001e0: dd68 623c f9af 1fbd 3b53 f5bc 05a5 8ebd
000001f0: 1ba0 7cbd c28f 80bd 7d3d bbbc e328 43bd
00000200: 1169 16bd 8b08 f9bc fe98 afbc a90b 85bd
00000210: f5e6 5d3c b89b 953b 9549 40bc 882b 29bc
00000220: f6a2 22bc b419 1bbd 1485 a43c feaf dcbc
00000230: f6cd 42bd bbc4 1dbd 0c2d d2bc a8fa fb3c
00000240: a84d 65bc d86a e4bb c4ab 82bc beae 723c
00000250: 13c8 64bd dbfc fcbc 6b5e 81bd f5af 013d
00000260: bfcf 1c3d 931e 81bd 36d2 49bd c869 093c
00000270: d3ed 25bd 87ce ebbc 0559 25bd d856 8d3b
00000280: dd16 66b9 c419 85bd c13e 8abd f4c8 25ba
00000290: e49d 85bc 262e 05bd 88a3 e0bc 34f0 d7bb
000002a0: 2b78 8cbb 4674 39bb a2d5 87bd 1510 99bc
000002b0: 6f6d 523a 3d21 b1bc 34c3 373d a29c 2a3c
000002c0: 76ce e43c b0df a6bc 26f4 cc3c 231b 62bd
000002d0: c5d9 f73c 3af5 28bd 2cce d73b e964 4fbd
000002e0: b411 fdbb 8d81 d6bc f833 a7bc 5e23 acbb
000002f0: 6447 e53c d53f adbc cca3 c23c 94e8 88bd
00000300: 3c85 f2bc bf22 b7bb 1036 67bb 3f60 ebba
00000310: 3367 e13c 9e01 533d a31d 28bd 69b0 123d
00000320: 3c81 19bd 23ee a3bb 9ed9 90bb 6530 eb3a
00000330: 96f3 febc 35ce a1bd 04f1 97bd 308c 05bc
00000340: 6312 59bd 4288 0ebd 2a31 3f3d 7803 323d
00000350: c457 56bd cb4c aabc 1992 89bc 9f87 203d
00000360: 0a4c d1bc 6582 f8b9 de96 07bd 0fb3 4fbc
00000370: 8e31 93bb 89b9 0e3d f2f6 593b 0aca 8dbc
00000380: 06e2 7dbd f3a4 2c3d de8a 893c 7306 703c
00000390: c6d3 8dbd 5ff5 42bd 0520 4cbd a916 833b
000003a0: 971d d0bc 19e9 893d b983 eebc 8599 04bd
000003b0: 9b12 893d 6a53 05bd a5b0 313d b990 f13c
000003c0: 4498 6dbd b0f8 493d 2804 2abd 4119 78bd
000003d0: 6857 5b3d e437 88bb 93fe 60bd 2ca4 0e3d
000003e0: d09a 0b3d c7da 4abd 4368 35bd dbfd 163a
000003f0: e019 90bd 4412 08bd c2e0 043d b191 223d

fc1.bias f4 [120]
-0.00060520694 0.018743474 -0.04127179 -0.017296752 0.059161767 -0.056413434 0.010116531 0.027929787
0.07100477 -0.017192982 0.042808086 0.015573851 -0.005895698 0.01903893 0.006151168 0.055640608
0.027631495 0.006369901 0.022756733 0.032607727 0.022951491 0.016469771 -0.049938757 0.09436424
0.028817747 0.016763715 0.0405462 -0.017717492 -0.027187368 -0.034214403 0.027053941 0.09486688
0.022400724 -0.006744203 -0.056116723 0.042133696 0.0005446893 0.03156026 0.026972085 0.015220844
0.045457188 0.015260847 0.043011893 0.07074304 -0.051615037 0.03657218 0.065965585 -0.040625516
0.066931315 0.03201147 -0.0004298148 0.0045016147 -0.027377771 -0.054127604 0.037106134 0.002491576
-0.030876681 0.012981784 -0.008606715 0.011957781 -0.052516732 0.024099998 -0.014710348 -0.014441036
0.026664695 -0.0340456 0.026325705 0.03280748 0.031030817 -0.04975855 0.0033915997 -0.06731851
0.040651858 -0.035754997 0.02251298 0.088321775 0.049467042 -0.023478 0.042159878 0.04811099
0.08787705 0.03306188 0.054302745 -0.022546407 0.03605993 -0.05283333 -0.018895892 0.02413676
0.01115448 -0.068788536 0.07434859 0.015392849 0.082999215 0.0927437 -0.057229668 -0.030227398
0.027939316 0.05330005 -0.044941854 0.0057924897 -0.031417612 -0.04711073 -0.0138125485 0.018708866
-0.024422495 0.040118746 -0.036504984 0.014991807 -0.014483999 -0.003156332 0.031720318 0.016534947
-0.011047269 -0.04394155 -0.03706484 0.01719278 0.03379847 0.016146086 -0.04192364 -0.024552979
00000000: c0a6 1eba ea8b 993c 9c0c 29bd ebb1 8dbc
00000010: 9c53 723d c611 67bd cebf 253c 02cd e43c
00000020: f36a 913d 4cd8 8cbc 8857 2f3d 7729 7f3c
00000030: b330 c1bb 88f7 9b3c bd8f c93b 68e7 633d
00000040: 725b e23c 9aba d03b 546c ba3c ae8f 053d
00000050: c404 bc3c 9deb 863c 958c 4cbd 0a42 c13d
00000060: 3213 ec3c 0f54 893c c613 263d 4624 91bc
00000070: 0bb8 debc 6724 0cbd 3aa0 dd3c 9149 c23d
00000080: b981 b73c 7afe dcbb a6da 65bd 6294 2c3d
00000090: 7bc9 0e3a 5545 013d 90f4 dc3c d960 793c
000000a0: 5131 3a3d a208 7a3c 3d2d 303d bae1 903d
000000b0: 4a6a 53bd b6cc 153d f718 873d f166 26bd
000000c0: 4913 893d 761e 033d c458 e1b9 4882 933b
000000d0: 5947 e0bc e8b4 5dbd 9afc 173d b549 233b
000000e0: 18f1 fcbc 8cb1 543c 2e03 0dbc 92ea 433c
000000f0: c91b 57bd 5c6d c53c ac03 71bc 189a 6cbc
00000100: eb6f da3c 6673 0bbd 01a9 d73c 2361 063d
00000110: 5734 fe3c 9fcf 4bbd 9a45 5e3b 49de 89bd
00000120: 9082 263d d573 12bd 246d b83c 0ce2 b43d
00000130: f49d 4a3d ef54 c0bc d6af 2c3d 0810 453d
00000140: e2f8 b33d e56b 073d 8e6c 5e3d 3eb3 b8bc
00000150: 94b3 133d c367 58bd 8fcb 9abc 74ba c53c
00000160: 48c1 363c 01e1 8cbd 1344 983d 4a32 7c3c
00000170: 7efb a93d 69f0 bd3d a869 6abd 739f f7bc
00000180: fee0 e43c 2751 5a3d f314 38bd edce bd3b
00000190: c1af 00bd 2ef7 40bd 074e 62bc 5643 993c
000001a0: af11 c8bc 8e53 243d 4086 15bd 32a0 753c
000001b0: 4c4e 6dbc 77da 4ebb 2aed 013d 4c74 873c
000001c0: 9bff 34bc 0efc 33bd 4dd1 17bd dfd7 8c3c
000001d0: 4470 0a3d cc44 843c 1fb8 2bbd 5423 c9bc

fc2.weight f4 [84, 120]
-0.042330414 -0.009080546 0.01639033 0.014754088 0.110313445 0.05443719 -0.007445016 -0.032313164
0.082068995 -0.08640019 -0.027310992 0.011315281 0.0212386 0.0128121665 0.08169607 -0.009813198
0.021634215 0.0018129274 0.06601975 -0.02458961 -0.15015087 0.036638558 0.05487692 -0.041366063
0.07064919 0.07945997 0.08461332 0.024049101 0.0089443475 0.07373268 -0.06842118 -0.012712273
0.096441604 -0.031162076 -0.025553308 -0.07333221 -0.045241904 0.093224175 -0.0058028395 0.0018420013
-0.093763776 0.033276353 -0.109036125 0.007259018 -0.05518693 -0.09927406 0.1433222 0.013872414
0.009567722 0.079248376 0.075247735 0.09106825 0.11200518 -0.033679247 8.771046e-05 0.13578764
0.04364757 -0.06719371 -0.07781452 0.12818378 0.049999 -0.03633642 0.13646634 0.0773858
-0.07509245 -0.108775705 0.07543851 0.1489503 0.08412766 0.019127216 -0.021595875 0.044294175
-0.12982105 0.07596802 -0.0225033 -0.012504638 0.08022627 0.14828828 0.016936038 0.031122897
0.012242749 -0.11875244 -0.05608846 -0.032819327 0.1077865 0.068662986 -0.037168235 -0.06499269
0.12050226 -0.0007671999 -0.0435765 0.0053513846 0.10488828 -0.1388229 -0.025975376 0.0076327603
-0.038204435 0.10184996 0.061456747 0.049252488 0.12876171 -0.072593026 -0.013464732 0.028806604
-0.009968082 -0.11465391 -0.109116584 0.00027958624 0.109256566 -0.049004674 -0.016439745 0.015138607
-0.03139635 0.035432775 -0.021411784 0.025203861 -0.086203784 0.012601007 -0.11369561 -0.025810486
-0.08723238 0.091017246 -0.073572926 -0.056224383 0.1359983 -0.051496588 -0.0046323882 0.058383044
0.0307897 0.03483889 0.054829508 0.033082865 -0.04282939 0.06791038 -0.12272729 0.089779004
0.08351477 0.07487407 -0.013349971 -0.033355143 0.08627766 0.11787736 0.049377296 0.13789277
-0.07053782 -0.02339796 -0.014150275 0.031099295 -0.0745363 0.02670657 -0.021881608 -0.12118051
0.13560627 -0.012387677 0.062660046 -0.00705451 -0.03993757 -0.044158295 -0.0782968 0.019935658
-0.12122334 0.103906564 0.10866432 -0.038371563 0.069394305 0.094701566 0.09119887 -0.048072837
0.025793187 -0.058529507 -0.029529907 -0.005812723 0.06694599 0.082606815 0.097410016 0.03597933
0.10186996 -0.06374536 0.041142616 0.056898195 -0.089073986 -0.049617898 -0.015484648 -0.031590294
0.06842446 0.07954675 -0.025540333 -0.08757786 0.007082371 0.06978918 0.055300567 -0.07411327
-0.0021063706 0.0011886057 0.00230634 0.0038453352 -0.030369967 0.051517382 -0.06379566 0.043392066
0.067489095 -0.014191186 0.0066573797 -0.033174768 -0.11744172 -0.0064283665 0.01913573 0.013192083
-0.083792984 0.035621364 -0.048305333 0.021641409 0.0013682641 -0.11413445 -0.10959055 0.08391147
-0.05364994 0.03494382 0.066453904 0.05903251 -0.095168896 -0.07619157 0.0143279545 0.036088616
0.07169459 -0.07553059 -0.05952425 -0.057990234 -0.08993445 -0.038166784 -0.030141123 0.02539404
0.078978755 0.0055602286 0.026166074 0.030579863 0.11050555 -0.06590374 0.119330324 -0.0114720045
-0.027833898 -0.06404319 0.0077758683 -0.03132336 0.0002147598 0.013778637 0.038920823 -0.005060969
0.031550474 0.22798154 -0.08481252 0.071333736 -0.08225512 0.02333959 -0.08960951 -0.024842178
00000000: a862 2dbd 92c6 14bc 0345 863c 21bb 713c
00000010: 04ec e13d 88f9 5e3d 52f5 f3bb cf5a 04bd
00000020: ca13 a83d 95f2 b0bd 4dbb dfbc ba63 393c
00000030: 93fc ad3c 1fea 513c 4550 a73d 89c7 20bc
00000040: 3d3a b13c c09f ed3a 5d35 873d 2670 c9bc
00000050: 26c1 19be 5012 163d 9fc6 603d 766f 29bd
00000060: 86b0 903d e9bb a23d c049 ad3d 9f02 c53c
00000070: 508b 123c 2901 973d 6720 8cbd 2347 50bc
00000080: 2d83 c53d 9c47 ffbc 2c55 d1bc 332f 96bd
00000090: 934f 39bd 51ec be3d bf25 bebb 4f6f f13a
000000a0: 3907 c0bd c94c 083d 554e dfbd 0edd ed3b
000000b0: b10b 62bd 3350 cbbd 0ec3 123e 1f49 633c
000000c0: efc1 1c3c f94c a23d 7c1b 9a3d fe81 ba3d
000000d0: f962 e53d 40f3 09bd 32f1 b738 ea0b 0b3e
000000e0: cbc7 323d db9c 89bd 385d 9fbd 9c42 033e
000000f0: c0cb 4c3d 7fd5 14bd d5bd 0b3e 727c 9e3d
00000100: 12ca 99bd ccc5 debd 817f 9a3d 6d86 183e
00000110: 1f4b ac3d aeb0 9c3c d5e9 b0bc cf6d 353d
00000120: cfef 04be 1f95 9b3d d758 b8bc 41e0 4cbc
00000130: ac4d a43d e2d8 173e 72bd 8a3c 72f5 fe3c
00000140: d095 483c 7b34 f3bd 03bd 65bd 8f6d 06bd
00000150: 2bbf dc3d 2e9f 8c3d b83d 18bd e31a 85bd
00000160: e4c9 f63d ea1d 49ba 467d 32bd ab5a af3b
00000170: abcf d63d 9727 0ebe 50ca d4bc 3c1c fa3b
00000180: 417c 1cbd b696 d03d 12ba 7b3d fabc 493d
00000190: 1cda 033e a7ab 94bd 2e9b 5cbc d4fb eb3c
000001a0: 2b51 23bc abcf eabd 8478 dfbd 6e95 9239
000001b0: e8c1 df3d 20b9 48bd a5ac 86bc eb07 783c
000001c0: 7699 00bd f521 113d c467 afbc 5478 ce3c
000001d0: 9c8b b0bd 7474 4e3c 3ed9 e8bd 8370 d3bc
000001e0: e4a6 b2bd 4067 ba3d 67ad 96bd 8a4b 66bd
000001f0: 2343 0b3e 16ee 52bd 4acb 97bb 0f23 6f3d
00000200: ae3a fc3c 39b3 0e3d e894 603d e681 073d
00000210: df6d 2fbd 9914 8b3d 7258 fbbd 0ede b73d
00000220: cb09 ab3d 9457 993d d6b9 5abc 679f 08bd
00000230: 58b2 b03d af69 f13d d93f 4a3d c333 0d3e
00000240: 2276 90bd 14ad bfbc 8ed6 67bc f3c3 fe3c
00000250: 7da6 98bd bdc7 da3c 0f41 b3bc 7d2d f8bd
00000260: 5fdc 0a3e aff5 4abc e953 803d 8529 e7bb
00000270: 9495 23bd 54df 34bd 135a a0bd 1b50 a33c
00000280: f143 f8bd f7cc d43d 668b de3d 802b 1dbd
00000290: 9a1e 8e3d e5f2 c13d 79c6 ba3d 06e8 44bd
000002a0: 3c4c d33c a3bc 6fbd b4e8 f1bc a878 bebb
000002b0: fb1a 893d c32d a93d e77e c73d 105f 133d
000002c0: 33a1 d03d ed8c 82bd 2985 283d 150e 693d
000002d0: 6c6c b6bd 233c 4bbd 52b3 7dbc d364 01bd
000002e0: 2022 8c3d 68e9 a23d f639 d1bc 055c b3bd
000002f0: 3c13 e83b a1ed 8e3d d982 623d b3c8 97bd
00000300: 090b 0abb fdca 9b3a f725 173b 0502 7c3b
00000310: 70ca f8bc e403 533d 4da7 82bd e1bb 313d
00000320: b937 8a3d 2682 68bc 2626 da3b 44e2 07bd
00000330: 4985 f0bd 0ca5 d2bb 89c2 9c3c 9b23 583c
00000340: a89b abbd b5e7 113d d0db 45bd 5349 b13c
00000350: 5357 b33a 53bf e9bd 0371 e0bd c7d9 ab3d
00000360: 0ac0 5bbd 4021 0f3d fc18 883d 13cc 713d
00000370: e9e7 c2bd 530a 9cbd ccbf 6a3c a8d1 133d
00000380: 9dd4 923d c8af 9abd b3cf 73bd 2b87 6dbd
00000390: 8e2f b8bd c654 1cbd 84ea f6bc 2907 d03c
000003a0: 9dbf a13d 9432 b63b 3c5a d63c 9f82 fa3c
000003b0: bc50 e23d 8af8 86bd 7563 f43d 13f5 3bbc
000003c0: ea03 e4bc 1329 83bd b6cc fe3b ec4c 00bd
000003d0: 2531 6139 cbbf 613c 716b 1f3d 7cd6 a5bb
000003e0: 123b 013d fe73 693e 30b2 adbd 6c17 923d
000003f0: 5f75 a8bd ab32 bf3c 3185 b7bd d381 cbbc

fc2.bias f4 [84]
0.09597202 -0.0253845 0.06940749 0.009553523 -0.110334985 0.06930777 0.11458576 -0.0007463358
-0.08395939 -0.06992813 0.08732036 -0.009414057 0.10245776 -0.05999085 -0.013237341 0.070157886
0.060221516 -0.05373813 0.034784418 -0.015980143 -0.062232487 -0.029729962 -0.048627287 0.060785256
-0.070489675 0.08813445 0.06239696 0.07112139 -0.08235934 -0.086419806 0.030104008 0.06551105
0.034720097 0.07881291 0.009626157 -0.05738641 0.035345715 0.05307844 0.07822912 0.08189043
-0.080727756 0.0582518 0.03458851 0.026778927 0.09135246 -0.08387974 0.04637005 -0.08631497
-0.03162994 -0.016310535 -0.08464962 0.104263335 -0.036539968 -0.013707296 -0.046040867 0.08336312
-0.018050916 -0.051458117 0.019034548 0.0804875 0.07665586 0.1071781 0.08611031 -0.045445714
-0.041791193 -0.061735425 0.065353826 0.06588751 -0.025105745 -0.040867984 0.08463467 0.067986555
0.073632136 -0.09450928 0.07007433 -0.018883498 0.046245296 -0.035048723 -0.061281726 -0.070514485
-0.060719155 0.039620746 0.0307803 -0.057060126
00000000: fa8c c43d 28f3 cfbc 8425 8e3d 6186 1c3c
00000010: 4ff7 e1bd 3bf1 8d3d f0ab ea3d bfa5 43ba
00000020: e7f2 abbd 7b36 8fbd 04d5 b23d 6b3d 1abc
00000030: 60d5 d13d f7b8 75bd 6fe1 58bc f0ae 8f3d
00000040: d6aa 763d 831c 5cbd 1b7a 0e3d cae8 82bc
00000050: 7ee7 7ebd 408c f3bc 682d 47bd f6f9 783d
00000060: e45c 90bd d67f b43d f493 7f3d 17a8 913d
00000070: 03ac a8bd defc b0bd ae9c f63c a82a 863d
00000080: a936 0e3d aa68 a13d 07b7 1d3c 030e 6bbd
00000090: abc6 103d c768 593d 9736 a03d 2bb6 a73d
000000a0: 9854 a5bd 7099 6e3d aeac 0d3d 7b5f db3c
000000b0: 0017 bb3d 24c9 abbd 86ee 3d3d e7c5 b0bd
000000c0: 658e 01bd ac9d 85bc c85c adbd 0488 d53d
000000d0: efaa 15bd 9194 60bc 5995 3cbd 49ba aa3d
000000e0: 84df 93bc bfc5 52bd 57ee 9b3c a1d6 a43d
000000f0: bffd 9c3d 3180 db3d 9a5a b03d 4925 3abd
00000100: 3e2d 2bbd 49de 7cbd 3ad8 853d 08f0 863d
00000110: 90aa cdbc 3065 27bd f154 ad3d 893c 8b3d
00000120: 72cc 963d 158e c1bd 2183 8f3d 91b1 9abc
00000130: b56b 3d3d 408f 0fbd 8c02 7bbd e669 90bd
00000140: a6b4 78bd 5d49 223d f826 fc3c e1b7 69bd

fc3.weight f4 [10, 84]
0.12967384 -0.05168572 -0.014234039 0.0959469 -0.069464594 0.088762835 0.1113988 -0.16634648
-0.024042476 -0.087452844 -0.119915664 0.1484297 -0.15171151 -0.017626777 0.05627503 0.12315969
-0.011248568 0.07275539 -0.094577715 0.0142297605 -0.101238474 0.013723564 0.037708204 0.031538382
0.093015134 -0.060145568 -0.035192285 -0.12110789 0.053751376 -0.027080843 -0.057847086 -0.091587745
0.10945211 0.10803172 0.020387158 -0.13295658 0.13142893 -0.039629728 -0.14506216 0.13399577
0.05628318 0.09554601 0.14122073 -0.16556427 -0.016631473 0.014529882 -0.0054896288 -0.035402957
0.0402467 -0.07529572 0.11206023 0.04283511 -0.052035335 0.0002727979 0.035893552 -0.13304453
0.11713108 0.0013943422 0.12801078 0.010851713 -0.14158817 0.14705643 0.076535754 0.15047196
0.05555199 0.0464825 0.025511883 0.057190098 0.073424555 0.004479328 0.078177854 -0.028320652
-0.15221775 -0.070717506 -0.06278654 0.088430494 0.0011998626 0.16265543 -0.059712544 -0.08466929
0.06846024 -0.06620691 0.029411394 0.08981599 -0.09683434 -0.11353853 0.19045508 -0.108036
0.032463823 0.120987184 0.16140135 -0.035953857 -0.07991504 -0.068461455 0.023247845 0.049225383
-0.007228982 -0.01735574 -0.10042583 0.043110188 -0.024753485 -0.105608635 0.12965998 0.03626578
0.079774186 0.02769311 -0.14320175 0.011091421 -0.12338912 -0.04877676 0.046545174 -0.1341804
0.0010993694 -0.15869555 -0.0032066412 -0.10131055 -0.063452855 -0.12987675 0.10045193 0.04269854
0.08592298 0.12435919 0.060232062 0.032298364 -0.007347148 -0.056895263 0.06151299 0.16888846
0.06848417 0.08667907 0.011925579 -0.058051012 -0.044336602 -0.093531094 0.060629472 0.04657456
0.14986333 -0.1373084 -0.059124414 -0.09382797 -0.14962249 -0.09058782 -0.16904084 0.14428906
0.030616067 0.09213235 -0.1534719 0.12886915 0.00172416 -0.051334575 0.15429881 -0.065140136
0.03346772 0.06876061 -0.062399667 0.095134094 -0.026493756 -0.01208444 0.11245565 0.019122053
0.106648095 0.07736167 -0.08450942 -0.14428726 0.06152284 0.100595 -0.0039942153 0.081422165
0.10148256 -0.013032203 0.13089399 -0.07371892 0.039865166 0.12630498 -4.047777e-05 -0.09892737
0.08759161 -0.14607528 -0.18834578 -0.09435949 -0.017538656 0.08860821 0.07061338 -0.028401228
0.092802584 0.018507142 -0.12909503 0.10126088 -0.018379657 -0.06254309 0.045262218 -0.043683544
-0.08916354 -0.15479772 0.103319585 -0.17012288 -0.027248552 0.06081472 -0.17350014 0.11564193
-0.082530856 -0.14364818 -0.07842822 0.003248931 0.04190059 0.08770816 0.10381926 -0.019749952
-0.0080961585 -0.08580694 0.096015036 -0.08602374 -0.035556242 0.083891265 -0.043827567 -0.013982316
-0.045460556 0.122937225 0.0906819 0.07339277 0.03237248 0.05257832 -0.052119628 0.11569852
-0.09411299 -0.02375541 0.058400247 0.0675785 -0.002287048 0.16474418 -0.10915848 -0.04240004
-0.11520597 -0.07383982 -0.10139849 0.093707934 0.08236888 0.073838405 0.06554203 -0.052858118
0.11765803 0.0587718 0.10294321 0.08969216 -0.028805433 0.08481529 0.055905513 0.107889175
-0.10023628 0.061348557 -0.012730455 0.07231385 0.09993012 -0.123547986 -0.026739135 0.13359363
00000000: 38c9 043e 68b4 53bd e335 69bc cf7f c43d
00000010: 7443 8ebd 4ac9 b53d 0e25 e43d bb56 2abe
00000020: baf4 c4bc 7a1a b3bd 5896 f5bd f5fd 173e
00000030: 435a 1bbe 0866 90bc a580 663d 263b fc3d
00000040: ea4b 38bc c700 953d f6b1 c1bd f123 693c
00000050: 1e56 cfbd cdd8 603c eb73 1a3d 642e 013d
00000060: b87e be3d 335b 76bd c925 10bd 6a07 f8bd
00000070: 672a 5c3d a5d8 ddbc 11f1 6cbd 5b92 bbbd
00000080: 6e28 e03d bc3f dd3d f802 a73c c525 08be
00000090: 4e95 063e c852 22bd 2d8b 14be 3036 093e
000000a0: 3189 663d a0ad c33d 2b9c 103e ae89 29be
000000b0: ba3e 88bc be0e 6e3c 58e2 b3bb b102 11bd
000000c0: b9d9 243d a434 9abd d57f e53d de73 2f3d
000000d0: 0123 55bd 5006 8f39 1e05 133d d33c 08be
000000e0: 6be2 ef3d 5cc2 b63a 4215 033e 62cb 313c
000000f0: 7dfc 10be f695 163e c7be 9c3d 5215 1a3e
00000100: 7c8a 633d 6f64 3e3d 4cfe d03c 2a40 6a3d
00000110: 9d5f 963d 54c7 923b b61b a03d b600 e8bc
00000120: f8de 1bbe 57d4 90bd 3b96 80bd 0c1b b53d
00000130: b544 9d3a 258f 263e 2495 74bd 1867 adbd
00000140: e234 8c3d 7d97 87bd 2af0 f03c 72f1 b73d
00000150: 1551 c6bd e486 e8bd a806 433e fa41 ddbd
00000160: c9f8 043d 21c8 f73d 6546 253e 5a44 13bd
00000170: 7faa a3bd 8535 8cbd 4472 be3c 8ea0 493d
00000180: 19e1 ecbb a02d 8ebc 0fac cdbd 4f94 303d
00000190: d2c7 cabc 5749 d8bd 96c5 043e 6d8b 143d
000001a0: a660 a33d a9dc e23c 7ba3 12be cbb8 353c
000001b0: 6fb3 fcbd 24ca 47bd 27a6 3e3d 9666 09be
000001c0: b718 903a 1681 22be 8326 52bb e87b cfbd
000001d0: 92f3 81bd 69fe 04be beb9 cd3d aae4 2e3d
000001e0: 63f8 af3d 08b0 fe3d e5b5 763d 4a4b 043d
000001f0: 58c0 f0bb 020b 69bd 0cf5 7b3d 19f1 2c3e
00000200: 6e41 8c3d cc84 b13d 8163 433c e6c6 6dbd
00000210: 4c9a 35bd 3b8d bfbd 9c56 783d f7c4 3e3d
00000220: c675 193e 939a 0cbe 712c 72bd e128 c0bd
00000230: a336 19be 1b86 b9bd 0b19 2dbe 83c0 133e
00000240: 8cce fa3c e3af bc3d bd27 1dbe 46f6 033e
00000250: 36fd e13a 3444 52bd 8200 1e3e 3168 85bd
00000260: 7315 093d 5dd2 8c3d cb96 7fbd aad5 c23d
00000270: 6f09 d9bc d1fd 45bc 264f e63d daa5 9c3c
00000280: 516a da3d cc6f 9e3d 4613 adbd 0ac0 13be
00000290: 60ff 7b3d c004 ce3d e8e1 82bb aac0 a63d
000002a0: 17d6 cf3d 0585 55bc 1309 063e f2f9 96bd
000002b0: a849 233d 1856 013e adc6 29b8 6f9a cabd
000002c0: 3b63 b33d c294 15be b7dd 40be 8c3f c1bd
000002d0: 3aad 8fbc 3978 b53d bf9d 903d b1a9 e8bc
000002e0: 480f be3d 4a9c 973c 7d31 04be dd61 cf3d
000002f0: ef90 96bc 9716 80bd e064 393d 84ed 32bd
00000300: 609b b6bd 4b83 1ebe 3899 d33d b134 2ebe
00000310: 5b38 dfbc db18 793d 05aa 31be add5 ec3d
00000320: f005 a9bd 8218 13be f99e a0bd 04ec 543b
00000330: f49f 2b3d 56a0 b33d 319f d43d a7ca a1bc
00000340: c0a5 04bc 8dbb afbd 88a3 c43d 372d b0bd
00000350: 6ca3 11bd 2fcf ab3d 8984 33bd 1516 65bc
00000360: d934 3abd 83c6 fb3d 6fb7 b93d f34e 963d
00000370: 0199 043d 5d5c 573d 647b 55bd 58f3 ec3d
00000380: 50be c0bd b59a c2bc 1935 6f3d 9966 8a3d
00000390: 4ce2 15bb b3b2 283e 7b8e dfbd aaab 2dbd
000003a0: 1cf1 ebbd 5539 97bd 03aa cfbd f2e9 bf3d
000003b0: 04b1 a83d 9738 973d e63a 863d c181 58bd
000003c0: b1f6 f03d b3ba 703d e4d3 d23d 86b0 b73d
000003d0: 5ff9 ebbc a4b3 ad3d 2efd 643d 00f5 dc3d
000003e0: ae48 cdbd a048 7b3d 6693 50bc 4919 943d
000003f0: 2aa8 cc3d ba06 fdbd 080c dbbc c5cc 083e

fc3.bias f4 [10]
0.019926978 0.023569208 -0.06608703 0.008055828 0.03201903 0.019994639 0.06642421 -0.012809975
-0.12631793 0.028060295
00000000: e73d a33c 3614 c13c a358 87bd 97fc 033c
00000010: 6326 033d cccb a33c 6b09 883d eee0 51bc
00000020: 7d59 01be b4de e53c
