lab02-models/hip-3-model.pth (torch, 181175 bytes, 10 tensors)

conv_block1.0.weight f4 [6, 1, 5, 5]
0	0xbcdd2f0d	-0.026999975
1	0xbe41174d	-0.18856545
2	0xbe8817a3	-0.26580533
3	0xbe2d35fb	-0.16915123
4	0xbe8ca68c	-0.27470815
5	0xba908177	-0.0011024912
6	0xbdd452ca	-0.10367353
7	0xbcc78dd0	-0.024359614
8	0xbd8348a3	-0.06410339
9	0xbe496511	-0.1966746
10	0xbe833aeb	-0.25630888
11	0xbe2b2dee	-0.1671674
12	0xbe4cc8c0	-0.19998455
13	0xbe6cf211	-0.23139216
14	0xbe603c8c	-0.21898097
15	0x3d96928e	0.07352172
16	0xbe7c5aaa	-0.2464396
17	0xbe87d517	-0.26529762
18	0xbe80ea1a	-0.25178605
19	0xbe72c5e2	-0.23708299
20	0xbe27fcc4	-0.16405016
21	0x3d8fe3e4	0.070258886
22	0xbe54a801	-0.20767213
23	0xbe5c2183	-0.21497159
24	0xbe15f0a6	-0.14642581
25	0xbe15987a	-0.14608946
26	0x3df5316c	0.11972317
27	0x3e001ce9	0.12511028
28	0x3e49026f	0.19629835
29	0xbde1e3ea	-0.11029799
30	0x3e4e778a	0.20162788
31	0x3dee5a2d	0.116382934
32	0xbc5b4fdd	-0.01338574
33	0xbe46148e	-0.19343778
34	0xbe4dc52e	-0.2009475
35	0xbe12981b	-0.14315836
36	0x3dd3d5e1	0.103435285
37	0x3d3c72a3	0.046007764
38	0xbe62f695	-0.22164376
39	0xbd23db1c	-0.04000388
40	0xbe23e765	-0.16006239
41	0x3e276438	0.16346824
42	0xbe54077c	-0.2070598
43	0x3d2a91e9	0.041643057
44	0xbe89e02f	-0.2692885
45	0xbd5c8538	-0.053837985
46	0xbddf137a	-0.10892387
47	0xbe829e92	-0.25511605
48	0xbe424deb	-0.18975036
49	0xbe86101e	-0.2618417
50	0xbdfb19d7	-0.12260788
51	0x3e67732e	0.22602531
52	0x3e8c31ee	0.27381843
53	0x3e58cd27	0.2117201
54	0x3d805b90	0.06267464
55	0xbbf797f6	-0.007555957
56	0x3e215f78	0.15759075
57	0x3e8c2513	0.27372035
58	0x3e2904d7	0.16505753
59	0x3c975a69	0.018475728
60	0xbe2d9587	-0.16951571
61	0xbce74ab4	-0.028233863
62	0xbde59609	-0.112102576
63	0x3be7bc4f	0.0070720087
64	0xbe47d28a	-0.19513908
65	0xbdf34c3f	-0.11879777
66	0x3de2b908	0.11070448
67	0xbdec9142	-0.11551143
68	0x3d6733e6	0.05644598
69	0xbe6dd8af	-0.2322719
70	0x3c85ebfd	0.01634788
71	0xbe067b3e	-0.1313295
72	0xbe1991bb	-0.14996998
73	0xbdf9ed98	-0.122035205
74	0x3d380c2a	0.044933476
75	0xbcc6e6b7	-0.024279935
76	0xbe174505	-0.14772423
77	0xbe250cf2	-0.1611822
78	0xbd165b1a	-0.036707975
79	0xbe4410fe	-0.19147107
80	0x3a844e10	0.0010094065
81	0xbe4f1ade	-0.20225093
82	0xbd8fd3af	-0.07022797
83	0xbd1e96d1	-0.03871805
84	0xbd651176	-0.055924855
85	0x3d47cd5f	0.04877984
86	0xbdfc2efd	-0.1231365
87	0xbe3e59d9	-0.18588962
88	0xbc286ef4	-0.01028036
89	0x3da98d99	0.08278961
90	0x3d7a9cfd	0.061184872
91	0xbcd36a8a	-0.025807638
92	0x3d23c7d5	0.039985497
93	0xbe3cf686	-0.18453416
94	0xbe69f472	-0.22847155
95	0x3dd1335a	0.10214873
96	0xbca542d3	-0.020173466
97	0xbd2fbbf8	-0.04290387
98	0x3deee4a8	0.116647065
99	0xbcf18c15	-0.029485742
100	0xbd90729b	-0.07053109
101	0x3e58788b	0.21139733
102	0x3d1e8742	0.03870321
103	0x3e6e0baa	0.23246637
104	0x3d9f7239	0.07785458
105	0x3e0c57b2	0.13705328
106	0x3d50341b	0.05083094
107	0x3e1969f9	0.14981832
108	0xbae9932e	-0.0017820352
109	0x3cb6a307	0.022294534
110	0xbd9c66b2	-0.07636775
111	0x3dbfa92c	0.09358439
112	0xbcebcdf8	-0.028784737
113	0x3dd92c95	0.106042065
114	0xbe001e3b	-0.12511532
115	0x3e52dc3f	0.2059183
116	0x3c3eb04f	0.011638715
117	0x3d487ba7	0.04894605
118	0xbe493251	-0.196481
119	0xbe4319c4	-0.19052798
120	0xbe393d61	-0.1808982
121	0x3d4e9db9	0.050443385
122	0xbe6b18c9	-0.22958674
123	0x3d1d6aef	0.038432058
124	0xbe7c7632	-0.24654463
125	0xbdf3c60c	-0.11903009
126	0xbe652ae8	-0.22379649
127	0xbe1236fe	-0.1427879
128	0xbe171bee	-0.14756748
129	0x3c296c16	0.010340711
130	0x3d53aa3f	0.05167603
131	0xbd268f2d	-0.040663887
132	0x3e1e380a	0.15451065
133	0xbe6985ca	-0.22804943
134	0xbd383aeb	-0.044978064
135	0x3e17c2c3	0.1482039
136	0xbe31d5fb	-0.17366783
137	0x3cc71216	0.024300616
138	0xbda00a64	-0.07814482
139	0xbe164206	-0.14673623
140	0x3e327e01	0.17430879
141	0x3e0165d6	0.12636504
142	0x3c7917ac	0.015203398
143	0x3d8e70d6	0.069551155
144	0x3e272b56	0.16325125
145	0xbb83b22b	-0.004019042
146	0x3a805a4c	0.0009792536
147	0x3e533f3c	0.20629591
148	0x3df29de2	0.1184652
149	0x3e630b97	0.2217239

conv_block1.0.bias f4 [6]
0	0xbdfaa3b0	-0.12238252
1	0xbcec2b42	-0.02882922
2	0x3df3b42c	0.118995994
3	0x3d1da505	0.038487453
4	0x3e040532	0.12892607
5	0x3e0adfe1	0.13561966

conv_block2.0.weight f4 [16, 6, 5, 5]
0	0x3d851c24	0.06499508
1	0x3dcb5540	0.099283695
2	0xbc99aa9d	-0.018758113
3	0x3c3c4a88	0.011492379
4	0xbd4f65cd	-0.050634194
5	0xbd3d4286	-0.04620602
6	0xbb80601c	-0.003917707
7	0x3cfe4233	0.031037426
8	0xbd52393f	-0.051324125
9	0x3c77dea4	0.015128765
10	0x3dc9bdfb	0.09850689
11	0x3d9fa224	0.07794598
12	0xbd3e1bdd	-0.04641329
13	0x3ca89b63	0.020581907
14	0xbd28ddc4	-0.041227117
15	0x3cb5bcbf	0.022184728
16	0x3d9c98d0	0.07646334
17	0x3d089ca0	0.033352494
18	0xbd603c8d	-0.054745246
19	0xbca5a861	-0.02022189
20	0x3dc4692a	0.09590371
21	0x3db64cf4	0.089013964
22	0x3c9ebe99	0.019377993
23	0xbd70e990	-0.058816493
24	0xbd7514f7	-0.059834447
25	0xbc85ca9e	-0.016331967
26	0x3d7d75e4	0.061880007
27	0x3d853d67	0.06505852
28	0x3d5e7dac	0.05431907
29	0xbd83381d	-0.06407187
30	0x3cdc245d	0.026872808
31	0x3c4b7f25	0.01242045
32	0xbd6fcce2	-0.058545
33	0x3cc583ad	0.02411064
34	0xbcacb266	-0.02108116
35	0xbc2b45f8	-0.010453694
36	0x3d7ed7cb	0.062217515
37	0x3d4ff2b2	0.05076856
38	0xbdc08fcb	-0.09402426
39	0xbcbed602	-0.023295406
40	0x3d806544	0.06269315
41	0x3d2fd372	0.04292626
42	0x3d3ffe8e	0.04687362
43	0xbd6f7de9	-0.058469687
44	0x3d604a2a	0.05475823
45	0x3d0e1fe8	0.034698397
46	0x3d4117d9	0.047141884
47	0xbd70ca77	-0.058786836
48	0xbd08efad	-0.033431698
49	0xbcdf11a3	-0.02723009
50	0xbd7c31ff	-0.061571117
51	0xbcf9d19b	-0.030495455
52	0x3cdb9d8f	0.026808528
53	0x3c9842c7	0.01858653
54	0xbd2b4494	-0.041813448
55	0xbd5694f7	-0.052388158
56	0xbc4a88c7	-0.012361712
57	0x3d354f2d	0.04426496
58	0xbd515352	-0.05110485
59	0x3ca1af63	0.019736951
60	0xbd8fea0c	-0.07027063
61	0xbb031419	-0.0020000993
62	0xbc9cadf7	-0.019125922
63	0xbd94496a	-0.07240565
64	0xbd583a4b	-0.052789968
65	0xbd2d72c3	-0.042345773
66	0x3c7c17be	0.01538652
67	0xbdb4bf3f	-0.0882554
68	0x3c5384bf	0.012910067
69	0x3c8d8a41	0.017277839
70	0x3da0a8a0	0.07844663
71	0xbcbcffb8	-0.023071155
72	0xbc62af26	-0.013835704
73	0xbb0ae29f	-0.0021192206
74	0x3ce95188	0.02848126
75	0xbb84bb1c	-0.0040506255
76	0xbabb27da	-0.0014278844
77	0xbd688e6d	-0.056776453
78	0x3d531bfc	0.05154036
79	0xbd993b9a	-0.07482071
80	0xbc1a5f54	-0.009422142
81	0xbca18e56	-0.019721191
82	0x3cb18d18	0.021673724
83	0xbd126ae7	-0.03574648
84	0x3c1e6856	0.00966843
85	0xbd86a6c2	-0.06574775
86	0xbd6493e8	-0.055805117
87	0x3d421de9	0.047391806
88	0x3c6d5c94	0.014487404
89	0xbd97a5c1	-0.07404662
90	0xbd1266b2	-0.03574247
91	0xbabacc48	-0.0014251554
92	0xbcdbe342	-0.026841763
93	0xbd261f2c	-0.04055707
94	0xbc71ff2c	-0.01477031
95	0xbd5b4532	-0.053532787
96	0x3d85489a	0.06507988
97	0xbcd4387d	-0.025905842
98	0x3a1639c8	0.0005730656
99	0xbdafb59d	-0.08579562
100	0x3c925b4f	0.017865805
101	0x3bad289b	0.0052843816
102	0x39fede77	0.00048612404
103	0xbd1380ff	-0.036011692
104	0xbb493233	-0.0030700087
105	0x3c92bfde	0.017913755
106	0xbd3eeb28	-0.04661098
107	0xbd05c0c1	-0.032654528
108	0xbd57dc92	-0.052700587
109	0x3c555b28	0.013022222
110	0xbc524436	-0.012833646
111	0xbbd19845	-0.006396326
112	0xbd5ab29d	-0.053392995
113	0x3d78dd27	0.060757782
114	0x3d6e139b	0.058124166
115	0xbd80485b	-0.06263801
116	0x3c6db4e9	0.014508464
117	0xbd198c94	-0.03748758
118	0x3c742f7c	0.014903899
119	0x3d44fd8a	0.048093356
120	0x3d1acf6a	0.03779546
121	0xbc9ab135	-0.018883327
122	0x3d773e01	0.060361866
123	0xbced533b	-0.028970351
124	0xbd820c15	-0.06349961
125	0x3d30fab7	0.04320785
126	0xbcc6ba6d	-0.024258817
127	0xbd5449ea	-0.051828302
128	0x3da5bb91	0.08092416
129	0xbcc39b58	-0.023877785
130	0x3d4b9d2a	0.04971043
131	0x3d86190f	0.06547748
132	0x3d0fbbd9	0.035091255
133	0xbc602233	-0.013680029
134	0xbd5c49a3	-0.053781163
135	0xbd134963	-0.03595866
136	0x3c750d7f	0.014956831
137	0xbcb1f401	-0.021722795
138	0x3c0ad9be	0.008474765
139	0xb8b69fc4	-8.708195e-05
140	0xbcc454eb	-0.023966273
141	0xbd0a6e26	-0.033796452
142	0x3d5d2dfe	0.05399894
143	0x3c88ab0d	0.016683126
144	0xbd9f42cf	-0.077764146
145	0x3bed5554	0.007242838
146	0xbd35bb0d	-0.04436784
147	0xbd037242	-0.032091387
148	0x3d409e1b	0.04702578
149	0xbcba59a6	-0.022747826
150	0x3b7c13c7	0.0038463937
151	0x3d845735	0.06461946
152	0xbc8948ca	-0.016758341
153	0x3db4c453	0.088265084
154	0x3cc2bd99	0.023772048
155	0x3dc55569	0.09635431
156	0x3da9c58d	0.08289633
157	0x3c491757	0.012273631
158	0x3cefc568	0.029268935
159	0xbd5eec6d	-0.054424692
160	0xbc6ad38c	-0.014332663
161	0xbc8b2093	-0.016983306
162	0xbc430815	-0.011903782
163	0xbd2c27a8	-0.042030007
164	0xbdbe0056	-0.09277408
165	0xbd0338f6	-0.032036744
166	0xbdd78c8f	-0.10524856
167	0xbcc0f7e7	-0.023555709
168	0x3d362dd9	0.044477317
169	0xbd332917	-0.04374036
170	0xbd952d16	-0.0728399
171	0xbdc5d7bc	-0.09660289
172	0x3ba3b797	0.004996251
173	0xbb975a6c	-0.0046189334
174	0x3dbdb119	0.09262294
175	0xbcee4ba3	-0.0290888
176	0x3d66a590	0.056310236
177	0x3cc083c9	0.02350034
178	0xbd661f88	-0.056182414
179	0x3c1f210c	0.009712469
180	0x3d445bb2	0.04793901
181	0x3c98729b	0.018609336
182	0x3a96d5fa	0.0011507862
183	0xbd3e8c05	-0.04652025
184	0x3d22b1b2	0.039720245
185	0xbd3cbe66	-0.046080016
186	0xbcd9003a	-0.026489366
187	0x3a3e04ff	0.0007248669
188	0xbc2d4168	-0.010574676
189	0x3dc0367c	0.09385392
190	0xbd949483	-0.07254889
191	0x3d1953ad	0.037433315
192	0xbd8e5e06	-0.06951527
193	0xbb95ac76	-0.004567678
194	0x3dd802a0	0.10547376
195	0xbd7b78fb	-0.061394673
196	0x3d58ff8c	0.052978083
197	0x3db9fe51	0.0908171
198	0x3d4b2050	0.049591362
199	0x3de472e5	0.11154727
200	0xbd4fbea9	-0.050718937
201	0xbbce3d05	-0.006293895
202	0xbaa4f2c5	-0.0012584558
203	0x3c4d53a8	0.012532152
204	0xbd1c157b	-0.038106423
205	0xbcf429cf	-0.029805092
206	0xbcc73b43	-0.02432025
207	0x3d920933	0.07130661
208	0x3d2f51f9	0.042802785
209	0x3d0f736a	0.035022177
210	0x3d91355f	0.07090258
211	0x3c9fde8b	0.019515296
212	0xbc4fb574	-0.012677539
213	0x3c8113aa	0.015756447
214	0xbc880a86	-0.01660658
215	0x3d2d24ed	0.042271543
216	0xbd44bd52	-0.048032112
217	0x3bbde1c0	0.0057947338
218	0x3d746a0d	0.05967145
219	0x3d8b5d20	0.068048716
220	0xbcccfebb	-0.025023809
221	0x3d3b89bd	0.045785654
222	0x3e0658cc	0.13119811
223	0x3d14db05	0.036341686
224	0x3d6334de	0.05547034
225	0x3d8fb660	0.07017207
226	0x3c8d5537	0.017252548
227	0x3c360d69	0.011111596
228	0xbd5ef3c3	-0.054431688
229	0xbd139e49	-0.036039624
230	0xbd0be9a2	-0.034158356
231	0xbcd8b9d9	-0.026455807
232	0x3d84681e	0.06465171
233	0xbd66db69	-0.05636159
234	0x3c1c22c0	0.009529769
235	0xbd885372	-0.06656541
236	0xbcf896f6	-0.030345421
237	0x3cb97d8f	0.022642879
238	0x3d884434	0.06653634
239	0xbd8d7f5e	-0.06909059
240	0x3d3d54d4	0.046223477
241	0xbd781529	-0.060567055
242	0xbd2d1fdd	-0.042266715
243	0xbcc1118b	-0.023567935
244	0x3d0d4448	0.034488946
245	0x3d6c7006	0.05772402
246	0xbc93fac6	-0.018063914
247	0xbb9dc2af	-0.004814468
248	0x3d09b954	0.03362401
249	0x3b9e3b73	0.0048288642
250	0xbc0da42b	-0.008645098
251	0x3c927f52	0.017882977
252	0x3d65f485	0.056141395
253	0xbc8310c9	-0.015999215
254	0xbd913611	-0.070903905
255	0xbd2cf5f0	-0.04222673

conv_block2.0.bias f4 [16]
0	0x3d219737	0.03945085
1	0x3dca5e2d	0.09881244
2	0xbc2ade0a	-0.010428915
3	0xbd8ed869	-0.06974871
4	0xbca9fd7f	-0.02075076
5	0xbd23b52b	-0.039967697
6	0x3db00eeb	0.085965954
7	0xbbfa88c9	-0.0076457006
8	0x3d3f51d9	0.046708915
9	0xbc73ef61	-0.014888615
10	0x3d9f1810	0.077682614
11	0x3db36e76	0.08761303
12	0x3d8160aa	0.06317265
13	0xbd186d3c	-0.03721355
14	0x3dac4089	0.084107466
15	0xbd8cda0f	-0.06877529

fc1.weight f4 [120, 256]
0	0x3c14e01b	0.009086634
1	0xbce14b7a	-0.02750181
2	0x3cdb672a	0.02678259
3	0x3d5e59c2	0.05428482
4	0xbd135500	-0.035969734
5	0x3cf96da9	0.030447798
6	0x3d119c07	0.03554919
7	0xbd1e1878	-0.038597554
8	0x3d0a4503	0.03375722
9	0x3d0de177	0.03463885
10	0x3c582bef	0.013194068
11	0xbd6d4cc7	-0.05793455
12	0x3cc58b04	0.02411414
13	0x3d00f1b8	0.03148052
14	0xbbb6efa8	-0.0055827685
15	0xbd68f71e	-0.056876294
16	0xbc552c1a	-0.013011003
17	0xbca6727d	-0.020318264
18	0xbd260e88	-0.0405412
19	0x3d248521	0.040166024
20	0x3c88dc22	0.01670653
21	0xbcfb0eb2	-0.030646656
22	0xbbe949e8	-0.007119406
23	0xbd55b950	-0.05217868
24	0x3c729ff3	0.014808643
25	0x3d1d38f9	0.03838441
26	0x3b4b294e	0.0030999961
27	0x3d53ea68	0.05173722
28	0x3d5e3a66	0.05425491
29	0xbd4a2f30	-0.049361408
30	0xbd5e5c09	-0.05428699
31	0xbccc4027	-0.024932934
32	0x3d081165	0.033219714
33	0xbd717d5f	-0.058957454
34	0x3d05ba97	0.03264865
35	0x3d2ba365	0.041903872
36	0x3c60bb43	0.013716522
37	0xbd749852	-0.059715576
38	0xbced7f9b	-0.028991511
39	0xbd543c06	-0.051815055
40	0x3d479578	0.04872653
41	0x3b9bcf21	0.0047549163
42	0xbca1118d	-0.01966169
43	0x3c2460ea	0.010032872
44	0x3d6177ef	0.05504602
45	0x3aa07172	0.0012240841
46	0x3d74ea1d	0.05979358
47	0x3d4fc032	0.0507204
48	0xbcb71008	-0.022346511
49	0x3cab503f	0.020912288
50	0x3d37aa87	0.044840362
51	0x3beadf59	0.0071677384
52	0x3c9b43c3	0.01895321
53	0xbce7432b	-0.02823027
54	0x3d29190f	0.041283663
55	0xbc34b019	-0.011028313
56	0x3d0d1e1a	0.034452535
57	0x3d6a21ef	0.057161268
58	0x3c3ad1a7	0.011402524
59	0xbc87eaaf	-0.016591398
60	0x3cacf379	0.02111219
61	0x3d305acf	0.04305535
62	0xbc592283	-0.013252857
63	0xbcda4a4b	-0.026646754
64	0x3cfd1691	0.03089455
65	0xbd42e257	-0.047579136
66	0xbd36364b	-0.04448537
67	0x3d3f49ba	0.04670117
68	0xbd603f4d	-0.05474787
69	0xbc3a9f64	-0.011390541
70	0x3cfea420	0.03108412
71	0x3d4942ef	0.0491361
72	0xbd0e589d	-0.034752477
73	0x3ce6c851	0.02817169
74	0x3c6bf593	0.014401811
75	0xbcdc7a0f	-0.02691367
76	0x3c391f67	0.011298991
77	0x3d2b5d87	0.04183724
78	0x3d383ad0	0.044977963
79	0xbd1df5d3	-0.038564514
80	0xbd2e58f2	-0.042565294
81	0x3cd276e9	0.025691466
82	0x3d0aef5a	0.03391967
83	0x3d462b06	0.048380874
84	0xbb99f7d0	-0.004698731
85	0xbd4f0c59	-0.050548885
86	0xbc993286	-0.01870085
87	0x3c361ca4	0.011115227
88	0x3ca0063f	0.019534228
89	0xbab83b04	-0.0014055674
90	0x3d35f37a	0.04442165
91	0xbcf1a149	-0.029495852
92	0x3d431016	0.047622763
93	0x3c24f2f3	0.010067689
94	0xbd7e8aa0	-0.06214392
95	0xbc6bf1d0	-0.014400914
96	0xbd19173a	-0.037375666
97	0xbd2870e1	-0.041123275
98	0xbd02a190	-0.03189236
99	0xbd330d62	-0.043713935
100	0xbd5ddc3b	-0.054165106
101	0x3d2ce952	0.0422147
102	0xbc3e8798	-0.011629008
103	0xbd5f3960	-0.054498076
104	0xbd62fce8	-0.05541697
105	0xbce6cf84	-0.028175123
106	0xbc9492d0	-0.018136412
107	0xbcbc062c	-0.022952162
108	0x3bdb8a03	0.006699802
109	0x3d353162	0.04423655
110	0x3d04afd2	0.032394238
111	0xbc1a51a8	-0.009418882
112	0xbd0b9217	-0.03407487
113	0x3d4bc977	0.04975268
114	0x3d51c281	0.051210884
115	0xbcf4747a	-0.029840697
116	0xbd536744	-0.051612154
117	0xbcfa705d	-0.030571157
118	0x3cfb3076	0.030662756
119	0x3d65968e	0.056051783
120	0xbd781b71	-0.060573045
121	0xbc8e19c9	-0.01734628
122	0xbcbd4aca	-0.023106951
123	0xbd0d2f2f	-0.034468826
124	0xbd68490d	-0.05671029
125	0xbd0e5830	-0.03475207
126	0xbd4ff14d	-0.05076723
127	0x3c9e531e	0.019326743
128	0x3d7c8595	0.06165083
129	0xbd76b235	-0.060228545
130	0xbcfeb9a8	-0.031094387
131	0x3d12998a	0.035790958
132	0x3bbb27e2	0.0057115415
133	0x3b0baeae	0.0021313834
134	0x3d65bf04	0.05609037
135	0xbd536358	-0.051608413
136	0xbd1da88b	-0.038490813
137	0x3d48af3d	0.048995245
138	0xbd13145f	-0.0359081
139	0xbd328e08	-0.043592483
140	0xbccc446e	-0.024934974
141	0x3b9cf017	0.004789363
142	0xbcc9099b	-0.024540713
143	0x3b0d1a21	0.0021530467
144	0xbc3889a1	-0.011263282
145	0x3c68a91a	0.014200473
146	0x3c68b42b	0.014203112
147	0x3c73b771	0.014875279
148	0xbd2cdc44	-0.04220225
149	0xbd6c4f14	-0.057692602
150	0x3c2774f4	0.010220755
151	0xbd1fef5b	-0.039046627
152	0x3c808310	0.015687495
153	0x3b87a16a	0.004139115
154	0x3d452c59	0.048137996
155	0x3c992238	0.018693075
156	0x3ce6d045	0.028175483
157	0x3d3076c0	0.043082
158	0x3c577457	0.013150296
159	0x3d32e854	0.043678597
160	0x3c92ca28	0.017918661
161	0x3c83ea32	0.016102884
162	0x3d3bdeee	0.0458669
163	0xbc9a7636	-0.018855195
164	0xbd3eb5c8	-0.04656008
165	0x3c2ee1d4	0.010673959
166	0xba01f85b	-0.00049579673
167	0x3cb537bd	0.022121305
168	0xbc89dff8	-0.01683043
169	0x3d22cb77	0.03974482
170	0xbc4e80e9	-0.012603977
171	0x3cf989e7	0.030461265
172	0x3a9f34ea	0.0012146507
173	0xbb881286	-0.004152599
174	0x3d61403d	0.054992903
175	0xbd1f519f	-0.0388962
176	0xbc29fba1	-0.010374934
177	0xbc841a24	-0.016125746
178	0x3c26f1ff	0.010189532
179	0xbce1309e	-0.027489003
180	0xbc943ffb	-0.018096915
181	0xbd7f36a9	-0.062307987
182	0x3d7b30f0	0.061325967
183	0xbd30d0b1	-0.043167774
184	0x3c1f078b	0.009706388
185	0x3d26f922	0.040764935
186	0x3d736eb2	0.05943174
187	0xbd0c6cea	-0.034283556
188	0xbd55fefc	-0.052245125
189	0xbc45467d	-0.0120407315
190	0xbd64292d	-0.05570333
191	0x3bc648ef	0.006051175
192	0xbd422e02	-0.047407158
193	0x3cab43fe	0.020906445
194	0xbd16cd30	-0.036816776
195	0x3cebcab3	0.028783178
196	0xbc89c606	-0.016818058
197	0x3d31e48f	0.04343086
198	0x3d0c0728	0.034186512
199	0x3bae4903	0.0053187623
200	0xbb0b1e81	-0.0021227899
201	0x3d62e07f	0.055389877
202	0x3c90eccd	0.01769104
203	0xbd0a2145	-0.033723135
204	0xbd6c5865	-0.057701487
205	0xbce8c058	-0.02841203
206	0xbd741939	-0.059594367
207	0x3d320b61	0.043467883
208	0x3d5d6bc3	0.054057848
209	0x3d2e0b9f	0.04249155
210	0xbd5c5b19	-0.053797815
211	0xbbe6dcda	-0.0070453705
212	0x3c98c1ee	0.01864716
213	0x3c7a0c09	0.0152616585
214	0x3d1f3f02	0.03887845
215	0xbd654beb	-0.055980604
216	0x3bbdbcc7	0.0057903263
217	0x3d29ba2f	0.041437324
218	0xbd144e66	-0.03620758
219	0x3cdc23a8	0.026872471
220	0x3d53403e	0.051574938
221	0x3d1ce8e1	0.038308028
222	0x3cb71d11	0.022352727
223	0x3cc07f2b	0.023498138
224	0xbbe2b927	-0.0069190445
225	0x3c78b5de	0.015180079
226	0xbd243842	-0.040092714
227	0x3caac77e	0.020847078
228	0x3a5383de	0.0008068661
229	0x3c2eb1b0	0.010662481
230	0xbd51144b	-0.051044744
231	0xbc0caa2e	-0.008585496
232	0x3d724a4e	0.059152894
233	0x3c33af35	0.010967066
234	0xbd4df689	-0.050283942
235	0x3d0095e6	0.031392954
236	0x3cb2a2f4	0.021806218
237	0xbd39c7a0	-0.045356393
238	0x3c6697f7	0.014074317
239	0xbd5ca65a	-0.053869583
240	0xbcd645c6	-0.026156317
241	0x3c972119	0.0184484
242	0xbc576abc	-0.013148006
243	0xbd08f97a	-0.033441044
244	0xbd4ac8fa	-0.049508072
245	0xbd509453	-0.050922703
246	0x3d2d38cb	0.04229049
247	0x3d0e601d	0.03475963
248	0xbd656de4	-0.056013003
249	0x3c4ed5af	0.012624188
250	0x3d1ff9f9	0.039056752
251	0xbd634d92	-0.0554939
252	0x3c01dc68	0.007926084
253	0xbc85ae36	-0.016318422
254	0x3d441ca8	0.04787889
255	0x3ccdad86	0.025107156

fc1.bias f4 [120]
0	0x3d4fe64f	0.05075675
1	0x3d2cb5ca	0.042165555
2	0xbbff50cf	-0.0077916156
3	0xbcc96604	-0.024584778
4	0xbc826bfa	-0.015920628
5	0x3d46a191	0.048493925
6	0x3d5c9328	0.053851277
7	0x3d571a6d	0.052515436
8	0x3ce2c624	0.027682371
9	0x39559ad2	0.00020370938
10	0xbd7684c5	-0.060185213
11	0x3c9cb4ab	0.019129118
12	0xbd5bd21d	-0.053667177
13	0x3d5c0617	0.053716745
14	0x3d4c26bb	0.049841624
15	0x3d379885	0.04482319
16	0xbd22e2cf	-0.039767083
17	0x3d137680	0.036001682
18	0x3d80c288	0.06287104
19	0x3d475eb1	0.04867429
20	0x3cc3535a	0.023843456
21	0x3d5348c8	0.05158308
22	0xbd2282b7	-0.03967544
23	0xbbae6388	-0.0053219236
24	0xbcdda41c	-0.027055793
25	0x3d4ebae4	0.0504712
26	0xbc2a8e71	-0.010409937
27	0x3d21c239	0.039491866
28	0x3d338ead	0.043837238
29	0xbd190a56	-0.037363373
30	0xbc7d4ed2	-0.015460687
31	0x3d57a254	0.052645043
32	0x3c218386	0.009858018
33	0x3b87041d	0.0041203634
34	0x3d3d8174	0.046266034
35	0x3a75e534	0.0009380162
36	0x3c68973a	0.0141962115
37	0xbd58658f	-0.05283123
38	0x3d59338c	0.053027675
39	0x3d4b8791	0.049689833
40	0xbcab29d8	-0.020893976
41	0x3bf0f898	0.0073538534
42	0xbd2a39da	-0.041559078
43	0xbd65e30c	-0.056124732
44	0xbd6db570	-0.05803436
45	0x3d84cab8	0.06483978
46	0x3c9d2da7	0.019186808
47	0xbd0b0e27	-0.033949044
48	0xbd2c37f7	-0.04204556
49	0xbd7e8662	-0.062139876
50	0x3d148465	0.036259074
51	0x3d13b24b	0.036058705
52	0x3d4ac61c	0.049505338
53	0x3cbe37b3	0.023219919
54	0xbd23178c	-0.039817378
55	0x3d38c676	0.045111142
56	0xbd2a6bb7	-0.04160663
57	0xbc142931	-0.009043024
58	0x3c2769fe	0.010218142
59	0x3d7708a2	0.060310967
60	0xbc3f00ac	-0.011657875
61	0xbc560650	-0.013063028
62	0x3d259da4	0.04043354
63	0x3cd35b95	0.025800506
64	0xbc60da17	-0.013723872
65	0xbd42e16f	-0.04757827
66	0x3c30b852	0.010786133
67	0xbcd1f030	-0.025627226
68	0xbd3b9ff5	-0.045806844
69	0x3d3978e5	0.04528131
70	0x3d1de5db	0.038549285
71	0x3d5c54a9	0.053791676
72	0x3d2cc81c	0.042183027
73	0xbd631322	-0.05543817
74	0xbcfe74d1	-0.031061562
75	0xbd6256b1	-0.055258457
76	0x3c7cd475	0.015431513
77	0x3d00cba9	0.031444225
78	0x3c8b2a57	0.016987963
79	0xbd2f8e7b	-0.04286049
80	0xbaa35e69	-0.001246405
81	0x3a428cfd	0.00074215216
82	0x3cea00ac	0.028564773
83	0xbd42dfd5	-0.047576744
84	0xbc14ad56	-0.00907453
85	0x3d390b95	0.04517706
86	0xbb8b3c1d	-0.0042491094
87	0x3d005401	0.031330112
88	0xbd4031c5	-0.046922464
89	0x3bc0672e	0.005871675
90	0xbc833502	-0.016016487
91	0x3a713fb4	0.0009202913
92	0xbce66879	-0.028125988
93	0xbc90314e	-0.017601635
94	0x3b7741b6	0.0037728376
95	0xbca3bc02	-0.01998711
96	0xbce83760	-0.028346717
97	0xbd495ac2	-0.04915882
98	0xbcce0b0c	-0.025151752
99	0x3d3d3c76	0.04620024
100	0xbb83b77f	-0.004019677
101	0xbc9f0d57	-0.01941554
102	0x3c85d192	0.016335282
103	0x3d331790	0.043723643
104	0xbca9142e	-0.020639505
105	0xbc5f5550	-0.01363118
106	0x3b187740	0.0023264438
107	0xbd3beeb8	-0.045881957
108	0x3d3fc26b	0.04681627
109	0x3d5941c7	0.053041246
110	0x3c132be2	0.00898263
111	0x3b9091ab	0.004411896
112	0xbd288d13	-0.041150164
113	0x3d813196	0.06308286
114	0xbd0afc72	-0.033932157
115	0x3d20eea6	0.039290093
116	0xbccaaee9	-0.024741607
117	0xbd5e1b2a	-0.054225124
118	0xbbded1e0	-0.0067999214
119	0xbbce6a96	-0.006299327

fc2.weight f4 [84, 120]
0	0x3dab84e9	0.0837496
1	0xbbb893ef	-0.0056328694
2	0xbca40804	-0.020023353
3	0xbd3acb8b	-0.04560427
4	0xbcf75226	-0.030190539
5	0x3d4b9a28	0.04970756
6	0xbc4cfb4a	-0.012511084
7	0xbdb3f8a0	-0.08787656
8	0x3d9ad46c	0.075600475
9	0x3d5a2680	0.053259373
10	0x3c1985bd	0.009370265
11	0xbdb3f816	-0.08787553
12	0xbd788211	-0.060670916
13	0xbd99bad1	-0.075063355
14	0x3d764127	0.060120728
15	0xbd900321	-0.07031847
16	0xbcf6d5ee	-0.030131306
17	0x3d0b969b	0.034079175
18	0xbcc77d7e	-0.024351832
19	0xbce985ba	-0.028506149
20	0x3cf69a11	0.030102761
21	0x3c5513d3	0.013005215
22	0x3ca90095	0.02063016
23	0x3da59946	0.08085875
24	0xbd625d20	-0.055264592
25	0xbd76ffb1	-0.06030244
26	0x3db5b382	0.08872129
27	0xbdb99cdb	-0.09063121
28	0x3d990b5c	0.0747287
29	0x3dae5fee	0.08514391
30	0xbd910052	-0.07080139
31	0x3d93f2e8	0.07224065
32	0xbd92a3e5	-0.07160167
33	0xbb8b8875	-0.0042582103
34	0xbdac20d2	-0.084046975
35	0xbd9bcc64	-0.07607344
36	0x3c365bb7	0.011130265
37	0xbdb62c47	-0.08895164
38	0x3c84af4a	0.016196866
39	0xbdb19fd1	-0.08673061
40	0x3d94d20a	0.07266624
41	0xbc4aeb0e	-0.012385143
42	0xbc8e9c38	-0.017408475
43	0xbc8a7bb5	-0.016904691
44	0xbdb07293	-0.08615603
45	0x3d929efd	0.07159231
46	0xbcda1c8c	-0.02662494
47	0x3d87bd71	0.0662793
48	0x3aa562f4	0.0012617991
49	0x3d6e983d	0.058250654
50	0x3c1f76c4	0.009732906
51	0xbdad5017	-0.084625416
52	0xbbfe25ae	-0.0077559566
53	0x3b5fb9b4	0.0034137787
54	0x3daef86a	0.08543475
55	0xbd0e362f	-0.034719642
56	0x3db17690	0.08665192
57	0x3d97f349	0.0741945
58	0x3da89394	0.08231273
59	0x3ce631e7	0.028099967
60	0x3da5dd96	0.08098905
61	0xbdabbdeb	-0.08385833
62	0xbd839559	-0.0642497
63	0x3c7c276e	0.01539026
64	0xbbb2709c	-0.005445553
65	0xbd0ef761	-0.034903888
66	0xbd041b32	-0.032252498
67	0xbd1ae038	-0.037811488
68	0xbd3cc8fc	-0.04609011
69	0x3d0e8f0a	0.03480438
70	0x3cf6d24d	0.030129576
71	0xbda2ca68	-0.07948762
72	0xbc45f737	-0.012082866
73	0xbafc4d45	-0.0019249102
74	0xbd4c201c	-0.04983531
75	0xbd9657e5	-0.07340983
76	0x3db16af2	0.08662976
77	0xbd7a1aa8	-0.061060578
78	0xbd67776f	-0.056510385
79	0x39f00e78	0.00045787147
80	0x3d3f6b4a	0.04673318
81	0x3da5a0b5	0.08087293
82	0xbd165c9e	-0.03670942
83	0x3d74cf45	0.05976798
84	0x3d83765a	0.06419058
85	0xbd21305e	-0.039352767
86	0xbc533125	-0.012890135
87	0xbcd5308f	-0.026024131
88	0xbd7d229e	-0.06180059
89	0xbc8dbefc	-0.017302983
90	0x3d36c790	0.04462391
91	0x3d905512	0.07047476
92	0xbc262d27	-0.010142601
93	0xbd1a05ab	-0.03760306
94	0x3d888e57	0.06667774
95	0xbcb2fec4	-0.021849997
96	0xbd2c39e8	-0.04204741
97	0xbd1e986d	-0.038719583
98	0x3cad8b31	0.021184536
99	0x3da5c0e8	0.080934346
100	0xbdb296ad	-0.087201454
101	0x3d190d9e	0.037366502
102	0xbcef59d6	-0.029217642
103	0xbdba43e7	-0.090949826
104	0x3c0210f7	0.007938615
105	0xbd9bc248	-0.076054156
106	0xbdb79171	-0.089632876
107	0xbd7b39bb	-0.061334353
108	0xbd4e250e	-0.050328307
109	0xbb350558	-0.0027621593
110	0xbd9651c5	-0.07339815
111	0xbc0d1af1	-0.00861238
112	0xbd9dce68	-0.077053845
113	0xbc9acaad	-0.018895471
114	0xba00c4dd	-0.00049121474
115	0xbd46d1e5	-0.048540015
116	0xbd8734e6	-0.066018865
117	0xbd7014df	-0.058613654
118	0xbd82f635	-0.063946165
119	0x3ce31af2	0.02772281
120	0xbd029727	-0.03188243
121	0x3d6af9bf	0.057367083
122	0x3c0e9aa6	0.008703863
123	0xbd97d9b1	-0.07414568
124	0x3d84646d	0.06464467
125	0x3db0f6c4	0.08640817
126	0x3b9babed	0.0047507198
127	0xbc6c7efd	-0.014434573
128	0x3bf92467	0.0076032165
129	0x3dd8e111	0.10589803
130	0x3d95adc6	0.07308535
131	0xbd5459bf	-0.0518434
132	0xbdacaaa5	-0.08430985
133	0xbc55f33a	-0.013058478
134	0x3cad2a58	0.021138355
135	0x3dacee6f	0.08443915
136	0xbc9cdf01	-0.019149305
137	0x3d839c5d	0.06426308
138	0xbda6d359	-0.0814578
139	0xbd2849c1	-0.041085962
140	0xbc085026	-0.00831989
141	0x3dae4254	0.08508745
142	0xbd96e79f	-0.07368397
143	0x3d84eae7	0.064901166
144	0x3da8d2d6	0.08243339
145	0xbd9da46c	-0.076973766
146	0xbaa18ce6	-0.0012325316
147	0x3d8b24a4	0.06794098
148	0x3d64a003	0.05581666
149	0xbcdb38d9	-0.026760506
150	0xbd657bd8	-0.05602631
151	0xbd784768	-0.060614973
152	0x3db6914f	0.08914434
153	0x3d92d2fb	0.071691476
154	0xbd9497c4	-0.072555095
155	0xbd5515a3	-0.052022588
156	0x3d8d5123	0.06900241
157	0xbd6280bd	-0.055298556
158	0xbd88df25	-0.066831864
159	0xbd0013a3	-0.031268727
160	0x3cb207fa	0.02173232
161	0x3c23e886	0.010004168
162	0x3d29939b	0.041400533
163	0x3d2527fc	0.040321335
164	0x3d5111bb	0.0510423
165	0x3d90e508	0.07074934
166	0x3d83a4be	0.064279065
167	0xbbf6b546	-0.0075289337
168	0xbce79cfe	-0.028273102
169	0xbd843799	-0.06455917
170	0x3d1d5bc9	0.03841761
171	0x3d1a00c7	0.037598398
172	0x3d401500	0.046895027
173	0x3cf9c039	0.030487167
174	0x3db99672	0.09061898
175	0xbdbfc7f4	-0.0936431
176	0xbdaf4ce3	-0.08559587
177	0x3d8716a2	0.06596114
178	0xbcdba97d	-0.026814217
179	0x3dace916	0.08442895
180	0x3d31a274	0.043367818
181	0xbd6575e3	-0.05602063
182	0x3d5be509	0.05368522
183	0xbcd6c703	-0.026217943
184	0x3cda6f7d	0.02666449
185	0xbd51d7ea	-0.051231302
186	0x3b1e380d	0.0024142296
187	0x3d9395f5	0.072063364
188	0xbd0dd2f5	-0.034625012
189	0xbdb4af36	-0.08822481
190	0x3ba6c51e	0.005089416
191	0xbd0e418e	-0.034730487
192	0x3d528aa0	0.051401734
193	0xbdb944d5	-0.09046332
194	0xbd9c9ce3	-0.07647111
195	0x3cd0789f	0.025448142
196	0xbc1ff529	-0.009763041
197	0x3d1aa3d6	0.037753902
198	0x3a249d62	0.00062795554
199	0x3be01206	0.006838086
200	0xbd82aadf	-0.06380247
201	0xbd539afa	-0.05166147
202	0xbd7ad48d	-0.06123786
203	0x3cb4acd4	0.022055067
204	0xbd057c1a	-0.032589056
205	0x3d79fd3a	0.06103251
206	0xbc44e82a	-0.012018243
207	0xbcd20c63	-0.025640672
208	0xbcdc2c73	-0.026876664
209	0xbd0e326d	-0.03471606
210	0xbcb3c878	-0.021946177
211	0x3d424d15	0.047436792
212	0x3cd2350e	0.025660064
213	0xbc6b710a	-0.014370212
214	0x3d3f3f50	0.04669124
215	0x3d922a25	0.07136945
216	0xbc4f8ac1	-0.012667359
217	0x3d700bda	0.058605053
218	0x3d3ad0cf	0.04560929
219	0xbb83d46c	-0.0040231254
220	0x3d603e19	0.05474672
221	0x3cce9e24	0.025221892
222	0x3d56fe97	0.05248889
223	0xbd0bfe42	-0.034178026
224	0x3d46af07	0.048506763
225	0x3ca3d2bf	0.019997953
226	0x3ce9f463	0.028558915
227	0xbd0dba3c	-0.034601435
228	0x3c06eaec	0.008234721
229	0x3d3104b1	0.043217365
230	0x3d8abd21	0.06774355
231	0x3db2e431	0.0873493
232	0xbd0f2383	-0.034945976
233	0xbd433d69	-0.047665987
234	0x3d96c9b5	0.07362691
235	0xbd8c6f1b	-0.06857129
236	0xbcec8d72	-0.02887604
237	0x3c3ff1eb	0.011715393
238	0xbd0d9fdd	-0.034576286
239	0x3d9cb4fb	0.07651707
240	0xbd8b5727	-0.06803732
241	0xbbffd4a5	-0.0078073316
242	0xbd2710f0	-0.040787637
243	0x3d583e1d	0.05279361
244	0xbdb91ddd	-0.09038899
245	0xbd9c7059	-0.07638616
246	0xbc26d7ff	-0.010183333
247	0xbd29dcb4	-0.041470245
248	0xbd60f44b	-0.054920476
249	0x3d964abb	0.073384725
250	0xbd93cc1a	-0.07216664
251	0xbbddd722	-0.0067700306
252	0x3d2fffef	0.042968687
253	0x3c8f3447	0.017480982
254	0x3d8bd4be	0.06827687
255	0xbcc77235	-0.02434645

fc2.bias f4 [84]
0	0xbc4abd18	-0.012374185
1	0xbda4c4cf	-0.08045351
2	0xbd55fa1a	-0.05224047
3	0x3d8e7f34	0.06957856
4	0xbce7f5d5	-0.028315464
5	0xbd9fcf1e	-0.07803176
6	0x3dc910c7	0.09817653
7	0xbdb07a07	-0.08617025
8	0xbbb26865	-0.0054445737
9	0xbd7214b2	-0.059101768
10	0x3d852885	0.06501869
11	0x3bcd4e5c	0.0062654447
12	0x3dc8320e	0.09775172
13	0x3aaf00a4	0.0013351631
14	0xbd3cd618	-0.046102613
15	0xbceea7da	-0.029132772
16	0xbda0d07c	-0.07852265
17	0xbd67ad89	-0.05656198
18	0x3ce68fbd	0.028144712
19	0xbdac4027	-0.084106736
20	0x3d2c1a8f	0.042017516
21	0x3d0d9bc2	0.03457237
22	0x3d57b095	0.052658636
23	0x3d6926e8	0.05692187
24	0xbb15477e	-0.0022778208
25	0x3d314560	0.04327905
26	0x3db57572	0.088602915
27	0x3d4bd304	0.049761787
28	0x3d4189c5	0.047250528
29	0x3d07beff	0.033141132
30	0xba79a1b2	-0.00095226907
31	0xbc925d0f	-0.01786664
32	0x3cd1c71e	0.025607642
33	0xbd196c9a	-0.037457086
34	0xbd31103c	-0.043228373
35	0xbc874e83	-0.01651693
36	0xbd5fe530	-0.05466193
37	0xbcd150ae	-0.025551166
38	0x3c4015cd	0.011723948
39	0x3cfc8eb9	0.030829774
40	0x3d0dad41	0.034589056
41	0x3b9a6485	0.00471169
42	0x3db18756	0.086683914
43	0xbdc4e1c1	-0.09613372
44	0x3cd40f3b	0.025886169
45	0x3c35d947	0.011099166
46	0x3d5f3d75	0.05450197
47	0xbc846e81	-0.016165974
48	0xbcaa79ba	-0.020809997
49	0x3dadbab2	0.08482875
50	0x3d8e1e93	0.06939425
51	0x3de3156d	0.11088071
52	0xbda2d584	-0.07950881
53	0xbd6026f8	-0.054724663
54	0x3d16a4bc	0.036778197
55	0x3d1bf2dd	0.03807341
56	0xbdc576a8	-0.096417725
57	0xbd82f003	-0.06393435
58	0xbd76108a	-0.060074367
59	0x3c3da8d2	0.011575894
60	0xbd16875a	-0.036750175
61	0x3b3aed7b	0.0028522897
62	0x3d15b7de	0.036552303
63	0xbd097283	-0.033556473
64	0x3d406b79	0.046977494
65	0xbd52b200	-0.051439285
66	0xbcf626f9	-0.03004788
67	0x3c9e531b	0.019326737
68	0x3c943f90	0.018096715
69	0xbd23cbf4	-0.039989427
70	0xbd6fa93f	-0.058511015
71	0x3d8b42e7	0.0679987
72	0x3addf4aa	0.0016933877
73	0xbd9b3c2f	-0.075798385
74	0xbd5e0dd8	-0.05421242
75	0xbd11bd23	-0.035580765
76	0xbca0e00f	-0.01963809
77	0xbd56733b	-0.052355986
78	0x3d8d2b43	0.06893017
79	0x3a76f353	0.00094204134
80	0x3d20e48b	0.039280456
81	0xbdb52a1c	-0.08845922
82	0xb991a199	-0.00027776955
83	0x3c493cb9	0.012282544

fc3.weight f4 [10, 84]
0	0xbd811cf6	-0.06304352
1	0xbd5f42fc	-0.05450724
2	0x3d8142b5	0.063115515
3	0xbd9657cb	-0.07340964
4	0x3d82a086	0.06378274
5	0x3d9d536f	0.07681929
6	0xbe11579c	-0.14193577
7	0xbbfad74f	-0.0076550613
8	0x3da7812f	0.08178937
9	0x3d12b721	0.035819177
10	0xbc9144ea	-0.017733056
11	0x3d3c835e	0.04602372
12	0xbd5a03b9	-0.053226206
13	0x3de34f50	0.11099112
14	0xbd53dc3c	-0.051723704
15	0xbde11b6e	-0.1099156
16	0xbd57ad7b	-0.05265568
17	0x3d0b6f0b	0.034041446
18	0x3dcb75e1	0.09934593
19	0x3dad88bc	0.08473346
20	0x3d823a50	0.063587785
21	0xbdb4e77f	-0.08833217
22	0x3c66e513	0.0140927015
23	0xbd9cd95f	-0.07658648
24	0x3e40a550	0.18813062
25	0xbbb5cd78	-0.0055481754
26	0xbd1b8b0a	-0.037974395
27	0xbdd5a755	-0.10432307
28	0x3d4f51b4	0.050615028
29	0x3d924a99	0.071431346
30	0x3e2ee3fb	0.17079155
31	0x3c9cc4ba	0.019136775
32	0x3df4cafe	0.1195278
33	0x3d99eece	0.075162515
34	0x3d9cf6b2	0.07664241
35	0xbcaa0c11	-0.020757707
36	0x3d74e433	0.05978794
37	0xbcaf1854	-0.021373905
38	0xbc2741a0	-0.010208517
39	0xbd6264c2	-0.05527187
40	0xbda8323a	-0.08212705
41	0xbe06eb53	-0.13175707
42	0xbca2f582	-0.019892458
43	0x3d9b71d1	0.07590068
44	0xbd68f5ac	-0.056874916
45	0x3d7d6039	0.061859343
46	0x3e04dba5	0.12974413
47	0x3dd10eba	0.10207887
48	0x3dcf3ddd	0.10119221
49	0xbe3be573	-0.18349247
50	0xbd5cb663	-0.053884875
51	0xbe6e83e1	-0.23292495
52	0x3c6c9536	0.014439872
53	0x3ccc371e	0.024928626
54	0x3da67f77	0.08129781
55	0x3db8e3d7	0.09027832
56	0x3d9ea4be	0.07746266
57	0xbd215405	-0.039386768
58	0xbcaab2cf	-0.020837216
59	0x3d21c1ba	0.039491393
60	0xbdd1fe1d	-0.102535464
61	0xbe28e3a8	-0.16493094
62	0xbc877901	-0.016537191
63	0xbe0bdf74	-0.1365946
64	0x3e0af77d	0.13570972
65	0x3dd62a5a	0.10457297
66	0x3b35077b	0.0027622867
67	0x3d715388	0.058917552
68	0x3da83a42	0.08214237
69	0x3d315d6b	0.04330198
70	0xbd8a1e0d	-0.06744013
71	0x3cd91b5f	0.02650231
72	0xbdbde992	-0.092730656
73	0xbce692a7	-0.028146101
74	0xbc923abc	-0.017850272
75	0xbcde94b4	-0.027170517
76	0xbdd7ad85	-0.10531143
77	0x3d421cd2	0.047390766
78	0x3daaaa6e	0.08333288
79	0x3dd7a375	0.10529224
80	0xbdc1be2b	-0.094601
81	0x3d9c0860	0.07618785
82	0xbdbd9d58	-0.092585266
83	0x3ce76454	0.028246082
84	0x3d629d1e	0.05532562
85	0xbdb066b9	-0.08613343
86	0x3cebf9a5	0.028805563
87	0xbd8feb83	-0.07027342
88	0x3e08448c	0.13307399
89	0x3e0d5cab	0.13804881
90	0x3db1879a	0.08668442
91	0xbcbb84e2	-0.022890512
92	0x3cf4b625	0.02987201
93	0x3d4e12fb	0.05031107
94	0xbdab631c	-0.08368513
95	0xbdaff5ce	-0.085918054
96	0xbdd9abf4	-0.106285006
97	0xbe234fa0	-0.15948343
98	0xbd99fc01	-0.07518769
99	0x3bd14d92	0.006387421
100	0xbd8d350f	-0.06894886
101	0x3e0bfc49	0.13670458
102	0x3da232b8	0.0791983
103	0x3d9aa1d9	0.07550401
104	0xbd242959	-0.040078495
105	0x3be88a9b	0.007096601
106	0xbdd50496	-0.10401265
107	0xbe0bd487	-0.13655291
108	0xbde382b9	-0.11108918
109	0xbb4001e4	-0.0029298002
110	0xbce648ce	-0.028110888
111	0x3d814b24	0.0631316
112	0x3d2bd0b7	0.041947093
113	0x3c125312	0.008930938
114	0xbd43bfd6	-0.04779037
115	0xbdab2b08	-0.08357817
116	0xbd06764a	-0.032827653
117	0xbdfb9abf	-0.12285375
118	0xbe188a00	-0.14896393
119	0x3ca8afeb	0.020591697
120	0x3da1143c	0.078651875
121	0x3c8950d4	0.016762175
122	0xbd8845c9	-0.066539355
123	0x3d82e832	0.06391944
124	0xbad40a6f	-0.0016177426
125	0xbd080ce7	-0.03321543
126	0xbd6b4793	-0.057441305
127	0xbd81d677	-0.06339734
128	0x3d397e7e	0.045286648
129	0xbda976fd	-0.08274648
130	0x3d4774fa	0.048695542
131	0xbd954990	-0.072894216
132	0xbdc74215	-0.09729401
133	0x3e17f587	0.14839755
134	0xbca8e3c8	-0.020616427
135	0x3e16ad5d	0.1471457
136	0xbd7e5d9a	-0.062100984
137	0x39cb3179	0.00038756037
138	0x3dc74e76	0.09731762
139	0x3def53d5	0.116859116
140	0x3d8ccb32	0.06874694
141	0xbe024d96	-0.12724909
142	0xbb951caf	-0.0045505385
143	0x3d3fc495	0.046818335
144	0xbddbf92b	-0.107408844
145	0xbda02061	-0.07818676
146	0xbe3d995f	-0.18515538
147	0x3d90cd3f	0.070703976
148	0xbe574483	-0.21022229
149	0xbe133413	-0.14375333
150	0x3dc882d1	0.09790576
151	0xbc2a49ab	-0.01039354
152	0x3de0f2c0	0.10983801
153	0xbd22f114	-0.03978069
154	0xbdcd6c17	-0.10030382
155	0x3d1d6b6b	0.03843252
156	0xbd2ec0e1	-0.042664412
157	0x3caa471c	0.02078586
158	0xbd968768	-0.073500454
159	0xbd8b2923	-0.067949556
160	0x3dc449a3	0.095843576
161	0x3de7a8ab	0.11311468
162	0xbdbefd5a	-0.09325667
163	0xbdb08c51	-0.08620513
164	0x3d54bbbe	0.051936857
165	0x3c31d8d1	0.010854916
166	0x3dc18eff	0.094511025
167	0xbd5240d2	-0.05133135
168	0x3db01b65	0.08598975
169	0xbcb3242a	-0.02186783
170	0x39d38b6a	0.00040348928
171	0xbdeac8e3	-0.11464097
172	0x3d218c80	0.039440632
173	0xbe022e71	-0.12713028
174	0x3c859e0c	0.016310714
175	0xbce873aa	-0.028375465
176	0x3d6363e3	0.05551518
177	0xbdb2258b	-0.08698567
178	0x3cb82676	0.022479277
179	0x3d57b3e8	0.052661806
180	0x3ddbd33c	0.10733649
181	0x3d02d240	0.03193879
182	0x3c61353f	0.013745605
183	0x3da220f3	0.07916441
184	0xbd82cf30	-0.06387174
185	0x3d9a0187	0.075198226
186	0xbdf9de89	-0.12200648
187	0xbcd51864	-0.026012607
188	0xbd3e711c	-0.04649459
189	0x3dc0ea1f	0.09419655
190	0xbd9713e0	-0.07376838
191	0xbd963fa9	-0.07336361
192	0x3dd6fa38	0.10496944
193	0x3ddaaf52	0.10677971
194	0x3ca642d8	0.020295545
195	0x3d39d91f	0.04537308
196	0xbe1dbf1c	-0.15404934
197	0xbdac788a	-0.084214285
198	0x3c8d6e5f	0.017264543
199	0xbca89ad8	-0.020581648
200	0xbd377fb8	-0.044799536
201	0x3ccb3c73	0.024809098
202	0x3d5faa42	0.05460573
203	0x3b7541bc	0.0037423214
204	0xbdacf4b0	-0.08445108
205	0xbdd7ab17	-0.1053068
206	0xbd8c5228	-0.068516076
207	0x3d762147	0.06009033
208	0xbc874348	-0.016511574
209	0x3d927065	0.07150344
210	0xbd128ad2	-0.03577692
211	0xbce9c3a6	-0.028535675
212	0x3d83c4b9	0.06434006
213	0x3da2ed5a	0.079554275
214	0x3dc61a30	0.096729636
215	0xbcb50e7b	-0.022101631
216	0x3ceae2d9	0.028672623
217	0xbd4efba3	-0.05053295
218	0xbacd8438	-0.0015679663
219	0xbd9a5155	-0.07535044
220	0x3e07ba35	0.13254626
221	0xbd2eb324	-0.04265131
222	0x3da69221	0.081333406
223	0xbce5d41a	-0.02805524
224	0x3b33bd82	0.0027426188
225	0xbccc4c08	-0.024938598
226	0x3dc26220	0.09491372
227	0xbd8ea34f	-0.069647424
228	0x3db41b17	0.087942295
229	0x3dbe1eb8	0.09283203
230	0xbdd86496	-0.1056606
231	0x3df0e0a4	0.11761597
232	0x3d4ec2a2	0.050478585
233	0x3d697ac3	0.05700184
234	0xbd4a6c05	-0.04941942
235	0x3cab694b	0.020924231
236	0xbd50cff9	-0.05097959
237	0xbdc2fe3f	-0.0952115
238	0xbd39ae54	-0.045332268
239	0xbd15dac1	-0.036585573
240	0xbdc9e2fb	-0.09857746
241	0x3c8223d8	0.015886232
242	0x3dc806c7	0.09766918
243	0xbd188e8d	-0.037245322
244	0x3dfaf33a	0.12253423
245	0xbde50dae	-0.1118425
246	0xbde8a34f	-0.11359274
247	0x3d5d606d	0.054047037
248	0x3d9df8ad	0.07713447
249	0x3db71a66	0.08940582
250	0xbda89abd	-0.08232639
251	0x3d88ef0f	0.06686222
252	0x3d6aa650	0.057287514
253	0x3d4ee285	0.050508995
254	0x3dab3414	0.083595425
255	0xbd8b4e5e	-0.06802057

fc3.bias f4 [10]
0	0xbdba83c4	-0.091071635
1	0x3de83842	0.11338855
2	0x3c8f8c11	0.017522844
3	0xbcee3608	-0.029078498
4	0x3cac13ee	0.021005597
5	0xbd266b35	-0.040629584
6	0x3d532bec	0.05155556
7	0xbc1b6ad8	-0.009485923
8	0x3d6edf8d	0.058318663
9	0xbd621095	-0.055191595
