lab02-models/hip-4-model.pth (torch, 181175 bytes, 10 tensors)

conv_block1.0.weight f4 [6, 1, 5, 5]
000000 ca 63 4c 3d 82 ee 20 3c 5e a5 28 be c1 24 a3 bd
       0.049899854 0.00982249 -0.16469333 -0.079659946
000010 c8 03 ae bd 25 34 0a be 05 af e2 bd 3b 9a 63 bd
       -0.08496815 -0.13496454 -0.110685386 -0.055567008
000020 aa dd d1 bd 77 f5 25 3e f8 53 59 3c 51 6a 1b bd
       -0.10247357 0.16206919 0.013264649 -0.037943188
000030 10 2d 65 bd 01 5d d0 3d 30 a4 e0 3d 3d 03 ec bd
       -0.055951178 0.10173989 0.10968816 -0.11524055
000040 be 5f 36 bc c7 bd 2c be 04 87 2c be fa 83 ad bd
       -0.011131225 -0.1686927 -0.1684838 -0.08472438
000050 a0 78 39 3e 87 5d ea 3d 70 ea aa bd ea 98 3f be
       0.18112421 0.1144362 -0.08345497 -0.18710676
000060 8b 0a 7f be 64 38 04 3d 92 2b 9f 3d 91 f6 e2 bd
       -0.24906366 0.03228034 0.07771982 -0.11082185
000070 73 3e 1f be fe 8b 4c 3e 2b 2c 7a 3e 93 ee c8 3e
       -0.15551166 0.19975278 0.24430911 0.39244518
000080 75 a2 6a 3e 5e 44 51 bc 00 b2 44 3d 6f 6b a1 bc
       0.22913535 -0.012772648 0.048021317 -0.019704549
000090 bf bf 2c 3d a1 d3 ae 3e ce c8 4a 3e 13 4b 1c be
       0.04217505 0.34145835 0.19803163 -0.15263014
0000a0 b8 61 6a be 9e 49 0e be e3 d3 2e be bf c0 14 3e
       -0.22888839 -0.1389527 -0.17073016 0.14526652
0000b0 5c b5 e5 bd 9d 1b 64 be d9 23 8b be 37 51 11 be
       -0.11216232 -0.22276159 -0.27175787 -0.14191137
0000c0 f0 cc c7 bd 93 8c fc 3d d9 e3 93 3e 06 85 c4 3e
       -0.097558856 0.123315 0.2888477 0.3838274
0000d0 66 eb 23 3e 05 8a 3e be ae ef f6 bd 6b 07 a7 3e
       0.16007766 -0.18607338 -0.12057434 0.32622847
0000e0 d9 83 92 3e 12 b2 e3 3e 3f 74 e3 3e 24 8c 9a 3d
       0.28616217 0.44471794 0.44424626 0.07546261
0000f0 1f d5 24 be 11 00 5f 3d 37 eb f1 3d f6 06 79 3e
       -0.16096924 0.054443423 0.11812442 0.24319062
000100 9c ac 2c 3e bd 1c 0d bf 87 50 48 be 8a 07 3c bd
       0.1686272 -0.55121976 -0.19561969 -0.045905627
000110 86 4c e7 bc 1a cf 4a 3e ca 06 a2 be 6d 5c 97 be
       -0.028234731 0.19805565 -0.31645805 -0.29562703
000120 14 d6 a9 be 26 b4 94 be 45 29 a8 bc 2c be b3 bd
       -0.3317114 -0.29043692 -0.020527491 -0.08776507
000130 41 83 42 be 3a 78 ad bc e3 89 2c 3d 06 c5 4c be
       -0.18995382 -0.021175493 0.042123687 -0.19997033
000140 55 01 17 be a1 51 2c be f7 97 23 be c2 71 47 3e
       -0.14746602 -0.16828014 -0.15975939 0.19476989
000150 29 bb 77 3e 33 1c ad 3e 7e 10 4a 3e 18 a3 9e 3e
       0.2419249 0.33810577 0.19732854 0.30983806
000160 9b cb 67 3d cb 35 43 3e 20 11 fd 3d ec 24 c7 3d
       0.056590658 0.19063489 0.12356782 0.09723839
000170 59 64 11 be 8f 3a 04 3e b1 98 01 be 98 a6 5d bd
       -0.14198436 0.12912963 -0.12655903 -0.054113954
000180 b9 61 98 be b3 11 8f be f7 ae c4 bd a1 df 4f 3e
       -0.29762056 -0.2794319 -0.096036844 0.20300151
000190 e3 63 da be 9e 8a 95 be b6 e7 06 bf 7b 46 de be
       -0.42654333 -0.2920732 -0.5269731 -0.43413147
0001a0 24 6a f9 be 0c 8d ae be 98 36 ab be 63 04 82 be
       -0.4871379 -0.34091985 -0.3344009 -0.25393972
0001b0 1f 5f 17 bf e9 54 cb be 05 4d e9 be df 02 00 bf
       -0.5912952 -0.3971322 -0.45566574 -0.5000438
0001c0 f9 0b 02 bf 41 cd 08 bf 42 e2 1a be 6f 97 65 be
       -0.5079952 -0.5343819 -0.15125373 -0.22421049
0001d0 93 7f aa be a2 9c 14 be 12 dc 68 be 7f f7 00 3e
       -0.33300456 -0.14512876 -0.227402 0.12594412
0001e0 35 61 c2 be 66 32 8e bd 19 e3 5c be 8d 12 c6 bd
       -0.37964788 -0.069432065 -0.21571006 -0.09671507
0001f0 5f b6 36 3e 9f 01 7f be fb d0 2a be 4f bf 91 be
       0.17843007 -0.24902962 -0.16681282 -0.2846627
000200 24 21 9c bd 50 7c 0e bd 08 ec 2d bc 8e 01 ba bd
       -0.076235086 -0.034786522 -0.010615356 -0.09082328
000210 21 1b cb bd 80 8b 39 bd b5 dd 10 3d 80 e7 b2 bd
       -0.09917284 -0.045299053 0.035367686 -0.08735561
000220 fa 33 1d bd 3b 51 68 3d 6e 83 23 bd b6 a4 3c be
       -0.038379647 0.056718092 -0.039920263 -0.18422207
000230 79 9d e1 3d b0 63 5a bc 1d a6 1c be 81 69 1e be
       0.11016364 -0.013329431 -0.15297742 -0.15469934
000240 6a b6 31 be 9b 05 95 3e bf 84 55 3e 14 9f 8f 3e
       -0.17354742 0.2910584 0.2085142 0.28051054
000250 6d 0a 5e 3e 19 33 54 3e
       0.21683665 0.20722617

conv_block1.0.bias f4 [6]
000000 59 7f 31 3e 74 4a 6a 3e f2 c7 92 3e 59 ca 96 3d
       0.17333736 0.22879964 0.2866817 0.073628135
000010 89 bb 83 3d 81 7c 53 bd
       0.06432254 -0.051632408

conv_block2.0.weight f4 [16, 6, 5, 5]
000000 90 f3 da 3d f1 4f 49 bd 29 59 8c 3d c2 12 1c 3d
       0.10690987 -0.049148504 0.068529435 0.038103826
000010 35 e6 36 bc 04 64 e3 bc d5 6e 81 3d ed 28 64 bd
       -0.011163284 -0.027757652 0.06319968 -0.055703092
000020 08 5d f6 bb a7 eb 83 3d b5 e9 88 3c 2c 67 65 bd
       -0.0075184144 0.064414315 0.016713003 -0.056006595
000030 2b dc 43 bd 7b dd 04 be 9e e3 8c 3b a5 df 38 3d
       -0.04781739 -0.12975113 0.004299595 0.04513516
000040 ba ae 82 3c 5d be 07 3d f9 08 ec bd c8 40 67 bd
       0.015952457 0.03314053 -0.11525149 -0.056458265
000050 51 87 83 3d b1 de e9 3c 2c 27 8b bd 48 f0 18 bd
       0.06422294 0.02854857 -0.06794581 -0.037338525
000060 5c cf 99 3d 1a b1 ce 3c f4 22 21 bc df b6 1d 3d
       0.07510254 0.025230933 -0.009834994 0.038504478
000070 95 0a 05 bc 0c f2 31 3a 2e 90 9e bd 50 7e 38 bd
       -0.008120199 0.0006788082 -0.07742344 -0.045042336
000080 8c 08 93 bd 54 95 8a 3d 7b 04 62 bd d2 06 7c 3d
       -0.071793646 0.06766763 -0.055180054 0.06152994
000090 7a 0a 5d bb bc 9b af bb 47 f8 bf 3d 12 9d 47 bd
       -0.0033728168 -0.005359141 0.09373527 -0.04873378
0000a0 5d 42 40 bb 98 be 96 bd e3 14 46 3d 92 00 69 bd
       -0.002933643 -0.073605716 0.048359763 -0.05688531
0000b0 a1 e0 ca bd 41 b9 74 bd e8 39 49 bd 47 1b 85 bd
       -0.09906126 -0.059746984 -0.04912749 -0.06499343
0000c0 c2 ea c5 bd 06 87 5a 3d ed c5 b0 bd 0a 8c e5 3c
       -0.09663917 0.053351425 -0.08631501 0.028020877
0000d0 29 61 87 bc 45 b2 a4 bc f5 9d ae bd 4e a6 55 3d
       -0.016525822 -0.020104537 -0.08526222 0.052160554
0000e0 12 ea a3 bd 80 aa 4a bc cc 81 40 bc 1a fd 3e be
       -0.0800363 -0.012369752 -0.011749696 -0.18651238
0000f0 d1 21 68 bd 8d a4 06 3d 66 bd 99 bd 1c f1 b0 bd
       -0.056672875 0.03287177 -0.07506828 -0.08639738
000100 93 13 46 bd 35 4d d9 3c ee 2d dc ba 58 30 b6 3c
       -0.04835851 0.026526073 -0.0016798356 0.022239849
000110 e6 9f 14 bd 2d bd 44 bd f2 01 d0 bc ac 9c a9 bd
       -0.036285304 -0.048031975 -0.025391553 -0.08281836
000120 6e 49 e8 bd ca b7 d6 bd 7d ab da 3d 73 06 03 3d
       -0.113421306 -0.10484274 0.1067724 0.031988572
000130 36 4e 84 bc 86 24 a6 3d 9a ba ee 3c 77 8d ad bd
       -0.016150575 0.08112435 0.029141713 -0.08474248
000140 8c a6 ed bc 0b fa c7 bd 1b e9 80 3d d4 8c cf 3d
       -0.02901008 -0.09764489 0.06294461 0.10134283
000150 59 29 87 bd 75 e9 45 bd 09 f7 4d bd 5a ce 58 3d
       -0.06599683 -0.048318345 -0.05028442 0.052931167
000160 c6 26 00 bc dc 4a b2 bd 1f 28 69 bb 53 1c 57 bd
       -0.007821744 -0.087056845 -0.0035576893 -0.052517246
000170 00 0d 2e 3d 15 8d 9a bd 37 c1 d9 bd e6 a2 fe bc
       0.042492867 -0.075464405 -0.10632556 -0.031083535
000180 f4 ad 50 3d 1a 2e 80 3c 39 bb 91 3d df fd c8 ba
       0.050947145 0.015646983 0.07115788 -0.0015334449
000190 63 68 68 3e dc 01 1a 3e 38 0d 00 3e 0c 9d 5b 3e
       0.2269607 0.15039772 0.12505043 0.21446627
0001a0 9a b3 31 bd f5 11 0e 3e a4 47 1c 3e fe fc 4d 3e
       -0.043384172 0.13874038 0.15261704 0.2011604
0001b0 91 f2 05 3e 37 0d 3e be b5 1e 11 3d dd 04 f9 3d
       0.13080813 -0.18559729 0.035429675 0.12159131
0001c0 11 d3 35 3e 95 cd b8 bd 5d bc 51 be be fd 58 bd
       0.17756297 -0.09023587 -0.20482011 -0.052976362
0001d0 da fc 29 3e e1 38 dd 3d fe ef 90 be 15 e6 5c be
       0.16600361 0.108018644 -0.283081 -0.21572144
0001e0 de 49 cb 3d 3a 46 2e 3e 95 26 bd bd 79 b9 48 be
       0.099261984 0.17018977 -0.092358746 -0.19602002
0001f0 55 e0 18 be 46 68 2c bd 9d ce ba 3b c0 05 b4 3d
       -0.14929326 -0.04209163 0.0057008998 0.08790159
000200 e3 48 24 bd d1 90 30 3c fc 73 2e 3d 97 5b be bc
       -0.040108573 0.010776714 0.04259108 -0.023237033
000210 90 c4 66 3d 6e e2 95 3c c1 7a 50 3b 45 d7 6e bd
       0.0563398 0.018296447 0.0031811448 -0.058310766
000220 c7 86 fa bc 94 f6 ae bc 9e fe b1 bd 4b fd d1 bd
       -0.030581845 -0.021357812 -0.086911425 -0.1025339
000230 de 46 62 bd e4 78 a3 bc ba a9 03 3d 7f 7c f1 bd
       -0.055243365 -0.019955106 0.032144286 -0.11791324
000240 0f a6 e7 bb d0 be dc 3b d6 63 91 bd fb fd 8d bd
       -0.0070693563 0.006736614 -0.0709912 -0.069332086
000250 d4 c5 51 bc 45 4b 78 bd fc 11 76 3c fc e6 a0 3a
       -0.012803514 -0.060618658 0.015018936 0.001227587
000260 5c 74 8e bc ea d1 cd 3c 4e 6c 93 3d f8 6c 84 bd
       -0.017389469 0.025124509 0.07198392 -0.06466097
000270 34 71 85 bc 96 ea 36 bc f2 43 93 ba d8 58 27 3d
       -0.016289331 -0.011164328 -0.0011235459 0.040856212
000280 57 96 93 3d 26 67 af 3d fb 03 9f 3c 20 5b 96 bd
       0.072064094 0.08564596 0.019411078 -0.073415995
000290 de 8f 1f 3d 48 06 c6 3c 64 63 cd 3d 7c de 5d 3d
       0.03895556 0.024172917 0.10028723 0.054167256
0002a0 47 39 30 bd 64 2e 21 bd e6 fc 24 3d d5 6c b0 3c
       -0.043023374 -0.039350882 0.040280245 0.02153627
0002b0 86 aa 4f 3d 96 e3 11 bd 48 22 c2 3d 1b a5 f5 3b
       0.050699733 -0.035617433 0.09479195 0.0074964887
0002c0 12 fb f2 3d 59 3b d6 3d a0 71 b1 3d 35 52 8e bd
       0.11864294 0.104605384 0.086642504 -0.069492735
0002d0 93 e0 cd bc af 2d f1 3d 3d fd 0e 3e 2d 9c 01 3e
       -0.0251315 0.117762916 0.1396379 0.12657233
0002e0 a9 ac 4a bd ef ea d3 3c 82 67 4e 3d 7e 9c cb 3d
       -0.049481068 0.025868861 0.05039168 0.09941958
0002f0 51 d5 59 3c cf a7 1d 3d e2 ab 9d bd 57 52 1e 3d
       0.0132954875 0.038490113 -0.076988 0.038652744
000300 d7 0b 0e 3c 84 e8 37 3d 35 b5 da 3d 26 81 06 bc
       0.008669815 0.04489948 0.10679094 -0.008209502
000310 30 f2 b3 bd df f0 7f bd 44 21 c3 3b 5e 16 aa 3b
       -0.08786428 -0.062485572 0.0059548933 0.0051906547
000320 78 08 37 3d a6 6c 2f 3e ae 60 0c 3d 40 13 dd 3d
       0.04468581 0.1713129 0.03427189 0.10794687
000330 25 26 7d 3d 0c 37 03 3d 01 ce 87 3d 82 d3 18 3e
       0.061803956 0.03203492 0.06631089 0.14924434
000340 0a da 35 3e 13 f1 0a 3e 19 5d e0 3d 8e 26 ca 3d
       0.17758957 0.13568525 0.10955257 0.09870635
000350 92 8c 4f 3d ff 41 c3 3d 49 3c ef 3b 8e 31 3a bc
       0.050671168 0.09534072 0.0073008877 -0.011364354
000360 78 2d b6 3a 71 08 2e bc 1a a7 f5 3d 48 95 80 3d
       0.0013899049 -0.01062213 0.11994763 0.06278473
000370 cf b1 32 3d 9c 3b ae bd 81 94 e5 bc a5 ef a6 bc
       0.043626603 -0.08507463 -0.028024914 -0.020377943
000380 13 29 40 bd 9e aa 94 3d 47 41 b5 bc c1 e1 9b 3d
       -0.04691417 0.07259105 -0.022125853 0.076114185
000390 ea a2 05 3e 59 71 b6 3d 09 48 17 bd 1e 32 cb 3d
       0.13050428 0.08908338 -0.036933932 0.099216685
0003a0 62 be 90 3d 43 94 5e bb 7f 08 3e bd fa 99 35 3d
       0.07067563 -0.0033962883 -0.04639482 0.044336297
0003b0 89 8c 9c 3d 65 ff 7e 3d b6 bc 9b 3c 97 ad 63 bd
       0.076439925 0.062255282 0.019010883 -0.05558547
0003c0 13 51 93 3c 96 7d f7 bc 1e 2c a2 3b c5 9f b3 3c
       0.017982995 -0.030211251 0.004949107 0.02192677
0003d0 85 f2 4d 3d f6 4d a1 3c de 7a 51 bd e3 f6 6b bc
       0.050280113 0.019690495 -0.051142566 -0.014402124
0003e0 1c 51 36 bc d2 65 56 3c 11 af 42 bd d4 a7 9e bd
       -0.011127736 0.013085799 -0.047530238 -0.077468544
0003f0 d4 f4 3a bd 14 c1 28 be a1 2f 94 bd 29 e8 89 3d
       -0.045643643 -0.16479903 -0.07235647 0.06733734

conv_block2.0.bias f4 [16]
000000 e6 92 aa 3d 7f 25 5b bd 81 76 39 3d 99 b8 86 bd
       0.083288 -0.053502556 0.04527903 -0.06578178
000010 f1 86 a5 bc 17 17 99 3d 1d a5 58 bd a1 cd 95 3d
       -0.020205947 0.07475107 -0.05289184 0.07314611
000020 41 bb 44 bc aa c6 60 bd c3 fe ea 3b c3 01 aa bc
       -0.012007535 -0.05487696 0.0071714832 -0.020752793
000030 23 31 14 bd 3c ec 62 3d 3d df 2b 3d 66 d8 43 3d
       -0.036179673 0.055401072 0.041960943 0.047813796

fc1.weight f4 [120, 256]
000000 24 5d 7e 3d 5b 6a 2e bc ea 4d 22 bd 99 96 50 3d
       0.062100545 -0.010645474 -0.039625086 0.05092487
000010 49 ce 53 bd c4 00 af bd 6e 48 ae 3c 39 75 c0 bc
       -0.0517104 -0.08545068 0.021274772 -0.023493396
000020 95 0a 5e 3b 1f f3 c9 3b e7 ac 2a bd 90 4a 55 bd
       0.003388082 0.0061630155 -0.0416688 -0.05207306
000030 e5 78 59 3c 82 50 86 3d 94 fd 32 bd 33 15 c3 bc
       0.013273452 0.065583244 -0.043698862 -0.02381382
000040 76 f0 53 bd b8 6c 29 bd 9c b7 41 3d e6 a6 1e 3d
       -0.051742993 -0.041363448 0.047294244 0.038733386
000050 ea 23 79 3d 07 1f 40 3d 8f eb a8 3c 1b c2 56 3d
       0.060825266 0.04690459 0.020620136 0.052431207
000060 7e ca c4 bc 97 c5 e1 3c 55 d9 6e bd 20 fd 11 bd
       -0.024022337 0.027560038 -0.058312733 -0.03564179
000070 5d 76 43 3c a6 58 a1 3c a3 26 01 bd 1d b5 67 3d
       0.0119300755 0.019695591 -0.031530987 0.056569207
000080 42 6e 65 3d 3e 3a ac 3c 4d 7f 18 3d 45 d2 5c bd
       0.056013353 0.021023866 0.03723078 -0.053911466
000090 24 3e ef 3c c4 d0 4b bc 14 2e 11 bd 9f e9 62 bd
       0.029204436 -0.01243991 -0.035444334 -0.05539858
0000a0 3b 66 43 bd fd 34 19 3b cf 7c 5b 3c 60 f1 6f 3d
       -0.047704916 0.002337753 0.013396456 0.058579803
0000b0 31 19 a2 bc 2e 8f e1 3c cf 03 a2 3c 01 3d a8 3d
       -0.019787403 0.027534094 0.019777207 0.082147606
0000c0 a5 d0 92 3b 12 c2 cf bc c2 f8 3a bc 60 72 c1 bc
       0.004480439 -0.025361095 -0.011411848 -0.023614109
0000d0 30 9c 80 3d 07 0f c0 3c d7 41 90 3c 90 38 09 bc
       0.062797904 0.023444666 0.01760952 -0.008375302
0000e0 e2 e4 7a 3d a1 1f 36 3d 6b a7 10 bd 59 9f f3 bb
       0.061253436 0.044463757 -0.035315912 -0.007434767
0000f0 5d 4f 9f 3c ee 72 2f bd ec f1 26 bd 6d 27 61 bd
       0.019447023 -0.042834215 -0.04075806 -0.05496924
000100 82 b8 6f bc ea 87 c2 bc 00 e2 f8 3a 48 aa 17 3d
       -0.014631392 -0.02374645 0.0018988252 0.037027627
000110 19 f5 ee 3a 19 46 02 3d 35 aa 8b 3b 55 31 86 bc
       0.0018231004 0.03180513 0.0042622336 -0.016380945
000120 ae 97 0b bc 60 b6 e9 3c 87 81 d7 3b ca e3 13 3d
       -0.00852005 0.028529346 0.00657672 0.03610591
000130 59 af 8c 3c d6 48 e6 bc 9f d5 ab 3b 79 26 a5 3c
       0.017173456 -0.028110903 0.0052439715 0.020159947
000140 c8 f2 88 3d 00 f3 a5 bc 80 14 b2 3c 54 c1 40 bd
       0.06686932 -0.020257473 0.02173829 -0.047059372
000150 99 c1 81 3d 9f 4a e2 3c d5 ab 21 3d 9e 3a fc bc
       0.06335754 0.027623473 0.039470512 -0.03078967
000160 dc 6d a2 3c d6 82 ef bc f6 6b e6 3c a9 07 71 3d
       0.019827776 -0.029237192 0.028127652 0.058845196
000170 37 48 fb bb 64 56 34 3d 82 11 71 3d 34 4f b6 bc
       -0.007668521 0.0440277 0.058854587 -0.022254564
000180 27 16 ad bb 69 1d f9 ba 13 6c 6b 3c 24 87 6b 3d
       -0.005282182 -0.0019005957 0.014369029 0.057501927
000190 89 52 33 3d 6d 42 99 bc f9 0e df bb ee a3 71 b9
       0.043779884 -0.018708432 -0.006807205 -0.0002304462
0001a0 eb 24 4d bd bc 93 d6 3b 24 d4 95 3c b0 ad df 3c
       -0.050084036 0.006548373 0.018289633 0.0273045
0001b0 df cd 2c 3d 9a 97 32 3d 03 c5 d8 3a 60 9b 0d bd
       0.04218852 0.04360161 0.0016538206 -0.034572005
0001c0 80 6c 80 3c d9 50 38 bd 58 97 4e 3c f1 a4 77 bd
       0.015676737 -0.044998977 0.012609325 -0.060460035
0001d0 d4 91 2f 3d 19 cc 73 bd c4 af c8 bc 5e f5 58 3d
       0.042863682 -0.059520815 -0.024497874 0.052968375
0001e0 60 bd a9 bc 12 23 a1 bb 90 f6 3f bc 14 b5 3c bc
       -0.020720184 -0.004917511 -0.0117165 -0.011517782
0001f0 80 3a c7 bc af 64 1d 3d e7 9d 63 3c 81 b1 60 3c
       -0.024319887 0.038426097 0.013892627 0.013714195
000200 08 e8 42 bd fe a7 2a bd d9 1b 21 3d 2f 89 89 bd
       -0.047584563 -0.041664116 0.0393332 -0.06715619
000210 ed 4a 72 bd 2c cd 07 bd df b9 63 3d 1e 37 2d 3d
       -0.059153486 -0.03315465 0.055597182 0.042288892
000220 5b c2 90 3d 53 19 35 bd c8 aa 3f bc ac 7a 83 3b
       0.0706832 -0.044213604 -0.011698432 0.0040124264
000230 43 0e 17 bd 36 9d c8 3a 40 58 84 bd cd 14 61 3d
       -0.036878835 0.0015305642 -0.06462145 0.054951478
000240 eb db 66 bd e0 b0 85 bd aa 86 8d bc 97 ab 1c bc
       -0.056362074 -0.06527877 -0.017276127 -0.009562395
000250 bc 07 45 bd a3 27 d1 3b 07 24 2f bd a7 26 69 bc
       -0.04810308 0.006382899 -0.042758968 -0.014230407
000260 6c e0 12 3d 53 d8 19 bd 52 7c be bc 1b f9 a9 3a
       0.035858557 -0.03755982 -0.02325264 0.0012967916
000270 86 d5 57 bd 04 63 05 bc d0 76 31 3d 04 e1 cb 3b
       -0.052693866 -0.008141283 0.0433262 0.0062218923
000280 f4 6f 70 bb 9b 5b 0f bd be 59 6b bd 39 0d 7d 3d
       -0.0036687823 -0.03499947 -0.05745863 0.06178019
000290 29 e4 5d bd c3 9f 2f 3c 00 73 f8 3c 44 d6 28 bb
       -0.05417267 0.0107192425 0.030328274 -0.0025762478
0002a0 96 71 72 3d 54 bc 30 bd c9 18 a4 3c 8b 49 cd 3c
       0.059190355 -0.043148354 0.02003135 0.025059482
0002b0 7d 21 70 bd b9 43 2c 3d a7 08 31 3d d7 03 f4 3c
       -0.058625687 0.042056773 0.043221142 0.029786987
0002c0 b5 65 57 bd 57 20 ff bc 18 a1 d3 3b 91 52 bd 3b
       -0.05258723 -0.03114335 0.006458413 0.005777665
0002d0 df 32 0e 3c 73 71 37 bd ba 23 4d bc 2c 32 28 bd
       0.008679121 -0.044785928 -0.012520725 -0.041063473
0002e0 54 ec a5 bc 05 c4 bf 3c 13 92 41 bc 82 be 2d bd
       -0.020254292 0.0234089 -0.011814612 -0.04241801
0002f0 97 99 6a 3b 80 af e5 3b b8 e6 23 bd 75 a1 5e 3d
       0.0035797113 0.0070094466 -0.040014952 0.054353196
000300 79 f4 ec 3b d6 62 fc bc 83 b1 6f bd 1c 88 70 bc
       0.007231292 -0.030808847 -0.058518898 -0.0146808885
000310 b3 a0 84 3d 0c 18 77 3c 1f b1 49 3d 34 76 60 3c
       0.064759634 0.015081417 0.04924118 0.013700057
000320 a0 57 80 3d 5c f6 5b 3d ed bc 3b bd 13 9d ab bc
       0.06266713 0.053701743 -0.04583447 -0.020948922
000330 3a 3c 4f 3d 10 b7 22 bd 8b f5 cd bc 84 a5 2c 3d
       0.050594546 -0.039725363 -0.025141498 0.042150036
000340 45 e3 f1 bc 0b 88 60 bb ff 19 41 bd 3b 5b e0 3c
       -0.029527316 -0.0034260775 -0.047143932 0.027387252
000350 ec f5 8c 3d 08 19 1d 3d f4 ef 82 39 41 df 4c 3d
       0.068828434 0.03835395 0.0002497431 0.0500176
000360 3c fb 2d bd 2c a0 64 bc 05 6f 79 bc 49 bc c2 3c
       -0.042475924 -0.013954204 -0.015224223 0.023771422
000370 cf 60 02 bb 92 1a 2e 3c bf 55 61 bd 75 95 17 3d
       -0.0019894128 0.010626452 -0.055013414 0.037007768
000380 46 ec 28 3d 48 54 49 3b 1a e7 af bc d2 82 0e 3d
       0.041240953 0.0030720402 -0.021472502 0.03479273
000390 0d 41 36 3c 15 9d a7 3c a5 e4 89 bd 28 6e 1f bc
       0.011123908 0.020460645 -0.067330636 -0.009730853
0003a0 4f 29 57 bd fc d1 05 3a 7d 02 97 3d 1d 25 34 bd
       -0.05252963 0.00051048375 0.073735215 -0.043980706
0003b0 83 2b 22 3d b7 01 3f bc 56 36 b6 3c a6 be 27 3c
       0.039592277 -0.011658124 0.022242706 0.010238325
0003c0 47 3a 2a bd 72 dc 76 bc ca 8b 8a bc bc ea 5c 3d
       -0.041559484 -0.015067207 -0.01691236 0.053934798
0003d0 15 eb 8a bc 67 7d 94 bc d8 5b 40 bd bd 87 05 bd
       -0.016957799 -0.018126203 -0.04696259 -0.032600153
0003e0 e3 4c 22 bd c7 aa 5b 3d 09 99 ee bb ed 84 09 bd
       -0.039624106 0.053629663 -0.007281427 -0.033574034
0003f0 4a 5d 02 3d 43 9d 42 bd 23 3f 5d bd d3 fb 1c 3d
       0.03182725 -0.047513258 -0.05401529 0.038326096

fc1.bias f4 [120]
000000 70 a3 55 bc cd 7e 49 3d 92 5c c8 bc 63 d6 5a 3d
       -0.013039455 0.049193192 -0.024458203 0.05342711
000010 cf 52 7a ba e7 ab c3 3c 7f d4 99 3d f7 b6 ed 3a
       -0.00095490826 0.02388568 0.075112335 0.0018136193
000020 51 19 ff bc 08 0b 26 bd cc 23 6f 3d 77 86 21 bd
       -0.031140001 -0.040537864 0.058383748 -0.039434876
000030 3a 07 9a 3c aa 7f ea bc 8a cd 54 bd 2f fa 09 3d
       0.018802274 -0.028625328 -0.05195383 0.03368586
000040 fc 92 d2 bc e5 99 06 3d 9b d7 01 3d 4f 53 27 3d
       -0.025704853 0.03286161 0.031699758 0.040850934
000050 9e 12 85 bc e6 1e 13 3d b8 03 11 bd f8 ac 54 3d
       -0.016244229 0.03591814 -0.035403937 0.05192277
000060 17 a9 57 bd 08 e3 6a 3d d2 e3 b8 3c 17 f2 46 3d
       -0.05265149 0.05734542 0.02256957 0.04857072
000070 7c 19 2a 3d 5e a8 2c bc 83 eb f1 3c b4 43 47 bd
       0.04152821 -0.010538189 0.029531246 -0.04864855
000080 af 53 2e bd 26 ab 3a 3d 42 7a ee bc a5 a2 9a ba
       -0.042560276 0.045573376 -0.029111031 -0.001179774
000090 96 ec 27 bd c8 49 09 bd 9a 3a 52 bb 4b f7 ba bc
       -0.04099711 -0.03351763 -0.0032078386 -0.022822997
0000a0 8d f3 9b 3c 19 a3 4f bd ff 68 82 3d 59 88 e2 3c
       0.019037032 -0.05069265 0.06367683 0.027652906
0000b0 67 7f dc 3b 32 22 05 3d 43 e4 cd bb e1 bb 1d 3d
       0.0067290547 0.032503314 -0.0062833144 0.038509253
0000c0 17 ee 50 bd 04 ac 0e 3d a1 db 00 3d 1c ad 00 3d
       -0.05100831 0.034832016 0.031459454 0.03141509
0000d0 fb 26 70 bd b3 98 a9 bc b0 0b 81 3d 70 35 9e bc
       -0.058630925 -0.020702695 0.06301057 -0.01931259
0000e0 32 3d 35 bc b0 13 1f 3d c7 3e b9 3c bf 7c ef bc
       -0.011061953 0.038837135 0.022612942 -0.029234288
0000f0 99 4c 46 3c c7 82 f4 3b a6 3a cc bc c6 42 66 bd
       0.012103223 0.007461879 -0.02493031 -0.056216024
000100 20 50 2e bc 8a 88 59 bd dd 44 a8 3c 4d 4f a9 3c
       -0.0106392205 -0.05310873 0.02054065 0.020667696
000110 0b 9b a6 bc ff aa 17 3d 36 55 07 bd 9c a5 7a 3d
       -0.020337602 0.03702831 -0.033040248 0.061193094
000120 2f fa 48 3d 4c 83 84 bc d0 7d 17 3d 3f 9c e6 3c
       0.04906672 -0.016175888 0.03698522 0.028150676
000130 04 e6 02 3c b6 a6 12 bd cc 11 cc bc 00 f3 39 3d
       0.00798941 -0.03580352 -0.02491083 0.04539776
000140 72 a2 1a 3d fa ca f1 3b 43 85 24 3d 7b 23 65 3b
       0.037752576 0.007378933 0.04016615 0.0034963775
000150 a7 fc 4f bd 00 2e b8 3c 90 2b a1 bc 93 bb 95 3d
       -0.050778057 0.022482872 -0.019674093 0.073111676
000160 76 02 24 bd 4d 2d 8a 3d 8a 75 0a bd b2 ff 18 bc
       -0.04004141 0.06746922 -0.0338035 -0.009338306
000170 bb 99 11 3d a3 0e ac bc fd e9 bc bc 4d 0d e1 bc
       0.035547 -0.021003073 -0.023060793 -0.027472163
000180 5a ca 14 bd 93 86 83 3d 46 82 71 bd 25 aa 88 3d
       -0.03632579 0.06422152 -0.05896213 0.066730775
000190 6f c5 4e bc 71 8a c8 bc f1 80 83 3b 0d 22 42 bd
       -0.012620314 -0.024480077 0.0040131737 -0.047395755
0001a0 7f 26 1d 3d e9 b3 0c 3c dd 8a 14 bd d0 3b b4 3c
       0.03836679 0.008587816 -0.036265243 0.022001177
0001b0 3c 27 86 3d a3 3d 82 3c 85 1a 47 3d 08 5a 59 bc
       0.06550452 0.015898531 0.048609275 -0.013266094
0001c0 f1 78 6c 3c 6c 0d 8a bd 5a 56 81 bd 76 58 b0 bc
       0.014433132 -0.06740841 -0.063152984 -0.021526556
0001d0 42 64 c1 bc 7f 44 a3 3c 42 d5 81 bc bf de 74 3d
       -0.023607377 0.019930122 -0.01584876 0.05978274

fc2.weight f4 [84, 120]
000000 96 70 c2 3b 62 26 a3 bd 21 c3 31 3c 60 f1 7b 3d
       0.0059338314 -0.07966305 0.010849745 0.06150949
000010 c4 e1 41 bd 7c b2 96 3c c3 73 6f 3d b6 e6 82 bd
       -0.047334448 0.018395655 0.05846001 -0.06391661
000020 6c ad 7c bd 03 3f 2c bd 26 4e b4 bb 23 19 62 bd
       -0.061688825 -0.04205228 -0.00550248 -0.055199753
000030 ac e0 b0 3c a5 0b a7 3d bd 6a 46 bd 3c a7 b2 3b
       0.021591507 0.08156518 -0.048441637 0.005452065
000040 ff 34 88 bb fe 2c 4c 3d 0c 8b ad bd 29 40 24 bc
       -0.0041567083 0.049847595 -0.08473787 -0.010025063
000050 2a a5 1d bd 29 f8 bd bd 54 49 97 3d a8 ba 62 3d
       -0.03848759 -0.092758484 0.07387033 0.05535379
000060 49 c3 3d bc 18 2f ab 3b bd df a2 3d f0 3c ab bd
       -0.011582204 0.00522412 0.07952831 -0.08361232
000070 f7 e1 51 bd b7 77 10 3d 7f b7 18 bd de 9b 76 3c
       -0.051240887 0.03527042 -0.03728437 0.01505181
000080 d4 4b f4 3c 05 c6 67 bd d6 35 80 bd 83 b5 a4 3d
       0.029821314 -0.05658533 -0.062602684 0.08042433
000090 01 ca 75 3d 31 44 af bd f6 4e 8e 3d f5 d6 86 bd
       0.0600071 -0.08557928 0.06948654 -0.065839685
0000a0 ae af 8a 3d 93 60 87 3d a1 eb 36 bb 21 bc e6 bb
       0.067717895 0.06610217 -0.0027911442 -0.0070414697
0000b0 bd 73 a8 bd e0 bd 68 bd 09 88 90 bb 71 1c af 3c
       -0.082252 -0.056821704 -0.004410748 0.021375867
0000c0 08 6b 76 3d 0a ab ad 3c a2 8a e5 3c 0e 86 87 bd
       0.060160667 0.021199722 0.028020207 -0.06617366
0000d0 ec 09 b5 3d 15 ab 4d 3c c7 3d 11 bc d2 ef 1f 3d
       0.08839783 0.012552996 -0.0088648265 0.03904707
0000e0 d9 56 20 3c ed a8 87 bd 50 b4 a9 bd f1 f7 5d 3d
       0.009786331 -0.06624017 -0.08286345 0.054191533
0000f0 89 0a 2e 3d 94 d9 a3 bd 2c 22 cd bc 32 0d 53 3d
       0.042490516 -0.08000484 -0.025040708 0.051526256
000100 26 5a fa 3c c3 4b 6e 3d 2d 4d 8a 3d 42 b3 01 bd
       0.030560564 0.05817772 0.06753001 -0.031665094
000110 fc 00 8c bd de c5 a0 3d 01 b1 3e bd 69 dc 50 3d
       -0.06836125 0.0785024 -0.046555523 0.05099145
000120 df f7 8d 3a ad 9c a0 bd df 71 9a bd 3d 52 ad bd
       0.0010831318 -0.078423835 -0.075412504 -0.08462951
000130 14 30 7d bd 2b 26 5e bc 05 59 20 3d 77 f0 c6 bd
       -0.06181343 -0.013558905 0.039147396 -0.09713834
000140 7c 9b be 3c 28 cd b1 3d a0 fb 02 bc f5 33 96 3d
       0.0232675 0.086817086 -0.007994562 0.07334129
000150 8f 4a 11 bd 1c 75 05 bd 0f d1 96 3b bd 61 5d 3c
       -0.035471495 -0.032582387 0.0046025584 0.013512072
000160 45 66 95 3a 2a 3c 4a 3d 02 43 05 bd da c3 b6 bd
       0.0011398277 0.049373783 -0.032534607 -0.089240745
000170 a9 21 20 3d 90 1d 68 3d 65 ca 44 bd 1f 4e a4 bd
       0.0390946 0.056668818 -0.04804458 -0.08022713
000180 d3 54 97 3d 6e 6a ba bd 28 8a a2 bd 30 23 60 bd
       0.07389226 -0.09102331 -0.079365075 -0.054721057
000190 99 90 8e 3d 43 f0 90 3d 67 71 34 bc 67 20 67 3d
       0.069611736 0.07077076 -0.011013365 0.056427386
0001a0 3d d9 55 3d bc 09 96 3d 10 27 91 bd bb 1e c9 3c
       0.052209128 0.073260754 -0.07087529 0.024550786
0001b0 4d 53 9a bd 35 ba 4d 3b 1e ee 39 3d de b4 8a bd
       -0.075354196 0.0031391506 0.045393102 -0.06772779
0001c0 62 1a 44 bb d3 11 40 3d 34 d7 ef bc 45 5a 6d 3d
       -0.0029922952 0.046892 -0.029277422 0.057947416
0001d0 7f 91 6a bd b2 dd 9c 3d 50 06 1b bd 36 0c 2d bd
       -0.057267662 0.076594725 -0.037847817 -0.042247973
0001e0 46 72 8b 3c 56 98 98 bc 5b 5a 61 3d d0 7b 86 bd
       0.017022263 -0.018627327 0.05501781 -0.06566584
0001f0 90 3a ae bd 7b c1 27 3d 05 8c b5 bd ba 0d 35 3d
       -0.08507264 0.040956 -0.08864597 0.044202544
000200 8b 96 a2 3d 52 d2 95 bd ef 34 10 3e 1f 1f 2c 3d
       0.0793887 -0.07315506 0.14082693 0.042021867
000210 47 85 a4 3d 0e 43 ec 3c 9a 81 6f 3d 2d cf 81 bd
       0.08033233 0.028840568 0.058473207 -0.06338344
000220 42 7f 8f 3d 33 d1 a6 3b 64 48 99 3d bd 0e 0b bd
       0.070066944 0.0050908565 0.074845105 -0.033949602
000230 f4 66 65 bd 26 ca 80 bc ab 38 b2 bd 9d a2 6f bd
       -0.056006387 -0.015721392 -0.08702215 -0.05850469
000240 d3 ff 88 3d d6 70 2d bd 54 fc 89 bd f4 46 26 3d
       0.066894196 -0.042343937 -0.06737581 0.04059501
000250 da dd f1 3c 62 46 14 3d c8 19 86 bc bf 8d 37 bc
       0.029524732 0.036199935 -0.016369715 -0.0112032285
000260 43 d7 d0 3c 0a 8f 66 bd 61 67 ff bc 53 9d 78 bd
       0.02549327 -0.056288756 -0.031177225 -0.06069691
000270 b2 d7 0f bd 7b f5 84 3c 4b 27 ed 3c 03 27 30 3d
       -0.035117812 0.016230335 0.0289494 0.043005954
000280 c7 3d 53 bd 73 22 95 3d 19 5f bf 3d cd ad 48 3d
       -0.051572587 0.07281961 0.0934431 0.048993874
000290 3e 28 27 bd de 2b 99 bd 74 8b 75 bd 00 94 ef 3d
       -0.040809862 -0.0747907 -0.059947446 0.11698151
0002a0 eb a6 79 3d 35 43 a5 3d f4 1d 91 3c 0e 87 37 3c
       0.0609502 0.08069459 0.017714478 0.011201633
0002b0 d8 3b 7d 3d 01 75 a5 bd 37 df b8 bd 56 c0 55 3d
       0.06182465 -0.08078957 -0.0902695 0.05218538
0002c0 cf e9 9a 3d e3 c4 4c bd 2e c8 c1 3d ef cd dc 3c
       0.07564127 -0.049992453 0.09462009 0.026953666
0002d0 44 15 81 bd 04 c9 18 bd a9 cc 47 3d 0f a1 3b bd
       -0.06302884 -0.03730108 0.048779164 -0.045807894
0002e0 db fd c8 3d 2e 94 ce bd 79 de 54 3c 05 99 e8 3c
       0.09814044 -0.10086857 0.012992495 0.028393278
0002f0 ac a0 09 be 38 7f f6 3c d3 75 a9 bd b0 c0 ab bd
       -0.13440198 0.03008996 -0.08274426 -0.083863616
000300 14 73 a3 bd f0 b0 65 bd 8e 2d 88 3d 98 f0 28 bd
       -0.07980934 -0.056076944 0.06649314 -0.041245073
000310 11 d9 ef bc 2b 6e bc bc ba 60 bf bb 71 9a a6 bd
       -0.02927831 -0.02300175 -0.005840388 -0.08134926
000320 e1 f2 5f bd 82 aa 81 3d 84 e5 a2 bd 0e fc a5 39
       -0.054674987 0.0633135 -0.07953933 0.00031659048
000330 45 0d 19 bb 3e e3 93 bd 3c 20 d3 bd 23 68 68 bd
       -0.0023353857 -0.072210774 -0.103088826 -0.056739938
000340 61 ce 82 3d 44 da 02 bd 62 6b cd 3d bd 8b ae 3d
       0.0638702 -0.031946436 0.10030247 0.08522747
000350 37 9b 34 3d d2 fb 9f 3d 4b 7a b7 bc bf 1a 11 3e
       0.044093337 0.07811703 -0.022397181 0.14170359
000360 93 0b 44 3d cc 58 ec 3d 87 3f b4 bd 2b 36 55 3d
       0.0478626 0.11540374 -0.088011794 0.05205361
000370 db 35 98 bd c9 e2 74 bd 15 49 41 3b be 51 22 bd
       -0.07432147 -0.05978659 0.0029493023 -0.039628737
000380 2c 0b 26 3d 78 9a 94 bd a7 bd a2 3d 80 60 a5 3d
       0.040537998 -0.07256025 0.079463296 0.080750465
000390 0b ed 84 3d ad 60 44 3d 5c 55 df 3b d5 f8 c3 3d
       0.06490525 0.04794376 0.0068155956 0.09568945
0003a0 7c 60 36 bd 5c 6c 89 bd 29 3f ae 39 a7 55 55 bd
       -0.04452561 -0.06710121 0.00033234924 -0.052083638
0003b0 b1 11 e1 bc 9b c2 11 bd f8 ec 27 bd 7c db 17 3d
       -0.027474256 -0.03558598 -0.040997475 0.03707455
0003c0 43 8b b8 bc ac 98 18 bd 22 2e 82 3d 70 e7 81 3d
       -0.022527343 -0.037254974 0.063564554 0.06342971
0003d0 bd c9 4b 3d 0e 9f 9d 3b c8 14 4a bd bb 8b 56 3d
       0.04975294 0.0048102206 -0.049336225 0.05237935
0003e0 6e 65 8c 3b c1 d5 81 3d 59 1f 29 bc 68 f7 9d 3d
       0.0042845523 0.063395984 -0.010322415 0.077132046
0003f0 aa ca 33 bd df 53 a5 3d 4a fc 33 3d 43 5c 30 bd
       -0.043894447 0.08072638 0.043941773 -0.043056738

fc2.bias f4 [84]
000000 8c cf 45 bd 42 5a b2 3d 75 2d 81 3b 10 23 ee ba
       -0.048293635 0.087086216 0.0039421865 -0.0018168408
000010 1e 25 cc 3d a3 01 3e 3d d5 2a 3c 3d 3b b8 f0 3c
       0.09968017 0.04638828 0.045939285 0.029384723
000020 1f 62 9b 3d 90 67 9f bc 3f 83 48 3d a4 61 aa bd
       0.075870745 -0.019458562 0.04895329 -0.08319405
000030 73 31 9d bc 2c 2b 9f 3d 07 db ec 3c 4b 90 aa 3a
       -0.019188618 0.07771906 0.028913034 0.0013012973
000040 2f 16 9f bd 00 b4 87 bd a1 b4 a2 bd a2 2d 29 3d
       -0.07767903 -0.06626129 -0.079446085 0.041303284
000050 7e c3 f5 3d a5 5d 68 bb f0 e5 d9 bb 64 d4 68 3d
       0.12000178 -0.0035456207 -0.006649725 0.056843176
000060 11 52 dd bc 1a 27 00 bd ef 80 ff 3d 13 f5 5f bb
       -0.027016671 -0.03128729 0.12475764 -0.0034173175
000070 3b a0 7f bd b3 fc ef 3b 2a ce 52 3d 3d 94 49 3c
       -0.062408667 0.0073238253 0.051466145 0.012303409
000080 70 61 85 bd 90 8a 9f bd 14 2c e4 3c 39 b4 c6 3d
       -0.06512725 -0.077901006 0.02785305 0.097023435
000090 92 9a 72 3c 44 99 92 3d 82 18 2c 3d 41 70 82 3d
       0.01480736 0.07158139 0.04201556 0.06369067
0000a0 11 63 4d bd 1a b5 b8 bc 86 4c 55 bc d0 8f 92 3c
       -0.050143305 -0.022547293 -0.013018733 0.01789084
0000b0 af 93 d5 39 4a c2 4d bd 43 ec 06 bd 4b 1b 77 bd
       0.0004073656 -0.050234117 -0.03294016 -0.060328763
0000c0 b7 ef 21 bd 46 6f 59 3d fc 31 2c bd de 48 9e bd
       -0.03953525 0.053084634 -0.042039856 -0.07728742
0000d0 d2 ec a8 bc b8 c3 66 3d 24 02 e6 3d 1f 56 d8 bc
       -0.020620737 0.056338996 0.11230877 -0.026408253
0000e0 15 e6 b5 bc 8e ff 07 3d 83 4a 98 3d 00 39 0d bd
       -0.022204438 0.0332027 0.07436087 -0.034478188
0000f0 cf ee ec 3c d2 da 77 bc 77 7e 64 bd 83 c5 98 bc
       0.028922467 -0.015127854 -0.05578467 -0.018648868
000100 30 09 68 3d 36 d2 59 bd 9e ea 92 bd 69 ca 7a bd
       0.056649387 -0.05317899 -0.07173656 -0.06122819
000110 b5 a9 c3 3c 5a 76 97 bc 5c 78 45 bd 62 e1 3d 3d
       0.023884634 -0.018489052 -0.048210487 0.04635752
000120 49 53 00 3d 5a 42 b2 bc 4d 3d 2d bd 39 de 38 3b
       0.031329427 -0.021760155 -0.04229479 0.0028208627
000130 ee 0f c8 bc 42 8a 74 3d 62 b5 92 3a 48 1e 02 bd
       -0.024421658 0.059702165 0.0011192972 -0.03176716
000140 72 fa 60 bd ec 1e fa bc 79 67 dc 3d c4 4a 6e 3d
       -0.054926343 -0.030532323 0.10761923 0.05817677

fc3.weight f4 [10, 84]
000000 c4 11 42 bd 6f 4d e4 bd 01 49 8b bd 04 28 d0 3d
       -0.047380224 -0.11147582 -0.06801034 0.101638824
000010 87 a3 26 3d 92 89 c8 bc 73 0a ec 3d f2 41 1d bd
       0.040683296 -0.024479661 0.115254305 -0.03839297
000020 dd 84 37 3e 2f d4 4e bd 6a f5 96 be 29 5e 32 3c
       0.17921777 -0.050495323 -0.2948411 0.010886707
000030 b2 5b 11 3d 29 e6 15 3e 33 db 07 be f8 b7 ab bc
       0.035487838 0.1463858 -0.13267212 -0.020961747
000040 87 6d 1b be 76 6c e6 bd 95 17 29 bd 2f 43 1a be
       -0.151785 -0.11251156 -0.041282255 -0.15064691
000050 b9 ae 66 bd 7c b0 24 bd 9b 55 0e 3e 8c cc f8 3d
       -0.056318972 -0.04020737 0.13899843 0.12148389
000060 a3 6b d3 3c d6 8b 08 be 1a b5 51 be 77 21 d3 3b
       0.025808161 -0.13334593 -0.20479241 0.0064431983
000070 29 ab e8 bd cb fe 16 3e 8e b3 d1 bd 91 82 9f 3d
       -0.11360771 0.14745633 -0.102393255 0.077885754
000080 30 fb fc 3c b8 2c 00 3e 74 0a 9d 3d 7c ef de 3d
       0.030881494 0.12517059 0.076680094 0.10885522
000090 b9 87 31 be 61 b0 39 3d 45 e9 44 3d 9d 64 81 bd
       -0.1733693 0.045334224 0.048074026 -0.063180186
0000a0 bf cb 99 3d e8 70 b5 ba 66 90 9e 3d 4e c5 ba 3d
       0.075095646 -0.0013842853 0.077423856 0.09119664
0000b0 af 7d 5d 3d cc b9 cd 3d 72 7f b7 bd 10 58 44 3b
       0.05407494 0.100452036 -0.08959855 0.0029959716
0000c0 e5 0c f0 ba 79 ab ef bd 3c f0 04 3d 73 78 98 3d
       -0.001831439 -0.11702628 0.032455668 0.07444849
0000d0 77 c7 99 bd ae 48 11 bd 01 82 26 3c 60 0d 2a bd
       -0.07508748 -0.035469703 0.010162831 -0.04151666
0000e0 61 16 a9 bd 70 0f c9 bd 2d f1 c8 bd 75 ed af bb
       -0.082562216 -0.098173976 -0.09811626 -0.0053688833
0000f0 23 79 15 3e ef 4d 0a 3e a5 11 96 3d b8 9b 73 3c
       0.14596991 0.13506292 0.07327584 0.014868669
000100 49 3d 22 be f8 6b 8a 3d e7 e5 8d 3d 2f 1c 14 3d
       -0.15843691 0.06758875 0.06928616 0.03615969
000110 e7 a2 cb 3d 50 30 17 3c 16 a7 80 3c 83 a9 79 3b
       0.099431805 0.009227827 0.015704673 0.0038095422
000120 1f 03 29 ba cb 99 dd bc 0e 75 35 3d f5 c6 88 bd
       -0.00064473035 -0.027050873 0.044301085 -0.06678573
000130 c4 7d f0 3d 8e 73 0b 3e 17 f7 1e 3d 00 e8 55 bd
       0.11742738 0.136183 0.038809862 -0.052223206
000140 5c 96 9a 3c d5 8c ac 3d 23 bb 60 be 64 47 65 bc
       0.018870525 0.08425299 -0.21946387 -0.013994072
000150 5a dd 27 3d c0 f9 b1 3c a0 53 5b 3d b3 d7 91 bb
       0.04098258 0.021725535 0.053546548 -0.004450762
000160 72 19 64 be 32 64 ed bd 48 41 16 be f2 e9 47 3d
       -0.22275332 -0.11591376 -0.1467334 0.048807092
000170 19 5b ed 3c 40 dc ac 3d 71 98 1e be 74 54 46 bd
       0.028974103 0.08440447 -0.1548784 -0.048420385
000180 bf 48 86 3d 13 51 ae 3d 56 99 42 3c 24 e2 09 bd
       0.06556844 0.085115574 0.011877378 -0.03366293
000190 0d 45 89 bd 50 87 4d 3c 65 2a cb 3d d7 fd 5b 3e
       -0.067026235 0.012544468 0.099201955 0.21483551
0001a0 ac 46 92 3e 07 c9 b6 bd d7 d6 95 3d 15 c7 04 bd
       0.28569543 -0.08925062 0.07316368 -0.032416422
0001b0 1c 22 17 be 20 64 85 bc 00 04 b7 3d 31 a0 d3 bd
       -0.14759105 -0.016283095 0.0893631 -0.103332885
0001c0 f5 49 83 3d 61 dc 7f bd e7 a9 97 3d b3 a1 05 3e
       0.064105906 -0.06246603 0.07405453 0.13049965
0001d0 76 2b 8a 3d 4f 08 b6 bd 95 24 f5 bd bc f1 33 be
       0.06746571 -0.088883035 -0.11969868 -0.17572683
0001e0 de 44 7d 3d 37 5a f0 3d b9 7d 22 be f9 e4 27 be
       0.061833255 0.11735957 -0.15868272 -0.1639594
0001f0 f7 cf 6b be 05 a0 da bc 01 ab b0 3c 3e 21 93 3c
       -0.23028551 -0.026687631 0.021565916 0.017960187
000200 f9 99 c7 3d d3 21 59 bd 9a 2b 19 bc 04 06 9a bd
       0.09746165 -0.053010773 -0.009348774 -0.07520679
000210 0b 5e e4 3c 17 d4 94 3d fe 8a 3b 3c 8a 8c ac bb
       0.027876874 0.072670154 0.011446713 -0.005265777
000220 ff b1 3e bc 9b 2c a2 bd 83 ad 2c be 73 e4 5f 3d
       -0.011639117 -0.07918664 -0.16863064 0.054661226
000230 09 44 d2 bd c2 49 df 3d 7e 46 60 3d 99 49 1d be
       -0.10266883 0.1090274 0.054754727 -0.15360107
000240 14 3e d8 3c 38 eb db bd 88 15 06 be a1 ee a1 3d
       0.026396789 -0.10738224 -0.13094151 0.07906843
000250 76 40 a2 3d 7f 29 b5 3b b3 c6 c4 3d ac c4 d2 bd
       0.07922451 0.0055286284 0.09608211 -0.102914184
000260 65 8e 0d 3d 6c 99 f9 3b 66 0a 97 bc 67 85 c3 3d
       0.034559626 0.0076171663 -0.018437576 0.09546929
000270 e0 9e 31 3d 2a 26 ca bc 25 38 0c bd a6 ae 0e be
       0.043364406 -0.024676401 -0.03423323 -0.1393381
000280 fb be ba 3d d3 67 02 bb 85 7b e7 3d c7 a1 dd 3d
       0.09118458 -0.001989831 0.11302856 0.10821872
000290 df bf 91 3d 85 b7 83 3e a6 ee 2a 3e 82 a5 27 3e
       0.07116675 0.25725952 0.166926 0.1637173
0002a0 37 2a 0f 3c d9 9b 2d be 24 2d be 3d eb 89 cf bd
       0.008738092 -0.16953982 0.09285954 -0.10133728
0002b0 8e f7 0d be a1 7c 35 be 70 f3 80 3d a9 cb 75 3c
       -0.13863966 -0.17723323 0.06296432 0.01500217
0002c0 6d fc f6 3d d7 14 9a 3d 39 e6 34 3e f7 88 96 3d
       0.12059865 0.07523506 0.17665948 0.07350343
0002d0 32 cc 80 3b a3 e8 5f 3d d7 79 7b 3e 7e 75 a9 3d
       0.003930592 0.05466522 0.24558197 0.08274363
0002e0 fa ba 7a bd 6f 39 26 bd 7f 39 a6 3d d3 3c be 3d
       -0.06121347 -0.040582117 0.08116435 0.09288945
0002f0 99 a9 04 3e a2 ab 54 3d 10 cf dd 3c 3a 4b de bd
       0.12955321 0.051921494 0.027076274 -0.10854192
000300 dc cd d0 bd ec 3d d3 3d 14 5c b6 3d 3d f8 86 bd
       -0.101955146 0.10314545 0.08904281 -0.065903164
000310 97 db 04 be 32 cf c5 3d 35 0d a8 3b 50 28 af bd
       -0.12974392 0.0965866 0.0051285275 -0.08552611
000320 ac d0 61 3d 3b 81 49 b9 82 97 ee 3d ca 86 85 3c
       0.055130646 -0.00019216996 0.116499916 0.016299624
000330 e7 c9 c7 3d 49 89 c8 bd bb 4b 1e be cf d2 ff 3d
       0.09755307 -0.0979181 -0.15458576 0.124913804
000340 09 6d a4 bd 29 59 9c bd 0f 8d 64 3c 71 99 df bd
       -0.08028609 -0.076341935 0.013949647 -0.109179385
000350 0e 92 36 3e 7e 9f 5d 3d 71 d0 13 3c 8d 6e 94 3b
       0.17829153 0.05410718 0.009021864 0.0045297802
000360 38 17 63 bd 8e 5e 2c 3e c2 6e ce bc 3e 0e 54 bd
       -0.055442065 0.16832945 -0.025199298 -0.051771395
000370 16 2c 07 be 5a e2 6d be 44 37 80 3c f9 4c c0 bd
       -0.13200411 -0.23230878 0.015651353 -0.09389681
000380 e3 cc 23 3d e9 f9 36 be 56 97 58 bd 1b ea b2 3d
       0.039990317 -0.1786877 -0.0528787 0.08736058
000390 ba 4e 0f 3e d3 98 ca 3c 4d ef f7 3d 98 3d 82 bb
       0.13994876 0.024731075 0.1210619 -0.0039746277
0003a0 41 df 88 bd 24 52 3e 3e 61 dd f4 bc 0b f1 50 3c
       -0.06683207 0.18586022 -0.029890718 0.012752782
0003b0 36 c5 ef bc 54 cb 85 3d de 02 04 be 36 10 7c 3d
       -0.029268842 0.065329224 -0.12891719 0.061538897
0003c0 f2 ee f6 bb 00 c7 c1 3d e1 c0 e0 3b cb e4 5a bc
       -0.0075358087 0.09461784 0.0068589305 -0.013360213
0003d0 cf 90 50 3e 54 72 1f be 0d be 51 3d f3 5f b1 3c
       0.2036774 -0.15570956 0.051206637 0.021652197
0003e0 bb b4 d9 bd 45 e2 02 bd b9 3e 2f be 82 e3 f4 bd
       -0.10630175 -0.03195407 -0.1711377 -0.11957456
0003f0 79 f8 df 3c df 20 29 bc 6e 82 8a bd ad a9 1a 3d
       0.02734016 -0.0103227785 -0.06763159 0.03775947

fc3.bias f4 [10]
000000 4f 81 99 38 e8 1f a9 3d b4 c0 88 bd 15 bc 8b 3d
       7.319694e-05 0.08258039 -0.0667738 0.06822983
000010 60 df af bc 68 df 9d bd d1 51 e1 3c c7 30 11 3d
       -0.021468818 -0.07708627 0.027504833 0.03544691
000020 01 58 15 3d 65 87 1f 3c
       0.03646088 0.00973687
