lab2-models/baseline-model.pth (torch, 181211 bytes, 10 tensors)

conv_block1.0.weight f4 [6, 1, 5, 5]
000000 07 b4 b7 3c 66 46 a2 3c 52 c4 e4 3d e5 d2 ae 3d
       0.02242471 0.01980896 0.11170258 0.08536319
000010 e7 40 aa 3c 9d 5e a4 3b 8b db cb bd 1a 00 b7 bd
       0.020782901 0.0050161616 -0.09953984 -0.08935566
000020 52 38 ba 3e 0a fc 85 3a 99 09 28 be fa d9 94 bc
       0.36371094 0.0010222208 -0.16409911 -0.018170346
000030 4f 15 60 be 34 10 93 3e 9e 1f 8c bd 28 06 89 3d
       -0.21883129 0.287233 -0.06841968 0.06690627
000040 0e 71 4f be ee 70 40 be 6e 59 8f 3e ac 5e b0 3e
       -0.2025797 -0.1879308 0.27997917 0.3444723
000050 d9 4b 9c be 08 87 84 be e0 3d 8b be 21 32 43 3e
       -0.30526617 -0.2588427 -0.27195644 0.19062091
000060 3a 3c 3b 3e e4 c6 0f be f1 dc 15 bd 3e d7 a2 bc
       0.18284693 -0.14040715 -0.03658766 -0.019878026
000070 a7 45 bb 3c 3c 01 a5 bd 5b d9 2a 3d ce 8f 4d bd
       0.022860361 -0.08056876 0.041711193 -0.05018597
000080 52 51 9a bd 33 b8 21 be c6 6b 61 be 83 18 a3 bd
       -0.07535042 -0.15792923 -0.22013769 -0.079636596
000090 5c 94 e9 bd 6d 2b 40 bd 59 1b bc bd d0 10 75 be
       -0.114052504 -0.046916414 -0.09184904 -0.23932195
0000a0 b6 3a 72 bd 87 7d 7c 3b d1 19 d4 bd 02 a3 90 be
       -0.059138022 0.0038526969 -0.103564866 -0.28249365
0000b0 77 a2 4c bd 7d ec 94 bd 85 67 12 bd b4 90 05 be
       -0.049959626 -0.07271669 -0.035743255 -0.13043481
0000c0 3b 4b 90 bd 1d f4 08 3e f9 dc ca bd d7 04 0f 3e
       -0.07045599 0.13374372 -0.099054284 0.1396669
0000d0 37 99 85 3e 17 19 fa 3e 96 0d 58 3e 73 23 07 3d
       0.26093456 0.48847267 0.21098933 0.03299279
0000e0 dc 86 87 3e 62 86 b0 3d c9 57 3e 3e 95 e9 95 3e
       0.26470077 0.086193815 0.18588175 0.2927977
0000f0 9d ef b9 bd dc 9d aa 3d 5e 0a 3c 3d 14 27 67 be
       -0.09078906 0.083308905 0.045908324 -0.22573501
000100 5e 15 2a 3e ab 18 c7 bc be b4 99 be 12 b7 bf be
       0.16609713 -0.024303755 -0.30020708 -0.3744436
000110 c9 97 bf be 08 a2 3c be 44 97 f1 bd ec cb 32 be
       -0.3742049 -0.18421185 -0.1179643 -0.17460603
000120 b1 ac 94 be 04 33 69 bc 9b eb 52 be 2a a6 2a bd
       -0.29038003 -0.0142333545 -0.20597689 -0.041662373
000130 a1 85 c2 3c d9 b1 9f 3e 7f 2e 0f 3c ca 32 c5 3d
       0.02374536 0.31190374 0.008739113 0.09628828
000140 1f e1 40 be 9a 9b bc 3e 79 e1 63 3e 5e d3 17 be
       -0.18835877 0.36837465 0.2225398 -0.14826724
000150 d3 40 01 be 3f 25 be 3e 7d cd 8b 3e 49 06 c3 3d
       -0.12622385 0.37137792 0.27305213 0.09522683
000160 c7 02 8f be 97 a8 5f be 29 f1 8e 3e 14 ff 15 3e
       -0.27931806 -0.21841656 0.27918366 0.14648086
000170 1d d2 86 be 13 71 ce bd 14 05 03 be 8d 5f 70 3e
       -0.2633218 -0.10080161 -0.12794906 0.2347395
000180 72 b1 32 be 7f 4c 81 be 21 d5 72 be e7 f3 25 be
       -0.17450503 -0.25253674 -0.23714115 -0.16206323
000190 09 59 1b 3c f7 31 43 be b9 d5 01 3e 8f 2f 82 3e
       0.009481677 -0.19062029 0.12679185 0.2542691
0001a0 c5 95 18 be 1b b3 04 be 97 eb 1a be cf cb d2 3d
       -0.14900883 -0.12958948 -0.15128933 0.1029278
0001b0 4a 04 cd 3b 08 98 3a bd fa 6c a3 be e9 63 c2 be
       0.006256615 -0.045555145 -0.3191908 -0.3796685
0001c0 5a 02 a0 3e 08 83 5f 3e 8b 80 17 be 1a 7d 85 be
       0.31251794 0.21827328 -0.14795129 -0.26072007
0001d0 8e 94 4d 3e 63 b7 bb 3e 28 4b a3 3d 25 c6 6f 3e
       0.200762 0.3666335 0.07973319 0.2341543
0001e0 a0 71 da 3d cc e8 9a 3e 20 1f 5b be 3e 08 46 be
       0.106662035 0.30255735 -0.21398592 -0.19339082
0001f0 27 f8 3d 3d 10 df a6 3d 0d 0f 21 3e 54 e2 ee 3d
       0.046379235 0.081480145 0.15728398 0.116642624
000200 5e 2f c1 3e 30 02 93 3e 4e d7 f6 bd 9a fe 47 be
       0.3773145 0.28712606 -0.12052785 -0.19530717
000210 4e 98 78 bd cb 8e 04 be d5 53 85 be 68 e2 21 be
       -0.060692124 -0.12945096 -0.2604052 -0.15809023
000220 20 cc ca bd 98 4d c8 bd 94 ec bc be a2 be 93 be
       -0.09902215 -0.09780425 -0.36899245 -0.2885638
000230 a8 f0 0c 3e d0 2b 40 bd c2 33 73 be 9a ed c4 be
       0.13763678 -0.046916783 -0.23750213 -0.38462526
000240 fe 9e d3 bd ba 8a e8 3d d6 c0 0b 3e 87 c0 b5 3e
       -0.1033306 0.11354585 0.1364778 0.3549845
000250 f5 e8 f3 3e 58 7a d2 3e
       0.4763867 0.41108966

conv_block1.0.bias f4 [6]
000000 88 12 60 bd ec 16 6f be 20 c8 82 3d 38 e5 a0 bd
       -0.054705173 -0.23348588 0.06385827 -0.0785622
000010 34 68 45 bc 33 6b fc bc
       -0.01204877 -0.030812835

conv_block2.0.weight f4 [16, 6, 5, 5]
000000 1c 36 ae 3d 63 15 35 3d bd 8c 33 bd f3 d5 bc 3c
       0.08506414 0.04420985 -0.04383539 0.023051238
000010 50 82 10 3d 60 b8 5b bc 63 4b 23 be 02 05 51 bd
       0.035280526 -0.013410658 -0.15946727 -0.051030166
000020 1d e3 38 3a 3f 6b 00 3e 38 41 aa 3d d5 ad 85 bd
       0.00070528855 0.12540911 0.08313221 -0.065272965
000030 f6 4c e6 bd d5 8d 15 bb ce 96 84 bd 37 b0 59 bd
       -0.11245148 -0.0022820134 -0.06474076 -0.053146567
000040 e0 db 89 bd 24 97 e7 bd 14 8c 85 bc 7d 5b 1d bd
       -0.06731391 -0.11308125 -0.016302146 -0.03841733
000050 c1 cf 92 bd d9 00 14 3c 23 ed 10 3d c2 76 00 be
       -0.07168532 0.009033405 0.0353824 -0.12545303
000060 96 b0 24 be 0c fd 8d 3d ac 65 bc 3b 9a bf dd 3a
       -0.16082987 0.069330305 0.005749425 0.0016918064
000070 b0 46 ad bd 0a 4e b6 bd 52 c8 a9 bc 0e 40 57 bd
       -0.08460748 -0.089016035 -0.020725403 -0.05255132
000080 4b f7 3c 3c 1e 5d 40 bd 0a 4a c0 bd c4 25 c4 bd
       0.011533569 -0.046963803 -0.09389122 -0.09577516
000090 b8 48 f9 bb ec 72 79 bd dd d1 3f bd ab 67 87 3c
       -0.0076075457 -0.060900614 -0.046831 0.016528925
0000a0 9a 0d dc 3c 33 22 a1 bd 61 8a 76 3d 0b db c1 3c
       0.026861954 -0.07867851 0.060190562 0.023664018
0000b0 5f ce 6c 3d 31 c2 a2 bc 1f 80 33 bd 9d cd 7e 3c
       0.057814 -0.019867988 -0.043823358 0.015551952
0000c0 b1 52 58 3d 5a 02 49 3c 3b 9b 02 be ec ab 03 be
       0.052813236 0.012268627 -0.12754528 -0.12858552
0000d0 e9 b7 ff 3b fb c3 45 3e ed a1 2f bd e7 c0 50 be
       0.007803906 0.19313042 -0.042879034 -0.20386086
0000e0 85 e9 a1 3c 39 b8 28 3e 9d 08 b3 3d 7a b1 f1 bc
       0.019764671 0.16476525 0.08741877 -0.029503573
0000f0 c4 26 ec bc 5c 97 ab bc b4 a3 81 bc 0a 7c 8b bc
       -0.028827079 -0.020946197 -0.01582513 -0.01702692
000100 df 8f 8c 3d 19 4e 3c bb b2 10 09 bc f8 26 3c 3d
       0.06863379 -0.0028733073 -0.008365797 0.0459356
000110 e2 9b 64 3d 3b 82 34 3d 27 59 de 3d c8 05 5b 3d
       0.055812724 0.04406951 0.10856848 0.05347231
000120 8c 25 2b bd dd f1 25 bc d4 73 d3 3d 91 83 d6 3c
       -0.041783854 -0.0101284655 0.10324827 0.026185783
000130 72 cc 92 bd d7 ea ae 3d d4 06 df 3d 8e 2e 69 3c
       -0.07167901 0.08540886 0.10889974 0.014232291
000140 e2 69 88 bd ab c4 85 3e 41 c3 34 3e 0f d0 4c 3d
       -0.066608205 0.26126608 0.17652608 0.050003108
000150 45 0f 66 bd c7 84 59 bc 79 8c 31 3e f6 93 70 bd
       -0.056166906 -0.0132762855 0.17338742 -0.058734857
000160 03 ed ae bc 27 eb 35 be a7 35 1d be 59 13 6f bd
       -0.02135325 -0.17765485 -0.15352498 -0.05836806
000170 e5 f5 32 be cc 2e 12 be 73 8d 0d 3d 20 e2 44 be
       -0.17476614 -0.14275664 0.034558725 -0.19226885
000180 bb 96 31 be bb 6e f6 bd 2d b5 5d bd 3e 85 6e 3d
       -0.17342655 -0.12032839 -0.05412786 0.05823254
000190 70 89 ea bd 2e f1 0f 3e 50 b8 38 3e 19 a7 41 3e
       -0.114519954 0.14056846 0.1803906 0.18911399
0001a0 90 b4 ca bd 12 cc 45 bc b2 c5 48 3e bb 17 30 3e
       -0.09897721 -0.01207258 0.19606665 0.17196552
0001b0 84 9e b0 3d ef 20 b8 bd 8d c4 27 3c 62 15 c6 bc
       0.086239845 -0.089906566 0.010239732 -0.024180118
0001c0 1e 7a b3 bd 4f c4 b8 bd 13 aa 8e bd 34 74 f3 3d
       -0.087635264 -0.09021818 -0.06966033 0.11887398
0001d0 c7 9f e9 bd 81 24 d9 bd 84 7c fd bd 6d 4d 58 3c
       -0.11407428 -0.10602666 -0.12377265 0.0132020535
0001e0 f2 e2 fc bc 0f d4 09 be 53 c4 f4 bd 64 b7 2f bb
       -0.030869935 -0.134598 -0.119515084 -0.002681219
0001f0 4e 81 99 3c 2f d9 29 3e 0a 0b c3 3d 87 08 aa bd
       0.018738415 0.16586755 0.0952359 -0.08302408
000200 f8 26 84 bd 1d e3 35 3d 0d 85 95 3c 11 32 37 be
       -0.06452745 0.044406045 0.01825192 -0.17890193
000210 78 79 4f be fe be 19 3a 5a 56 ab bc a5 d4 39 bd
       -0.2026118 0.0005864947 -0.0209152 -0.04536881
000220 95 78 24 3e f6 a6 23 3e 28 fc b4 3d b9 4b a9 bd
       0.16061623 0.1598166 0.088371575 -0.08266396
000230 43 56 ca 3d 11 f3 c1 3d c7 4b 04 3e db 12 6e 3d
       0.09879734 0.09470189 0.12919532 0.05812345
000240 6e 77 6b bd 8b 40 ac 3d 87 f1 11 3e fd 58 ec 3d
       -0.057486944 0.08410748 0.14252292 0.11540411
000250 ef 09 0d 3d ca 44 59 bc e4 01 04 be 5f 91 02 be
       0.0344333 -0.0132610295 -0.12891346 -0.12750767
000260 60 b0 17 bd d6 c1 bb bc 70 18 c8 bd cc 57 e5 bb
       -0.03703344 -0.022919577 -0.09770286 -0.0069989916
000270 4e 62 56 bd cd 6f 1c be 55 e6 e8 bd c3 e6 20 bd
       -0.052339844 -0.15277024 -0.11372057 -0.03928257
000280 66 ec ad 3d 4c 89 03 3e bd 1b 77 bd 77 88 1e be
       0.08492355 0.12845343 -0.060329188 -0.15481745
000290 1a f7 a7 bd 7b 14 9e bd 7f 21 cc 3d e4 f5 88 3d
       -0.08201428 -0.0771875 0.099673264 0.06687525
0002a0 fb 40 b2 bd e3 ec 6c bc f9 3b 78 be ea 14 9d bd
       -0.087038 -0.014460775 -0.24241628 -0.07670005
0002b0 8c 65 fa 3d 14 cd e3 3d 7e 9f 2e 3b 3d f0 aa 3d
       0.122264 0.111231 0.0026645358 0.08346603
0002c0 23 c0 48 ba 6e 6e a2 3d 25 3a e1 3d aa 14 fb bc
       -0.0007658025 0.07931219 0.10997418 -0.030649502
0002d0 88 74 bc bc a4 f9 8d bd f8 e6 67 3d e4 6c 15 bd
       -0.023004785 -0.06932381 0.056616753 -0.0364808
0002e0 37 89 99 3d 23 4d 10 be fd c7 23 be 72 44 7c bd
       0.07496875 -0.14091925 -0.15994258 -0.061588712
0002f0 2b 70 b7 bd 6e d0 a1 3c 4f c8 fe bd 71 e6 13 be
       -0.08956941 0.019752707 -0.124405496 -0.14443375
000300 d8 03 d6 bd de 5e 36 bd 05 09 b9 3c f8 80 8a 3d
       -0.10449952 -0.044524066 0.022587309 0.0676288
000310 be 5c a4 3c ac 24 91 ba d8 e9 eb 3c 21 95 55 bd
       0.020063754 -0.0011073551 0.028798029 -0.052144174
000320 75 87 84 3d 13 a2 1a 3d 79 3a 89 bd 1e c0 d8 3b
       0.06471149 0.037752222 -0.06700606 0.006614699
000330 7d d1 79 3d 9e 34 c2 bd 9b 69 25 be d1 97 86 bd
       0.0609908 -0.09482692 -0.16153567 -0.065719254
000340 9a 62 94 3d 18 c4 4d bc 98 b0 0d bd 17 17 3d be
       0.07245369 -0.012558959 -0.03459224 -0.1846584
000350 c2 22 5f be 0a a3 c4 bd 97 1d ab bd e9 ea 36 3e
       -0.21790603 -0.0960141 -0.08355253 0.17863049
000360 8a 26 a0 3d 7c 21 94 3d 6c 10 0c 3e 00 f2 0b bc
       0.07819851 0.07232949 0.1367814 -0.008541584
000370 a8 28 c1 3d 7b 54 72 3e bb 54 57 3e c2 a2 29 3e
       0.09431583 0.23665039 0.21028416 0.16565993
000380 cb 2a 1e 3e 87 ee f4 3b 79 dc a0 3d 7b dc a1 3d
       0.15446012 0.0074747237 0.07854552 0.079033814
000390 cf c5 98 3d 2a e7 40 3d 3c d0 a2 3d 1a 97 8e bc
       0.07459604 0.047095455 0.07949874 -0.017406035
0003a0 6f 75 1b 3e cf c1 99 3d b6 59 ac bd 15 c4 ac 3c
       0.15181516 0.07507669 -0.084155485 0.021089593
0003b0 62 6c 00 be 4f ab 1a be 5f b5 3d be b5 32 0b bd
       -0.12541345 -0.15104412 -0.18526219 -0.033983905
0003c0 86 8e 2d bc cf a9 40 be 0f 48 50 be 0b 58 10 be
       -0.010593062 -0.18814777 -0.20339988 -0.14096086
0003d0 02 21 c1 bb ed 5f f5 3b fd f1 8c bd 24 e2 9e bd
       -0.0058938274 0.007488242 -0.06882093 -0.07757977
0003e0 8b 37 17 be f5 f1 1c bd e6 cb 03 3d ce 32 6a 3c
       -0.14767282 -0.038316686 0.032176875 0.014294339
0003f0 34 dc 1e 3e 1f 00 e1 3d 92 82 65 3d db a4 4d 3d
       0.15513688 0.10986351 0.056032725 0.050206047

conv_block2.0.bias f4 [16]
000000 ed 8d 7d bd 3f f7 bb bc 9f 50 92 bd 23 fc 2d 3b
       -0.06190293 -0.022945045 -0.071442835 0.002654799
000010 4d c1 f7 3d b7 de c7 3b 48 78 37 bd 35 22 7e 3d
       0.12097416 0.0060995477 -0.044792444 0.06204434
000020 35 a2 12 3c 70 97 78 3c ae 26 56 3d cd 19 21 3d
       0.008949806 0.015172824 0.05228298 0.039331246
000030 4e 01 03 bd 8c 0d 89 bc 63 a4 cc bc e2 25 af 3d
       -0.031983666 -0.016730092 -0.02498073 0.085521474

fc1.weight f4 [120, 256]
000000 00 c6 e3 3d 3b db dd 3d c4 86 b7 bd d1 23 e7 bc
       0.1112175 0.108328305 -0.089612514 -0.02821532
000010 8e 50 75 bd 34 9b 3d bd 02 8e 08 3e 1a ad e8 3d
       -0.059891276 -0.04629059 0.13335422 0.113611415
000020 0f b8 48 bd 9e cd 7c 3d a2 c0 ff 3d 44 4a bd 3d
       -0.049003657 0.06171953 0.12487914 0.09242681
000030 32 7f ef bd c2 7d ba bd de a4 8c bd cd 96 97 bc
       -0.116941825 -0.09106018 -0.068673834 -0.018504525
000040 8a 80 79 3d 6a ae a6 3d 16 13 e6 3b 0b 23 35 3d
       0.0609136 0.081387356 0.007021318 0.044222873
000050 3e 0d aa bd f7 a2 55 3d ae 1f cd 3d 5f b6 e9 3c
       -0.08303307 0.05215737 0.10015808 0.028529344
000060 19 98 10 bd bb 64 9b 3d da b0 b0 3b e6 a0 df bc
       -0.0353013 0.07587572 0.005392176 -0.027298402
000070 01 a2 b3 3d 11 6b a4 bd 05 6c 9e bb d4 41 53 be
       0.08771134 -0.08028234 -0.0048346543 -0.2063058
000080 c1 96 e2 bd c0 06 d1 bd cb aa bf bd 2c ea 41 bd
       -0.1106391 -0.102063656 -0.09358748 -0.047342464
000090 14 56 20 be 8c e9 05 3c 11 83 4a bd f9 9b bb bb
       -0.15657836 0.008173358 -0.0494414 -0.0057253805
0000a0 e5 d9 2e be 0f c3 50 bd e7 78 aa bd a4 8c 7c bb
       -0.17075308 -0.050967272 -0.083238415 -0.0038535977
0000b0 3e 5d 0c bd 79 cf bb 3d 7c c4 b3 3d 7d e1 9a 3d
       -0.03426861 0.09170432 0.08777711 0.0756254
0000c0 6c 61 bc bd 6f e3 7a bd 1c 85 64 bb 80 21 70 3d
       -0.09198269 -0.061252054 -0.0034869378 0.058625698
0000d0 f6 dc 11 3d be 83 1c be 85 52 f4 bb 89 56 b4 bc
       0.035611115 -0.1528463 -0.007456126 -0.02201392
0000e0 0d 73 74 3e d8 83 22 be b9 38 aa bd b6 a8 5c bb
       0.23872013 -0.15870607 -0.083116 -0.0033669895
0000f0 15 9d 11 be fd 6b de bd 8f a2 83 bd ed af 55 3c
       -0.14220078 -0.10860441 -0.0642749 0.013042432
000100 5c e0 c2 3d bc 18 f1 3c b7 a8 49 3e 9d 6d 1e 3e
       0.095154494 0.02943074 0.19693266 0.15471502
000110 1c dd 50 be 84 6b 8d bd fb d2 47 3d 08 5a ad 3c
       -0.20396847 -0.069052726 0.04878519 0.021161094
000120 99 c2 4a be bd 22 a9 bc 03 02 66 3d bb 13 a7 bc
       -0.19800796 -0.020646447 0.056154262 -0.02039515
000130 3f 15 3d bd c4 6a dc 3d 4c 94 af bc cb 4a 1c be
       -0.04616284 0.107625514 -0.021433018 -0.15262906
000140 92 38 d6 bd 22 94 b8 bc 3a aa e6 bc 12 ac 63 bd
       -0.10460009 -0.022531573 -0.028157342 -0.05558402
000150 9e 88 8a bd 21 0c 8d bd 40 ab d5 bd b8 9a 38 be
       -0.06764339 -0.06887079 -0.10433054 -0.1802777
000160 65 39 d6 3c 60 33 7e bd fc 00 0f bd 28 62 92 bd
       0.026150415 -0.062060714 -0.03491305 -0.07147628
000170 50 56 47 bd 06 2f 77 3d 0e 3b 72 bd e8 49 5b bd
       -0.0486663 0.06034758 -0.05913835 -0.05353728
000180 fe cc 53 3e e1 ef c6 3d ec ad 41 3c 37 8c ae bb
       0.20683667 0.09713722 0.011821251 -0.0053267735
000190 3a ad 81 3c 5b 1b 9d b9 fd 66 94 bd 75 ad 10 bc
       0.015829671 -0.00029965755 -0.07246206 -0.008830418
0001a0 fc 37 54 3d ed 15 9b 3c ff 80 9a 3d c8 ec e9 3d
       0.051811203 0.018931353 0.07544135 0.114221156
0001b0 27 cc 59 bd 20 de ad 3d cb 28 80 3d 63 c4 52 bc
       -0.05317321 0.084896326 0.06257781 -0.012864205
0001c0 a6 ad db bb d7 e2 6b bc 21 74 7d 3d f6 08 d7 3d
       -0.00670405 -0.014397345 0.061878327 0.10499756
0001d0 05 08 a1 bd a0 45 ac bc 69 ec 1b 3e ec 1f 06 3e
       -0.07862858 -0.021029294 0.15226902 0.13098115
0001e0 7d c9 21 be 7d da c5 bd e4 c1 4a 3d d5 5a 62 3d
       -0.15799518 -0.09660814 0.049501315 0.055262405
0001f0 cc 90 ff bc 0a 9d 85 3d 1b 69 88 3d 5b 0d f0 3c
       -0.031196974 0.065240934 0.06660672 0.029303243
000200 4a ae 94 3c 8b e4 79 bd 31 55 e8 bd 10 e5 44 bc
       0.018149514 -0.06100897 -0.11344374 -0.012017503
000210 69 e8 33 bb 51 a7 a8 3d b3 51 d5 3c 88 ab b7 3d
       -0.002745176 0.08235038 0.026039934 0.08968264
000220 e3 26 78 3d d5 ab 8c bd 71 c1 1f 3d 01 63 45 3d
       0.06058396 -0.06868712 0.03900284 0.04819012
000230 55 a3 fa bd 8d cb 5e bd 28 3d f2 3a ad d8 da 3d
       -0.12238184 -0.05439334 0.0018481361 0.10685859
000240 d9 2e d4 bd c2 0c 40 be fa 09 0e bd 29 23 5f bc
       -0.10360498 -0.18754867 -0.034677483 -0.013619223
000250 ef e3 9a bd 6b 36 1f be 50 c8 11 3c 58 60 68 bd
       -0.07563006 -0.15548103 0.008897856 -0.056732506
000260 74 c4 00 3d c1 cf 13 be f5 2d ef bc 65 06 ca bd
       0.031437352 -0.1443472 -0.029196719 -0.09864501
000270 ca 72 bf ba 8f ba b6 bd 5e 44 a2 bc 83 7a 57 bd
       -0.0014606353 -0.08922302 -0.01980799 -0.05260707
000280 5c 19 41 3d 87 c0 a7 3d b5 4e 91 bd 7c b9 fd 3c
       0.047143325 0.081910186 -0.0709509 0.030972235
000290 1d 0a 4f 3d 14 89 08 bd 82 1e 8b bd a3 f8 61 bc
       0.050546754 -0.033333853 -0.06792928 -0.01379219
0002a0 b8 39 90 bc 66 fa e7 3d ff 0a 47 3e dd b6 18 bd
       -0.017605647 0.113270566 0.19437788 -0.037283767
0002b0 33 b6 12 bd 9a c9 ed 3b dd b3 10 3e 92 8f 50 bd
       -0.03581829 0.007256699 0.14131112 -0.05091817
0002c0 a9 5a 19 bd b8 34 23 bd 6a 4a ca 3a 56 e7 93 3d
       -0.037439976 -0.0398452 0.0015433554 0.07221858
0002d0 f0 e7 7b bd ff 12 59 3b 69 bb 86 3d 90 2e bc 3d
       -0.06150049 0.0033122895 0.065787144 0.091885686
0002e0 55 2b 5d 3d f8 a8 57 bc cc 4c 79 3d 24 4a b7 3c
       0.053996403 -0.013162844 0.060864255 0.02237422
0002f0 de 18 7e 3d 8a 3f 6c 3d 01 10 e6 bc 50 8d 0f 3d
       0.062035434 0.057677783 -0.028083803 0.035046875
000300 66 e6 31 be 32 ee ca 3d c1 c1 dc 3d 87 ce 57 3d
       -0.17373046 0.099087134 0.10779143 0.052687194
000310 7a de ba bd a2 dd 29 bd b6 5d 1e bd df 7b 89 ba
       -0.09124465 -0.04147113 -0.03866359 -0.0010489187
000320 ec 46 81 be fb 17 4b 3c 30 d7 ca bc 01 07 c1 3d
       -0.25249422 0.012395854 -0.024760813 0.09425164
000330 b2 d2 56 bd 0d b6 6c 3e 71 5a 17 3d ab a5 6d 3e
       -0.05244703 0.23116322 0.036951486 0.23207729
000340 51 e2 ce 3d b1 55 80 3c e5 b8 99 3d fb 76 0a bd
       0.1010176 0.01566586 0.07505969 -0.033804875
000350 83 d3 81 bd f2 07 8f 3c 3f 4b 21 3e b0 09 6a 3b
       -0.06339171 0.017459843 0.1575136 0.003571134
000360 f2 74 24 3c 1e 3d fa 3d 66 b8 38 3e fc bc 41 be
       0.010037648 0.122186884 0.18039092 -0.18919748
000370 23 04 b2 bd ac ea 24 bd b8 28 4b bd ee e5 40 be
       -0.08692195 -0.040262863 -0.04959938 -0.18837711
000380 d2 2b 4b bd a1 26 49 bc f8 ac a1 bd a2 74 14 bc
       -0.049602337 -0.012277276 -0.07894319 -0.009061011
000390 b4 ae a1 3c 90 bc d1 3b cc ae d4 bd c0 f2 a3 3d
       0.019736625 0.006400652 -0.10384902 0.08005285
0003a0 84 c3 fb bd 24 83 cf 3a 6f f0 b7 bc 29 f3 78 bc
       -0.12293151 0.001583193 -0.022453515 -0.015194693
0003b0 17 74 1e 3d af 22 85 3d 35 48 2b 3e a9 5f 94 3c
       0.03868493 0.06500756 0.16726764 0.01811202
0003c0 68 69 0d be b5 5f 2d be 7f 5e 80 bd 92 94 e9 bd
       -0.1380974 -0.1693104 -0.06268024 -0.11405291
0003d0 a8 8e 89 be 9b f6 37 be ca 86 f4 3d 25 9d e9 bd
       -0.2686665 -0.17965166 0.119397715 -0.11406926
0003e0 59 32 65 be 03 82 f8 bd 7c 38 a4 bd 99 55 47 be
       -0.22382487 -0.12134173 -0.08018586 -0.19466247
0003f0 a2 b0 68 be 88 8f 35 be da 0e 52 bd f6 e7 1b bd
       -0.2272363 -0.17730534 -0.051283695 -0.038063012

fc1.bias f4 [120]
000000 66 fc e4 3c b6 a1 25 3d 4f 29 d1 bc c0 ac 09 bd
       0.027952384 0.040437423 -0.025532393 -0.033612013
000010 4d 21 11 bd f5 3e 10 3c e6 57 83 3d 8a b2 7e 3c
       -0.03543215 0.008804073 0.0641325 0.015545497
000020 3f cd 60 3c 19 43 db 3c 11 1e 72 3d c9 a8 a4 bd
       0.0137208095 0.026765393 0.059110705 -0.08040006
000030 09 56 7a 3d 0f 5c 06 bd 7b e3 05 3d c1 1f a6 3d
       0.061117206 -0.032802638 0.032687645 0.08111525
000040 04 c0 53 3c 03 9c 81 3d b0 43 3a bd bf 42 4a bd
       0.012924198 0.06328585 -0.045474708 -0.04938006
000050 63 7f a4 bc cd 50 63 bd ab 67 6d bc e8 49 66 bb
       -0.020080274 -0.05549698 -0.014490048 -0.0035139266
000060 30 50 91 bb 83 a8 84 bb 06 87 16 3d 6d 04 23 bb
       -0.004434608 -0.0040484085 0.036749862 -0.0024874464
000070 ec 82 8d bc 63 28 27 3d 06 3e 26 bd e1 a9 c4 3c
       -0.017274342 0.04081 -0.040586494 0.024006786
000080 f3 83 5a 3d ac 0b a0 bb 58 0b df bc 81 a0 27 3d
       0.053348493 -0.004884204 -0.027227089 0.040924553
000090 60 ff 80 3d c6 74 21 bd 06 94 5a bd 75 be 36 3b
       0.06298709 -0.039418004 -0.053363822 0.0027884517
0000a0 c3 84 7a bc 11 0a 83 bb 8f 1d 2c bd 7f 46 3f bd
       -0.015290442 -0.0039990027 -0.042020377 -0.04669809
0000b0 7f e8 32 bd ec 8d 43 bc 5f f9 f0 3c 88 2c 88 3d
       -0.043678757 -0.011935692 0.029415784 0.06649119
0000c0 4b 7e a5 3d 09 c3 f7 3c e3 00 9c 3c 4a 81 b5 bc
       0.08080729 0.030244367 0.019043392 -0.022156376
0000d0 12 92 88 bc 31 69 c2 bc 0e 89 15 bd 10 36 03 3d
       -0.016671214 -0.0237318 -0.03650766 0.03203398
0000e0 15 ad 68 3d 38 5e 23 3d 9a 4e 66 bd 6c 4f 66 3d
       0.05680569 0.039884776 -0.056227304 0.056228086
0000f0 15 8e 31 bd 12 6b 27 bc 8e e2 0d bb 7b 05 8f 3c
       -0.04334839 -0.010218399 -0.002164993 0.017458668
000100 3a 03 ce 3d 95 de 57 3c a5 3e a9 bd 7f c1 cd 3d
       0.10059209 0.013175626 -0.082639016 0.10046672
000110 d8 6b b4 3d 85 d9 a6 3c 8f ac 38 bd d5 40 09 bd
       0.08809632 0.020367393 -0.04508644 -0.033509094
000120 cb 64 0a bd 58 1f 66 3d a9 e2 5f 3d 71 65 88 3b
       -0.03378753 0.056182235 0.05465952 0.0041624834
000130 06 bd 00 bc be 0f 94 bc 4b 6d e4 3c 66 56 98 3c
       -0.007857567 -0.018073913 0.027884146 0.018595885
000140 79 78 36 3d e9 7e df 3b cf ad 87 bd c5 40 0d bb
       0.044548485 0.006820549 -0.06624948 -0.0021553498
000150 65 75 5f 3c 69 f7 ce 3c db 93 17 3d 56 ea 13 ba
       0.013638829 0.025264459 0.03700624 -0.0005642524
000160 bc e4 0a 3d ea 97 43 3d 2a 9f 84 bc 6d b3 9b bd
       0.033909544 0.0477523 -0.016189177 -0.07602582
000170 be f3 b5 3d ca db 83 bd 01 50 19 3c f0 79 02 3d
       0.08884381 -0.06438406 0.009357453 0.03185457
000180 2c e8 39 bd 6e 3a b0 bc 23 59 10 bd 94 0f d5 bc
       -0.045387432 -0.021512236 -0.035241257 -0.026008405
000190 a9 af 1b 3a 76 37 7f 3c d3 08 25 bd ee 4d 31 3c
       0.0005938956 0.015577188 -0.04029162 0.010821803
0001a0 0e 0f 13 bc 96 28 fa 3d 2f f8 71 3d 67 06 2f 3d
       -0.008975757 0.122147724 0.059074577 0.042730715
0001b0 e6 20 84 3c 15 38 0f 3d 55 b4 ee 3c 8b c2 40 3d
       0.016128968 0.034965593 0.029138723 0.04706053
0001c0 b9 66 91 3c db 66 9a bd f6 ea 2d 3c 0c 5f 61 3c
       0.017749177 -0.075391494 0.010615101 0.013755571
0001d0 46 ed 1d bd c5 02 9e bc 41 f3 68 3c 15 35 5f 3d
       -0.03855636 -0.01928843 0.0142181525 0.054493982

fc2.weight f4 [84, 120]
000000 04 5a 28 3e 57 b2 91 bc 83 32 df 3d 15 c8 10 bd
       0.16440588 -0.017785234 0.10898306 -0.035347063
000010 76 8d c4 3a 84 64 50 bd 1c c3 9c 3d 04 e1 a6 3d
       0.0014995772 -0.05087711 0.07654402 0.08148387
000020 cc 4d e9 3c 87 60 d8 3d 91 af 24 bc db bb 53 3d
       0.02847948 0.10565286 -0.010051624 0.051692825
000030 fa f9 de bd 1b 4b d9 3a 0a 7b 8e bb 7e e1 3e 3d
       -0.10887523 0.0016578169 -0.0043481635 0.046601765
000040 64 05 0d be bd e7 bd bd 59 2f 28 3d 68 c7 a6 3a
       -0.13771588 -0.09272716 0.04106078 0.0012724223
000050 2b 9e d1 3d 8b 73 29 bd b9 61 f3 3c bc 7d 8a bd
       0.10235246 -0.041369956 0.029709684 -0.06762263
000060 89 cf a2 bd e9 4c 7f 3d db 14 d9 bd 17 ac 8d bc
       -0.079497404 0.062329207 -0.10599681 -0.017293973
000070 05 12 2b 3d 23 4f 63 bc 76 a8 a6 3d 18 07 17 bd
       0.04176523 -0.013873848 0.081376 -0.036872
000080 00 55 04 3e 32 e3 90 bb 4d 09 32 bd 8b a3 ad 3c
       0.1292305 -0.004421615 -0.0434659 0.021196147
000090 e1 e4 54 bd 55 90 e8 3d 99 b7 03 be 13 ae 92 3c
       -0.05197609 0.11355654 -0.12863006 0.01790527
0000a0 80 dd 01 3e 84 9a 74 bd b9 1e 9e bd c6 5f d7 bc
       0.12682152 -0.05971767 -0.07720704 -0.026290786
0000b0 7e ed cc bd 90 16 c4 3d d7 77 26 3e ef ac a1 3c
       -0.100062355 0.09574616 0.16256653 0.019735781
0000c0 5c 7f 85 3d b5 c4 e4 3d 30 18 67 3c 02 da dd 3d
       0.065184325 0.111703314 0.014104888 0.10832597
0000d0 f5 04 77 bd 42 7a 87 bd e3 50 78 3c 14 b8 9a 3d
       -0.06030746 -0.06615116 0.015156004 0.07554641
0000e0 fd 08 02 be 42 cb 11 bb a0 2c a1 bd a9 96 df 3d
       -0.12698741 -0.0022246395 -0.0786984 0.10917408
0000f0 a8 1c 20 be 45 a2 ae 3d 59 19 b8 3d 91 e6 31 bd
       -0.15635931 0.08527044 0.0898921 -0.043432776
000100 bc c0 51 bd ea d7 eb bd f2 26 8c bc 7b d5 da bd
       -0.051209196 -0.11515792 -0.017108414 -0.106852494
000110 b2 ed c4 bc 3e 99 91 bd bc 0d 27 bd 5c 0a 0e bd
       -0.024039123 -0.07109307 -0.040784582 -0.03467785
000120 e5 48 a9 bd 5c f5 7f bd af ec 5b bc 02 0f 3d 3e
       -0.08265857 -0.062489852 -0.013423129 0.18462756
000130 90 7c 6d 3d d5 f2 f5 3d e5 e9 f8 3d 83 95 a6 3c
       0.05798012 0.12009207 0.12153987 0.020334965
000140 fd 57 c3 3d 25 c5 4e bd 9f dc 1c 3d ef e8 7d bd
       0.09538267 -0.05048098 0.03829634 -0.06198972
000150 76 af 95 3d c9 1f eb bb 2c d3 ba bc 9f a0 a9 3d
       0.07308857 -0.00717542 -0.022805773 0.08282589
000160 d6 39 1e 3d b3 b4 b2 3d c4 e7 0a 3d 68 86 9f 3d
       0.038629375 0.08725872 0.033912435 0.07789308
000170 8e 4b 98 bd 52 c3 a0 bd 66 3e 1e 3d 14 5e 22 bd
       -0.07436286 -0.078497544 0.038633727 -0.0396405
000180 73 5c d9 3c d2 73 03 3d 5b 5e 9e bd 7b 1c bb 3d
       0.026533341 0.032092877 -0.077328406 0.091362916
000190 59 9c cb bd 5e 36 00 3e 19 5e 47 3d 04 53 c3 3d
       -0.0994193 0.1252074 0.048673723 0.09537318
0001a0 af 77 8c 3d 67 7b be bd 2c ef e5 ba 02 c0 e3 3d
       0.06858765 -0.09300881 -0.0017542592 0.11120607
0001b0 7c be dd 3c aa 2c 0a be 4a a5 6d 3b 98 e9 bb bc
       0.02706837 -0.134936 0.003626185 -0.022938535
0001c0 21 45 13 3e a0 5a 90 3c 08 7d f9 bc 70 29 19 3e
       0.1438184 0.017621338 -0.030455127 0.14957213
0001d0 c7 81 cf 3b ee 1c 09 3e 93 23 d2 3d 3d 21 2c 3d
       0.0063326093 0.13389942 0.102606915 0.042023886
0001e0 d3 a2 67 be d8 1d 6a 3d 00 1b a4 3d 10 17 b9 ba
       -0.22620706 0.057157367 0.08012962 -0.0014121253
0001f0 c5 2d cf bc b8 ab 46 3d 39 2d 9c bc 33 bc 2c 3c
       -0.02529038 0.048503608 -0.019064533 0.010542917
000200 e7 59 86 bd c8 d2 da 3d 30 95 bb bc 83 49 9c 3b
       -0.06560116 0.106847346 -0.022898287 0.0047695055
000210 0c fe ef bd 83 a2 8f bc 69 ac bc bc 84 a8 39 3e
       -0.117183775 -0.017533546 -0.02303143 0.1813069
000220 e4 64 88 3d e1 44 9c bd c3 6e 8e 3d ae 26 1d bc
       0.06659868 -0.07630325 0.0695472 -0.0095917415
000230 87 3a 84 bd 52 70 c6 3a fc 16 37 bb 57 1e 23 bc
       -0.06456476 0.0015139675 -0.0027937284 -0.009955964
000240 da 22 bf 3c 3a 25 19 3c 41 96 31 bd 31 c9 48 be
       0.023332048 0.009347254 -0.043356184 -0.19607998
000250 b2 9e f6 3d 95 39 f5 bc 47 98 6b bd b1 e8 78 bc
       0.120419875 -0.029934684 -0.05751827 -0.015192197
000260 b2 71 12 bd dc 49 1b 3c ac 52 04 3d 29 b2 97 3d
       -0.03575296 0.009478059 0.032305405 0.07407028
000270 97 b2 da 3d 88 c9 b2 bc b1 54 85 3d 3e 21 ff 3c
       0.106785946 -0.021824613 0.06510294 0.03114378
000280 5e 56 01 3c a1 3b ad bd 04 70 26 3d 72 9f 11 bd
       0.007894127 -0.08458639 0.04063417 -0.03555245
000290 ef 72 94 3c ba 0f b2 3d 1a 5e 93 bd 9d e2 8d bd
       0.01812121 0.08694406 -0.07195683 -0.06927989
0002a0 38 35 37 3d 6d bb 93 bd 1c 81 f3 bc b6 38 29 3d
       0.044728488 -0.07213483 -0.02972465 0.04131385
0002b0 fb 04 9b 3d f7 01 ac 3c c3 a3 01 3e 51 af f6 3d
       0.07569309 0.02099703 0.12660126 0.12045158
0002c0 5e 1a 21 3e e7 ae e2 3c 88 f1 e0 3a 72 a9 af 3d
       0.15732715 0.02767129 0.0017161826 0.08577241
0002d0 fe 9c 15 3e 08 1f 33 bc 9e eb 7d 3c f6 5b c7 3c
       0.14610669 -0.010932691 0.01549807 0.024335843
0002e0 53 a5 34 3c 71 29 c7 bd 6d 90 f2 3d 9d c3 83 3e
       0.0110257445 -0.09724701 0.11843953 0.2573518
0002f0 03 9e fb 3d 33 45 a7 3c 9b 23 a9 3d f3 46 16 bc
       0.12285998 0.020418739 0.08258744 -0.009172189
000300 0b 6a b3 3d f8 54 d0 3d 4b d1 7c bd ef 8f 8d 3d
       0.087604605 0.101724565 -0.061723035 0.06912219
000310 ed 48 8d 3d 57 15 57 bd 8a 7a ae 3d 68 c5 ca bc
       0.06898675 -0.052510586 0.08519466 -0.024752334
000320 d4 c4 ce 3c 5c 51 d7 b9 f0 ab af 3d 3f df 35 3e
       0.02524034 -0.00041068613 0.08577716 0.17760943
000330 0c 4f b1 bb d4 69 b1 3d 1b bc c6 3b 34 a7 a4 bd
       -0.0054110344 0.08662763 0.0060649044 -0.08039704
000340 5f 59 a3 bd cd b8 19 be 9f a0 52 bd 2b 93 0d 3d
       -0.079760306 -0.15011902 -0.05142271 0.03456418
000350 51 2c ee bb f7 80 11 bc 9a 13 97 3d c3 dc 7d 3d
       -0.0072684665 -0.008880845 0.073767856 0.061978113
000360 f0 c5 e5 3c d9 66 cf bc b9 ee 85 bd ba 34 b8 3c
       0.028048486 -0.025317596 -0.06539673 0.02248608
000370 23 00 ea 3d 66 83 2f bd 2f 8a e5 3c c9 e3 69 3e
       0.11425807 -0.04284992 0.028019993 0.228408
000380 dd fd 86 3e da a4 3b 3c 96 dc 8d bd c7 76 8d bd
       0.26365557 0.011452878 -0.06926839 -0.069074206
000390 d0 46 98 bd 67 e1 1a 3e 09 0d 89 3d ce f7 e1 bc
       -0.074353814 0.15125047 0.066919394 -0.027583983
0003a0 ee 46 07 3e 9b 45 37 3e 90 13 95 bd 35 56 47 bd
       0.13210651 0.17897646 -0.07279122 -0.048666198
0003b0 1b 63 c4 3d 42 37 cb 3d 60 0e 33 3d 06 96 7b 3a
       0.09589215 0.09922649 0.04371488 0.00095972454
0003c0 95 a2 28 3c 4e cc 4c 3e f9 eb 8e bd c6 d1 ae 3c
       0.010292669 0.19999811 -0.06978602 0.021340262
0003d0 d2 00 0b be a7 03 1b be 1f c6 18 3d 77 46 c8 3d
       -0.13574532 -0.15138112 0.037298318 0.09779065
0003e0 40 9f 7a 3d c2 0a 3d 3c 14 54 8c be 42 a2 a5 3b
       0.06118703 0.011538209 -0.27407897 0.005054743
0003f0 0d 93 f7 3d 1b 85 56 3c a0 c3 75 3c 46 21 14 be
       0.120885946 0.013093258 0.015000254 -0.14465818

fc2.bias f4 [84]
000000 90 db b8 bd e9 be 6d 3d a0 53 ad bd 69 88 8e bd
       -0.09026253 0.058043394 -0.08463216 -0.06959612
000010 d3 12 10 bd 1c 09 07 3e d7 c9 e8 3d bc a4 ab bd
       -0.035174202 0.13187069 0.11366623 -0.0838103
000020 dc 43 9d 3d f3 b5 0f bd 9c 62 f5 bd 1a 44 a9 bd
       0.07678959 -0.03508563 -0.11981699 -0.082649425
000030 0c 3e dc bb 3d 5c 0e bd 3b 2e aa 3d 9a ca eb 3b
       -0.0067212638 -0.034755934 0.08309599 0.007195783
000040 d1 a7 27 bc 7d b7 37 3d 1b 04 09 3d dd 8e 94 bc
       -0.010232882 0.044852722 0.03345118 -0.018134529
000050 38 8b ec 3c f9 20 20 3c 26 66 15 3d e2 c7 7e 3d
       0.028874978 0.009773486 0.03647437 0.06220234
000060 fb ed b1 3d e3 53 28 bc bf 93 d3 3a 9f df ca 3d
       0.08687969 -0.010273906 0.0016142054 0.099059336
000070 39 47 b3 3d ee c5 ea 3b 79 dd 7c bd 2a d2 ce bc
       0.08753819 0.0071647083 -0.06173465 -0.025246698
000080 6f 23 35 3d d9 4b 56 3d 8d d6 2d 3d d0 f0 ed bd
       0.044223245 0.052318428 0.04244094 -0.11618197
000090 8f 3e d0 bd 0a de e2 3d d1 a7 18 bd 0b ec cf bd
       -0.10168182 0.11077507 -0.037269417 -0.101524435
0000a0 80 ad b8 bd c2 8d 59 bc ed 9d 68 bd af fb 75 3d
       -0.090174675 -0.013278427 -0.056791235 0.060054477
0000b0 09 b6 64 3c 82 f7 a2 3d 90 90 12 3e 88 f7 76 bd
       0.013959416 0.079573646 0.14312959 -0.060294658
0000c0 33 a8 83 3d 90 c3 3d 3a 1c 2c 90 3c 55 9e 97 bc
       0.06428566 0.0007238919 0.017599158 -0.018508116
0000d0 a3 b9 5d 3d 53 b3 65 bd 27 0d 87 3d 8b 31 f9 ba
       0.054132115 -0.05607922 0.065943055 -0.0019011957
0000e0 ae 2c 1b 3d 24 e3 91 3c 88 d7 75 bd 4f 38 fe 3d
       0.037884407 0.017808504 -0.06002 0.12413084
0000f0 12 62 4e 3c da 42 4a bd 3e ba a4 bd 82 69 9e bd
       0.012596624 -0.04938016 -0.080433354 -0.07734968
000100 fa 21 a7 3c 0d b5 bd 3d 7b 9d 03 3d 7c 55 0a bd
       0.020401943 0.09263048 0.032132607 -0.03377293
000110 2c bf 8a 3d 5b 97 f1 bd 48 b4 85 3c 50 94 ec bc
       0.067747444 -0.11796447 0.016321316 -0.028879315
000120 a7 6f e6 3d eb 87 1a bd 12 58 35 bb c0 d5 fb 3c
       0.11251765 -0.037727278 -0.0027670902 0.030741572
000130 a3 f4 a3 3c 72 d3 af 3c 91 d7 27 bd 26 16 e4 3d
       0.020014113 0.02146313 -0.040977065 0.11137037
000140 30 f9 a7 3d b1 06 35 bb 9e 87 95 3c 80 eb d4 3d
       0.082018256 -0.0027622397 0.018253144 0.103964806

fc3.weight f4 [10, 84]
000000 ff 35 d2 bd ae 1a f4 3c 09 6c c6 3d 9e c4 64 3d
       -0.10264205 0.029797878 0.09688575 0.05585157
000010 ef 66 45 3b 1d 46 be bb ea 37 22 3e 3d 80 61 be
       0.0030121168 -0.005806698 0.15841642 -0.22021575
000020 38 d6 b2 bd 59 ed a6 bd c0 8c a6 bb f4 57 ee 3d
       -0.08732265 -0.08150739 -0.0050826967 0.116378695
000030 aa 5d 01 bc 1b 1b 07 3d 4f ce 26 3e 9b d4 07 3e
       -0.007895866 0.032984834 0.16289638 0.13264696
000040 41 d0 02 be e9 91 60 3c 0e 42 b0 bd 6a cc f4 3d
       -0.12774755 0.013706663 -0.08606349 0.119530514
000050 dd b7 9a bb 01 75 b2 3d b2 c9 9d bc fd 51 94 bd
       -0.0047216252 0.08713723 -0.019261215 -0.072422005
000060 61 fa 4c be 39 45 b5 3d 92 99 9f bc c4 62 df bd
       -0.20017387 0.08851094 -0.019482408 -0.1090751
000070 9f 41 9b bd 99 13 27 be 4a 5d 1d 3c 39 bc 2e bd
       -0.075808756 -0.1631607 0.009604761 -0.042659972
000080 5f c0 93 3d 32 a2 1b be eb 49 b7 3d 1e 30 87 bc
       0.07214426 -0.15198591 0.089496456 -0.016502436
000090 6b 52 e3 3d d8 9a ab 3d 7f 75 5f bd 4d ba 5d be
       0.11099704 0.083791435 -0.054555412 -0.216531
0000a0 50 49 05 3d c4 c0 4e be 95 47 4b be 82 8f 88 3d
       0.03254062 -0.20190722 -0.19851525 0.06667997
0000b0 61 fe 54 bd cf 06 12 be 11 c8 37 be 5c ff bb bd
       -0.052000407 -0.1426041 -0.17947413 -0.09179565
0000c0 a7 da 15 3e 7f 68 0a 3e c3 a0 ae ba b5 5f bc bd
       0.1463419 0.13516425 -0.0013323057 -0.09197942
0000d0 73 76 7c 3c 58 97 fb bd 8c 12 2f 3e f0 e6 f1 bd
       0.0154091 -0.12284726 0.17096919 -0.11811626
0000e0 77 a9 0d be 69 f0 b8 3d bc 37 b3 3b 6a 2b 14 3e
       -0.13834177 0.090302296 0.0054692905 0.14469686
0000f0 02 c0 03 3e f1 ec dc 3c 6b c1 c4 3d 92 f6 0c 3b
       0.12866214 0.026968451 0.09607204 0.0021509272
000100 08 f2 bb 3d b4 4d eb bd e0 13 f1 3d 15 f2 f2 bd
       0.09177023 -0.1148943 0.11771369 -0.1186258
000110 a8 7f 75 be c1 03 6a 3a cd 64 07 3e 35 6e 90 3d
       -0.23974478 0.0008926951 0.13222046 0.0705227
000120 04 31 22 3e 7e 65 e3 bd 9a c9 74 bd 5e 7e e9 3d
       0.1583901 -0.111033425 -0.059762575 0.11401056
000130 b2 a9 3c 3d 6c d8 2e be 6c 7e 88 bd dc af 4c bd
       0.04606027 -0.17074746 -0.06664738 -0.0499724
000140 8e 67 2b 3e 37 ea 39 bd 04 3f 6f be 3c be 07 be
       0.16738722 -0.04538938 -0.23363882 -0.13256162
000150 35 d5 29 bd a1 71 e0 3d 55 33 e0 bd e6 b5 11 bc
       -0.041463096 0.10959173 -0.10947291 -0.008893466
000160 18 3c d6 3d 9e c7 75 3c e9 6d 20 3e df de 06 3e
       0.10460681 0.015001206 0.15666927 0.13170956
000170 3f 3f 17 bd 50 67 45 bd 5f ad 8e 3d 32 79 3c 3d
       -0.03692555 -0.04819423 0.06966662 0.04601402
000180 8e 93 d1 bd 87 c5 20 3e c4 c3 75 3d 0a 51 9a 3d
       -0.10233222 0.1570035 0.06000115 0.07534988
000190 3d 4d ef 3d b3 f3 29 be bf ab 81 bd 63 8d ff bd
       0.11684654 -0.1659687 -0.06331586 -0.12478139
0001a0 89 3e 24 be c3 5d 02 be f8 7d ee 3b c3 66 98 3d
       -0.1603948 -0.1273108 0.0072782002 0.07441475
0001b0 d8 de 7e bd ab 62 2b be 37 61 03 be 9b d3 30 bb
       -0.06222424 -0.16736858 -0.12830053 -0.0026981595
0001c0 30 3c 13 3e 44 b3 50 3d cb ec 52 3e ff d0 12 be
       0.14378428 0.05095221 0.20598142 -0.14337538
0001d0 ee ea aa bd 6f ef 32 be 32 0e 64 3e 5d 44 d1 3c
       -0.083455905 -0.17474149 0.2227104 0.025545293
0001e0 44 98 73 bd dd bd 00 3e db ba c5 3c bb fe 6f 3c
       -0.059471384 0.12572427 0.024136951 0.014648135
0001f0 9c f0 0c 3e fc ac 06 be a4 5e f5 3d e8 70 58 be
       0.1376366 -0.13151926 0.11980942 -0.2113682
000200 46 37 c5 bc 50 f2 d8 3c 8a e7 0c 3e 16 1b 21 be
       -0.024074208 0.026482731 0.137602 -0.15732989
000210 85 08 f8 bd bd 23 a2 3c 1c 1b 01 be c2 4d 04 3e
       -0.12111 0.019792432 -0.12607998 0.12920287
000220 a7 74 d8 3d 37 d5 79 3d 85 56 fe bd 92 5c 4c bd
       0.10569125 0.060994353 -0.12418846 -0.04989297
000230 d9 a4 0a be 43 2d 5a bd 21 0e 64 bd 0a 59 4d be
       -0.13539447 -0.05326582 -0.055677537 -0.20053497
000240 b6 ff 5a be 01 5f 91 bd 61 8c 52 bd f1 02 40 be
       -0.21386608 -0.07098199 -0.051403407 -0.18751122
000250 4a 32 17 3c a4 c7 38 bd 2b 50 f0 bd aa 15 07 be
       0.009228298 -0.045112267 -0.11734041 -0.13191858
000260 39 60 29 bd 0e d2 8d bd 21 00 c4 3d e1 c8 ca bd
       -0.04135153 -0.069248304 0.09570337 -0.09901596
000270 b8 a4 54 bd 59 72 b6 bd 30 45 36 3e 9a 80 04 bd
       -0.0519149 -0.08908529 0.1779983 -0.032349207
000280 55 7e 6c bd 03 64 86 3d 77 46 d1 3b a0 e6 d2 3d
       -0.057737667 0.065620445 0.006386574 0.102978945
000290 fc 21 4e be 52 bc 62 be 3a 8e 1a 3e d7 c8 dd 3d
       -0.20130152 -0.22142151 0.15093318 0.10829323
0002a0 04 7e ec 3d 1d c5 c7 3d f8 dc 2f 3e d8 7c 25 3d
       0.11547473 0.09754393 0.17174137 0.040402263
0002b0 59 f4 4b 3c a2 4d 54 3d 88 63 7c be f2 88 ca bc
       0.012448394 0.05183185 -0.24647343 -0.024723504
0002c0 57 26 f5 3d 32 a1 30 3c 79 6e 16 3d 10 a6 25 be
       0.11970203 0.010780619 0.03672645 -0.16176629
0002d0 bb a6 2c bd 30 8f 6d bd 63 52 11 3e 31 13 7a 3d
       -0.042151194 -0.057997882 0.14191584 0.06105346
0002e0 c8 6e 1d 3d e0 c9 11 be b6 28 4b 3e 02 dd 7b bd
       0.038435727 -0.14237165 0.19839749 -0.061490066
0002f0 a7 ee 30 bd 32 6a bf bd a1 3c 8d bd 71 07 8e bd
       -0.043196347 -0.09346427 -0.0689633 -0.06935013
000300 1c b2 18 be bc 69 c8 bb be 18 79 3c 4a 4c a4 bd
       -0.14911693 -0.00611612 0.015203653 -0.080223635
000310 8d fc 56 3b 51 8a 6f bd db c5 c5 bd 57 35 f9 bd
       0.003280434 -0.05848152 -0.096568786 -0.12168377
000320 91 d0 ed 3d 49 84 16 3e 92 cc eb 3d a1 a7 66 3d
       0.116120465 0.146989 0.11513628 0.056312207
000330 45 b9 71 bc 5b 05 0a 3e 08 67 52 be 69 ed 3b be
       -0.014753644 0.13478605 -0.20547116 -0.18352284
000340 54 82 e6 3d a2 77 b8 bd e5 2b ab 3c 1c 61 6a bd
       0.11255327 -0.09007193 0.020894954 -0.057221517
000350 e3 eb c8 bd 67 b4 2b 3d c8 53 e4 bd 97 de 0c bd
       -0.09810617 0.041920092 -0.111487925 -0.034391966
000360 03 e0 33 3e bd 53 a1 bd 77 1c 1b be 37 53 88 3d
       0.17565922 -0.078773 -0.15147577 0.06656497
000370 1e 14 90 3d 72 fa 9c 3d 95 5f c8 3c a3 60 3f be
       0.07035087 0.07664956 0.02445964 -0.18689208
000380 c0 3f a3 3d bf 2d 36 be be 63 01 be ad f1 af 3d
       0.07971144 -0.17790888 -0.12635705 0.08591018
000390 af 44 75 3d 4b 3d 9a bd 31 3e 75 be a5 8d 60 3d
       0.059879955 -0.07531222 -0.23949505 0.054822583
0003a0 08 e0 eb 3d 14 1d da 3d 58 a2 4e 3d 7e 35 38 3e
       0.1151734 0.106500775 0.05044779 0.17989156
0003b0 0e f9 bc 3d 9b 32 98 3d 4f a0 db 3d fb 15 3c be
       0.09227191 0.07431527 0.10723936 -0.1836776
0003c0 5e 25 b9 3d 74 d1 22 3e bb 17 68 be 57 db d0 bb
       0.0904033 0.15900213 -0.22665302 -0.0063738036
0003d0 1d b1 e0 bd 44 bf 22 be 19 cc d5 bc a3 4e 1e 3d
       -0.10971282 -0.15893275 -0.026098298 0.038649213
0003e0 1d 74 5a be b7 c7 7a bd 08 e1 ba 3d 8a cf 0c 3e
       -0.21333356 -0.06122562 0.091249526 0.13751045
0003f0 91 4c c5 3c c2 ed 6a be f2 cf ca 3d e9 39 43 3b
       0.024084361 -0.2294226 0.09902944 0.0029789156

fc3.bias f4 [10]
000000 56 ad d4 3d 24 36 8d 3d 55 42 5e 3c e6 94 83 3d
       0.10384624 0.06895092 0.0135656195 0.064248845
000010 9e 93 5e bd 03 52 c9 3b 5b b6 5c 3d 83 1d e5 bc
       -0.054339997 0.0061438098 0.053884845 -0.027968174
000020 ca 90 2c 3e b3 09 a0 bd
       0.16852108 -0.0781435
