lab2-models/baseline-model.pth (torch, 181211 bytes, 10 tensors)

conv_block1.0.weight f4 [6, 1, 5, 5]
0	0xbe5b434d	-0.21412392
1	0xbe8e64bb	-0.27811226
2	0xbe9a2752	-0.30108124
3	0xbe281d5e	-0.16417453
4	0x3e2e1959	0.17001857
5	0xbe84bc53	-0.2592493
6	0xbdc03cd5	-0.09386603
7	0xbe8ba532	-0.27274472
8	0xbe5a2141	-0.21301748
9	0x3dc8c6fc	0.09803578
10	0xbe4c50fd	-0.1995277
11	0xbe726ea3	-0.23675017
12	0xbe5e30a3	-0.21698241
13	0xbdc657c5	-0.096847095
14	0x3e1bb135	0.15204318
15	0x3e2a34c5	0.16621692
16	0x3c56422f	0.013077303
17	0x3ddce79f	0.10786366
18	0x3d8170d5	0.06320349
19	0x3e5fafa6	0.21844348
20	0xbce42e4a	-0.027854104
21	0x3e218bf1	0.1577604
22	0x3d80d83e	0.06291245
23	0x3e40b74a	0.18819919
24	0xbcfb8893	-0.030704772
25	0x3c9ddbe3	0.01926989
26	0x3dbf292c	0.09334025
27	0x3e888204	0.26661694
28	0xbdc29dad	-0.095027305
29	0xbe80064d	-0.25004807
30	0x3e587c1e	0.21141097
31	0x3e865292	0.2623487
32	0xbd529d8c	-0.05141978
33	0xbe21585d	-0.15756364
34	0xbe85fb2f	-0.261682
35	0x3e3bceca	0.18340603
36	0x3ea8624e	0.328875
37	0xbe4dd48a	-0.20100608
38	0xbd07380a	-0.033012427
39	0xbe789e25	-0.24279077
40	0x3e50d551	0.20393874
41	0x3de4d9e4	0.11174372
42	0xbe0ac697	-0.13552319
43	0xbe7ef6de	-0.2489886
44	0xbd5261cd	-0.0513628
45	0x3e669735	0.22518618
46	0x3e898677	0.268604
47	0xbb856b3e	-0.004071622
48	0xbe709620	-0.23494768
49	0xbc229e77	-0.009925476
50	0x3e4ea1cb	0.20178907
51	0xbe24a0bb	-0.16076939
52	0xbd767e64	-0.06017913
53	0xbe35d639	-0.177575
54	0x3bf03964	0.0073310602
55	0xbe0c47db	-0.13699286
56	0xbdc19d1f	-0.094537966
57	0xbeaf5507	-0.34244558
58	0xbe2b2600	-0.16713715
59	0x3ea323dd	0.318633
60	0xbe7c37df	-0.24630688
61	0xbe8d496a	-0.27595073
62	0xbe420877	-0.18948542
63	0x3e0a05f4	0.13478833
64	0x3e8beec2	0.27330595
65	0xbe7efe96	-0.24901804
66	0x3d708136	0.058716975
67	0xbe0f51d9	-0.13996066
68	0x3d21ef87	0.03953507
69	0x3ebd462b	0.36967596
70	0xbc08ab2f	-0.008341595
71	0xbdda5a8f	-0.10661804
72	0x3e148adf	0.145061
73	0x3e97d3d3	0.29653797
74	0x3e8ee491	0.27908757
75	0xbe18b82d	-0.14914007
76	0xbe417b14	-0.18894607
77	0xbe80e85a	-0.2517727
78	0xbe5bec76	-0.21476921
79	0x3cfe42d3	0.031037724
80	0xbe926ed7	-0.2860019
81	0xbddb6888	-0.10713297
82	0xbeb86e88	-0.3602183
83	0x3e7e8118	0.24853933
84	0x3e5266d6	0.20547041
85	0x3e5d50f1	0.21612908
86	0x3def5b60	0.1168735
87	0x3e216bbe	0.15763757
88	0x3ede55b1	0.43424752
89	0xbe3a934b	-0.1822025
90	0x3ec1d59f	0.37858292
91	0x3e065c1f	0.13121079
92	0x3ea5ed49	0.32407597
93	0xbe08cdbd	-0.13359733
94	0xbe5b3708	-0.21407712
95	0xbe69464f	-0.22780727
96	0x3e0c6ea4	0.13714081
97	0x3db35df0	0.087581515
98	0xbdad5482	-0.08463384
99	0x3e4be4b3	0.1991146
100	0x3e54a4ed	0.20766039
101	0x3e95fdbe	0.29295152
102	0x3e0dc083	0.13842969
103	0xbe337ef3	-0.17528896
104	0xbe86c076	-0.2631871
105	0xbda0f039	-0.07858319
106	0x3e3263b3	0.17420845
107	0x3efe7c7d	0.49704352
108	0xbec944ec	-0.39310396
109	0xbe235459	-0.15950145
110	0xbeb6ba18	-0.35688853
111	0x3e28e6a2	0.1649423
112	0x3f0bcd1e	0.5460986
113	0x3d3ccd86	0.04609444
114	0xbd071122	-0.032975323
115	0xbebc8f00	-0.3682785
116	0x3df34125	0.1187766
117	0x3e17a683	0.14809613
118	0x3e130b54	0.1435979
119	0xbd4a1bc1	-0.049342874
120	0x3c3443f6	0.011002531
121	0xbe1fd8cf	-0.1561005
122	0x3db6c170	0.08923614
123	0x3e91e3c9	0.284941
124	0x3d9dd7f1	0.07707203
125	0xbca6e785	-0.020374069
126	0xbe025a86	-0.12729844
127	0xbe7ee800	-0.24893188
128	0xbe1af3e5	-0.15132101
129	0x3ddcf74b	0.10789355
130	0x3e3ebf13	0.18627577
131	0xbd119096	-0.03553828
132	0xbed2898a	-0.4112056
133	0xbe542ea0	-0.20720911
134	0xbe812834	-0.25225985
135	0x3ba02867	0.004887629
136	0xbe2aac4b	-0.16667287
137	0xbecd6a3b	-0.4012011
138	0xbe32bee4	-0.17455631
139	0xbea32bc8	-0.3186934
140	0x3eb520ef	0.3537669
141	0x3f0bb171	0.5456763
142	0x3e54e12a	0.20789018
143	0x3dfca551	0.12336219
144	0x3e3477ca	0.17623821
145	0x3e5e2aa9	0.21695961
146	0x3e3e2004	0.185669
147	0x3ef095bd	0.4698924
148	0x3e28d4c0	0.16487408
149	0xbdba2029	-0.09088165

conv_block1.0.bias f4 [6]
0	0xbc064d17	-0.008197091
1	0x3de86cb5	0.11348859
2	0x3db69d77	0.08916753
3	0x3e60c706	0.21950921
4	0x3d1c0aa4	0.038096085
5	0x3d74e990	0.059793055

conv_block2.0.weight f4 [16, 6, 5, 5]
0	0xbd402414	-0.046909407
1	0x3d574e78	0.052565068
2	0x3c77be6c	0.015121084
3	0x3d7946db	0.06085859
4	0x3b2fe37c	0.0026838472
5	0x3c9a2273	0.018815255
6	0xbe006411	-0.12538172
7	0x3d4a3aa6	0.049372338
8	0xbd0a3c62	-0.03374899
9	0x3dafe676	0.08588879
10	0x3c81dd36	0.015852552
11	0x3d0ef28c	0.03489928
12	0x3d8410fc	0.06448552
13	0xbd8fbf13	-0.070188664
14	0x3dae048c	0.08496961
15	0xbc85c1b0	-0.016327709
16	0x3e071353	0.13190965
17	0xbbbbc244	-0.0057299454
18	0xbe139a7a	-0.14414397
19	0x3e280737	0.16409002
20	0x3d944602	0.072399154
21	0xbbe148fb	-0.006875155
22	0xbe52595b	-0.20541899
23	0xbd91819d	-0.071048
24	0x3d89dc96	0.067315266
25	0x3db7d167	0.08975487
26	0xbd616c24	-0.05503477
27	0xbde2c966	-0.1107357
28	0xbd3e00a6	-0.046387337
29	0xbd55e798	-0.052222818
30	0xbd29ecc3	-0.04148556
31	0xbc653495	-0.013989587
32	0xbdd9f9bd	-0.10643337
33	0x3d9d4dc6	0.0768085
34	0x3c867765	0.016414354
35	0x3c7663ec	0.015038472
36	0xbdd65040	-0.10464525
37	0x3db473d4	0.08811155
38	0x3cbc1d5c	0.022963218
39	0xbd8d21cb	-0.06891211
40	0xbda47118	-0.080293834
41	0x3c40dde9	0.0117716575
42	0x3e6d60b1	0.23181416
43	0x3e1cae1e	0.15300795
44	0xbbd4cc5a	-0.006494087
45	0xbe2babb8	-0.16764724
46	0x3e15c353	0.14625292
47	0x3e5ac30c	0.21363467
48	0x3d11126f	0.03541797
49	0xbdcd8422	-0.10034968
50	0xbda65b12	-0.08122839
51	0xbddad7ce	-0.10685693
52	0xbc9701e8	-0.018433526
53	0x3c3d7d71	0.011565552
54	0x3cea6e9c	0.028617196
55	0xbe35dfd8	-0.17761171
56	0xbe068150	-0.13135266
57	0xbd8e78e0	-0.06956649
58	0xbd7731ec	-0.060350344
59	0x3d7b3eb5	0.0613391
60	0x3c24d5cd	0.01006074
61	0x3e197506	0.14986047
62	0x3cb315e2	0.02186102
63	0xbc4c20f5	-0.012459029
64	0x3e704a19	0.23465766
65	0x3d8d1ba6	0.06890039
66	0x3dbc4b67	0.09194069
67	0x3d393cfd	0.04522418
68	0xbe233177	-0.15936838
69	0x3e32e555	0.17470296
70	0x3e40cec7	0.1882888
71	0x3d67ee6f	0.056623872
72	0xbd03ebd2	-0.032207318
73	0xbbeae483	-0.007168354
74	0x3df62395	0.120185055
75	0x3d6ce96b	0.057839792
76	0xbd0ff21a	-0.035142995
77	0xbd42ba75	-0.0475411
78	0xbcdcc5c8	-0.026949778
79	0xbc3711c9	-0.011173674
80	0xbd98e927	-0.07466345
81	0xbe0f4dbc	-0.13994497
82	0xbd3fbb92	-0.04680974
83	0xbd052337	-0.032504287
84	0xbdd0cb1b	-0.10194989
85	0x3ade51cd	0.0016961634
86	0xbe755488	-0.23958027
87	0xbdbfb6c9	-0.093610354
88	0xbdccc9f7	-0.09999459
89	0xbe40697f	-0.18790244
90	0xbc88cc91	-0.016699107
91	0x3e46cbb9	0.19413652
92	0x3dc73d1e	0.09728454
93	0xbdb56a70	-0.08858192
94	0xbe7a54e7	-0.2444645
95	0x3e744590	0.23854661
96	0x3e8ec0e4	0.2788154
97	0x3c1d528a	0.009602198
98	0xbea19cea	-0.31565028
99	0xbe463d26	-0.19359264
100	0x3db92572	0.09040345
101	0xbe2627c0	-0.16226101
102	0xbdb337e4	-0.08750895
103	0xbd00adc5	-0.03141572
104	0xbd863f73	-0.06555071
105	0x3be66101	0.0070306067
106	0x3d30e6e3	0.04318894
107	0x3cef4269	0.029206472
108	0x3df349ae	0.11879288
109	0x3d51614e	0.051118188
110	0xbdd7789e	-0.10521053
111	0xbc288c49	-0.010287353
112	0x3cd5040f	0.026002912
113	0x3e174c82	0.14775279
114	0xbda161a5	-0.07879952
115	0xbdf9bf85	-0.121947326
116	0xbe5c37ff	-0.21505736
117	0xbd11f61f	-0.03563511
118	0xbe0a75a0	-0.13521433
119	0xbe5b73b6	-0.21430859
120	0xbe632f2c	-0.22185963
121	0xbe16746d	-0.1469285
122	0xbe1953aa	-0.14973322
123	0xbe1a6974	-0.1507929
124	0xbe20ab70	-0.15690398
125	0x3de5bf8f	0.112181775
126	0x3e0bd209	0.13654341
127	0x3bd9b714	0.006644139
128	0x3d3c9745	0.0460427
129	0x3cb9cf91	0.022681983
130	0x3ca4ef47	0.020133628
131	0x3d5a73cc	0.05333309
132	0xbd9a6f15	-0.075407185
133	0xbcd369c0	-0.025807261
134	0xbd5abbb7	-0.053401675
135	0x3d62e754	0.055396393
136	0xbd9f39f1	-0.07774723
137	0xbe0fa564	-0.14027935
138	0x3d45ebb7	0.0483205
139	0xbe486be2	-0.19572404
140	0xbcf7395a	-0.030178715
141	0xbe25fe0f	-0.16210197
142	0xbe854e55	-0.26036325
143	0xbdd16f39	-0.10226292
144	0xbe834e8a	-0.25645858
145	0x3c13ec9a	0.009028578
146	0xbdfbcbff	-0.122947685
147	0xbdee7d44	-0.11644986
148	0xbe255f45	-0.16149624
149	0xbeb77e1e	-0.35838407
150	0xbc81af6b	-0.015830716
151	0x3d7fb421	0.062427644
152	0x3d805405	0.062660255
153	0x3da719ee	0.081592426
154	0x3deb74a2	0.11496855
155	0x3d707184	0.058702007
156	0xbcb53afc	-0.022122853
157	0x3d8ab3fd	0.06772611
158	0x3d6da0fa	0.058014847
159	0x3db36904	0.087602645
160	0xbd29ca98	-0.041452974
161	0xbb4e4848	-0.0031476188
162	0xbcee71c9	-0.029106991
163	0xbbe742ae	-0.0070575094
164	0xbd73a09e	-0.05947935
165	0xbd459397	-0.048236456
166	0xbd96f635	-0.07371179
167	0x3ba4c00c	0.0050277766
168	0x3d6a56f6	0.05721184
169	0x3ddb9c9c	0.1072323
170	0xbca3568f	-0.019938735
171	0xbdba6d4e	-0.091028795
172	0xbdb7a3d6	-0.08966796
173	0xbd0214e0	-0.03175819
174	0x3d1e789e	0.03868925
175	0x3d18a9bb	0.037271243
176	0xbdbf7222	-0.09347941
177	0xbcf01516	-0.02930693
178	0xbbfd41d3	-0.007728794
179	0xbce67052	-0.02812973
180	0xbcc6e258	-0.024277851
181	0xbcb2d763	-0.02183122
182	0xbe102da4	-0.1407991
183	0x3cbb2db7	0.022848947
184	0xbdf6dd16	-0.120538875
185	0xbd3d67ad	-0.04624145
186	0x3cfa5545	0.030558238
187	0x3dbdb5e9	0.09263212
188	0xbc891df3	-0.016737914
189	0xbe03a7ef	-0.1285703
190	0x3cd021cb	0.025406739
191	0x3d42d3aa	0.04756514
192	0x3dd177f7	0.102279596
193	0x3e3691c4	0.17829043
194	0x3dfb2a7c	0.122639626
195	0x3d842d00	0.064538956
196	0x3b2c414e	0.0026284042
197	0x3dab17d0	0.08354151
198	0x3e053757	0.13009392
199	0x3e36f42e	0.17866585
200	0xbe243401	-0.16035463
201	0xbd6d5afc	-0.057948098
202	0x3b8d0ee9	0.004304756
203	0x3d757df1	0.05993456
204	0x3e17770a	0.14791504
205	0xbe1e1442	-0.15437415
206	0xbc2256d1	-0.009908394
207	0xbd2ea76a	-0.042640127
208	0x3d08dae7	0.033411887
209	0x3e19c501	0.15016557
210	0xbdccb2ba	-0.09995027
211	0xbe0f60fd	-0.14001842
212	0xbe032c9d	-0.12809987
213	0xbe03e67e	-0.12880895
214	0x3dbefd29	0.0932563
215	0x3b7f9bec	0.0039002849
216	0xbcc70ca1	-0.024298014
217	0xbd112d82	-0.03544379
218	0xbdd879f3	-0.10570135
219	0xbd661d54	-0.056180313
220	0x3d3e4ed7	0.046461906
221	0xbe24c64f	-0.16091274
222	0xbdd86116	-0.10565393
223	0xbcd0fd58	-0.025511429
224	0xbcd8cbbc	-0.026464336
225	0xbde753fe	-0.11295317
226	0xbe79f68e	-0.2441046
227	0xbe82de3e	-0.25560182
228	0xbdbfd2a8	-0.09366351
229	0xbd64422d	-0.055727173
230	0xbe13e700	-0.14443588
231	0xbe13e8f6	-0.14444336
232	0xbe933a7e	-0.28755563
233	0xbe54b161	-0.2077079
234	0xbe2e6fa0	-0.17034769
235	0x3e057446	0.13032636
236	0x3e4610c9	0.1934234
237	0xbdbb4a9d	-0.09145091
238	0xbe77e559	-0.24208583
239	0xbe9421e7	-0.28932115
240	0x3e5ac48c	0.21364039
241	0x3d81d27f	0.06338977
242	0x3dbaf2a3	0.091283105
243	0x3cd99db9	0.026564466
244	0xbe3fcac4	-0.18729693
245	0x3dcb9aa7	0.09941607
246	0x3cf65acf	0.030072598
247	0x3e088ca6	0.13334903
248	0x3e29eb4f	0.1659367
249	0x3d442e73	0.04789586
250	0xbe0c2540	-0.13686085
251	0x3d350030	0.044189632
252	0xbd0b6978	-0.03403613
253	0xbe0d3e11	-0.13793208
254	0xbe855a7d	-0.260456
255	0xbdd1e133	-0.102480315

conv_block2.0.bias f4 [16]
0	0x3cba464e	0.022738602
1	0x3d51d687	0.05122998
2	0x3d5fbd00	0.054623604
3	0xbd4c0ed3	-0.049818825
4	0x3a862c32	0.001023656
5	0xbdc68182	-0.096926704
6	0xbb7b8f77	-0.0038385072
7	0x3cf27569	0.029597001
8	0xbc3933e6	-0.011303877
9	0x3d661704	0.056174293
10	0xbd01ab83	-0.031657707
11	0x39f7bdbb	0.0004725287
12	0xbc626162	-0.013817163
13	0x3c923b13	0.017850434
14	0xbce966d2	-0.028491411
15	0xbcec19f5	-0.028820971

fc1.weight f4 [120, 256]
0	0xbc228cee	-0.009921296
1	0x3cbd77a2	0.023128334
2	0x3cbbcd7b	0.02292513
3	0xbd00f5f8	-0.031484574
4	0xbd69b319	-0.057055566
5	0xbc9e8f6d	-0.0193555
6	0xbd81fafd	-0.063467
7	0xbc8be4a4	-0.017076798
8	0xbc7a7e10	-0.015288845
9	0x3d02c771	0.031928483
10	0xbcadcda0	-0.021216214
11	0x3d030292	0.031984873
12	0xbca5b43b	-0.020227542
13	0x3d4a746d	0.04942744
14	0xbd72f849	-0.059318814
15	0xbc0900f7	-0.008362046
16	0x3cf4f8d1	0.029903801
17	0xbc96fc1c	-0.018430762
18	0xbd4d9485	-0.050190467
19	0x3c6a3122	0.014293941
20	0xbd0da91b	-0.0345851
21	0x3d0ff94a	0.03514985
22	0xbc4c1398	-0.012455843
23	0xbd52a8ad	-0.051430393
24	0xbcc7a647	-0.02437128
25	0xbd5d9af3	-0.05410285
26	0x3d3ad992	0.045617647
27	0xbcc4058d	-0.023928428
28	0xbbb77a0b	-0.0055992655
29	0xbd807dc1	-0.06273986
30	0x3d093384	0.033496395
31	0x3c4afaa9	0.012388864
32	0x3d3c0050	0.045898736
33	0xbd03eb68	-0.032206923
34	0x3aea5503	0.0017878119
35	0x3d44de9e	0.048063867
36	0xbbbec833	-0.0058222055
37	0x3d5d72aa	0.05406443
38	0xbc5c66c3	-0.013452235
39	0x3d44f938	0.048089236
40	0x3cae4ad9	0.021275925
41	0xbd12521d	-0.03572284
42	0xbd3e70af	-0.046494182
43	0x3c3167e0	0.010827988
44	0x3c8b6121	0.017014088
45	0x3c840f0f	0.016120462
46	0x3d5c6005	0.05380251
47	0xbd26282f	-0.040565666
48	0xbcf5073c	-0.029910676
49	0x3ce630a4	0.028099366
50	0x3d0485ad	0.032354046
51	0xbc758bec	-0.014986973
52	0x3d06db9c	0.03292428
53	0xbd854dc8	-0.06508976
54	0x3d24ea04	0.040262237
55	0x3cc620d8	0.024185583
56	0xbd340749	-0.04395226
57	0xbd48f470	-0.04906124
58	0xbd1132f4	-0.035448983
59	0xbc2031f8	-0.0097775385
60	0xbcd84aeb	-0.026402911
61	0x3c055334	0.008137513
62	0xbd6fb5cd	-0.058522988
63	0x3c004d25	0.007830893
64	0x3c1b054c	0.009461712
65	0xbc9a8e76	-0.018866759
66	0x3d2b8bd8	0.041881412
67	0xbcc52a1e	-0.024067935
68	0xbcdde05d	-0.027084524
69	0xbd0f7bbb	-0.035030108
70	0xbd8bd59c	-0.06827852
71	0xbd89fcc2	-0.06737663
72	0xbcf9d494	-0.030496873
73	0xbd730bd1	-0.05933744
74	0x3c9d4152	0.019196186
75	0xbd12d849	-0.035850797
76	0xbcac67d9	-0.021045612
77	0xbd18f3b1	-0.037341777
78	0xbb82a849	-0.0039873463
79	0xbcede3aa	-0.029039223
80	0xbcf958ec	-0.030437909
81	0xbd5b1f5b	-0.0534967
82	0x3c39747c	0.011319276
83	0xbd504e30	-0.050855815
84	0xbca5c008	-0.02023317
85	0x3cef80cb	0.029236218
86	0x3cd3e09e	0.025863942
87	0x3be0f3e7	0.006865013
88	0x3d43975c	0.04775177
89	0xbd706ec2	-0.058699377
90	0xbd742e54	-0.059614494
91	0x3d3843b2	0.044986434
92	0x3c1f746f	0.00973235
93	0xbd374c02	-0.04475022
94	0xbd6d0ace	-0.057871632
95	0xbd8b1343	-0.06790783
96	0x3d5bcd40	0.05366254
97	0xbcb2036b	-0.021730145
98	0x3d5591ca	0.05214099
99	0xbcd87a90	-0.02642563
100	0xbbe08740	-0.0068520606
101	0x3d242798	0.040076822
102	0x3ce1a6db	0.027545383
103	0x3cffd1b3	0.031227922
104	0xbda8b5e6	-0.082378194
105	0x3bdc746a	0.006727745
106	0x3d41322e	0.047166996
107	0xbca5a651	-0.020220907
108	0xbcc80ffc	-0.024421684
109	0xbcb75bb3	-0.022382593
110	0xbd49f251	-0.049303357
111	0x3c6e423c	0.014542159
112	0xbd60182a	-0.054710545
113	0xbbf310df	-0.0074177827
114	0x3d06dfbb	0.03292821
115	0xbce90059	-0.028442549
116	0x3c8cacb7	0.0171722
117	0x3d2005aa	0.0390679
118	0xbd6c4380	-0.05768156
119	0xbc8a873e	-0.016910192
120	0xbd59ee14	-0.053205565
121	0xbd31eca6	-0.043438576
122	0xbb0070e6	-0.0019598543
123	0x3cc83a7c	0.02444195
124	0x3c962ddc	0.018332414
125	0x3d26d087	0.04072621
126	0xbcce8793	-0.025211131
127	0x3d2667e5	0.040626425
128	0xbc4ab3bc	-0.012371954
129	0xbd46e7cf	-0.048560914
130	0x3d1950cb	0.037430566
131	0xbcbfd1a6	-0.023415398
132	0xbd914304	-0.0709286
133	0xbd849c61	-0.064751394
134	0xbc50a311	-0.012734191
135	0x3d47f022	0.048812993
136	0x3cdbaaee	0.026814904
137	0x3d3999ae	0.045312576
138	0xbca25223	-0.019814556
139	0xbd3f2da1	-0.046674374
140	0x3bedeaf7	0.007260676
141	0xbd823d4b	-0.06359347
142	0xbd896305	-0.067083396
143	0xbd8d6674	-0.06904307
144	0xbd92bda9	-0.07165081
145	0x3c7162dd	0.0147330435
146	0xbd93c2f5	-0.072149195
147	0xbb6c9025	-0.003609666
148	0x3d5de88e	0.05417686
149	0x3cd0479a	0.025424767
150	0xbd60fc19	-0.05492792
151	0x3c5645ac	0.0130781345
152	0x3c993f29	0.018706875
153	0xbd51ba96	-0.051203333
154	0xbc6ff112	-0.014644878
155	0xbba08569	-0.004898716
156	0xb9ac7c33	-0.00032898932
157	0xbd559ff1	-0.052154485
158	0x3cacc668	0.021090701
159	0x3d5b2c24	0.053508893
160	0xbc89849c	-0.016786866
161	0xbd9bb6b2	-0.07603206
162	0xbd8c416e	-0.06848417
163	0x3d39e4be	0.04538416
164	0x3d0ae1d9	0.03390679
165	0x3c2c3c72	0.010512458
166	0x3bddc24e	0.0067675477
167	0x3baa490a	0.005196695
168	0x3d3f8af3	0.04676337
169	0x3b6aac2d	0.0035808191
170	0xbcc887ec	-0.024478875
171	0x3cfc7a81	0.030820133
172	0x3d4ddcbc	0.050259337
173	0x3c9f3991	0.01943663
174	0xbd197782	-0.037467487
175	0xbd421aeb	-0.047388952
176	0xbd06ef2d	-0.03294294
177	0xbc9ad84f	-0.018901972
178	0x3d24a46a	0.04019586
179	0xbba6645b	-0.0050778813
180	0x3cc80c55	0.024419943
181	0xbd5391e4	-0.051652804
182	0xbd438893	-0.04773767
183	0xbc5ed9bb	-0.013601716
184	0xbd8b32c4	-0.06796792
185	0xbc1f1812	-0.009710329
186	0xbd4b8b24	-0.04969324
187	0xbd8c9683	-0.06864645
188	0xbd5f5ba5	-0.05453076
189	0xbd98019d	-0.07422183
190	0xbcc5bd22	-0.024138037
191	0xbcd197e9	-0.025585132
192	0x3d396a98	0.04526767
193	0x3c3a4486	0.011368876
194	0x3c96b4d8	0.01839678
195	0xbd295e6e	-0.04134982
196	0x3be6fe69	0.007049371
197	0x3c2b6a7b	0.010462399
198	0xbd4aa96d	-0.049477983
199	0xbd996df7	-0.07491677
200	0xbbf01100	-0.0073262453
201	0x3ced5b22	0.02897412
202	0xbd651d3a	-0.055936076
203	0xbba40c0c	-0.005006319
204	0x3cf810d6	0.030281466
205	0xbb770068	-0.003768945
206	0xbd8d63bd	-0.06903789
207	0x3cd353c6	0.025796782
208	0xbcb64293	-0.022248542
209	0xbaefb28a	-0.0018287462
210	0x3d1170f4	0.03550811
211	0xbd21a531	-0.03946418
212	0xbbf949da	-0.0076076807
213	0xbc99d82c	-0.018779837
214	0x3d31f5ea	0.043447413
215	0xbb8e7f0e	-0.004348642
216	0xbced7ce6	-0.02899022
217	0x3c16a2b2	0.009194063
218	0xba53595b	-0.0008062326
219	0xbd07f41f	-0.033191796
220	0xbd88e6fd	-0.066846825
221	0xbd2b4e60	-0.04182279
222	0xbd57d1d5	-0.052690346
223	0xbd2ed9c7	-0.042688157
224	0xbd70bf75	-0.058776338
225	0x3d43ab56	0.04777082
226	0x3d3349ff	0.04377174
227	0x3d19143e	0.03737282
228	0xbd58d69b	-0.05293904
229	0xbbf5a247	-0.0074961516
230	0xbd14531f	-0.036212083
231	0xbd364298	-0.044497102
232	0x3d04541a	0.032306768
233	0xbd397a9b	-0.04528294
234	0x3d080274	0.033205464
235	0x3c9fed85	0.019522438
236	0x3d3686a4	0.044561997
237	0x3c7d7dde	0.015471904
238	0xbbdc0db9	-0.006715503
239	0x3c546b55	0.012965043
240	0x3c1457ab	0.009054105
241	0x3d2340a7	0.03985658
242	0x3c821efe	0.015883919
243	0xbcfb0c3c	-0.030645482
244	0x3ba8771d	0.0051411525
245	0xbd811b01	-0.06303979
246	0xbb5150e0	-0.0031939074
247	0x3d1d4224	0.038393155
248	0x3bb775f3	0.0055987774
249	0xbd78285f	-0.060585376
250	0xbd1438ec	-0.036187097
251	0x3d370f72	0.044692464
252	0xbc0b0795	-0.008485694
253	0xbcd722a9	-0.026261644
254	0x3c3ce5db	0.011529411
255	0xbd0b71e5	-0.034044165

fc1.bias f4 [120]
0	0xbd13bf53	-0.036071133
1	0x3cdbb340	0.026818871
2	0xbd8f9383	-0.070105575
3	0xbc9999c4	-0.018750079
4	0x3d18ab58	0.03727278
5	0xbd2c1789	-0.042014632
6	0xbc718de9	-0.014743307
7	0xbce191a0	-0.02753526
8	0x3c1d9501	0.009618045
9	0x3cc268c3	0.023731595
10	0x3d97e34c	0.074164
11	0x3c5cd93a	0.013479525
12	0xbd85a895	-0.06526295
13	0x3c8c5510	0.017130405
14	0xbd3dafdb	-0.046310287
15	0x3d7f3a27	0.062311318
16	0x3c8e0279	0.017335163
17	0xbd8feeaa	-0.070279434
18	0x3d434fe0	0.047683597
19	0x3d54ab38	0.0519211
20	0x3d0ed358	0.03486952
21	0xbd21e5b7	-0.039525714
22	0x3dc42728	0.09577781
23	0x3d00857f	0.03137731
24	0xbd3e56bd	-0.04646944
25	0xbcfeea43	-0.031117564
26	0x3d7c8cc3	0.06165768
27	0x3c79b28c	0.015240323
28	0xbb1ff09f	-0.0024404896
29	0xbcce12ac	-0.025155388
30	0x3d6f4dcf	0.058423813
31	0xbc9adf20	-0.018905222
32	0x3d7087b6	0.058723174
33	0xbc983778	-0.018581137
34	0x3c961c69	0.018324094
35	0xbae507cc	-0.0017473637
36	0x3d501442	0.05080057
37	0x3cc5ce15	0.02414612
38	0x3cebf051	0.028801115
39	0x3d65107f	0.055923935
40	0x3c5ece99	0.013599061
41	0xbd22531a	-0.039630033
42	0x3c9368ed	0.017994368
43	0xbb5f7ef2	-0.0034102765
44	0x3d28363c	0.041067347
45	0x3d4c37e9	0.049858008
46	0x3d1fc753	0.03900845
47	0x3d9ebb62	0.07750584
48	0x3d778c17	0.060436334
49	0x3d1a3c33	0.037655067
50	0x3d1ee96f	0.03879684
51	0xbce9a5d0	-0.028521448
52	0xbc1ab52f	-0.009442612
53	0xbcbadb7f	-0.022809742
54	0x3d871e05	0.06597523
55	0xbcb9c63d	-0.022677535
56	0x3cdaa2b4	0.026688911
57	0xbd3eee95	-0.04661425
58	0xbd334a17	-0.04377183
59	0xbd045d4b	-0.032315534
60	0xbc6d5c26	-0.014487302
61	0xbd83799e	-0.06419681
62	0xbd5cd76a	-0.053916372
63	0x3c3e5f0f	0.011619343
64	0xbd03b445	-0.03215434
65	0xbd808e0a	-0.06277092
66	0x3ce5c106	0.028046142
67	0xbc9ca138	-0.019119844
68	0xbc8cbcb6	-0.017179828
69	0xbc058d1f	-0.008151322
70	0xbce38660	-0.027774036
71	0x3bf25524	0.0073954035
72	0xbd09e51c	-0.03366576
73	0x3c844a7e	0.016148802
74	0xbc81f161	-0.015862169
75	0x3d6d5084	0.057938114
76	0xbd5e4d6d	-0.054273058
77	0x3b13a743	0.0022530116
78	0x3d35bd5a	0.044370033
79	0x3c9a9c96	0.018873494
80	0xbd40775a	-0.046988823
81	0xbbccaef8	-0.006246444
82	0x3d9268bb	0.07148882
83	0x3b71b8e2	0.003688388
84	0xbc1292f1	-0.008946166
85	0x3d922760	0.071364164
86	0xbc56e492	-0.013116019
87	0xbadfb479	-0.0017067335
88	0x3cc59e2a	0.02412327
89	0xbd58d3d0	-0.052936375
90	0xbc010bc4	-0.00787634
91	0x3daca42b	0.0842975
92	0xbd401b85	-0.046901245
93	0xbc26a6ec	-0.010171633
94	0xbd61ee4a	-0.05515889
95	0xbd16eda8	-0.03684774
96	0xbd0e3358	-0.034716934
97	0xbdb1b0e2	-0.08676316
98	0xbcd32dbd	-0.025778646
99	0x3d559f5a	0.052153923
100	0x3d4e9fe0	0.050445437
101	0x3cee7186	0.029106867
102	0x3c79966e	0.015233619
103	0x3cc71b03	0.024304872
104	0xbd80212b	-0.06256326
105	0xbca8cc3d	-0.0206052
106	0xbc05116c	-0.0081218295
107	0xbd7e5d60	-0.062100768
108	0x3d433cfe	0.04766559
109	0xbd7ba17e	-0.061433308
110	0xbb502d79	-0.0031765385
111	0x3db106b2	0.08643855
112	0xbc008784	-0.007844809
113	0xbc0d85fd	-0.008637902
114	0xbd0fc26e	-0.035097532
115	0x3d66836d	0.05627768
116	0x3d54c78a	0.051948108
117	0xbd211a10	-0.039331496
118	0x3c798615	0.015229722
119	0xbd3c7949	-0.046014104

fc2.weight f4 [84, 120]
0	0xbdba780f	-0.091049306
1	0xbd8f2457	-0.06989353
2	0xbce6701d	-0.028129632
3	0xbd0c97b1	-0.03432435
4	0x3d9c2b13	0.07625403
5	0xbcc2dfb0	-0.023788303
6	0xbdb1735c	-0.08664581
7	0x3d41e4f5	0.04733749
8	0x3da72b55	0.08162562
9	0x3d0b72b0	0.03404492
10	0xbdefe695	-0.11713902
11	0xbda5b021	-0.080902345
12	0x3d2ac8c4	0.04169537
13	0xbd9c95d2	-0.076457635
14	0x3bb83d66	0.0056225536
15	0xbd489547	-0.048970487
16	0xbd9c3f59	-0.0762927
17	0x3d11abc2	0.03556419
18	0xbdbc0b77	-0.09181874
19	0x3ce8b2e6	0.028405618
20	0x3d0f22ca	0.034945287
21	0xbcde6362	-0.027146999
22	0xbd2ae914	-0.041726187
23	0x3cc1936d	0.023629868
24	0xbd3a6530	-0.045506656
25	0x3dce554a	0.10074861
26	0xbd5dbfa8	-0.054137856
27	0xbe10e6d8	-0.1415056
28	0xbd9a47b5	-0.07533208
29	0x3d86466d	0.065564014
30	0xbd8ea908	-0.06965834
31	0xbd994bf3	-0.07485189
32	0x3c4dcf63	0.012561652
33	0xbdce3621	-0.10068918
34	0x3ae94780	0.0017797798
35	0xbceee4ac	-0.029161774
36	0x3e152f72	0.1456888
37	0x3da50d3a	0.080591634
38	0xbdcc24a3	-0.099679254
39	0xbc46e822	-0.012140306
40	0x3d23aa6d	0.039957453
41	0xbdfd230d	-0.12360201
42	0x3b8a8f2e	0.004228494
43	0x3c99341c	0.018701605
44	0xbd56f6e8	-0.052481562
45	0xbd639d14	-0.055569723
46	0xbdc068a0	-0.09394956
47	0xbdc3dc62	-0.09563519
48	0x3c159842	0.009130539
49	0x3dd1b9e8	0.10240537
50	0xbcb3e461	-0.021959485
51	0xbc00418d	-0.0078281285
52	0xbd4a4062	-0.049377806
53	0xbdc7dbcd	-0.097587205
54	0xbc48e468	-0.012261488
55	0xbdb155c6	-0.08658938
56	0xbcbed600	-0.023295403
57	0xbdf91c4c	-0.121636
58	0xbd5c0b9f	-0.05372202
59	0xbcf312a5	-0.029671976
60	0xbda5ae07	-0.08089834
61	0xbc3e6e5d	-0.011622992
62	0xbdcd3eb6	-0.10021727
63	0xbd65bae0	-0.05608642
64	0x3c50c4d2	0.012742238
65	0x3ce6fefb	0.028197756
66	0xbd7991ea	-0.06093017
67	0xbd4ad492	-0.04951913
68	0xbd87c427	-0.0662921
69	0xbde3315b	-0.11093398
70	0xbd59536a	-0.053058065
71	0xbe018d28	-0.12651503
72	0x3dacbdde	0.08434652
73	0xbdfedd40	-0.12444544
74	0xbd9ecc8a	-0.077538565
75	0x3d6d2986	0.057900928
76	0x3d80d680	0.06290913
77	0xbc119c20	-0.008887321
78	0xbd09e972	-0.033669896
79	0x3d79f5e4	0.061025515
80	0x3c6513e2	0.013981791
81	0xbd519353	-0.05116589
82	0xbcba55fc	-0.022746079
83	0x3da517e6	0.08061199
84	0xbc883274	-0.01662562
85	0xbdd1772a	-0.10227807
86	0xbd5882d5	-0.052859146
87	0x3da7d06e	0.08194052
88	0xbcd7ee9a	-0.026358891
89	0xbc957b58	-0.018247291
90	0xbd588eb5	-0.05287047
91	0x3d6bd2d8	0.057574123
92	0xbdacd1be	-0.08438443
93	0x3c536dcb	0.012904595
94	0xbd231919	-0.039818857
95	0x3d95b8ba	0.073106244
96	0xbdb54b7d	-0.08852289
97	0x3b3efea5	0.002914348
98	0x3db7fe4d	0.08984051
99	0x3c59484a	0.013261864
100	0xbd59090f	-0.052987155
101	0x3db76237	0.0895428
102	0xbd3417c3	-0.043967973
103	0x3babeb72	0.005246573
104	0x3dad7f3c	0.08471534
105	0xbcd88c9a	-0.026434232
106	0xbd691c50	-0.056911767
107	0x3c856dbc	0.016287677
108	0x3c8bd43f	0.01706898
109	0x3cfe77a2	0.031062905
110	0x3d852684	0.06501487
111	0x3b95bff7	0.004570003
112	0xbd386fc0	-0.045028448
113	0x3cb3832a	0.02191313
114	0xbd9ab5fa	-0.075542405
115	0xbd7b34d2	-0.06132967
116	0x3d084439	0.033268187
117	0xbd8f7848	-0.07005364
118	0xbbd2d7b2	-0.0064344043
119	0xbd448f60	-0.047988296
120	0x3d3576f1	0.044302884
121	0xbd320bcb	-0.043468278
122	0xbd5454a0	-0.051838517
123	0xbd9deecf	-0.07711565
124	0xbd8070ee	-0.0627154
125	0x3cefc6c9	0.029269593
126	0x3d4cf976	0.050042592
127	0x3ca728db	0.020405224
128	0xbd884ca9	-0.06655247
129	0x3c97d877	0.018535836
130	0xbdcd893d	-0.10035942
131	0xbd349661	-0.044088725
132	0x3d2039e1	0.039117698
133	0x3d88acfb	0.066736184
134	0xbcc5a49d	-0.024126345
135	0xbc5cc221	-0.013474018
136	0xbde09426	-0.10965757
137	0xbd4dd678	-0.05025336
138	0xbcee1822	-0.029064242
139	0x3d3c30f1	0.04594511
140	0xbceb3ac4	-0.028714545
141	0xbda83e0f	-0.08214962
142	0x3c98ba8d	0.018643642
143	0x3daf3f41	0.085569866
144	0x3db1bebb	0.08678957
145	0x3c0818c0	0.008306682
146	0xbdeda1d7	-0.11603134
147	0xbdc4b6f5	-0.09605209
148	0x3c16f8fd	0.009214637
149	0x3cb15f13	0.02165178
150	0xbd878f00	-0.06619072
151	0x3d96bbb8	0.07360023
152	0x3d061219	0.032732103
153	0xba8dfdf4	-0.001083313
154	0xbd15fdd4	-0.036619022
155	0xbd8c0d87	-0.06838518
156	0xbce43186	-0.027855646
157	0xbd96a699	-0.07355995
158	0xbdf5e4a3	-0.120064996
159	0xbde0982e	-0.10966526
160	0xbd2df50a	-0.042470016
161	0xbd0fa430	-0.03506869
162	0x3d9597df	0.07304358
163	0xbcc72907	-0.024311556
164	0x3cd3f7b8	0.025874957
165	0xbda99df2	-0.08282079
166	0xbd01d7b4	-0.03169985
167	0xbc99283f	-0.018695949
168	0xbd309f89	-0.043120895
169	0x3ba5628c	0.005047148
170	0xbd985f8c	-0.07440099
171	0x3ca78470	0.020448893
172	0x3bf72070	0.0075417086
173	0xbd8a8dc7	-0.06765323
174	0x3daeb863	0.08531263
175	0xbdd3165b	-0.10306998
176	0xbb32e575	-0.0027297412
177	0x3cb01664	0.021495052
178	0xbba69819	-0.0050840494
179	0xbd8af317	-0.06784647
180	0xbdcc6914	-0.099809796
181	0xbc515ca9	-0.01277844
182	0xbdc2d3f8	-0.09513086
183	0x3cdfec73	0.027334427
184	0xbdb7bf85	-0.08972076
185	0x3b90ae2e	0.004415295
186	0xbcdbe99c	-0.026844792
187	0xbdd0994f	-0.10185491
188	0xbd6d85fa	-0.057989098
189	0x3d45e513	0.048314165
190	0xbde5b3ab	-0.112159096
191	0xbd886b0f	-0.06661045
192	0xbd1bd28b	-0.038042586
193	0xbd2a5ad8	-0.04159054
194	0xbd2f863c	-0.042852625
195	0xbd614d25	-0.05500521
196	0x3c098683	0.0083938865
197	0x3d9fbda4	0.07799843
198	0xbde25792	-0.11051859
199	0x3d522d32	0.051312633
200	0x3d5f42b3	0.05450697
201	0xbd78a37f	-0.060702797
202	0xbdc17e5f	-0.094479315
203	0x3d8e3f81	0.06945706
204	0xbd8708fc	-0.065935105
205	0xbd2fc183	-0.042909157
206	0xbdb17d54	-0.086664826
207	0xbcdb6847	-0.026783122
208	0xbd6e9822	-0.058250554
209	0x3d86dd53	0.06585183
210	0xbd79535d	-0.060870517
211	0x3b9f2b99	0.004857492
212	0xbdbabbe4	-0.091178685
213	0xbd0d8d60	-0.034558654
214	0x3c0940d8	0.008377276
215	0x3d930a70	0.07179725
216	0xbd1c7734	-0.03819962
217	0xbd1651f6	-0.036699258
218	0x3c8f2e81	0.01747823
219	0xbddf152f	-0.10892712
220	0xbd9c9734	-0.07646027
221	0xbc4fac22	-0.012675317
222	0xbac977d3	-0.0015370793
223	0xbdd0098e	-0.101580724
224	0xbd2c1e8e	-0.042021327
225	0xbd94e82a	-0.07270844
226	0xbd192cc5	-0.03739621
227	0xbd3da311	-0.04629809
228	0x3d8a2b2a	0.06746514
229	0xbd5f9083	-0.054581176
230	0xbd73131d	-0.0593444
231	0xbce3ecc9	-0.027822869
232	0x3b84bebd	0.004051058
233	0x3c81b1bc	0.01583182
234	0xbd96e112	-0.073671475
235	0x3c8cc830	0.0171853
236	0xbd0122f7	-0.031527486
237	0xbd62533b	-0.055255156
238	0xbd97eda7	-0.074183755
239	0xbda163a4	-0.07880333
240	0xbd07ff52	-0.033202477
241	0x3d21cbda	0.03950105
242	0x3ca04eb0	0.019568771
243	0xbc4af423	-0.012387308
244	0x3d403b7f	0.04693174
245	0xbcf80f2c	-0.030280672
246	0xbdb15de0	-0.08660483
247	0xbc87677b	-0.016528836
248	0x3c1b194d	0.009466481
249	0xbad4ca47	-0.00162346
250	0x3dc5f185	0.09665207
251	0x3e2a4df0	0.16631293
252	0xbc9def5b	-0.019279173
253	0xbd62c915	-0.055367548
254	0xbdefc46d	-0.11707387
255	0x3d254590	0.040349543

fc2.bias f4 [84]
0	0xbe09ffc2	-0.1347647
1	0xbdcd7767	-0.1003254
2	0xbc2fc25a	-0.010727489
3	0x3c3e8e42	0.011630597
4	0x3da07cf1	0.07836331
5	0x3d9ced83	0.07662489
6	0xbd722905	-0.05912115
7	0x3d8adbf4	0.06780234
8	0xbd6ff1b7	-0.058580127
9	0x3dc63a35	0.09679071
10	0xbde7e4f7	-0.113229685
11	0x3d30070c	0.04297547
12	0xbd73fde0	-0.059568286
13	0xbdab68c5	-0.083695926
14	0x3ce6a741	0.028155925
15	0xbb821f2e	-0.003971002
16	0x3ccafdf1	0.024779292
17	0x3d9b7ef4	0.07592574
18	0xbd9037b1	-0.07041872
19	0xbd7c0647	-0.061529424
20	0x3d2c01f7	0.04199406
21	0x3de7d4f7	0.11319917
22	0xbd9c2e95	-0.07626072
23	0xbd6a702d	-0.057235885
24	0x3d024da5	0.03181233
25	0x3dd0cfc6	0.1019588
26	0x3dd18268	0.10229951
27	0xbde1cffe	-0.110259995
28	0x3d766c18	0.06016168
29	0xbdb70eb2	-0.0893835
30	0x3d4e01b0	0.050294578
31	0xbcd621db	-0.02613919
32	0xbd1abfe9	-0.037780676
33	0x3d5b40a3	0.05352844
34	0xbcf5ecaf	-0.030020086
35	0x3d07d315	0.033160288
36	0x3d0e89be	0.03479933
37	0xbd236dcd	-0.039899636
38	0x3d52a430	0.051426113
39	0x3db75b29	0.08952934
40	0x3d6a3299	0.05717716
41	0xbd1f05fc	-0.038824067
42	0x3d80a182	0.06280805
43	0xbba83b71	-0.005134039
44	0x3d468d91	0.048474852
45	0x3c75d527	0.015004433
46	0x3cf3647f	0.029711006
47	0xbc756e05	-0.014979844
48	0x3df5760d	0.11985407
49	0x3dd792d1	0.1052605
50	0x3dc9a71c	0.09846327
51	0xbbf80e96	-0.007570098
52	0x3d9d3048	0.076752245
53	0x3cafa95d	0.021443063
54	0x3ceb8a5b	0.028752496
55	0x3d821d15	0.06353203
56	0xbdbff825	-0.09373502
57	0xbdc8849e	-0.0979092
58	0x3d890624	0.06690624
59	0x3c587d4b	0.013213466
60	0x3d791a22	0.060815938
61	0xbdfdbc02	-0.12389375
62	0xbc608d9c	-0.013705637
63	0x3d1e58f8	0.038659066
64	0x3d8bd105	0.06826977
65	0x3d21441e	0.039371602
66	0xbc1fe141	-0.009758295
67	0x3dbcf717	0.09226816
68	0x3cf2b5e5	0.02962775
69	0xbcdd428a	-0.027009267
70	0xbd08a996	-0.033364855
71	0xbd8345ae	-0.06409775
72	0xbd9c338c	-0.07627019
73	0xbcb8e8a5	-0.022571871
74	0x3d415abd	0.047205675
75	0x3c4344fb	0.011918302
76	0x3dbdeee1	0.09274078
77	0x3b6adffd	0.0035839074
78	0x3d9e77cc	0.07737693
79	0xbcc067a8	-0.023486927
80	0xbd6f9526	-0.05849185
81	0x3d84acaa	0.064782456
82	0xbd267852	-0.04064209
83	0x3c9c4f7d	0.019080872

fc3.weight f4 [10, 84]
0	0xbd50fa99	-0.05102024
1	0xbe083dba	-0.13304797
2	0x3d82d4f6	0.06388275
3	0x3d352459	0.044224117
4	0x3e4422ef	0.19153951
5	0xbd13a1b8	-0.0360429
6	0xbdead030	-0.1146549
7	0x3cadba8b	0.021207115
8	0xbdf54401	-0.11975861
9	0x3dd4b34f	0.10385763
10	0xbd47141c	-0.048603162
11	0xbe2cb25e	-0.16864917
12	0x3e0610e8	0.13092387
13	0xbb2fe3d3	-0.0026838675
14	0xbe6ac7ff	-0.22927855
15	0x3d08456b	0.033269327
16	0x3d018a02	0.031625755
17	0xbd140d4d	-0.036145497
18	0xbc555fcb	-0.013023327
19	0x3dd5e5c4	0.10444215
20	0x3cc05206	0.023476612
21	0x3e04a28b	0.1295263
22	0xbe35e293	-0.17762212
23	0x3d2a7ceb	0.041623037
24	0xbd1cb2fd	-0.038256634
25	0x3a912bd2	0.0011075682
26	0xbe182865	-0.1485916
27	0xbcfb77cd	-0.030696774
28	0xbe02857f	-0.12746237
29	0xbd6cdd73	-0.057828378
30	0xbdea6b9b	-0.11446305
31	0xbe2cc9f4	-0.16873914
32	0xbe376088	-0.17907917
33	0xbddfa46b	-0.10920032
34	0xbd6528ec	-0.05594723
35	0x3e2a68ca	0.16641536
36	0x3dd1b03a	0.10238691
37	0xbddc533f	-0.107580654
38	0x3ded3ee4	0.11584261
39	0xbdbf6753	-0.093458794
40	0xbdb90f3f	-0.09036111
41	0x3de3413b	0.11096426
42	0xbd9c9421	-0.07645441
43	0xbe0eef2b	-0.13958423
44	0x3d5d24bb	0.053990107
45	0x3db57469	0.08860094
46	0x3d779c26	0.06045165
47	0x3dbc04e2	0.09180619
48	0x3da27b0e	0.07933627
49	0x3d8daed5	0.06918112
50	0xbd652085	-0.055939216
51	0x3d97b755	0.07408015
52	0x3dc7f19a	0.09762879
53	0xbe35dfbc	-0.17761129
54	0x3be0afcf	0.0068568955
55	0xbdd02f0a	-0.10165222
56	0xbe1bcfc5	-0.15215977
57	0x3cd0280b	0.025409719
58	0x3dbd2ba6	0.09236841
59	0x3dcce371	0.100043185
60	0xbe454af8	-0.1926688
61	0xbd57b1ca	-0.052659787
62	0x3e0cd639	0.13753594
63	0xbe8bc131	-0.2729583
64	0x3ddd7e6c	0.10815129
65	0x3c505ddf	0.012717693
66	0xbd088868	-0.033333212
67	0xbda350b0	-0.07974374
68	0xbda7af32	-0.08187713
69	0x3d0f0b13	0.03492267
70	0x3d662ded	0.056196142
71	0xbd88ba20	-0.066761255
72	0xbda493de	-0.08036016
73	0x3e265212	0.16242245
74	0xbd8e86b3	-0.069592856
75	0xbdcefac2	-0.10106422
76	0xbdc105c1	-0.094249256
77	0xbe3c7933	-0.18405609
78	0x3d6a84d8	0.057255596
79	0x3ca1b8f6	0.019741517
80	0x3deb9fb0	0.11505067
81	0xbe71c8ef	-0.23611806
82	0xbd969f9b	-0.07354661
83	0xbe24ff39	-0.16112985
84	0x3af194aa	0.0018431146
85	0x3cd34def	0.025793998
86	0x3dad49b3	0.08461323
87	0xbdb87054	-0.090058
88	0x3e3ca96f	0.18424009
89	0x3e574be8	0.2102505
90	0xbdd80723	-0.10548236
91	0xbe0e5d0b	-0.1390268
92	0xbdaf92d0	-0.08572924
93	0xbcc3ae43	-0.023886805
94	0xbdd8f27e	-0.10593127
95	0x3cf6aaa3	0.030110663
96	0x3e7c5819	0.24642982
97	0xbd413979	-0.04717395
98	0x3988917d	0.0002604834
99	0xbd8171cf	-0.063205354
100	0xbdd463b8	-0.10370582
101	0xbd880352	-0.06641258
102	0x3d0dfbe9	0.03466407
103	0x3dc4ce86	0.09609704
104	0xbe002c74	-0.12516958
105	0xbe34418b	-0.17603128
106	0x3b60a800	0.0034279823
107	0xbda7324e	-0.08163892
108	0x3dc46edf	0.095914595
109	0x3cd4195b	0.025890997
110	0x3e2004cb	0.15626828
111	0xba13bdc0	-0.000563588
112	0x3d20e1cd	0.03927784
113	0xbde870f5	-0.1134967
114	0x3d12abc6	0.035808347
115	0xbe16b8ec	-0.1471898
116	0xbdc5f3f7	-0.09665673
117	0xbc3f0ad9	-0.011660301
118	0x3ddd077e	0.10792445
119	0xbc49db45	-0.012320344
120	0xbe3c44cb	-0.18385617
121	0xbd82c7bd	-0.06385753
122	0x3d7669f8	0.060159653
123	0xbc4506ae	-0.012025518
124	0xbd8f7677	-0.07005017
125	0xbd354584	-0.04425575
126	0xbca37da8	-0.019957379
127	0x3dc69e6f	0.096981876
128	0x3bdbc1f7	0.006706472
129	0xbdd849fe	-0.10560988
130	0xbe595e02	-0.21227267
131	0x3d81ad36	0.063318655
132	0xbe19f929	-0.15036453
133	0xbdfd49db	-0.123676024
134	0x3cecb4c3	0.028894788
135	0x3e68ac93	0.22722082
136	0x3c83753e	0.016047116
137	0x3e197fd6	0.14990172
138	0xbd477227	-0.04869285
139	0x3d473936	0.048638545
140	0x3e04c2c7	0.12964927
141	0xbdb0d8ba	-0.08635087
142	0xbdd51572	-0.10404481
143	0xbe2c2e35	-0.16814502
144	0x3dd7c23c	0.10535094
145	0xbd860ba8	-0.06545192
146	0xbd93c66c	-0.0721558
147	0x3d1f0555	0.038823444
148	0xbd97f53c	-0.074198216
149	0xbda20986	-0.07911973
150	0x3deafb61	0.11473728
151	0xbdb3100c	-0.08743295
152	0xbd918625	-0.07105664
153	0xbcba2fab	-0.022727808
154	0xbdca4b22	-0.09877612
155	0xbc8f2744	-0.017474778
156	0xbd195223	-0.037431847
157	0xbd684959	-0.056710575
158	0xbe40a8ac	-0.18814343
159	0xbbc7e66f	-0.006100468
160	0x3d0c136d	0.034198213
161	0xbe203786	-0.1564618
162	0x3d340e1d	0.043958772
163	0x3d142cf2	0.036175676
164	0xbd2fd4e9	-0.042927656
165	0xbd78ff54	-0.060790375
166	0xbd76c2bb	-0.060244303
167	0x3e18f8de	0.14938685
168	0x3d9b01c7	0.075686984
169	0xbd69048f	-0.056889113
170	0x3e1188db	0.14212362
171	0x3d1bba0d	0.03801923
172	0x3da8e061	0.08245922
173	0xbd87c10b	-0.06628617
174	0xbca95e01	-0.020674707
175	0x3e14e557	0.14540611
176	0xbe2aabd2	-0.16667107
177	0x3c185d00	0.009299517
178	0xbd8498c5	-0.06474451
179	0xbaa80451	-0.0012818669
180	0xbe93b993	-0.2885252
181	0xbc991261	-0.018685522
182	0x3e193974	0.14963323
183	0xbc2362a8	-0.009972252
184	0x3de4aa49	0.11165292
185	0x3d27d3b8	0.040973395
186	0x3d939e4a	0.072079256
187	0xbce91e6d	-0.028456891
188	0x3d6e9c51	0.058254544
189	0xbeb5a752	-0.35479218
190	0x3d98ec49	0.07466943
191	0x3dc6feaf	0.09716546
192	0xbd07c24d	-0.033144284
193	0x3d2c7bf4	0.0421104
194	0xbe7a4575	-0.24440558
195	0xbd5d93be	-0.054095976
196	0xbdeab36e	-0.11460005
197	0x3d63a00e	0.055572562
198	0x3d110ba8	0.035411507
199	0x3d2ec35f	0.04266679
200	0x3e520a3f	0.20511721
201	0xbdf20fcd	-0.1181942
202	0x3e1c78ce	0.15280458
203	0x3dda3c6d	0.106560566
204	0xbd2e8f44	-0.042617097
205	0x3d8f8576	0.070078775
206	0xbe10acdd	-0.14128442
207	0x3dab0e09	0.08352286
208	0x3da0f781	0.078597076
209	0x3e32f276	0.17475304
210	0x3addf0d6	0.0016932737
211	0xbc55ae18	-0.0130419955
212	0xbdc14666	-0.094372556
213	0xbe02c06f	-0.1276872
214	0x3cd6bebf	0.026214002
215	0xbcd432c5	-0.025903115
216	0xbe82cd70	-0.2554736
217	0xbc095f12	-0.008384483
218	0xbe5475a5	-0.20748003
219	0xbe6eaf69	-0.23309101
220	0x3e5794a0	0.2105279
221	0xbd806cb6	-0.06270735
222	0x3d50ef7f	0.05100965
223	0x3e07faa2	0.13279203
224	0x3af4f539	0.0018688805
225	0xbcdcd5fd	-0.026957506
226	0xbdc97c71	-0.098381884
227	0x3e27152f	0.16316675
228	0x385f75be	5.3277e-05
229	0x3c0592ac	0.008152645
230	0xbe3475bb	-0.17623036
231	0xbd26909f	-0.040665265
232	0x3df3586b	0.11882099
233	0x3d7d8339	0.06189272
234	0xbd6907de	-0.05689227
235	0xbe037a46	-0.12839612
236	0x3ce0eb7e	0.027456041
237	0xbe1d52ce	-0.15363619
238	0xbbf21436	-0.0073876632
239	0xbd257d10	-0.040402472
240	0xbc84304c	-0.016136311
241	0x3dee0ea7	0.116238885
242	0xbc604fa8	-0.0136908665
243	0x3b597741	0.0033182653
244	0xbe1dded3	-0.15417032
245	0x3ce168b6	0.02751575
246	0xbce2f32b	-0.027703842
247	0x3da5e97d	0.08101175
248	0xbbdbe6ce	-0.0067108637
249	0xbe471802	-0.19442752
250	0x3d97d5ab	0.07413801
251	0x3dd38b11	0.10329259
252	0xbd0c6c2f	-0.03428286
253	0xbdd18a15	-0.10231415
254	0x3d968379	0.07349295
255	0x3c199fc9	0.009376475

fc3.bias f4 [10]
0	0xbdf0c39e	-0.11756061
1	0x3da7a968	0.081866086
2	0x3c8e8d25	0.017401287
3	0xbdb5921f	-0.08865761
4	0xbd2df117	-0.04246625
5	0xba06e557	-0.00051458686
6	0xbdd2cea3	-0.10293319
7	0xbce5fe4e	-0.028075363
8	0xbcfdb26f	-0.030968873
9	0x3d93d812	0.072189465
