lab2-models/hip-7-model.pth (torch, 181175 bytes, 10 tensors)

conv_block1.0.weight f4 [6, 1, 5, 5]
000000 bc ca a2 bd 4f d0 c1 3d fb 3f 54 3e 4a 09 05 be
       -0.07948825 0.0946356 0.20727532 -0.12991825
000010 11 3a 3d be cd 44 62 bd 80 43 59 3e 91 d7 88 3e
       -0.18479182 -0.055241395 0.21217155 0.26726964
000020 b8 4d 12 be 70 13 4f be d9 c0 13 be 48 0b ce 3e
       -0.1428746 -0.20222259 -0.14429034 0.40242982
000030 5e 1d 57 3c 65 6f 5f be 32 e8 d6 bd 48 a9 53 3d
       0.01312956 -0.21819837 -0.104935065 0.05167511
000040 e6 10 1f 3e dc 80 58 3e 79 d4 62 bb 58 d6 d7 bd
       0.1553379 0.21142906 -0.0034611507 -0.1053893
000050 95 ff bb 3d 36 74 b4 3d d6 b5 ed 3d 73 82 a0 bd
       0.09179608 0.08811228 0.11606948 -0.07837381
000060 d1 67 87 3d 3d 02 8d bd 49 52 30 be 41 6a 60 be
       0.06611598 -0.068851925 -0.1721889 -0.21915533
000070 99 48 88 be 09 17 b6 3d 89 fa 23 be bd 44 74 be
       -0.26617888 0.08891112 -0.1601354 -0.23854347
000080 49 b9 9c be ec 90 30 bd 81 56 cd 3e 8c 51 c8 bd
       -0.3061011 -0.04310696 0.4010506 -0.09781179
000090 e2 8c 98 be ff 07 1d 3e 81 65 ee 3e 60 57 a8 3d
       -0.29794985 0.15335082 0.46561816 0.082197905
0000a0 59 83 3b be f2 1c fd 3d ba 95 bf 3e 91 23 8f 3e
       -0.18311824 0.123590365 0.3741892 0.27956823
0000b0 be d3 87 bd 06 3f ae 3d 29 f9 56 3e 34 88 13 bd
       -0.066321835 0.085081145 0.20993485 -0.036018565
0000c0 7e c9 9b bd d5 7b 95 3a b5 72 f3 bd ea 11 54 be
       -0.07606791 0.0011404703 -0.11887113 -0.20709959
0000d0 b3 f7 3b 3e 1d fe 86 3d 5f a2 d0 bd 11 71 17 bd
       0.18356209 0.06591437 -0.1018722 -0.036973063
0000e0 b7 37 3d be 77 4a 9f 3d 4d a3 ba 3d 29 49 0a 3e
       -0.18478285 0.07777875 0.091131784 0.13504471
0000f0 81 10 7e be e2 32 65 bc e3 91 1c 3d e7 f4 14 3d
       -0.24810983 -0.013989182 0.038225066 0.03636637
000100 d2 09 04 3e fe 15 3e be 34 e6 98 3d 49 a8 70 3d
       0.12894371 -0.18563077 0.07465783 0.05875424
000110 71 a8 a9 bd 9c 81 84 3e 88 b0 66 be 9f a2 fc 3d
       -0.08284081 0.25880134 -0.22528279 0.12335705
000120 37 4b 72 bd 41 9f bb 3d 87 bf 81 3e 68 34 1b bc
       -0.05915376 0.09161235 0.25341436 -0.009472944
000130 8e 3c 1e bd b1 e8 4b be 15 20 e0 bd 66 90 f8 bd
       -0.03863197 -0.19912983 -0.10943619 -0.12136917
000140 e2 87 33 3e b4 b2 2f 3e cd 43 84 be 35 2f ad be
       0.17532304 0.17158014 -0.25832978 -0.3382508
000150 bf 28 b1 be 9c e2 07 3d 8f cf cf 3e 5b f2 e7 3e
       -0.346014 0.033175096 0.40588042 0.4530209
000160 50 2a d4 3e 62 f4 bb 3d ca 45 78 be 54 22 7b 3e
       0.41438532 0.09177472 -0.24245372 0.24524814
000170 85 90 b9 3e 06 cf 78 3e c5 62 82 3e 1a b1 06 be
       0.36243072 0.24297723 0.2546598 -0.13153496
000180 e1 01 da be 56 18 9a be c6 97 34 bd ad b8 9b bc
       -0.42579558 -0.30096692 -0.044090055 -0.019008959
000190 aa 12 50 3e fd e8 42 3e 06 d9 34 3d 5d 90 1e 3e
       0.2031962 0.1903419 0.044152282 0.15484758
0001a0 55 64 8c 3d e3 53 40 3c 4e 03 40 3e dd 6a d4 3e
       0.06855074 0.01173875 0.1875126 0.4148778
0001b0 fd 22 d3 bd cf 2c 6b be b8 32 a2 bd 6e 5b d3 3d
       -0.10309408 -0.22966312 -0.0791983 0.10320173
0001c0 3d ba a1 3e 16 c2 5d be cd 40 5f bd cb d2 9a be
       0.315874 -0.21656069 -0.05450516 -0.30238947
0001d0 1f 68 fb bd be 6b c4 3e 73 c1 36 3e 2e fa e9 bd
       -0.12275719 0.3836345 0.17847233 -0.11424671
0001e0 f0 b1 68 be 4e 11 49 bb f2 7d a6 3e 7d 1e b1 3e
       -0.22724128 -0.003068048 0.32517964 0.34593573
0001f0 27 61 37 3e 11 85 5c 3e 9b 51 8a 3e e0 14 68 be
       0.17908154 0.21535136 0.27015385 -0.22664213
000200 da 37 bc bb eb 5f 3a be 93 bb 0b 3e 1c 91 63 3e
       -0.0057439627 -0.18200652 0.13645773 0.22223324
000210 15 ec 07 be a8 19 5b be f6 f3 bf bd cc ee 98 3e
       -0.13273652 -0.21396506 -0.09372704 0.29869688
000220 64 f7 95 3e bf ce 8d 3d 1c 4e e5 bd 4d 45 53 be
       0.29290307 0.06924199 -0.11196539 -0.20631905
000230 92 54 76 3b ad 4a 53 3e e2 db 8b 3c 10 4e 96 bd
       0.003758703 0.20633955 0.017072622 -0.07339108
000240 61 61 d7 3d ff 0a 5e 3e 1a 4d 18 ba 6d e6 09 3e
       0.105166204 0.21683882 -0.0005809829 0.13466807
000250 08 96 55 be 99 7e eb bd
       -0.20858014 -0.11498756

conv_block1.0.bias f4 [6]
000000 52 21 18 3e e1 0a 6d 3d ec 31 78 3c 26 f6 09 bd
       0.1485646 0.057871703 0.015148621 -0.03368201
000010 a2 8a 33 bd 36 d7 2e be
       -0.043833382 -0.17074284

conv_block2.0.weight f4 [16, 6, 5, 5]
000000 ca 26 8c bd e7 70 70 be 23 ca 51 be b7 c9 0a 3c
       -0.06843336 -0.23480569 -0.20487265 0.008470944
000010 f0 80 4c 3c db ca 2e 3d 27 73 31 bd bb 92 02 be
       0.012481913 0.042673927 -0.04332271 -0.12751286
000020 4b 7a 01 be 15 96 f3 bd 4f c1 a1 3c ff a5 0f 3e
       -0.12644307 -0.1189386 0.019745497 0.14028166
000030 45 67 d4 3b 92 9d 50 be 9c 2d 88 be e4 e9 16 3e
       0.0064820372 -0.20372608 -0.26597297 0.1473766
000040 78 4c 1c 3e d3 3a 14 3e 5c 51 35 be 74 f7 29 bd
       0.15263546 0.14475565 -0.17706817 -0.041495755
000050 78 5b ac bc e1 e8 f8 3d 39 d5 ff 3d 6c 26 fb bd
       -0.02103971 0.12153793 0.12491841 -0.12263188
000060 84 7d 00 3d af 0d 53 3d 4b 60 18 3c 01 ca d4 3d
       0.0313697 0.05152672 0.009300302 0.10390092
000070 c0 05 8e 3d d5 ba 9a 3d 3c fd 8f bd a2 ed 72 3d
       0.069346905 0.07555167 -0.070307225 0.059308656
000080 df 82 e8 bd 34 66 a7 bd 48 e7 6e 3d dd b5 54 bd
       -0.11353087 -0.081737906 0.058326036 -0.05193125
000090 f0 36 ca bc 5d 57 a0 bd 11 42 d8 bd 0f 21 b2 bd
       -0.0246844 -0.07829163 -0.10559476 -0.08697712
0000a0 62 a6 1d 3e 7a 44 0e 3e 6c f2 24 be cc fa ac bd
       0.15395501 0.13893309 -0.16108102 -0.08446273
0000b0 f8 8c cc bc 00 c4 b3 3d c5 cc 45 3d 5b 9a 04 be
       -0.024969563 0.087776184 0.048290987 -0.12949507
0000c0 6f 86 f1 bd 1c 27 f7 bd 4b ef 9b 3d 32 20 c2 3d
       -0.11793219 -0.120680064 0.07614001 0.09478797
0000d0 e0 f1 20 3d ab ee c3 bd f6 49 d2 bd 70 9b 30 3e
       0.03929317 -0.09567007 -0.10268013 0.17246795
0000e0 39 82 64 3c c8 63 37 be b9 e0 fb bd 64 48 f0 bd
       0.013947063 -0.17909157 -0.12298722 -0.117325574
0000f0 0b 3b d3 3d 38 86 27 3e d2 9b e9 3d 8a 17 10 be
       0.10313996 0.16359794 0.114066735 -0.1407148
000100 cc 2a fe bd 87 32 0e 3e d4 0e 85 3e 56 9b 60 3d
       -0.124105066 0.13886462 0.25987875 0.05483564
000110 f8 89 f0 bd f3 a6 16 be cf e6 8d 3d 94 21 21 3e
       -0.117450655 -0.14712124 0.06928789 0.15735465
000120 a8 06 b2 bd 82 78 5c bd 64 1d 7e bc e9 c8 1a 3e
       -0.08692676 -0.053825863 -0.015509937 0.15115704
000130 9f dc ba 3d 78 77 c9 3d c6 8a 1b 3e af ea c9 3d
       0.091241114 0.0983724 0.15189657 0.098592155
000140 ac 39 82 3d 63 28 8a bd a6 1a 23 be 3e d0 07 3d
       0.06358656 -0.067459844 -0.15928134 0.03315758
000150 9e f6 99 3d ad fd 81 bd f5 76 25 3d f2 27 8a be
       0.075177416 -0.06347213 0.04039665 -0.269836
000160 39 1c a0 bd a1 a7 0f 3d 3a e1 84 be d3 52 f5 3b
       -0.07817883 0.035071973 -0.25953084 0.00748668
000170 e3 5f cd 3c 9a 6e 8a bd 39 92 75 3d b4 1f cd bd
       0.025070136 -0.06759377 0.059953902 -0.100158125
000180 99 f3 fd bd 88 ed 78 bd 2f a9 38 bd da ea b7 bd
       -0.12399978 -0.060773402 -0.04508322 -0.08980341
000190 69 2e f0 3c 82 29 6e be 98 ba 26 be 73 86 89 bd
       0.029319005 -0.23258021 -0.16282117 -0.06715097
0001a0 53 e0 5d bd 0d 32 c9 3d 0d fc 82 3e 0b 54 93 3d
       -0.05416901 0.098239996 0.25582924 0.07193764
0001b0 91 75 a5 be b6 82 ff bd e8 54 18 bd e9 c1 35 3e
       -0.3231626 -0.12476103 -0.037190348 0.17749752
0001c0 83 a7 91 bc 3e 5e 2f b9 8b c2 09 3b 8e 9a 61 bd
       -0.017780071 -0.00016724408 0.0021020498 -0.055079035
0001d0 b1 95 ab 3d db 8d 7b 3d 7a 5c 3f 3d a8 53 37 bc
       0.08378161 0.06141458 0.046719052 -0.011189379
0001e0 f1 9b 91 be 54 83 60 bd f6 c4 1c bc d7 dd 2b 3c
       -0.28439286 -0.054812744 -0.0095684435 0.010489902
0001f0 df 10 6d 3c 5b d4 9f bc a2 55 f6 bd dd 5a 2c be
       0.014469354 -0.019510439 -0.12028052 -0.16831537
000200 0f 57 81 bd 65 76 08 bd 28 aa e3 bc ab aa c1 bc
       -0.06315433 -0.033316035 -0.027791098 -0.023640951
000210 c3 5f 47 be 8b 93 f0 bd b4 ed 17 be f2 88 b0 3d
       -0.19470124 -0.117468916 -0.1483677 0.0861987
000220 03 9b c3 3d 99 17 8d 3d aa 80 af bd d3 f7 fb bd
       0.095510505 0.068892665 -0.085694626 -0.12303128
000230 a0 57 42 3d ce 39 72 3e a4 2e 2d 3e 13 de 84 bd
       0.047446847 0.23654863 0.16912323 -0.0648767
000240 34 46 de bd 55 35 b4 3d b6 45 7f 3d 60 95 21 3c
       -0.10853234 0.08799235 0.06232234 0.009862274
000250 8b 19 a9 3c 67 f1 e0 3c 67 59 37 bd ed a2 d6 bb
       0.020642063 0.02745886 -0.044762995 -0.006550184
000260 17 4a 03 3e bd 9a 06 3d 73 45 64 bc a6 27 28 3d
       0.12821232 0.032862414 -0.013932574 0.041053437
000270 4e df 29 bc 3b 99 ec 3c ab b9 f7 bc 15 03 74 bc
       -0.010368181 0.02888166 -0.0302399 -0.014893313
000280 dd 82 44 3d 90 a1 90 bc f0 a3 d4 3c d8 3d fb 3b
       0.047976363 -0.017655164 0.025957078 0.0076672845
000290 48 2b 84 3c 89 09 fa 3d 56 cf 85 3a fc 31 3b 3d
       0.01613392 0.1220885 0.0010208886 0.045701966
0002a0 5d e8 58 bc 68 04 e5 3b 69 5c fd bd 57 91 c0 3c
       -0.0132389935 0.0069890507 -0.123711415 0.023506803
0002b0 cf 5f dc bd 18 c6 ba bd eb 60 75 bd 6c 5d a4 3a
       -0.107604615 -0.09119815 -0.05990688 0.0012540049
0002c0 72 19 65 bd 3e 18 db bc ed ce b0 bd 23 9c 0d bd
       -0.05593247 -0.026744958 -0.08633218 -0.03457273
0002d0 56 e5 21 bc 8c b8 e2 bd 49 2c 0e 3d a6 de cd bd
       -0.009881338 -0.11070356 0.034710202 -0.100522324
0002e0 3e 2d 5f bd 00 e0 c9 3d 95 b9 99 3d 5c bc 09 3e
       -0.054486506 0.09857178 0.075061 0.1345076
0002f0 f1 c6 ec 3d 1b 27 0e 3d ae 16 a9 3d b9 92 80 3d
       0.115613826 0.034705263 0.08256279 0.06277985
000300 ef c3 89 3d 82 1b 00 3e 14 41 da 3d 48 5b f4 bc
       0.067268245 0.12510493 0.10656944 -0.029828683
000310 4b 4a 40 be cb 41 8a bd 83 38 2a be b2 e6 a2 be
       -0.1877834 -0.0675083 -0.1662312 -0.31816632
000320 46 91 65 bd 15 ca 6e bd 09 b7 90 bd 64 5b d1 bc
       -0.056046747 -0.05829819 -0.07066161 -0.025556274
000330 2e 19 05 be 44 9c 5d 3c a9 af 81 3d 28 94 bc bc
       -0.12997887 0.013526026 0.06332333 -0.023019865
000340 03 ca 37 3d 86 73 c9 bd 00 4d 19 3d 2b 49 65 bb
       0.044870388 -0.098364875 0.03742695 -0.0034986238
000350 cc 69 c3 3d 6d ff 64 3d b7 4d d6 bc cc bc 58 bc
       0.095416635 0.055907656 -0.026160104 -0.013228606
000360 74 cd 10 3e 5f 44 1c 3e b7 35 c9 bd 3f a3 4a be
       0.14140874 0.15260457 -0.098246984 -0.19788836
000370 b8 89 a4 3c 31 58 66 3d c8 68 23 be c0 83 07 be
       0.0200852 0.05623645 -0.1595794 -0.13233852
000380 ea bc 31 be fc c0 3f 3c c4 1f ce bd ac a0 5b bb
       -0.17357221 0.011703726 -0.100646526 -0.0033512516
000390 4c 57 8d bd c2 b8 1e 3d 15 5a aa bd d1 dd 82 bd
       -0.06901416 0.038750418 -0.08317963 -0.06389964
0003a0 33 3a 5b be c6 51 5b bd c5 1e a3 3d 9a f9 a5 bd
       -0.2140892 -0.053544782 0.07964853 -0.08104248
0003b0 9a d0 16 bd a0 99 df bd 60 e8 36 3d ef 88 77 3e
       -0.03682003 -0.109179735 0.044655204 0.2417333
0003c0 ba fe 57 3d 71 2e 2e 3e 21 a2 7e 3e 1c c0 86 3e
       0.05273316 0.17009903 0.24866535 0.26318443
0003d0 84 1a c5 3d 14 e5 bf bd 75 6f cd 3d 60 4d 55 3e
       0.09624198 -0.09369865 0.10031024 0.20830297
0003e0 da 28 d8 3d f1 41 ac 3d c3 73 2a bd 6d aa 12 be
       0.10554667 0.08411015 -0.041614305 -0.14322825
0003f0 e9 e4 9d bd 3f 80 1d bc c5 6d 0c bd 4e 99 d0 bd
       -0.07709677 -0.009613096 -0.034284372 -0.101854905

conv_block2.0.bias f4 [16]
000000 88 09 31 bd f8 8f 6a bd 34 9e cb 3d bf 46 3d bd
       -0.04322198 -0.057266206 0.09942284 -0.046210047
000010 dd 96 e8 bd ea 09 b5 bc 88 78 36 be 45 a7 ce bd
       -0.113569 -0.022099454 -0.17819417 -0.10090498
000020 d7 d7 41 be 34 32 26 be 27 4c ec bd 43 99 89 bd
       -0.18929993 -0.16230088 -0.115379624 -0.067186855
000030 20 d4 80 bd 96 cb bc 3d 91 78 df bb 94 00 4a bb
       -0.0629046 0.092185184 -0.0068197926 -0.0030823098

fc1.weight f4 [120, 256]
000000 96 98 a0 bc 60 84 28 be 3d 77 0e bd f9 d8 dd bb
       -0.019604009 -0.16456747 -0.034781683 -0.00677025
000010 a4 5c ab 3d 66 19 ee 3c 85 70 c1 3d 51 2a 87 3d
       0.08367279 0.029064845 0.094452895 0.06599868
000020 aa 2e f1 3d f1 37 8d bd f6 b0 e0 bb 00 0e 90 3d
       0.117764786 -0.068954356 -0.006857033 0.0703392
000030 b8 f9 a5 bd ef 90 14 be 16 8b ef bd 0b 06 62 bd
       -0.08104271 -0.14508413 -0.116964504 -0.055181544
000040 83 40 d0 3d c9 05 84 3c 97 d1 cb 3d eb fa e6 bc
       0.10168555 0.01611604 0.099520855 -0.028195819
000050 02 3e 00 bd f7 79 18 3b 1c c1 0e be f7 bc b3 bd
       -0.031309135 0.0023266056 -0.13940853 -0.087762766
000060 e3 a7 42 bd 61 01 e3 bc 7e be d7 bd ce e3 3c be
       -0.04752339 -0.027710618 -0.105343804 -0.18446276
000070 27 41 f5 bc 34 63 0d bb 58 3c 34 3d ee fc a8 bd
       -0.029938294 -0.0021574022 0.04400286 -0.082513675
000080 5f de a1 3c cb 69 07 be 8f 0c 36 be 7d 1b b9 bc
       0.019759355 -0.1322395 -0.17778228 -0.022596115
000090 ad 6f 2a 3e 50 fc 2a bd 8f 60 f4 bd ce 77 5b 3e
       0.16644163 -0.04174453 -0.119324796 0.2143242
0000a0 27 87 af 3d c2 13 6c bc 42 5a cc 3d 4b 31 0f 3e
       0.085707 -0.0144090075 0.09978153 0.13983648
0000b0 8e 01 79 bc d7 72 ae bd 38 21 6d 3d af 83 39 3d
       -0.015198125 -0.08517998 0.057893008 0.0452916
0000c0 b6 4e 22 3d b4 00 d0 bc da f0 e2 3c 55 fc 29 3d
       0.039625846 -0.02539096 0.027702738 0.04150041
0000d0 4c 99 1c be 76 90 c6 bd 0b 50 71 bd 23 78 73 bc
       -0.15292853 -0.096955225 -0.058914226 -0.014860186
0000e0 eb 48 e6 3c b1 59 f9 bc 4d 95 5c be 1b 9c 2b be
       0.028110942 -0.030438276 -0.21541329 -0.16758768
0000f0 91 4c 4e bd e8 44 c0 3c 49 b8 de bd 2c f9 aa bd
       -0.05036599 0.023470357 -0.10874993 -0.08348307
000100 57 67 74 bd e3 ac 1b be c6 2c 33 bc 18 6f 80 3d
       -0.059668865 -0.1520267 -0.010935968 0.062711895
000110 e1 5e ac bb 91 56 ec bd e5 00 cc bd 88 ba 53 bd
       -0.005260334 -0.11539949 -0.09961108 -0.051691562
000120 e3 e9 05 3b 50 b9 12 3d b4 73 f2 bc 0a 81 82 bc
       0.0020433597 0.03582126 -0.029596187 -0.015930671
000130 52 94 23 3e da 96 31 3e ef 3e b2 bd 1b 43 d0 3c
       0.15974548 0.17342702 -0.0870341 0.025422623
000140 b8 e9 03 be 03 b5 a7 bd 26 b8 9a 3d 12 a4 10 3e
       -0.12882125 -0.08188822 0.07554655 0.14125088
000150 60 9b a8 3c ee d7 3e bd 30 06 ef 3d e1 e4 17 3e
       0.020581901 -0.046592645 0.11671102 0.14833404
000160 97 4f 5c 3d d5 b8 a3 3c 48 ed ff bd d2 55 41 3c
       0.05378684 0.019985596 -0.1249643 0.011800246
000170 d4 ce 02 bd 62 06 73 bd 87 87 68 bd 2e 0c d7 bd
       -0.031935528 -0.05933226 -0.056769874 -0.1050037
000180 58 d8 56 bd fb 5c b8 bc 50 d6 68 bd aa 88 94 3c
       -0.052452415 -0.022505274 -0.05684501 0.018131573
000190 11 c1 17 be a2 e1 04 3d 6b 2b c8 3d 9e 5b 46 bd
       -0.14819743 0.032441743 0.09773906 -0.048427217
0001a0 21 66 1e 3d 6f 2b bd bd 2a 29 b9 3d 15 7f 6a 3d
       0.038671616 -0.092368 0.090410545 0.0572501
0001b0 14 d5 d5 bd 4e fe 51 bc 7e c3 ec 3c ac f3 bf 3b
       -0.10441032 -0.012816979 0.028901812 0.0058579054
0001c0 3b 32 48 bc 41 dc ed 3d 06 1a 18 3e 05 78 7c bd
       -0.012219007 0.11614276 0.14853677 -0.061637897
0001d0 c7 42 29 3d ff 31 51 bd ec 48 03 3e 08 3f 9a 3c
       0.04132345 -0.05107307 0.12820786 0.018828884
0001e0 06 ff ba bd 0f e6 96 bc 2b 5d a4 3d 72 86 df 3d
       -0.09130673 -0.018420247 0.08025583 0.10914315
0001f0 08 e8 e6 bd 77 c3 31 be 99 e6 69 bb 49 0e 21 3d
       -0.11274725 -0.1735972 -0.0035690425 0.039320264
000200 78 11 eb bd 1c 0c 12 be 7d 3d 03 3d 41 98 7a bd
       -0.11477941 -0.14262432 0.03204106 -0.061180357
000210 0a 04 f0 3d b2 ab 0a 3d 9b 01 aa 3c 05 e8 e8 3c
       0.117195204 0.033855148 0.020752719 0.028430948
000220 78 a5 e8 3d ab 7a 8b 3d cb 36 9c bb cc 32 1e 3d
       0.11359686 0.068105064 -0.004767274 0.038622662
000230 35 80 c1 3c c0 1b ec 3d c7 1b 9b ba c7 da be bc
       0.023620704 0.115287304 -0.001183384 -0.02329768
000240 bf 8e 04 3c 90 06 0b bd 0f 8d 88 bc 4d 4a 0b be
       0.008090674 -0.033941805 -0.016668824 -0.13602562
000250 06 6e c5 3d 0a cf 24 3e ab eb 98 3c f2 c4 1f 3d
       0.09640126 0.16094604 0.018667063 0.03900618
000260 01 82 9e bd 4f c4 8a bc 9f 0d 08 bd f4 38 7c 3d
       -0.0773964 -0.01693931 -0.033216115 0.061577752
000270 10 f8 50 be b1 ed ce bd 54 3d 7f bd ed 9b 74 3c
       -0.20407128 -0.1010393 -0.062314346 0.014929754
000280 00 2d 77 bc a6 6a db 3a cd 0f 21 be 5b d9 07 3c
       -0.015086412 0.0016740158 -0.15728684 0.008291568
000290 09 c5 36 3d 3d 60 b4 3c ae 3d e8 bc 46 c3 fd bb
       0.0446215 0.022018546 -0.028349724 -0.0077442257
0002a0 ad b3 ae 3d 99 ef fc 3d e6 18 78 3d b2 33 ff 3d
       0.08530364 0.12350387 0.06057062 0.12461032
0002b0 c8 14 37 be 3d 33 c3 bc cb 4a 78 3d 43 16 a0 3d
       -0.17879021 -0.023828143 0.060618203 0.07816746
0002c0 31 51 13 be ee 04 08 3e 8a 5d 5f 3d 62 e8 ac 3d
       -0.14386441 0.1328313 0.054532565 0.08442761
0002d0 9a 3d a0 3d 4e 45 07 3d 04 78 fd bb 58 83 00 bd
       0.078242496 0.03302508 -0.0077352542 -0.03137526
0002e0 1e 43 f4 bd 92 45 06 3c 70 70 19 3e bb 1a cc bd
       -0.11926864 0.008195298 0.14984298 -0.09966036
0002f0 a0 a5 9f bc 4f 71 08 3e bf f6 93 3d 8d 4e 6d bd
       -0.019488156 0.13324474 0.072247975 -0.05793624
000300 ca 3d f1 bb ea 3b 25 bc e3 95 c0 3d 9b 73 a9 3d
       -0.007362102 -0.010085085 0.094035886 0.08274003
000310 bd e3 12 3e 8d fd cb 3d 64 ba 91 bc 76 47 d1 3b
       0.14344688 0.0996047 -0.017789073 0.0063866926
000320 93 99 97 3d ea 9d 6a bb 9a 33 29 be 22 2f 91 be
       0.07402339 -0.003579969 -0.1652359 -0.28356272
000330 d2 9b 72 bd ae 4a 1b 3b 22 6a 5a 3b 1d 3f 1e be
       -0.059230633 0.0023695636 0.003332742 -0.15453763
000340 4d 1c fa bc de 54 06 3e 79 ee 29 3e 10 6e 9f bd
       -0.030531073 0.13118312 0.16594876 -0.07784665
000350 1c dd a7 bd 4a 7c 27 3d 3f a6 21 3c bf a3 71 3d
       -0.0819647 0.040890016 0.009866296 0.05899405
000360 64 37 1e be e3 a2 34 be 8a 10 49 3d 2d 65 e3 3d
       -0.15450817 -0.17640261 0.04908804 0.11103282
000370 bf 92 7c be 42 95 8f 3d ab 3e 00 3d d6 52 b1 3c
       -0.24665354 0.070108905 0.031309765 0.021645945
000380 8b a0 0a bf 19 f0 de bd 70 ff 20 3d 31 b9 9c 3d
       -0.5415122 -0.10885639 0.039306104 0.0765251
000390 47 da 54 be 87 34 23 bd d4 1a c2 bc 16 08 b4 3d
       -0.20786391 -0.039845016 -0.023694433 0.08790605
0003a0 a4 21 3b be 5d 94 d0 3b 58 2d 02 bd 84 b7 ea bd
       -0.18274552 0.0063653425 -0.031781524 -0.11460784
0003b0 c2 6f bf 3c c4 b4 28 bd 15 2e 2e be 63 88 9b be
       0.02336872 -0.041188017 -0.17009766 -0.30377492
0003c0 b6 e1 b0 bd bc 41 99 bd 38 f2 f9 bd 83 2f 29 3e
       -0.08636801 -0.07483241 -0.12204403 0.1652203
0003d0 5d a9 ea bc 32 ce 2c be 1b ed a3 3d 55 33 3a 3d
       -0.028645212 -0.16875532 0.08004209 0.04545911
0003e0 82 84 94 3c ac 59 53 bb 70 ed 27 3d 2e b4 e4 bb
       0.01812959 -0.0032249494 0.040997922 -0.006979487
0003f0 59 7b 19 bb a6 d0 44 3d af e8 25 be c8 b4 12 be
       -0.0023419468 0.048050545 -0.16202043 -0.14326775

fc1.bias f4 [120]
000000 f9 a1 ef bc 45 ab 38 3d 0f 07 c9 3b b1 ee 81 3d
       -0.02925204 0.04508521 0.0061348747 0.06344355
000010 71 06 97 bc 47 0a 6b bd 1a a7 bb 3d 6f f6 d3 bd
       -0.018435689 -0.057382848 0.091627315 -0.10349738
000020 ff 34 91 bd d6 6c e3 3b 82 80 2e 3d c5 87 98 bd
       -0.07090186 0.0069404645 0.042603023 -0.07447771
000030 6c ac 5c bd e7 75 9a 3b 73 b9 7c bd 11 60 c7 bc
       -0.05387537 0.004713762 -0.061700296 -0.0243378
000040 7b 24 f7 bc 14 3a 72 3d ca 14 5e bd e0 eb 84 3c
       -0.030168762 0.05913742 -0.054219045 0.016225755
000050 5b ad b6 3c eb de 3c 3d 90 e3 0e 3d 7c 43 12 3c
       0.02229946 0.04611103 0.03488499 0.008927222
000060 34 5c 60 3d e6 44 18 bd 11 64 d5 3d 9a c9 fb bc
       0.05477543 -0.03717508 0.10419477 -0.03073578
000070 d4 5b 0e 3d a6 ef 49 bd de 6c 25 bd c9 64 2b bc
       0.034755543 -0.049300812 -0.040387027 -0.010461041
000080 0f a5 8a bd 52 99 be bd 43 56 82 bd 1e c6 9d bd
       -0.06769764 -0.09306587 -0.06364109 -0.077038035
000090 3b 2a 58 3d c7 13 98 3d 8f b7 b4 bd 11 02 a2 bc
       0.05277465 0.07425647 -0.088240735 -0.019776376
0000a0 bd e7 c8 3c 91 78 40 3d 98 57 36 bc 89 43 68 bd
       0.024524564 0.04698998 -0.011129282 -0.05670503
0000b0 96 8c f2 bc 54 68 44 3c a0 0f 1a bd 4d 4a d8 bd
       -0.029608052 0.011987764 -0.037612557 -0.10561047
0000c0 26 73 06 bd 89 28 a7 3d a3 9e 67 bd 17 e9 51 3d
       -0.032824658 0.08162028 -0.056547772 0.051247682
0000d0 d7 24 b6 bd 6a 61 43 bc 77 f0 8e bd 43 62 44 bd
       -0.088937454 -0.011925081 -0.06979459 -0.047945272
0000e0 ca 85 97 bd 84 0c 4c bd 3f 4f 61 3d e0 1c 72 3c
       -0.07398565 -0.049816623 0.055007216 0.014777392
0000f0 7b c7 33 3d 3a d6 0f 3d bb af 5b 3d dc 46 b7 bb
       0.04389141 0.03511641 0.053634387 -0.005593164
000100 a7 d6 99 3d f6 5e c8 3c 87 b3 16 bd 01 9b 63 bd
       0.07511645 0.024459343 -0.036792304 -0.055567745
000110 cc 77 05 3d 10 0c c6 3c e8 d3 82 3b df 8e 0e 3d
       0.03258495 0.024175674 0.0039925463 0.03480422
000120 c8 9e 54 bd 8c 0d da 3d 0f de 98 bd a4 6d d4 bc
       -0.051909238 0.10647115 -0.07464229 -0.025931187
000130 e3 2e eb bb df 05 f8 3d a0 89 b5 bc 8a 87 b5 bd
       -0.00717722 0.12110495 -0.022160351 -0.08863743
000140 db 3b b5 bc e6 57 9e 3d fd 36 78 3d 2b fe f4 bb
       -0.022123268 0.07731609 0.060599316 -0.0074765882
000150 f9 d5 40 3d 7f 46 88 bd 1d ce 9c bb 8e 60 3f bd
       0.04707906 -0.06654071 -0.004785313 -0.04672294
000160 56 74 00 3d 2d 86 98 3d 1e f0 a5 3d 66 51 4b 3d
       0.031360947 0.07447467 0.08102439 0.049638174
000170 a2 fe 10 bd cb ee 57 3d cb ed 9b bd b6 5c 6a 3d
       -0.035399087 0.052717965 -0.07613715 0.057217322
000180 7b 50 0d bd 73 36 8a bc 5d ec 8c bd 07 f7 33 bd
       -0.03450058 -0.016871667 -0.0688102 -0.043936756
000190 72 05 27 bc 9d f3 0f bc 9e 26 cb ba 4e 3d 2e 3d
       -0.010194169 -0.008786109 -0.001549918 0.042538933
0001a0 aa 39 4a 3b 71 9d 53 bc dd 07 a4 bb 4d 35 3e bc
       0.0030857124 -0.012915955 -0.00500582 -0.011609388
0001b0 6f af 15 bd ae 23 56 bc 09 5a d5 3d d2 a8 3f bd
       -0.03654426 -0.01307003 0.104175635 -0.04679186
0001c0 de 33 7d 3b 4a 3f 4a 3d 3a eb 6b bd 25 45 f6 3b
       0.0038635652 0.049376763 -0.057597376 0.007515567
0001d0 bc c9 27 bd 33 0c 1b 3c 23 f0 96 3b fc dd fc bb
       -0.040963873 0.009463358 0.0046062632 -0.0077168923

fc2.weight f4 [84, 120]
000000 c1 42 13 3e 16 d3 2f 3d 52 77 42 bd 12 28 99 bd
       0.14380933 0.042925917 -0.047477074 -0.07478346
000010 be ea 8e bd 6b 05 f3 bb 1d b9 29 be 65 0e 9d 3d
       -0.06978367 -0.0074164174 -0.16574521 0.07668761
000020 1f 24 8c 3c ae 65 e0 bc 5a fa 26 3d 6c 33 1a bb
       0.017107068 -0.027392235 0.040766098 -0.0023529185
000030 bb 0e 06 3e c6 c0 f2 bd 95 e8 10 3e 1d dd 5a bc
       0.13091557 -0.11853175 0.14151223 -0.013358382
000040 5d d5 e7 3a f4 1d 1c 3e 71 f8 57 3e 74 6c 9e 3d
       0.0017687489 0.15245801 0.21090867 0.077355295
000050 5b eb 2c be d1 b8 58 be 4f 3c 13 3e ed 57 0c be
       -0.16886656 -0.21164252 0.14378475 -0.13705416
000060 ad 88 cc bd 1b 24 3d 3d 46 09 46 3c f5 76 3f 3d
       -0.09987006 0.04617701 0.012087172 0.046744306
000070 1b ee 90 3d 38 61 19 3e 66 ea 93 3b 7a 25 35 3d
       0.07076665 0.14978492 0.0045140265 0.044225194
000080 fd 3e 85 3d 23 66 c3 3c a4 38 c6 3d 89 1e 28 3b
       0.06506155 0.023852414 0.09678772 0.0025652966
000090 fa 93 28 be 02 2f 52 bc a9 ed 3b 3d f0 af 5e be
       -0.16462699 -0.01282859 0.045880947 -0.21746802
0000a0 d2 2a 57 bc 77 cc 9c bd 3d b0 b7 bd b2 bb 9d bc
       -0.013132768 -0.07656186 -0.08969162 -0.01925454
0000b0 21 72 07 3d cf d4 30 bd 4f 80 d5 3c c2 d3 4f bc
       0.033067826 -0.0431717 0.026062159 -0.012684764
0000c0 2e 89 99 3d ec 7e 1c 3c f0 9b 33 3e e2 ee 98 bc
       0.07496868 0.009551745 0.17539954 -0.018668596
0000d0 3b e2 0d 3d 2e aa 29 3e a3 4c 44 3d 85 e7 0b 3d
       0.03463958 0.16568825 0.04792465 0.03415634
0000e0 ac 4a 13 3e 3f 98 bd bd 6a 8a 65 be df 9f 2c 3d
       0.14383954 -0.09257554 -0.22416082 0.042144652
0000f0 de 27 e2 bd d9 54 a1 3d a8 1e 0f 3e 17 a7 b0 bd
       -0.1104276 0.078775115 0.13976538 -0.0862562
000100 70 5c 9c bc c8 7c 23 3e 8d e3 c1 bc 93 8c 2f be
       -0.019087046 0.15965569 -0.023668075 -0.17143469
000110 95 fe d6 3d 6b 59 c1 3d 1b b2 05 3c f8 03 df 3d
       0.104977764 0.09440883 0.008160139 0.10889429
000120 b0 5d aa 3d 2f 20 8b 3d dc e5 ab bd f4 4a bc bd
       0.08318651 0.06793248 -0.083934516 -0.09193984
000130 a5 11 ab bc 2f 89 3e 3e 4d 5f b3 bd 22 66 e0 3c
       -0.020882437 0.18607019 -0.087584116 0.02739245
000140 f6 bb 83 bd f6 20 3c 3d 1d d4 89 3d 27 88 a2 3c
       -0.06432335 0.04592987 0.067299105 0.019840313
000150 45 90 5e be 36 d5 99 3c db 36 d3 3d 00 09 50 3d
       -0.21734722 0.018778425 0.10313197 0.050789833
000160 be a2 43 be ce 39 f4 bd e2 3b 98 bc aa 95 de 3d
       -0.1910505 -0.11925088 -0.018583242 0.1086839
000170 04 2f c1 3d a3 ee b3 3d 5f 8c 09 3d 64 ca f4 3d
       0.09432796 0.08785751 0.033581134 0.119526654
000180 29 3b b7 bc 12 0f 04 3c 5c a0 a1 3d 4b 81 28 be
       -0.022367077 0.008060234 0.07891914 -0.16455571
000190 cc 0f 29 be 66 09 ae 3d ce e2 3f 3e 28 3d b7 bd
       -0.16509932 0.08497886 0.18738863 -0.089472115
0001a0 24 dc af 3d 90 8a 83 be 85 96 a8 3d 08 70 79 bc
       0.0858691 -0.25691652 0.08231834 -0.015224464
0001b0 7e bf b8 bc 30 2e 71 3d 85 53 90 3c fe e4 39 be
       -0.022552248 0.05888194 0.01761795 -0.1815376
0001c0 6d ef 59 3d 5d 1e a7 3d 00 03 4d 3e 49 1a dd 3d
       0.05320685 0.08160088 0.20020676 0.10796029
0001d0 20 5e fa bd 29 34 72 3c 5c bc c5 3c 97 38 ac 3d
       -0.12224984 0.014782944 0.024137668 0.08409231
0001e0 86 1e 4a 3c 63 7f 89 bd ab 6a 10 bd 49 e8 d2 bd
       0.012336379 -0.0671375 -0.035257977 -0.10298211
0001f0 c5 21 7a bd f2 5d b4 3c 0b ba d2 bd 68 15 f9 bb
       -0.06106736 0.022017453 -0.10289391 -0.007601429
000200 73 a1 2f 3a 20 96 80 3d 8c e6 b5 bd 40 0c 98 bd
       0.0006699778 0.06278634 -0.08881864 -0.074242115
000210 2b 88 e9 3a 36 f9 e5 3c be ed be 3c 24 84 9f bc
       0.001781707 0.028072935 0.023306724 -0.01947219
000220 44 3b 93 bd 49 8c c2 bc 94 14 6a 3d ac ef 91 bd
       -0.071890384 -0.023748534 0.05714853 -0.07125792
000230 50 ef 0d 3d 3e 81 9d bd 46 78 b2 bd 7e 9a 01 bd
       0.034652054 -0.076906666 -0.087143466 -0.031641476
000240 e0 e2 04 bd b2 31 2e bd 14 df 27 3d 09 fc 8f bc
       -0.032442927 -0.042527862 0.04098423 -0.017576234
000250 9c d0 e2 bc 16 c3 19 3d a6 9c 31 3d 15 d3 d1 bc
       -0.027687363 0.037539564 0.043362282 -0.025613347
000260 33 b3 43 bc 17 e9 24 3d 67 8d 9a bd 50 84 2e bd
       -0.01194458 0.040261354 -0.075465016 -0.04260665
000270 e5 45 83 bd 8d 86 d7 bc 61 d5 88 bd 4a 7c 56 bd
       -0.06409816 -0.026309276 -0.06681324 -0.052364625
000280 30 cf 26 3d 89 12 be bd 8d 6a b2 bd a5 4c e5 3c
       0.040724933 -0.09280879 -0.08711729 0.027990649
000290 05 af 31 3b 96 2f 10 3d 4a a0 4d 3d d3 57 40 bd
       0.0027112376 0.03520163 0.05020169 -0.046958756
0002a0 a5 fd 21 bd e3 b5 0a 3d d3 db 60 3c 17 4a 05 bd
       -0.039548535 0.033864867 0.013724285 -0.03254136
0002b0 a3 34 af bd bd c6 09 bd 41 63 4d 3c a7 0d 39 3d
       -0.085549615 -0.033636797 0.012535871 0.045179036
0002c0 d6 ea a6 bd aa 62 b2 bd 09 c2 b3 ba bc 37 3d 3c
       -0.0815026 -0.08710225 -0.0013714443 0.011548933
0002d0 9a d3 93 3c 3c 5c a4 bd dd a5 8b bd 9a c7 13 bb
       0.018045235 -0.08025405 -0.06818745 -0.0022549392
0002e0 95 b0 2d 3d 4d 62 e2 3b 01 2c ce bb f9 5a 04 3d
       0.04240473 0.006908691 -0.006291867 0.03231332
0002f0 b4 6c 87 bd cc 59 9a 3d 96 3c 69 bd c1 48 a4 bd
       -0.0661253 0.07536659 -0.056942545 -0.08021689
000300 c4 1b a1 3d 10 bd 5b 3d 80 01 67 bd a7 65 bb bd
       0.07866624 0.0536471 -0.056397915 -0.09150248
000310 e5 e1 3d bd 99 75 f2 3c 13 a4 61 bd c8 26 a4 bd
       -0.046358008 0.02959709 -0.055088114 -0.080152094
000320 78 36 b3 3b 52 94 2c bd c6 b9 38 bd a6 56 97 bc
       0.0054691397 -0.042133637 -0.045099042 -0.018473934
000330 0c 39 7b bc bf 5f c7 ba 77 16 93 ba 6a 08 a2 ba
       -0.015333425 -0.001521103 -0.0011221905 -0.0012362127
000340 c9 1f e6 bc 32 bb c1 3c 12 20 2c bb 4f d4 17 bd
       -0.028091328 0.023648832 -0.0026264233 -0.037067708
000350 6a 11 38 bc 55 78 29 3d ac c3 e9 3c e0 25 6c bd
       -0.011234621 0.041374523 0.028535686 -0.057653308
000360 25 31 ca bd 71 f1 ba 3c 37 20 ad bd 37 ec b6 bd
       -0.09872655 0.022820206 -0.0845341 -0.08931773
000370 0a d7 f7 3c ff dc 0f 3d 50 8d 3b bd 2e 2b 27 bc
       0.030253906 0.035122868 -0.045789063 -0.010203166
000380 b2 e1 0b 3d 76 f5 0d bd f4 7f 94 3d dc e2 b9 bd
       0.034150787 -0.034657918 0.072509676 -0.09076473
000390 6d 70 8f bd 21 10 6c 3d 13 5a 96 3c 0d ca 09 bd
       -0.070038654 0.05763257 0.018353498 -0.033639956
0003a0 ce ca 79 bd 87 0a 60 3d fe e4 01 bd 9d 65 d3 bd
       -0.060984425 0.05469754 -0.031712525 -0.103221156
0003b0 ad cf a9 bc 30 c9 5d 3d 04 c3 a7 bd ae 63 0b bc
       -0.02072891 0.054146945 -0.08191493 -0.008507652
0003c0 be 8c 6f 3d b0 ae 17 3d 71 8e 97 bc 9b 33 cd bd
       0.05848383 0.03703183 -0.018500539 -0.100196086
0003d0 d1 38 c2 bb ed 23 99 bd 1b 34 06 3e ac 71 bd 3c
       -0.005927183 -0.074775554 0.13105814 0.023125492
0003e0 6b bc 6c bd 88 77 ef 3c 0e 00 e2 bd 74 4c ae bd
       -0.057796877 0.029231802 -0.11035167 -0.08510676
0003f0 0b e5 b2 bd f2 41 ed 3b 6b 3f 5f 3c 51 67 09 bd
       -0.08735093 0.0072405273 0.01362596 -0.033545796

fc2.bias f4 [84]
000000 13 5f b9 bd 47 c7 b6 bd 93 7f a5 3c de e8 ae bd
       -0.09051337 -0.08924728 0.020202434 -0.0854051
000010 d5 00 10 3b 29 f2 76 bd 86 3c 88 3d 16 5b b8 3d
       0.0021973152 -0.060289536 0.06652169 0.09001748
000020 67 79 13 be 08 44 bc bd 3e ea 89 3c 8d 02 45 bd
       -0.1440178 -0.091926634 0.016835328 -0.048098136
000030 32 df a1 3d 1f 14 67 bd 20 77 9e 3d 66 9c d5 3d
       0.07903899 -0.056415673 0.07737565 0.10430221
000040 91 90 8d 3b e2 78 11 3d 1f fd 0a bd e1 5b 33 be
       0.004320212 0.035515673 -0.0339328 -0.17515518
000050 7b 12 93 bb 2f e9 84 bd aa 3e 14 3d eb a2 6f 3d
       -0.004488287 -0.06489789 0.036192574 0.05850498
000060 a3 fd 87 3c 30 42 a0 bd bd 8e b0 3c 9e 68 95 bd
       0.016600436 -0.07825124 0.021552438 -0.07295345
000070 1c 30 25 bd dd dc c9 bd 54 4f 9c 3d e1 8c eb bc
       -0.040329084 -0.098565795 0.07632318 -0.0287537
000080 70 ba 2b 3d eb 4a fc 3c f4 b5 da 3c 59 f5 e7 bd
       0.041925848 0.030797442 0.02669809 -0.11326093
000090 c3 af 8a 3c bc b0 8b bd 9a 35 41 3d c2 b8 10 3e
       0.016929513 -0.06820819 0.04717026 0.1413298
0000a0 2a 0e 99 3d 24 75 99 bc 68 b5 66 bc 55 40 5a 3d
       0.07473405 -0.018732615 -0.014081337 0.053284008
0000b0 f4 bf db 3c cc d5 04 3d 5d e6 80 3d 15 cf 55 3d
       0.026824929 0.032430455 0.06293938 0.052199442
0000c0 a4 2d 7c 3d 90 61 53 bd 4a fc b8 38 48 cd 20 3d
       0.061566964 -0.051606715 8.820796e-05 0.03925827
0000d0 b6 1b cc bd c5 f4 27 bd 6d ce 52 3d 51 06 fb 3d
       -0.09966223 -0.041004915 0.051466394 0.12257064
0000e0 76 0a cf 3d 2d bc 7e 3c 3f 49 31 3b 49 e6 b5 bc
       0.10109417 0.015547794 0.0027051715 -0.022204535
0000f0 22 53 2f 3c f9 47 ef 3a 05 6c c2 3d e5 0a f8 bc
       0.010700973 0.0018255702 0.09493259 -0.030278632
000100 75 cb b4 bd 1c c6 c0 3d 9a 4a 52 bc 7a 7f cc bc
       -0.08827869 0.09412786 -0.012835169 -0.02496313
000110 19 be e0 bc 77 2e 8a 3d 21 2c 1c 3d 10 44 ea 3d
       -0.027434396 0.06747144 0.038128022 0.11438763
000120 91 5b d1 bc 3b f3 b9 bd ff 53 3d bd 29 1a d5 3d
       -0.025556358 -0.09079596 -0.046222683 0.1040538
000130 20 2a a6 3d d7 db 4d ba 61 ea 44 bc d4 17 a3 bb
       0.081135035 -0.0007852888 -0.012018771 -0.004977206
000140 de ac 03 3e 08 49 88 3c 75 1d ce 3d 9b 62 aa bd
       0.12858912 0.016636387 0.10064212 -0.08319589

fc3.weight f4 [10, 84]
000000 5d ae 0c 3e 9a f7 99 3d 19 61 2b 3d 0a ea 62 bc
       0.1373839 0.075179294 0.041840646 -0.013849745
000010 54 15 93 bc 08 10 5a bd 97 40 20 3c cc 79 01 3e
       -0.017954506 -0.053237945 0.009781024 0.12644118
000020 37 5a a2 3d e0 66 bc bd c6 98 64 3d f7 7d 1a 3e
       0.07927363 -0.09199309 0.05580976 0.15087114
000030 82 3e b2 3d f9 2b f3 bd 42 34 14 be f4 eb 93 be
       0.08703329 -0.118736215 -0.1447306 -0.28890955
000040 4d e6 0d bb d1 e2 29 be 8c b1 64 bd 63 7e ae bd
       -0.0021652163 -0.1659043 -0.055833384 -0.085202
000050 e2 a4 0a 3e 99 28 65 3d 17 50 7b be c0 bf a9 be
       0.1353946 0.05594692 -0.2454227 -0.33154106
000060 4c 48 73 be 18 42 ba 3d 72 25 07 be 60 56 88 3d
       -0.23758048 0.09094638 -0.13197878 0.066571
000070 e2 c9 89 bd ef 0c 24 be d0 6a 0e be 07 c7 66 3c
       -0.06727959 -0.16020559 -0.13907933 0.014085538
000080 2e 6d c8 3d e2 c8 2c 3e ef af 6a be 59 01 8a bc
       0.097864494 0.16873506 -0.22918676 -0.016846346
000090 00 45 6a be f1 ae dc 3d e7 b5 f6 bd 9a 51 8e be
       -0.22877884 0.10775555 -0.12046414 -0.27796632
0000a0 93 37 24 be 3a cb 4d be aa 9f ab bd 7b ee 2c be
       -0.16036825 -0.20097056 -0.08380063 -0.16887848
0000b0 d1 95 82 be 54 30 2e 3e 11 6d b0 be 92 7c 00 3e
       -0.25504926 0.17010623 -0.3445821 0.1254752
0000c0 b9 dc 49 be ca 2c 1a be ab 0b e8 bd c7 6c dd 3d
       -0.19713105 -0.15056148 -0.113303505 0.10811763
0000d0 28 4a de bc 93 3f 13 3e 80 f6 c5 bd 11 79 eb bd
       -0.02713497 0.1437972 -0.09666157 -0.11497701
0000e0 c6 a3 ba bd 3c 88 27 bd 8d 79 6d be c8 9f 0f be
       -0.091132686 -0.040901408 -0.23190899 -0.14025795
0000f0 0b d0 ad bd af 7b 1e 3e 66 6f 28 be 19 7a d1 3d
       -0.08486947 0.15476869 -0.16448745 0.102283664
000100 7a f2 f1 bd 18 20 7a bd 14 d8 02 3e d1 d2 75 bd
       -0.11813827 -0.061065763 0.1277774 -0.060015503
000110 a6 05 bd 3d 33 c5 33 3d 9b eb 48 be c2 ce 95 be
       0.09229593 0.043889236 -0.19621126 -0.29259306
000120 1b ce 95 bc 6a 84 03 3e 42 52 9c bd 5f 21 1f 3c
       -0.018286755 0.1284348 -0.07632877 0.009712546
000130 c5 60 08 3e 20 67 f0 bd a1 b6 f1 3d 9e 21 52 3d
       0.13318165 -0.117384195 0.11802412 0.05130159
000140 1f a9 35 be 0a 28 c3 3c b6 93 97 3d 97 14 eb 3d
       -0.17740296 0.023822803 0.074012205 0.114785366
000150 60 ba 3a bd 45 b7 bb 3d fe ba a4 3d d5 44 31 be
       -0.045587897 0.09165815 0.080434784 -0.17311414
000160 f0 ec 4f 3d 7c 56 2d ba 07 80 67 3d 85 7f c1 3c
       0.05076307 -0.00066123134 0.05651858 0.023620376
000170 bc c0 7a 3d 7c b9 d3 3d 40 20 ba bd 0f b5 0a 3d
       0.061218962 0.10338113 -0.090881824 0.033864077
000180 c9 a6 ab 3d 7d 14 88 3b 26 f7 86 3d d2 a9 e7 bd
       0.08381421 0.004152833 0.065901086 -0.113116875
000190 2d d3 f9 bd cb 53 b7 bd 01 60 8b 3d a8 85 5b 3d
       -0.12198482 -0.08951529 0.06805421 0.05359426
0001a0 cc 1d a7 be f1 ff 70 3d 93 ec 35 3e 43 33 4e 3d
       -0.3263992 0.058837835 0.17766027 0.050341856
0001b0 0d 32 70 be e3 2c 2c 3e 8d f6 02 3e 7f 27 03 3e
       -0.23456593 0.16813998 0.12789364 0.12808035
0001c0 ab d6 00 3e 44 10 06 bd 3d 6e 51 3e ed 84 b1 be
       0.1258189 -0.032730356 0.20452209 -0.34671727
0001d0 0c 6e 78 3d f7 19 db bc a5 72 f0 3d b1 c0 d3 3d
       0.060651824 -0.02674578 0.11740617 0.10339487
0001e0 f2 ff 28 3d 95 b1 b7 be 55 92 82 3d d0 6f 52 be
       0.041259713 -0.35877672 0.06375567 -0.20550466
0001f0 ff ac a1 be 33 86 59 be 22 b0 07 be db 9d 8f 3d
       -0.31577298 -0.21242599 -0.13250783 0.070125304
000200 83 6c 4a bd a1 7b 33 be 2e 03 db 3d f3 d8 c6 3d
       -0.04941989 -0.1752763 0.10693966 0.097093485
000210 9c b8 9c bc cf a7 26 be 4c 9b f0 bc a9 94 30 3d
       -0.019130997 -0.16274951 -0.029370926 0.043110523
000220 a8 22 9d 3c b3 8c 1f 3a 1b 0f 73 be 49 56 a0 3c
       0.019181564 0.00060863345 -0.23736231 0.019572394
000230 7b 44 45 be 62 b9 05 be 3d 7b ba 3d e7 27 db bd
       -0.19264404 -0.13058999 0.09105537 -0.1070097
000240 d6 c0 92 3c cf 5c 96 bd 22 22 68 3c cb 80 1e be
       0.017914217 -0.073419206 0.014168294 -0.15478818
000250 03 0c 00 3e d5 47 e2 bd 73 0b c1 3c a4 6f a4 3d
       0.12504582 -0.11048857 0.02356503 0.08029106
000260 67 0c d5 bd b0 0b cd bc a7 90 80 3c bf aa a0 3d
       -0.10402756 -0.025029987 0.015693976 0.07845067
000270 39 26 89 be a5 79 88 bd 33 cf c9 3d c3 b4 7c be
       -0.26786974 -0.06663827 0.09853973 -0.2467833
000280 44 ea d6 bc 8e e5 43 3e 64 8e 52 be 7d ed c7 3d
       -0.026234753 0.19130537 -0.2056213 0.09762094
000290 96 ae aa be de ff ba be 69 f9 76 be c9 db 92 be
       -0.33336323 -0.36523336 -0.2411858 -0.28683308
0002a0 48 fa 06 be 16 aa 1d bd 21 22 b4 bd 7b a3 aa be
       -0.13181412 -0.038492285 -0.08795572 -0.3332785
0002b0 80 a5 84 3d a0 89 a5 3d 49 c9 05 3e 52 9c 83 be
       0.06476879 0.080828905 0.13065065 -0.257052
0002c0 f2 8d ed 3d a9 fa 23 bd 96 17 bd be 30 89 24 3e
       0.115993395 -0.04003397 -0.36932057 0.16067958
0002d0 ce 51 75 be e6 d7 1c bd b2 07 38 bc 45 c2 d8 3c
       -0.23956987 -0.038291834 -0.011232303 0.026459822
0002e0 83 1d 72 bc 3d e5 a6 3c 78 b4 2a 3c 33 60 42 3e
       -0.014777544 0.020372981 0.010419004 0.1898201
0002f0 c7 20 85 be 01 9f a8 3d 23 2e 06 be 9e d5 dc bd
       -0.2600157 0.082334526 -0.13103537 -0.10782932
000300 30 16 68 be 6c 9e 41 bd f4 66 af be 9e 57 fe bd
       -0.22664714 -0.047270223 -0.34258235 -0.124190554
000310 34 d6 47 bd 75 e5 6f be bb 85 d6 bd 95 5c 39 bd
       -0.048788264 -0.23427375 -0.10474726 -0.04525431
000320 15 db c5 3d 3d 44 12 be 74 3c b4 3d 45 2a 39 3e
       0.09660927 -0.14283843 0.08800593 0.18082531
000330 1f c8 77 be 50 45 9e bd 90 37 44 3e 8d 48 99 3d
       -0.24197434 -0.07728064 0.1916182 0.07484541
000340 ed d0 2c 3e 4f a3 dc 3d 6a 3a 32 3e e3 9a a0 3d
       0.16876574 0.10773336 0.17405096 0.07842042
000350 92 84 e2 3d 9a 4d 56 3d af 72 20 bd c2 d9 b1 3d
       0.11060442 0.0523201 -0.03917187 0.08684112
000360 9b 52 12 be 34 6e 57 3e a6 34 7e 3d 21 94 e7 3d
       -0.14289324 0.21038133 0.06206193 0.1130755
000370 23 eb a7 bd ac fc e2 bd 1a fd b0 3d 07 9e 77 be
       -0.08199146 -0.110833496 0.08642025 -0.24181376
000380 20 d7 2f be b2 07 59 3e ef 75 65 bc 46 a1 05 bf
       -0.17171907 0.21194342 -0.014005168 -0.5219921
000390 9f 1f 8a 3d ba fd 58 be af bd 98 3d 95 25 b0 be
       0.067443125 -0.21190539 0.07458054 -0.34403673
0003a0 18 9c 36 be 7b 03 a3 3d 95 69 90 3d ef 35 8d be
       -0.17832983 0.07959648 0.07051388 -0.2758021
0003b0 8b 86 ee bd 7c a1 1b be e4 01 52 be 3e 2f 35 be
       -0.11646756 -0.1519832 -0.20508534 -0.17693803
0003c0 bc 15 82 3d 29 96 68 3e 6e 0a 0a be 83 20 99 bd
       0.06351802 0.22713532 -0.13480541 -0.07476904
0003d0 0c 32 44 3e e6 09 e3 3d 81 40 5d bd 2d 02 39 3d
       0.19159716 0.11085872 -0.054016594 0.04516809
0003e0 e5 f2 82 be 00 70 25 3e 65 82 d4 bd 84 d5 00 3d
       -0.2557594 0.16156006 -0.10376433 0.031453624
0003f0 e6 c5 91 be 87 0e 3e bd 6e aa 8b bd 6e bb 4d be
       -0.28471297 -0.046400573 -0.06819616 -0.2009103

fc3.bias f4 [10]
000000 c3 fe 82 bc 95 ec 8a 3d 3e a2 16 3d ee 48 8f bc
       -0.01599062 0.06783406 0.03677582 -0.01749083
000010 de 53 62 bd c9 ba f7 3d 1a ce 33 bc 7f ff 13 bc
       -0.055255763 0.12096173 -0.010974431 -0.009033083
000020 b1 d6 80 3d 95 d4 06 b9
       0.06290949 -0.00012858429
