lab2-models/hip-4-model.pth (torch, 181175 bytes, 10 tensors)

conv_block1.0.weight f4 [6, 1, 5, 5]
000000 5d 64 9b be 74 f8 89 bd 52 e4 47 bd 74 cb 80 3e
       -0.3035001 -0.06736842 -0.048801728 0.25155222
000010 37 64 7c 3d 43 52 09 be 67 68 b1 bc 5a 89 80 be
       0.06161901 -0.13410287 -0.021656228 -0.2510479
000020 54 ff 8d 3e 53 c3 1e 3e 6e 93 1f be ed d6 9e be
       0.27733862 0.15504198 -0.15583584 -0.3102335
000030 ad 49 57 bd 4b d5 cb 3e 08 6d 60 3e 87 33 69 be
       -0.052560497 0.39811167 0.21916592 -0.22773562
000040 a7 f0 82 bd 72 5c 02 be e3 50 b5 3e b0 e9 62 3d
       -0.06393557 -0.12730578 0.35413274 0.055398643
000050 6e e8 88 be 59 73 be 3d ac 2b 6c 3e 1f 00 aa 3e
       -0.2673983 0.092993446 0.23063534 0.33203217
000060 30 45 bb 3d 72 62 b8 3e df 47 6c 3e 47 f9 c4 3e
       0.09144056 0.36012608 0.23074292 0.38471434
000070 29 f5 89 3e d1 a3 db 3d 95 6f 12 be c6 1b 33 3e
       0.26944855 0.10724605 -0.14300378 0.17491063
000080 e3 9b c9 3d 5b cf 07 3e 49 fc dd 3d d6 eb 9d bd
       0.09844186 0.13262694 0.10839135 -0.07710998
000090 07 4b a8 be 11 f2 86 be cc d0 97 be bb 30 72 be
       -0.3286974 -0.26356557 -0.29651487 -0.23651402
0000a0 f3 5a c1 be f2 6a c7 be 20 c3 3d be c1 0f 15 bd
       -0.377647 -0.3894878 -0.18531466 -0.036391977
0000b0 05 54 a3 be ca bf 79 bd 60 00 6b 3d cc 26 8c be
       -0.3190004 -0.06097392 0.057373405 -0.2737335
0000c0 81 1d 82 be 7a 68 0f 3e fd 46 d8 bd d7 cd c6 3d
       -0.25413135 0.14004698 -0.10560415 0.097072296
0000d0 2a 06 c4 bc c3 5d 3c 3e 8a 58 8f 3e f2 d3 70 bd
       -0.02392872 0.18395142 0.27997237 -0.058795877
0000e0 20 48 8f 3d 99 39 b0 3e 42 64 bb 3e 46 9c b7 3e
       0.069961786 0.34418944 0.36599928 0.35861415
0000f0 75 03 13 3e 97 ea 6d 3e 77 4d c4 3d 79 52 fa 3d
       0.14356788 0.2323402 0.09585088 0.12222762
000100 c6 13 d9 3c 31 62 0d 3e 52 1a 4a be 56 ee 34 be
       0.026498687 0.13806988 -0.19736603 -0.17669043
000110 bc bb 57 be 7b ad 94 be 28 65 10 be 51 bc 40 bc
       -0.21067709 -0.29038605 -0.14101088 -0.011763648
000120 fc fc 95 be ad 29 9d be af c5 88 bd 86 b9 9c bd
       -0.29294574 -0.3069586 -0.0667833 -0.07652573
000130 45 d8 c1 bb 49 a9 4a 3d 6f 11 8a 3d 77 25 5a be
       -0.005915674 0.04947785 0.067416064 -0.21303354
000140 3b 25 b2 3d 8c 2f 90 3d b2 11 10 3e 29 de 7c 3c
       0.086985074 0.07040319 0.1406925 0.0154338265
000150 31 66 35 be bc a9 81 bc a8 f2 48 bc d4 1f 95 3d
       -0.17714764 -0.015828006 -0.012264885 0.07281461
000160 55 08 0c be 66 1d 06 3e c7 2f c4 bd 78 91 d6 bd
       -0.13675053 0.13097152 -0.09579425 -0.10476965
000170 8d 39 38 be ef aa d8 3d 42 91 82 bd 65 a6 c5 bd
       -0.17990704 0.10579478 -0.06375362 -0.09650878
000180 b2 15 a3 3d 27 6f 54 bc 24 0c 9c 3d 82 e3 60 3e
       0.079631224 -0.012965954 0.07619503 0.21961787
000190 c7 b1 27 bd f1 2d 38 be 04 f9 64 be d0 0f 8b 3e
       -0.040941026 -0.17986275 -0.22360617 0.271605
0001a0 00 85 84 3e f3 7e cd 3d 0b ec 43 be 9f 65 3c 3e
       0.2588272 0.10033979 -0.19133012 0.1839814
0001b0 ed d2 80 bd 46 ea be 3e 5a 0d 23 be f8 7d 76 3d
       -0.06290231 0.3728811 -0.15923062 0.060178727
0001c0 9a 44 42 be 79 a3 14 3e 1c 7e a4 3e bf 96 6f be
       -0.18971482 0.14515485 0.32127464 -0.23397349
0001d0 53 ec 71 3d 32 3e 91 3c 7f c5 fc 3d 65 74 7c bd
       0.059063267 0.017729852 0.12342357 -0.06163444
0001e0 c9 83 05 be 3f d4 73 be 6d 35 b7 3d 59 9d 39 3e
       -0.13038553 -0.23811434 0.08945737 0.1812643
0001f0 59 5f 1b bd 7f 4d cf bd c5 ea 4a 3c e7 a8 84 be
       -0.037932727 -0.10122203 0.012385075 -0.25910112
000200 02 0a 42 be d3 0f 62 be b8 e0 10 be f5 04 dc be
       -0.1894913 -0.22076349 -0.14148223 -0.42972532
000210 e9 70 a6 be ce 67 7b be ec e1 d7 be 69 cf 8b be
       -0.3250802 -0.24551317 -0.42164552 -0.2730668
000220 ea a0 df be 1d 89 9f be c2 0e be be e3 dd 1e bf
       -0.43677455 -0.31159297 -0.37120634 -0.6205732
000230 60 73 90 be 5a 8b d5 be 2f 4c bf be eb 30 0a bf
       -0.28213024 -0.4170788 -0.3736281 -0.5398089
000240 14 59 e4 be 6b 33 93 be a4 0d e5 be 64 ba d6 be
       -0.4459921 -0.28750166 -0.4473697 -0.4193908
000250 f6 aa d4 be de b4 87 be
       -0.41536683 -0.26505178

conv_block1.0.bias f4 [6]
000000 92 e3 12 3e e6 0c 5d 3e 32 f3 ae 3e 50 cc 96 bd
       0.14344624 0.21586952 0.34169918 -0.07363188
000010 a2 c0 9f 3e 35 c2 23 3e
       0.31201655 0.15992053

conv_block2.0.weight f4 [16, 6, 5, 5]
000000 f7 3f 9f bd 39 88 76 3d 7c 5c bb 3d 2d 93 2c bc
       -0.07775872 0.060188506 0.09148499 -0.010533136
000010 fa 62 3d 3d b8 eb 41 3d 56 93 a4 3d 45 b8 02 3e
       0.04623697 0.04734394 0.080359146 0.12765606
000020 bd 0e b6 3c 51 03 bd bd a4 33 78 bc 5d 41 4f 3d
       0.022223825 -0.09229148 -0.015149031 0.050599445
000030 00 c9 85 3d 77 2c d3 bd 00 e4 8b bd e9 9e 93 bd
       0.06532478 -0.10311215 -0.06830597 -0.07208044
000040 40 26 d0 3d e2 68 18 bd f3 d7 be bd 74 94 fe bc
       0.101635456 -0.0372094 -0.09318533 -0.031076647
000050 13 ee 88 3d 4d 4c d1 bc a0 4a 86 bc b8 07 05 3d
       0.06686034 -0.025549078 -0.016393006 0.032478064
000060 2a d7 67 ba 8d 2c eb 3d 51 05 54 bd c9 c2 02 3d
       -0.00088440126 0.11483107 -0.051762883 0.031924043
000070 b7 0f 74 bd d2 ea 61 3d 9c c2 a7 3d 32 3b 3b 3d
       -0.0595853 0.055155583 0.08191416 0.04571075
000080 1f ee 9a bd d0 c9 70 3d a8 84 b2 3d e9 51 68 bc
       -0.07564949 0.058786213 0.087167084 -0.014179685
000090 aa f1 24 bc 11 77 72 3c 33 31 e1 3b 6e ec 89 3d
       -0.010067383 0.014798895 0.00687232 0.067345485
0000a0 29 ed 92 3d d8 a4 b4 3d 2f f5 74 bb c2 d2 10 bd
       0.07174141 0.08820504 -0.0037377586 -0.035357244
0000b0 03 35 83 3d 10 73 d8 bc 23 83 e4 3c 0b 99 59 3b
       0.064065956 -0.026422054 0.027894562 0.0033202793
0000c0 a9 5d a5 3d 5b 40 bd 3d 1e 46 e2 3d 90 69 6b 3d
       0.08074505 0.092407905 0.1104853 0.05747372
0000d0 f4 7a 11 bb ad 43 b7 bc f6 cb 5f bd f4 f1 47 bd
       -0.002219853 -0.022371138 -0.05463787 -0.04881473
0000e0 87 c7 e8 bc ee 88 59 3d a3 19 4a 3d 93 9e 0e bd
       -0.028415455 0.053109102 0.049340855 -0.034819197
0000f0 b3 31 9f bc 43 1b 0b 3e 31 47 0b 3e 5d 82 02 3d
       -0.019432878 0.13584618 0.13601376 0.031862605
000100 b2 0b 4b bd 6f af be 3d 55 df e4 3d 89 e2 79 3d
       -0.0495717 0.09310805 0.1117541 0.061007056
000110 b2 df c2 3d 2b 5c a8 3d a9 cf 6e bd eb ad 0f bd
       0.09515323 0.08220705 -0.05830351 -0.03507797
000120 c0 1e 5e bd bd 2b 08 bd fa 3c 44 bd 1f 82 9f 3c
       -0.054228544 -0.033244837 -0.047909714 0.019471226
000130 37 eb 7d bd aa 76 88 bb 0b 34 e7 bc 59 d7 15 bd
       -0.061991896 -0.0041645365 -0.028223058 -0.036582325
000140 db ea 8e 3c fd db 87 bd aa 9f 10 bd df e2 0a bd
       0.017445972 -0.06633756 -0.035308518 -0.033907767
000150 d4 41 9a 3d 82 49 54 bc ba a0 80 bd 5c 2a 1b bd
       0.07532087 -0.012956979 -0.06280656 -0.037882194
000160 c7 ac c3 3c cf fd 83 3d 81 f1 76 3d 7c 48 af bd
       0.023886098 0.064448945 0.06028891 -0.08558747
000170 7a ba 8f bb 7b 69 0e 3d 9c 10 ac 3c ec b3 49 3d
       -0.0043862434 0.034768563 0.021004014 0.049243852
000180 dc 03 8e bc 14 78 ae 3d 45 53 17 bc db e3 94 3d
       -0.017335825 0.08518997 -0.009236162 0.072700225
000190 4f cd ae 3d 42 a8 3c 3c 3b 75 e6 3d c6 b0 d8 3d
       0.08535253 0.011514725 0.11252829 0.10580592
0001a0 c0 cf 2a 3d 66 d7 8b bd 5b 83 d7 3d e9 01 08 3e
       0.041702032 -0.06828193 0.10523101 0.13281979
0001b0 8c 01 83 3d 61 6c 49 bd 64 82 a6 bb 01 b9 fe 3d
       0.063967794 -0.049175624 -0.0050814617 0.124376304
0001c0 1e 98 a8 3d 57 dd a6 3c 0d c6 2b bd 07 7e 62 bc
       0.08232139 0.020369215 -0.041936923 -0.013823993
0001d0 63 71 15 3d 32 ca 4c bd e4 19 41 3c c0 f5 6b 3d
       0.036485087 -0.049997516 0.011785958 0.057607412
0001e0 1d 85 47 3c 19 c7 a0 3d 71 1e 06 3c 54 bc 95 bd
       0.012177733 0.07850475 0.008185969 -0.07311311
0001f0 b5 45 e0 bc 2f e2 99 3d da a3 9a bd 2b 22 d6 bc
       -0.027376989 0.07513844 -0.075507835 -0.02613934
000200 fb 09 da bd b3 52 17 3e 06 60 92 3d 7f 58 59 bc
       -0.10646435 0.14777641 0.07147221 -0.013265728
000210 d3 77 18 be df 38 74 bd 01 74 26 bd 7b 4c 84 bd
       -0.1488946 -0.05962455 -0.040637974 -0.064599
000220 bb 93 24 be 41 6f 12 be c0 80 a6 bd ab 2a af 3c
       -0.1607198 -0.14300252 -0.08130026 0.02138265
000230 60 b5 40 3d 24 e6 ad 3d 8f 07 a6 3d 31 60 01 3c
       0.047047973 0.084911615 0.081069104 0.007896469
000240 15 8e ba 3c d3 5b b1 3d bd 7b dc 3d 47 cc 84 3d
       0.022772828 0.08660092 0.10765789 0.06484275
000250 f4 e4 b8 bb 0f 07 23 3c ce 1f a5 bb 98 eb 86 bd
       -0.0056425277 0.009950413 -0.005039192 -0.06587905
000260 9e a4 eb bd 41 98 38 bd 14 1f 05 3e 91 08 f4 bc
       -0.115060076 -0.045067076 0.13000137 -0.029789241
000270 4b e0 32 bd 48 42 9c bd 47 e3 da 3d 25 45 a0 3d
       -0.043670934 -0.0762983 0.10687881 0.07825688
000280 11 0a 4e bd 32 f1 55 bd ef ed ae 3d 14 c7 a2 3d
       -0.05030257 -0.052231975 0.08541476 0.079481274
000290 42 10 08 3e af de 14 bd 26 26 6c 3c 9d 81 05 bc
       0.13287452 -0.03634518 0.014413392 -0.008148578
0002a0 34 ba bc 3d dd 06 70 3c 6c 9f 0d bb e7 84 ba 3d
       0.09215203 0.014650074 -0.0021609915 0.0910738
0002b0 e1 93 5d 3d a5 b6 8d 3d 99 69 88 3d a4 c4 04 3d
       0.054096106 0.06919602 0.06660766 0.032414094
0002c0 91 e0 89 3d 48 9c c8 3c 8f a0 87 3d 8a ab 67 3d
       0.06732286 0.024488583 0.06622421 0.056560077
0002d0 84 5f f9 3c 1c 04 a3 3d 4c 9c f0 3a 0c 7f 37 3d
       0.030441053 0.07959768 0.0018357127 0.044798896
0002e0 0e 3f 04 be a9 88 ac 3d 6e 80 03 bc 56 d1 7f ba
       -0.12914678 0.08424503 -0.0080262255 -0.00097586715
0002f0 bf 35 e4 bd 5e b9 07 be 07 a6 1d 3d 59 5f be 3c
       -0.11143064 -0.13254306 0.038488414 0.023238825
000300 e3 8c 86 bc 25 b6 cb bd 7f ae 08 be f5 4f 25 bc
       -0.016424602 -0.09946851 -0.13347815 -0.010089864
000310 ee 8d 01 bd 95 cc 6d bd db db 1e be 4e 7c 44 bd
       -0.031629495 -0.058056433 -0.15513556 -0.04797011
000320 0b ce d0 bc b9 b3 03 bd 3b d4 0c 3d 92 35 c6 bc
       -0.025488874 -0.03215382 0.034382086 -0.024195466
000330 5f 87 cf bc 8c dd bb bc 41 bd 89 3c 48 9c 44 bd
       -0.025333105 -0.02293279 0.016813876 -0.048000604
000340 f5 e5 e7 bd b7 70 9e bd d8 14 b3 bd a5 bd c2 bd
       -0.11323158 -0.077363424 -0.0874421 -0.09508828
000350 c6 8c f9 bd ab 30 b1 bb 10 33 ee 3b b6 50 24 3d
       -0.121850535 -0.005407413 0.0072692707 0.040116034
000360 f9 c1 bc bd da 40 02 be 6b 7c 0e 3d 0b 98 93 3c
       -0.09216685 -0.12720051 0.034786623 0.018016836
000370 53 25 9f bd 3b b8 4e bd d2 7b 79 bd 80 55 45 3d
       -0.07770791 -0.050468665 -0.0609091 0.048177242
000380 ae 6d 4b bd f1 be 97 bd 1c 16 d4 bd 92 4c 84 bd
       -0.049665146 -0.07409466 -0.103557795 -0.06459917
000390 ca fc 88 3d 45 61 0a bd 39 a1 33 3c b3 6c 38 3d
       0.06688841 -0.03378417 0.010963731 0.04502554
0003a0 40 73 9c bc 6f 2c 57 3d da 9f 91 bd 7b 56 30 3d
       -0.019097924 0.05253261 -0.071105674 0.043051224
0003b0 3c 34 2d 3c 01 1e 82 3d 9c d6 64 ba 24 76 8f bd
       0.010571536 0.06353379 -0.0008729489 -0.070049554
0003c0 7f 45 4e 3d f1 c6 23 3d 16 a9 8a 3c a0 86 24 3b
       0.050359245 0.039984647 0.01692633 0.0025104657
0003d0 c9 fd 3a bd 1d a5 34 3b be 30 01 bd 7a 8d d5 bc
       -0.045652185 0.0027564235 -0.031540625 -0.026068438
0003e0 9d 3a f3 bc 41 3c 6d bd 18 a5 b9 3d 72 41 df 39
       -0.029691035 -0.05791879 0.09064692 0.00042582635
0003f0 14 0d 70 3d d4 11 17 3d 42 20 f0 3d 54 d0 65 3c
       0.058606222 0.036882237 0.11724903 0.01402672

conv_block2.0.bias f4 [16]
000000 02 75 8d 3c 40 2c 81 3d 22 d8 20 bd 54 cb d5 bb
       0.017267708 0.06307268 -0.03926862 -0.0065244827
000010 94 7f 53 3d fa 7c b5 3d ea 94 62 bd c3 1f e5 bc
       0.05163534 0.08861728 -0.055317797 -0.027969247
000020 be 90 35 3d ed 38 c4 bc 06 eb f0 bc a9 62 0a bc
       0.04432749 -0.023952926 -0.029408943 -0.008446374
000030 db 6a b9 3c 16 68 a6 3d bd 1a 0c 3d d3 91 a0 bc
       0.02263396 0.081253216 0.034205187 -0.019600784

fc1.weight f4 [120, 256]
000000 e8 2f 72 3c 88 b6 5c 3d 93 e2 18 3d cd 9a 1f ba
       0.01478193 0.053885013 0.037325453 -0.0006088436
000010 61 82 41 bc a0 28 2d bd 9c a7 85 3c 79 f4 60 3d
       -0.01181087 -0.04227507 0.016315274 0.054920647
000020 3e c2 35 3d 41 90 3b 3d 6e a2 3f bd 79 34 72 3d
       0.044374697 0.045791868 -0.046785764 0.059132073
000030 a7 ea 32 3d 81 54 43 3c 66 4d db 3c 89 42 76 bd
       0.043680813 0.011922003 0.026770305 -0.060122047
000040 2a 90 0a 3d cb aa 7d 3d 47 6e 57 3d d9 33 95 bd
       0.03382889 0.06193046 0.052595403 -0.0728528
000050 fd 1f 4b 3d 01 b0 25 3d 07 85 41 3d 3f be d9 bc
       0.049591053 0.040451054 0.047246005 -0.026579974
000060 5f 17 2c 3d 77 e5 b3 3a d3 c8 2b bd b7 bc 41 3b
       0.042014476 0.0013725002 -0.041939568 0.0029561946
000070 46 25 50 bd d7 ff 0b bd e9 2f 1a 3d 25 ec 34 bd
       -0.050816797 -0.034179535 0.037643347 -0.044170517
000080 d6 08 02 3d fa d5 2b bd 94 29 e2 b8 09 5b bf bc
       0.031746708 -0.04195211 -0.00010784264 -0.023358839
000090 c6 6f 16 3c 80 c4 73 3d 76 a4 21 bc eb 5c 2c bc
       0.009181922 0.05951357 -0.009865871 -0.0105202
0000a0 bd fc 33 3b 59 65 fa 3c 23 d7 9b bb e3 2b e8 bc
       0.0027463876 0.030565904 -0.004755871 -0.02834124
0000b0 ec 3b fd 3c c9 08 04 3d 04 e8 e5 bc bc d9 47 bd
       0.030912362 0.03223494 -0.028064735 -0.048791632
0000c0 c5 fd 22 bd 6c 05 16 bd 84 a6 0d bc 91 92 3c 3d
       -0.039792795 -0.036626264 -0.008645657 0.046038214
0000d0 f7 0a 1b bc ab e8 52 bc 2e a7 12 bd c6 de 10 bd
       -0.009463063 -0.012872855 -0.035803966 -0.035368703
0000e0 a3 8f fa bc 65 8a 15 bd 9a 66 85 bb fd 31 74 bc
       -0.03058607 -0.036508936 -0.004071069 -0.014904496
0000f0 49 ce b3 3c e6 db 6c 3c 6d 94 30 3d 91 c6 73 bd
       0.02194895 0.014456725 0.0431103 -0.05951554
000100 57 0e 4d bd 30 b2 c0 bc d5 23 17 bd 8d 92 6b 3b
       -0.050062504 -0.023522466 -0.036899406 0.0035945505
000110 69 83 c8 bc 97 40 82 3b 56 ce 5d bd 3b 50 8b bb
       -0.024476724 0.003974985 -0.054151855 -0.0042515076
000120 b6 bf 0f bd 57 29 96 3c 0f d7 9d 3c 5b 69 3a 3d
       -0.03509494 0.01833026 0.019267587 0.04551063
000130 41 58 28 bd 6e 47 21 bd b8 ed b4 bc 44 58 88 bd
       -0.04109979 -0.03937476 -0.02208601 -0.0665746
000140 e0 97 c9 3c 0c 5a 2f 3d b5 2b 4b bd bb 30 74 3d
       0.024608552 0.042810485 -0.04960223 0.059616785
000150 4f 47 29 bd a3 07 46 bd e4 11 31 bd 2c f0 df 3c
       -0.04132777 -0.048347127 -0.043229952 0.027336203
000160 ff fc b2 3c e3 b8 40 3d fa c8 4d 3d 60 91 19 3c
       0.021849154 0.04705132 0.050240494 0.009373039
000170 66 01 b0 bc 9b 82 e1 3b 44 54 26 3d 79 56 96 3a
       -0.021485042 0.0068820245 0.040607706 0.0011469863
000180 de 6b 7a bc 5f fb f0 bc 14 2b 12 3d ac 11 08 bd
       -0.015284507 -0.029416738 0.035685614 -0.03321998
000190 54 19 28 3d e2 b1 08 bd 99 6c e8 bc 1f 68 05 3d
       0.04103978 -0.033372767 -0.028372096 0.03257
0001a0 70 57 2a 3d 33 ec 98 bc 34 ba 35 3d c1 01 bc bc
       0.041587293 -0.018667316 0.04436703 -0.022950055
0001b0 3f 77 60 3d 96 22 6b bc da d2 2c bc db d6 db bc
       0.054801222 -0.014351508 -0.010548318 -0.02683585
0001c0 e3 f2 95 bc 0f d5 9f bb 6b d8 8b bc 08 a0 0a 3d
       -0.018304294 -0.0048776935 -0.01707097 0.033844024
0001d0 bf 3c 54 3d 1c 56 af bc 35 23 63 3c 9f 0e 7a 3d
       0.051815744 -0.021403365 0.0138633745 0.0610491
0001e0 d9 df b8 b9 f2 bf 0c 3d 4a e2 28 3b 76 91 81 bd
       -0.00035261994 0.03436274 0.0025769644 -0.063265726
0001f0 d0 73 4b 3c ed dd cd 3c 5f 43 32 3d e2 ac 84 bc
       0.012417749 0.025130237 0.04352128 -0.016195718
000200 a9 87 19 3d 1d df 61 bd 52 6f 16 3d a4 51 21 3d
       0.03748289 -0.055144418 0.036727257 0.0393845
000210 e0 aa 4a bd 69 02 0c 3d bf fc 26 bd 65 74 38 3d
       -0.049479365 0.034181986 -0.04076838 0.045032877
000220 e7 84 24 bd de a8 f5 bc ae 67 4c bd 29 c5 46 3c
       -0.040165808 -0.029987749 -0.049903564 0.012131968
000230 91 8f 0c bd 0d 1d 24 3c 27 8d 2f bb a3 96 06 bd
       -0.034316603 0.010016692 -0.0026787014 -0.032858502
000240 89 83 7b bc 61 4b 55 bd 17 9d 9e bb 70 57 3c bd
       -0.015351185 -0.05207384 -0.004840504 -0.045981824
000250 6c b7 0d 3d a8 50 ea 3b 25 93 95 bd b1 e8 03 3d
       0.034598753 0.0071507283 -0.07303456 0.032204334
000260 e0 96 2a 3c a5 bb 7e 3c ea 83 fb 3c 07 0f 16 bd
       0.010411948 0.015547668 0.03070255 -0.036635425
000270 8c ac 4a 3d 4a 1f 5b 3d 06 e4 ec bc 0c 30 60 bc
       0.04948096 0.053496636 -0.028917324 -0.01368333
000280 dd 2a 03 bd c1 07 12 3d 0c 7d 88 bb 95 7b 36 3d
       -0.0320233 0.035651926 -0.0041652974 0.04455145
000290 7b 16 39 bd bb 70 cc bc 4e 21 5f 3d 0f 0f 3c 3d
       -0.045187455 -0.024956098 0.05447512 0.0459128
0002a0 53 f1 9d bb 63 a8 65 bd c2 a3 23 3d 51 9e dd bb
       -0.004820028 -0.05606879 0.039951093 -0.0067632576
0002b0 66 82 27 3d 44 28 44 bd 7d 2f 7c 3c cc 7d 13 3d
       0.040895842 -0.047889963 0.015392181 0.03600864
0002c0 76 13 7a 3d 3b 85 21 3c ea e0 fb 3c 76 3c 7b bd
       0.061053716 0.009858425 0.030746896 -0.061336957
0002d0 2b b5 ef bc 06 f5 22 3d ff 31 59 bd d6 67 c6 bb
       -0.029261192 0.039784454 -0.053026196 -0.0060548587
0002e0 83 d8 12 3d 34 61 1b 3d 5e 5c bf bc 1e cc d6 3c
       0.035851013 0.037934497 -0.023359474 0.026220378
0002f0 59 71 1f bd ab f1 74 bc 46 9b c0 3c 61 16 6b bd
       -0.038926456 -0.014950196 0.02351154 -0.05739439
000300 10 82 11 3d b1 b6 f0 bc 7c 01 91 bd 4d 83 c2 3c
       0.035524428 -0.029383989 -0.07080361 0.02374425
000310 1f 30 5f bd 23 01 7b 3d 2f 22 67 3d fe 8e 70 3c
       -0.05448925 0.06128038 0.056429084 0.0146825295
000320 e4 03 25 bd ea e0 86 bd 9b a6 7d bd 7e f8 82 3c
       -0.040286914 -0.06585868 -0.061926465 0.015987631
000330 e1 33 43 bd b3 f5 8b 3c 28 f0 55 3c 32 b9 0f bc
       -0.047656897 0.017084932 0.013057746 -0.008772181
000340 c7 d6 e1 3b 9f 64 f0 bc 89 84 37 3d 28 39 32 3c
       0.0068920585 -0.029344855 0.04480413 0.010877885
000350 23 53 f1 3b 4e de c3 3c 81 0f 82 3d e3 49 5b bd
       0.007364647 0.023909714 0.063506134 -0.05353726
000360 8d 6a 55 3d ea a8 50 3d b1 8b 80 3d 9d fd 89 bc
       0.052103568 0.05094234 0.06276644 -0.016844565
000370 5f bf 9a bb 85 61 44 bd 9d 4e 9b 3b e7 b3 1c 3d
       -0.0047225202 -0.047944564 0.004739596 0.038257506
000380 26 66 6d bb ce 06 8f 3d e4 e2 ff 3c 90 aa bf bc
       -0.0036224215 0.0698372 0.03123612 -0.02339676
000390 c5 e7 63 3d 64 d7 4d 3c f7 6a 97 3c 1e 75 4a 3d
       0.055640955 0.01256356 0.018483622 0.049428098
0003a0 1f e8 13 bc f4 91 29 bd 4b bf 38 bc b8 89 72 3c
       -0.00902751 -0.041398957 -0.011276077 0.0148033425
0003b0 af 4c 05 3d e0 23 27 3d 75 46 87 3c 76 25 3f 3c
       0.032543834 0.040805697 0.016513089 0.011666646
0003c0 d9 32 3b 3c cf e2 41 3c 0a a8 07 3c 11 3e 66 bd
       0.011425697 0.011833861 0.00827981 -0.056211535
0003d0 64 55 89 3b f2 62 19 3d cb e5 83 3c 93 26 4f bd
       0.0041910876 0.037447877 0.016100785 -0.050573897
0003e0 1a c7 6e bd 5f 5d 31 bd 12 50 67 bd bf 41 83 3c
       -0.058295347 -0.043301936 -0.056472845 0.016022561
0003f0 62 99 27 3d 0f d7 49 bd 9b 9e fd 3a 0e 71 8e 3c
       0.04091776 -0.04927736 0.0019349636 0.017387893

fc1.bias f4 [120]
000000 a5 34 f5 ba 26 e5 f4 bc 5e 7a 23 3c c1 35 45 bd
       -0.0018707706 -0.029894423 0.009977905 -0.048146967
000010 56 9a 57 bc f8 52 0d 3d f7 f0 91 bc 6c 3f 42 bd
       -0.013159355 0.034502953 -0.017815096 -0.047423765
000020 1f a4 2d bd 06 fb 82 3d 2e f7 28 3b e5 f2 02 3d
       -0.042392846 0.06395535 0.0025782096 0.031969924
000030 57 f0 29 3d d9 e0 4f bd 6d 78 d8 3c 2d f6 49 ba
       0.04148897 -0.05075154 0.026424611 -0.00077042246
000040 d7 6b 0c 3c 2a 6a 2d bd 21 c2 cf 3c 3b 2c 49 bd
       0.008570633 -0.042337574 0.025361123 -0.049114447
000050 96 af 4d bd 5b f4 12 3c 6a f1 27 3d 9a 88 47 3d
       -0.05021628 0.008969392 0.041001715 0.048714258
000060 3e 47 47 3d 14 e1 96 bc e7 95 8c 3a b8 ea 20 3d
       0.048651926 -0.018417872 0.0010725827 0.039286345
000070 86 c1 18 3d 21 bc a6 3b d0 aa e1 bc 74 8f fb bc
       0.037293933 0.0050883447 -0.02754727 -0.030708052
000080 a5 92 3b 3c dc aa b9 ba 62 99 a9 bc d9 7a 81 bc
       0.011448537 -0.00141653 -0.020703021 -0.015805649
000090 73 87 1a bd fa 4e 82 bc e5 0b 68 bc 7d d9 59 3b
       -0.03772683 -0.0159068 -0.014162992 0.0033241205
0000a0 a6 25 76 bc 25 7c 17 bd dc 40 cf bc ab c8 6d bd
       -0.0150236245 -0.036983628 -0.025299482 -0.0580527
0000b0 b8 6f ab 3c fb 30 12 bd 3f da 5b bc 50 9c 43 3d
       0.020927295 -0.035691243 -0.013418733 0.047756493
0000c0 ad 3f 6b 3d e0 75 62 bb 14 04 43 bd b6 61 e9 bb
       0.057433773 -0.0034555122 -0.04761131 -0.0071222438
0000d0 88 66 cf 3c 05 e7 e6 bb da 78 a2 3c 42 a7 7e bd
       0.025317445 -0.0070465826 0.019833017 -0.06217123
0000e0 2e 6a 31 3d 5d cf eb 39 2d f2 eb bc 85 07 3d bb
       0.04331415 0.0004497719 -0.028802002 -0.0028843593
0000f0 33 11 37 3d 22 92 ab 3b 31 18 22 bd 08 18 e7 3c
       0.044694137 0.0052359262 -0.039573852 0.028209701
000100 e2 03 f4 bc 58 60 f5 3c 8a 88 03 3d 65 7c 81 bd
       -0.029787008 0.029953167 0.032112636 -0.063225545
000110 0f 26 61 bd 36 cb c0 bc cd 1b 2a 3d c3 03 8d 3c
       -0.054967936 -0.023534399 0.04153042 0.017213708
000120 b2 ed 84 3d 54 79 61 bd d1 c0 7c 3d f3 94 52 bc
       0.06490649 -0.05504735 0.06170732 -0.012852895
000130 a3 fc 63 bd 7d b3 45 bc 00 84 e6 3c 0f 64 53 ba
       -0.055660855 -0.012066719 0.028139114 -0.0008063921
000140 ec d8 ca 3c 94 98 7f 3d ff e5 86 ba 25 74 3d 3d
       0.02476164 0.06240137 -0.0010291933 0.046253342
000150 3d 7d 31 bd 39 00 ff 3c 4d 00 4a bc 51 3e 10 bd
       -0.043332327 0.031128036 -0.012329173 -0.03521568
000160 fe 05 9c 3b 88 04 0d bd 00 3e 2e ba e5 f9 4d 3d
       0.0047614565 -0.03442815 -0.0006646812 0.050287146
000170 ea ea 53 bc b4 69 4d 3d 88 87 a7 3b 8a db 37 bc
       -0.012934426 0.050149634 0.005112592 -0.011221776
000180 96 24 d7 bc 37 95 de 3c 7c 1d b2 bc 70 7a 3f bd
       -0.026262563 0.02717076 -0.021742575 -0.046747625
000190 7e b8 61 3d 1e 4d c6 3a b0 bc 8e 3c 1b cd 03 bd
       0.055107586 0.0015129184 0.017423958 -0.032178026
0001a0 c9 94 06 3d ec 50 f9 3c 45 28 bc 3c 73 92 0f 3c
       0.032856736 0.030434094 0.02296842 0.008762944
0001b0 12 87 4d 3d d7 2f 66 3c 45 ee 8d bc 79 ea 53 bd
       0.05017764 0.014049492 -0.01732553 -0.051737282
0001c0 d2 c4 6a 3d b3 99 74 3d cf 46 2c bd 3e 96 05 3c
       0.05731661 0.05971689 -0.042059716 0.008153496
0001d0 d4 2e 95 3b a4 39 db bb 69 d0 2d bd a9 64 0a 3d
       0.0045527015 -0.006690221 -0.042435084 0.033787403

fc2.weight f4 [84, 120]
000000 2b 1a 19 bd bc e7 b3 3c bd e9 a5 3c d3 a9 5a 3d
       -0.03737847 0.021961085 0.020253057 0.053384613
000010 03 1b 7c 3d db f3 da bc be fc d0 3b b0 57 86 bd
       0.061549198 -0.026727607 0.0063777855 -0.06559694
000020 32 54 ec b8 0b 41 03 3d 7b 71 22 3d 22 c3 95 3d
       -0.000112690395 0.03204445 0.039659005 0.07312609
000030 e4 0e ce bc 3f 65 a3 bd 0c 23 30 bd 68 ba c2 3d
       -0.025153585 -0.079782955 -0.043002173 0.095082104
000040 97 23 34 3d 3f 78 84 3d 50 36 38 bd c0 36 07 bd
       0.043979254 0.064682476 -0.04497367 -0.033011198
000050 f3 9b 5e bd 20 ff e3 3d 04 62 2c bd 18 7a a4 3d
       -0.054347944 0.111326456 -0.042085662 0.080311
000060 a2 ce 3c bd c5 7a 0a bd 15 30 7a bc 11 38 11 3c
       -0.046095498 -0.03380849 -0.015270253 0.008863465
000070 7f 4b 77 3d be 41 0e 3c be 8d 6a 3d 55 5e 9c bd
       0.060374733 0.008682666 0.057264082 -0.0763518
000080 88 15 a2 bd 42 ca a1 bd ca 60 94 3d f1 45 ab bd
       -0.07914263 -0.07899906 0.072450235 -0.0836295
000090 32 d1 04 3d 8b e1 09 3c 59 1d c9 3d 48 c9 88 3d
       0.032426067 0.00841559 0.09820051 0.06679016
0000a0 8d 63 3f bd 5f 8b ca 3d f0 c7 d8 bd 70 a6 9d 3d
       -0.0467258 0.09889864 -0.1058501 0.07697761
0000b0 b0 54 37 3d be 60 9b 3d 54 95 49 bd f9 dc 58 bd
       0.0447585 0.075868115 -0.049214676 -0.05294511
0000c0 55 5f ac 3d d3 c9 9f 3d b5 80 3a 3d e7 fb 28 3d
       0.08416621 0.07802167 0.0455329 0.041255858
0000d0 30 dc c8 bc 6b 62 51 3d 11 50 62 3d 67 df 55 bc
       -0.024519056 0.05111925 0.05525214 -0.013053752
0000e0 93 28 4e bd aa 2b 90 3d 14 48 9b 3d 03 20 3b 3d
       -0.050331663 0.07039578 0.07582107 0.045684826
0000f0 c6 c0 74 3c 75 f0 56 bd e3 4b b0 bd 2f 25 1c 3d
       0.014938539 -0.05247541 -0.08608224 0.0381214
000100 13 e4 8f 3d 7f f3 0f 3d 30 3b 86 bd 04 04 c6 bd
       0.070259236 0.035144325 -0.06554258 -0.09668735
000110 25 e7 9f 3c 52 f6 05 bd 70 5c 25 bd da f9 9b bd
       0.019519398 -0.032705612 -0.04037136 -0.07616015
000120 96 4d b6 3d ee 09 8e bc f5 c5 3d 3d 2f e8 cd 3d
       0.08901517 -0.01733872 0.046331365 0.10054051
000130 8f ca 81 bc 09 fa 10 bd 20 59 81 bc 08 82 5d 3d
       -0.015843658 -0.035394702 -0.015789568 0.054079086
000140 b2 9c db bd 10 ea be 3d 33 b0 46 3c d7 df b0 3d
       -0.10723247 0.09321988 0.01212697 0.08636444
000150 07 75 7b 3d 5f 46 c1 3d f4 31 fc 3c 34 8f 8e bd
       0.061390903 0.0943725 0.030785538 -0.069609076
000160 a1 85 fa 3c c8 32 44 bd 18 d9 0d 3c b1 6a ec 3c
       0.030581297 -0.04789999 0.008657716 0.028859468
000170 80 3d 9a bd e9 08 92 3d b9 13 20 bd 61 ff e4 3d
       -0.075312614 0.07130606 -0.03908131 0.11181522
000180 78 80 3a 3d 9c f4 2d bd 6e e1 91 3d aa 44 76 bd
       0.045532674 -0.042469606 0.071230754 -0.060124077
000190 23 cf ef bb 2b dc a7 bd 2b 1d 41 3d 36 ee 8f bd
       -0.007318394 -0.081962906 0.047146957 -0.07027857
0001a0 92 22 47 bd 00 b4 12 3d a2 1a 81 3d 5b 58 37 bd
       -0.048616953 0.035816193 0.06303908 -0.044761997
0001b0 9c 48 ae bd e6 cc a0 bd ee e5 fa 3b 5e b2 fe 3c
       -0.08509943 -0.07851581 0.0076568043 0.031090911
0001c0 3e 92 dc bd 83 36 b5 bd 16 74 52 3c 6a 5a b3 bc
       -0.10770081 -0.08848288 0.01284506 -0.021893699
0001d0 d6 d1 f9 3c 6a 96 ad 3c 1f e2 40 bd aa 91 2f 3c
       0.030495565 0.021189887 -0.047090646 0.010715881
0001e0 c0 d3 21 bd d1 ce 30 bd c6 cc 55 3c 2a 80 97 bd
       -0.03950858 -0.043165985 0.01304931 -0.07397492
0001f0 96 3d 96 bd 27 cc c9 3d bc 7b e9 bd b1 65 9c 3d
       -0.07335965 0.09853392 -0.114005536 0.076365836
000200 cc fb a0 bd f0 12 8d bd ef bc d9 3d 46 ed bf bd
       -0.078605264 -0.06888378 0.10631739 -0.09371428
000210 b2 b2 b2 bc 9f 05 a1 3d 1b 33 68 3d 4f ce e1 3c
       -0.021813724 0.078624 0.056689363 0.027564196
000220 51 a2 4a bc 4e 2d 73 bd a5 a6 02 3d de 3d 46 3d
       -0.012367801 -0.059369378 0.031897206 0.048398845
000230 06 e5 11 3b 87 d2 e8 3c 20 70 57 bd 02 ca 0a 3b
       0.0022261753 0.0284207 -0.052597165 0.0021177535
000240 a6 6c a6 3c b6 3b e1 bc d7 7f c7 3d 8f e6 ba bd
       0.02031548 -0.027494293 0.097411804 -0.09126007
000250 cc f6 01 3c c3 1c 4b bd af be 31 bd d8 d6 52 bd
       0.007932376 -0.049587976 -0.04339474 -0.051474422
000260 71 f5 3a bd 57 b7 36 bd a8 c5 f7 bb 02 25 af 3d
       -0.045644227 -0.04460844 -0.0075614043 0.085519806
000270 4b 4f 06 bd 41 d0 87 3d d0 9e 26 3c 7b 08 1c b9
       -0.032790463 0.06631518 0.0101697 -0.00014880479
000280 e0 9c 06 bd 1c 48 92 3d aa f7 de 3d da 38 aa 3d
       -0.03286445 0.0714266 0.10887082 0.08311625
000290 17 9c f2 3c f2 c3 cb 3d 57 45 8b 3d 5f d8 c9 3c
       0.029615445 0.09949483 0.06800335 0.024639307
0002a0 bd e7 81 3d fe 90 75 bd 00 dd b8 bd c7 2f 85 bc
       0.06343029 -0.05995273 -0.090265274 -0.016258134
0002b0 a8 5d 95 bd 0d 6d b7 39 df 1f 89 bd 83 c7 42 3d
       -0.07293254 0.0003498573 -0.06695532 0.04755355
0002c0 72 40 9d bd 56 72 39 3c ab 88 b7 3d be eb a5 3b
       -0.076783076 0.011318764 0.08961614 0.005063503
0002d0 6e 58 a1 3d aa b4 fc 3c c4 cf a8 bd de df bd bc
       0.07878195 0.030847866 -0.08242753 -0.023178037
0002e0 50 99 18 3c 44 ce bf 3d a2 d5 b3 bd d2 98 cd 3d
       0.009313896 0.09365514 -0.087809816 0.10038914
0002f0 84 35 93 3c fd 7c 0c 3c 14 bc 2e 3d b6 84 ef 3c
       0.017969854 0.008574721 0.042659834 0.029238086
000300 da 42 84 bd 48 a3 11 bd 0d 28 55 bc 24 b2 5a bd
       -0.064580634 -0.035556108 -0.013010037 -0.053392544
000310 f6 72 1e 3d c5 1a 82 bc 94 0e 73 3d d3 6a a1 bc
       0.038683854 -0.015881905 0.059340075 -0.019704258
000320 68 5b 81 3d c6 d3 d4 bc 94 d0 bd bd 44 68 bf bd
       0.063162625 -0.025979888 -0.09268299 -0.09346059
000330 d8 0b 22 bc df 11 bf bc 9b dd 5f 3d 30 a1 d1 ba
       -0.009890519 -0.023323951 0.0546547 -0.0015993472
000340 af f0 0c 3d 00 f1 7f bd 80 a0 8b bd 5b 7c a2 bd
       0.03440922 -0.062485695 -0.06817722 -0.07933875
000350 8d bd 17 bd bc 60 9a bc 3f 8f 99 3d 17 3f 05 3d
       -0.037046004 -0.018844955 0.07498025 0.03253087
000360 6f db 75 3d 2d c8 6b bc 28 30 ab 3d 26 57 9b bd
       0.06002372 -0.014390987 0.083587945 -0.075849816
000370 f5 84 fe 3d 75 47 d7 bb e6 4c e6 3d 69 80 a2 bd
       0.12427703 -0.0065697976 0.11245136 -0.079346485
000380 4e 1f 03 bd db 4a aa 3d cf 46 d7 3d 21 d6 40 3b
       -0.032012276 0.08315059 0.105115525 0.0029424506
000390 2e e1 6c bd 1f f3 a2 3d 1f a8 e8 3d 2d 8d 4c bd
       -0.057831936 0.07956528 0.113601916 -0.049939323
0003a0 63 d7 33 3c aa 25 7c 3d bc 17 68 3d 98 09 1f 3d
       0.010976645 0.061559357 0.05666326 0.03882751
0003b0 01 99 c6 3c 3d 59 68 bd 5e 33 58 3c 79 92 4f bd
       0.02424288 -0.05672573 0.013195841 -0.050676797
0003c0 c6 bc c5 37 d6 ac 72 bd 25 d7 9b bb 2d 65 0d bd
       2.3572135e-05 -0.05924686 -0.004755872 -0.034520317
0003d0 a5 41 8b bd 82 32 ae 3d bf d6 ad bd 56 8e 04 3d
       -0.0679963 0.08505727 -0.08488225 0.032362305
0003e0 78 df 7d 3c fb bd bc 3c 05 68 2c bd ac fc 56 bd
       0.015495174 0.023039808 -0.04209139 -0.05248706
0003f0 66 ae 72 bd 50 65 45 3d 49 81 29 bd 0f 41 69 bd
       -0.05924835 0.048192322 -0.04138306 -0.05694681

fc2.bias f4 [84]
000000 74 07 31 3d 2b b7 fd bc a5 12 2c 3d 1f ce 05 3d
       0.04322 -0.03097113 0.04200997 0.032667276
000010 ab 9f 6d bd dc 56 b1 3d 34 79 b6 bd 2e 0c e6 3d
       -0.0580136 0.08659145 -0.089098364 0.11232792
000020 22 ec a7 3d ad 29 7f 3d 23 56 36 bd 3b ab 34 bd
       0.08199336 0.062295604 -0.04451574 -0.04410861
000030 d2 cb 99 bd c9 f1 90 3a 7c 79 e0 3d cc 23 08 3c
       -0.07509579 0.0011058386 0.10960671 0.008309316
000040 04 92 0b bc 87 f2 44 bd 09 ef a4 bd 3c 6c 35 bc
       -0.0085187 -0.048082855 -0.08053405 -0.011073168
000050 b3 f1 95 3d 4b 0e 3e 3d 50 e2 13 3d 2b 46 f5 bc
       0.07321491 0.04640035 0.0361045 -0.029940685
000060 e1 a8 94 bd af ef 2c bd 0c 53 74 bd 3d 3c 8e 3d
       -0.072587736 -0.042220768 -0.059649512 0.06945083
000070 2a 39 92 bd 26 c0 8a 3d 6d 54 89 bc 1d a4 59 bd
       -0.071398094 0.06774931 -0.01676389 -0.053135026
000080 54 b5 17 3d a4 23 6c bd 7d ed 05 3d 2d c8 56 3d
       0.037038162 -0.057651177 0.03269719 0.052436996
000090 12 35 2f bd 5b d6 f1 bb 3f ee 49 ba 9d 65 4e 3d
       -0.04277522 -0.0073802895 -0.0007703043 0.050389875
0000a0 8b df 80 3c a4 6b ae 3c b6 01 ce 3d 95 39 93 3d
       0.015731594 0.021291561 0.1005892 0.07188717
0000b0 59 6d 0b 3c 5c 93 7f 3d b3 e9 51 3d 45 c5 dc 3c
       0.008509957 0.062396392 0.051248264 0.026949534
0000c0 ce 5b 39 bd 1e 50 2b 3d 9e ab fd 3c a6 f0 2b 3d
       -0.045253567 0.041824453 0.030965623 0.041977547
0000d0 cc 8a 3c bd 5c 9d 5e 3d 6a 16 94 3d ca ac 16 bd
       -0.046030805 0.05434929 0.07230838 -0.03678588
0000e0 8e 70 41 3c dd 36 d8 3c 30 18 97 bc 35 4c 73 3d
       0.01180662 0.026393348 -0.01844415 0.05939885
0000f0 24 7d 89 3d 4b 0f 4c bd c9 86 84 bd e7 2e 63 bd
       0.06713322 -0.049819272 -0.06471021 -0.05546465
000100 bb 66 61 3d 58 81 97 3c 84 a2 55 3d 42 8e 96 bd
       0.055029612 0.018494293 0.05215694 -0.07351352
000110 b6 81 76 bd d0 91 8e 3d 81 4a 0a 3d 9b b0 a3 3d
       -0.060182296 0.06961405 0.03376246 0.07992669
000120 7b e7 83 bd 36 f0 a7 3d 6f 1d b8 3d be bc b1 3d
       -0.06440636 0.082001135 0.08989989 0.08678578
000130 3e 71 53 3d e2 8b 18 bc 03 e5 95 3d b5 38 52 bb
       0.051621668 -0.009310694 0.07319071 -0.0032077257
000140 db bf 9c 3c 1d 2e 82 3d 25 cb 10 bd 9e f6 06 3d
       0.019134453 0.06356452 -0.035349984 0.032950036

fc3.weight f4 [10, 84]
000000 80 7f 55 3e 57 39 dd bd 76 fd 63 3c 9a af f8 3c
       0.20849419 -0.10801952 0.01391541 0.03035717
000010 15 a3 0f be 80 94 4e 3d 1f 0e 5a bc 9d 43 51 3e
       -0.14027055 0.05043459 -0.013309031 0.20435949
000020 85 d9 5d 3d dd 4f 15 3c b4 5b d9 3d 78 d1 a6 3d
       0.05416252 0.009113279 0.10613194 0.08145422
000030 8a 78 58 bc fb 00 92 bd d5 13 19 3e 74 78 ab bd
       -0.0132123325 -0.07129093 0.14948972 -0.08372584
000040 a1 04 ee 3b fc 70 e7 3b 0b 4f f9 3d d6 e0 9a 3d
       0.0072637354 0.0070630293 0.121732794 0.07562415
000050 18 66 76 3c b6 51 38 3e d5 e0 1c 3e b6 28 91 bd
       0.0150389895 0.1799992 0.15320142 -0.07087843
000060 94 31 da 3d 67 1b 7a bc ec f4 b4 3c c9 c3 34 3a
       0.106539875 -0.015265322 0.022089444 0.00068956293
000070 d8 5e 28 3d 21 d5 ea bd f1 9d c5 bc e9 9d cb 3c
       0.041106075 -0.11466432 -0.024123164 0.02485557
000080 1a d4 d1 bd 1b 71 9a bd d3 ee 36 3d 63 f6 c5 bc
       -0.10245533 -0.075411044 0.044661354 -0.024165338
000090 b7 0c 83 bd 38 43 2c bd 18 e4 10 bd 31 03 51 3e
       -0.063989095 -0.042056292 -0.035373777 0.20411374
0000a0 44 3e 30 be b2 d6 18 3e d4 59 7b bd 03 2b 37 3e
       -0.17211252 0.1492565 -0.061364964 0.17887501
0000b0 1a 6b ec 3d b2 f6 24 be 4b 4c a1 3d 67 10 f4 bd
       0.115438655 -0.16109732 0.0787588 -0.11917191
0000c0 b6 3f 45 3d 1d 73 b9 bc 86 f4 e0 bc e8 dd a0 bc
       0.048156463 -0.022637898 -0.027460348 -0.019637063
0000d0 82 12 60 be fd fa 77 3b ec ba 0d 3e 26 6a 4f bd
       -0.2188206 0.003783881 0.13840836 -0.05063834
0000e0 07 05 3d be df b1 02 be 1a 04 8d 3d 60 4e 1a be
       -0.18458949 -0.12763165 0.06885548 -0.1506896
0000f0 02 2f 6d 3b 04 43 cc 3d fe 92 a6 3c 69 89 41 be
       0.003619135 0.0997372 0.020333763 -0.18900074
000100 22 82 e4 3d cd f7 c4 bd 8d a6 a0 3c f8 5a de bd
       0.11157633 -0.09617577 0.019610668 -0.10857195
000110 38 53 30 3d b4 ba aa 3d bd 44 ba 3d 4c e8 41 bd
       0.043048114 0.08336392 0.09095142 -0.047340676
000120 47 91 46 3d ab 88 d8 3c 4e 3b 31 be 16 ab ab bd
       0.04847839 0.026432356 -0.17307779 -0.083822414
000130 63 25 24 3e 6e 6b af 3c 4e f9 19 bd f0 fe 82 3d
       0.16029887 0.021413531 -0.03759127 0.06396282
000140 01 13 96 bc e5 ce 83 3d f8 04 f5 bc 6c 8d 1d 3e
       -0.018319609 0.064359464 -0.029909596 0.1538598
000150 ee ca 09 be 71 1a a5 3d 9d 95 74 3d 19 7f 88 3d
       -0.13456318 0.08061684 0.059712995 0.06664867
000160 64 46 4b 3e aa 23 e5 3d de 98 7d 3d c8 c1 22 be
       0.1985107 0.11188443 0.061913364 -0.15894234
000170 94 7a 23 be e0 01 24 3e 87 85 2d 3b bc 39 ae bd
       -0.15964729 0.1601634 0.0026477294 -0.08507106
000180 95 de f0 bd 6b 04 8b bd ca fc fe bd e5 9c e2 bd
       -0.11761204 -0.06787952 -0.124505594 -0.110650815
000190 bf d0 58 bc 9e 1b cd bb 73 ab e4 3d 73 ea 10 be
       -0.013233363 -0.0062593957 0.11165514 -0.14151935
0001a0 ca 64 95 bd 54 56 42 3d 66 21 a6 bb c2 bb a7 bd
       -0.072946146 0.04744561 -0.0050698994 -0.08190109
0001b0 ab b0 b3 bd bc 45 24 be 9a 30 cf 3d a9 45 80 bd
       -0.08773931 -0.16042227 0.10116692 -0.062632866
0001c0 54 b5 3d 3d 00 08 c7 bd 75 a8 67 3e 27 3c 78 3a
       0.046315506 -0.09718323 0.22622855 0.00094694126
0001d0 29 90 93 bd 42 52 e0 bc 44 58 34 bd 56 76 12 3e
       -0.07205231 -0.027382974 -0.04402949 0.14302954
0001e0 9f 09 5d bd a7 44 da bd e6 2c 51 3e ae 8c 0f 3e
       -0.053964254 -0.10657626 0.20427284 0.14018509
0001f0 fc 3a b2 3d ba 32 db 3d cf 67 09 be 53 43 c1 bb
       0.087026566 0.10703035 -0.13418506 -0.0058979183
000200 bb fd a3 3d b0 9f 4f 3e e0 8f 03 3e d2 65 44 bd
       0.080073796 0.2027576 0.12847853 -0.047948666
000210 f7 84 06 3e 59 d2 31 be 14 cd 18 be bd d7 92 3d
       0.1313666 -0.17365398 -0.14921981 0.07170055
000220 c4 04 0e 3e ee 10 bc 3d a9 5d ad bd 99 86 28 bd
       0.13869005 0.091829166 -0.0846513 -0.041143987
000230 79 7e 94 3d 36 aa b8 3c 7d 36 e3 3d af 24 93 3d
       0.07250685 0.0225421 0.11094377 0.07184731
000240 16 3c 23 be 29 2d a7 bd a5 e3 fc 3c 57 73 45 3c
       -0.1594089 -0.081629105 0.030870268 0.012051425
000250 58 7b 8f 3d fa 10 8a bd 2d b9 77 3d de 30 fb bc
       0.07005948 -0.06741519 0.06047933 -0.03066295
000260 37 e0 f1 3d fa 0c 33 3e 00 a4 1c 3d 49 37 60 be
       0.11810344 0.17485419 0.03824234 -0.2189609
000270 ee 76 d8 bc c3 29 54 be 85 34 c5 bd 8f 83 0f be
       -0.026423898 -0.20719056 -0.09629158 -0.1401503
000280 5f e2 23 3b 84 e5 3c bd f1 d2 59 bd 9f 2f 74 bc
       0.0025006754 -0.04611732 -0.053179685 -0.014903932
000290 3c 78 94 3d 7f fe 8b 3d 11 31 60 bd 06 f5 04 3d
       0.072494954 0.06835651 -0.054734293 0.032460235
0002a0 1f 9c 01 3e 57 ab 98 3d 16 46 f6 bd 9d 79 ba bd
       0.12657212 0.074545555 -0.120250866 -0.09105227
0002b0 0f a9 46 bd b8 53 b7 3d 0c aa 2f 3d 3f 1f 17 bc
       -0.04850107 0.08951515 0.04288678 -0.009223758
0002c0 ae 91 92 3d d1 e8 ba bd 03 c5 55 3d c4 7c a2 3d
       0.071566924 -0.091264375 0.05218984 0.079339534
0002d0 83 02 ec 3d 88 d3 12 3e 06 92 b0 3d 2a a5 4b 3c
       0.115239166 0.14338505 0.08621602 0.012429515
0002e0 c0 8f d8 3d 1a c3 c8 3d 51 3b 3d 3d 4f ef 01 be
       0.10574293 0.09802838 0.046199147 -0.12688945
0002f0 99 cb 05 be f5 ad 65 bc 49 ec 4c 3e 41 05 2e bd
       -0.13065948 -0.014018525 0.2001201 -0.04248548
000300 20 1d 3c 3e 26 21 4d be 04 3f b4 3d be 6f 76 bd
       0.18370485 -0.20032176 0.08801082 -0.06016516
000310 55 cb 8f bd 76 02 08 3e 78 b8 07 3e 8e 9f e1 bd
       -0.070212044 0.13282189 0.13253963 -0.11016761
000320 db 5b 1d 3c c9 59 82 3d 4c dd ac bc 9e 4a 86 bd
       0.00960442 0.063647814 -0.021101616 -0.06557201
000330 0f 21 9c 3d f6 18 59 3e 8e 36 97 3a 3a 79 ea bd
       0.07623493 0.21200928 0.0011536644 -0.114489034
000340 18 be 51 bb 00 bb 87 bd 77 c6 05 be 5e 22 99 3c
       -0.0032004174 -0.06627464 -0.1306399 0.018693145
000350 38 a7 c9 bd 91 83 10 be 7f 0c 3e bd f2 3e ca bd
       -0.098463476 -0.14112689 -0.046398636 -0.09875287
000360 b3 d3 59 3c 9d e7 0e 3e cd b2 4b be db 30 83 3e
       0.013295102 0.13955541 -0.19892426 0.2562321
000370 c1 4b 91 bc 95 fc d6 3d a2 ea e4 bd 37 2d 23 be
       -0.017736318 0.10497395 -0.11177565 -0.15935217
000380 35 c6 38 3e 77 dd b6 3d 77 25 25 3e f1 db 17 be
       0.1804436 0.0892896 0.16127573 -0.14829995
000390 79 95 9b 3d 2f 7e 2b 3e b0 57 92 bd 8b fd d7 3d
       0.07596869 0.16747354 -0.07145631 0.10546406
0003a0 ed fe 35 3d a0 ac a5 bd 55 6a 24 3e 7c 21 55 3d
       0.04443257 -0.08089566 0.16056187 0.052033886
0003b0 b0 3c 17 bd 25 7a 7d be d5 15 d5 bc e7 10 c2 bd
       -0.03692311 -0.24753626 -0.026011387 -0.0947588
0003c0 5b fa 2f 3e 31 f2 07 be 34 e9 96 3d be 94 f5 bd
       0.17185347 -0.13275982 0.07368699 -0.11991261
0003d0 97 4e ba 3d ff 3a f9 bc d8 33 ed bd e0 c9 58 bd
       0.09097021 -0.03042364 -0.11582154 -0.052926898
0003e0 c1 8e ce bd 79 b4 1d 3d f4 aa ea 3c 38 f4 67 bc
       -0.10085822 0.03850219 0.02864597 -0.014157347
0003f0 21 cb ef bd 4c 97 31 bd 72 7a 49 3e 90 f6 05 be
       -0.11708666 -0.04335718 0.19675615 -0.13082337

fc3.bias f4 [10]
000000 8c a6 7e bd b0 3f 8b bd 71 a9 68 3d 17 9f 92 3c
       -0.06217055 -0.06799257 0.056802217 0.017898126
000010 f4 ab 3d bc ae 66 ad 37 d0 fa 03 bd 64 0d 42 bd
       -0.011576641 2.0671021e-05 -0.032221615 -0.04737605
000020 c8 08 94 3d b8 41 01 bd
       0.072282374 -0.031556815
