lab2-models/hip-1-model.pth (torch, 181175 bytes, 10 tensors)

conv_block1.0.weight f4 [6, 1, 5, 5]
-0.06812811 -0.038150214 0.2160725 0.11376502 -0.061537787 -0.27875087 -0.19493212 0.1464292
0.0741814 0.1193605 -0.23027465 -0.1460851 -0.18250923 0.27649313 0.20686164 -0.055633187
-0.28131235 0.013408595 0.36639073 0.01686952 -0.030525723 -0.070459165 0.27915975 0.12277426
-0.18582207 -0.093291834 -0.13735844 -0.113997586 -0.034833666 -0.11541407 0.06718533 -0.24629211
-0.29433626 -0.07152977 -0.32339475 -0.002953969 0.16139103 -0.16013013 -0.21540833 0.14020485
-0.043824073 0.23646405 0.34568903 0.23782942 0.23729129 0.13269068 0.23780383 -0.008771594
0.07723706 0.058031537 -0.11393212 -0.14677547 -0.23515955 0.017257173 0.11931912 -0.11598332
-0.21557489 0.011914371 -0.2673949 -0.15176032 -0.20761654 -0.22771099 -0.12512748 -0.18857266
-0.07985062 -0.013040148 -0.015290132 -0.10492824 -0.10026241 -0.036788233 0.18354417 0.07869535
-0.12208643 -0.15004037 0.08630143 -0.22254452 -0.04030171 -0.07895193 0.10506737 -0.029330892
0.24612194 0.10181831 0.18076538 -0.27220634 -0.21399842 0.094620936 0.2166018 0.23011877
-0.36391178 -0.09022322 -0.18683603 -0.013500742 0.22322807 -0.13765062 -0.053578384 0.11162297
0.1445649 0.12764025 0.25064626 0.13078943 0.13773853 0.28521368 0.12331859 -0.0949336
-0.17349733 0.31555378 0.13801444 -0.14062291 -0.1334557 -0.16551441 -0.046517048 0.28424233
-0.0870451 -0.025123093 -0.21091133 0.2405577 0.0732193 -0.034060657 -0.015179076 -0.19545488
0.17500322 0.06614474 0.04002352 -0.17998227 0.12906246 0.081366375 0.17433132 0.15476365
0.008062974 -0.28876442 -0.2650405 0.21836793 0.22093765 0.20228979 -0.22466387 -0.17193545
-0.08060759 0.27367944 0.1147744 -0.23727588 -0.19359033 0.16143377 0.23977986 0.03249378
0.16327272 -0.16035561 0.037023444 -0.016877674 0.1271608 0.14731887
00000000: c086 8bbd 6643 1cbd 1c42 5d3e a3fd e83d
00000010: 0c0f 7cbd 6fb8 8ebe 499c 47be 89f1 153e
00000020: 6bec 973d 4773 f43d 1ecd 6bbe 5597 15be
00000030: b3e3 3abe 8290 8d3e 8ad3 533e a0df 63bd
00000040: 2c08 90be b9af 5b3c 9197 bb3e f331 8a3c
00000050: 1511 fabc e54c 90bd 07ee 8e3e 1271 fb3d
00000060: 2448 3ebe ca0f bfbd b1a7 0cbe 9177 e9bd
00000070: bfad 0ebd 365e ecbd 7698 893d 0034 7cbe
00000080: 3eb3 96be 337e 92bd ff93 a5be 6097 41bb
00000090: b143 253e 27f9 23be 0094 5cbe dc91 0f3e
000000a0: df80 33bd a223 723e 27fe b03e 8e89 733e
000000b0: 7dfc 723e 11e0 073e d982 733e bbb6 0fbc
000000c0: 772e 9e3d 7ab2 6d3d 3e55 e9bd 4f4c 16be
000000d0: aacd 70be ea5e 8d3c 955d f43d aa88 edbd
000000e0: aabf 5cbe 7e34 433c fce7 88be 0f67 1bbe
000000f0: 6e99 54be 122d 69be 6b21 00be 3119 41be
00000100: b988 a3bd 58a6 55bc 7683 7abc 9ee4 d6bd
00000110: 6156 cdbd 42af 16bd 01f3 3b3e 072b a13d
00000120: 7308 fabd 2fa4 19be cebe b03d b6e2 63be
00000130: 6813 25bd 8db1 a1bd 902d d73d 5747 f0bc
00000140: 6407 7c3e 1e86 d03d 8f1a 393e a15e 8bbe
00000150: 6722 5bbe 9fc8 c13d ddcc 5d3e 41a4 6b3e
00000160: a552 babe f4c6 b8bd f251 3fbe 3732 5dbc
00000170: e695 643e 49f4 0cbe 0275 5bbd 959a e43d
00000180: d208 143e 20b4 023e b554 803e aaed 053e
00000190: 540b 0d3e 8707 923e 758e fc3d 8c6c c2bd
000001a0: 49a9 31be 4490 a13e a853 0d3e 74ff 0fbe
000001b0: 9ca8 08be 9c7c 29be a988 3ebd 3688 913e
000001c0: b444 b2bd f2ce cdbc 24f9 57be c254 763e
000001d0: 00f4 953d 3083 0bbd a9b1 78bc 5325 48be
000001e0: 0b34 333e e576 873d b4ef 233d 464d 38be
000001f0: f328 043e 6aa3 a63d e983 323e 5d7a 1e3e
00000200: 901a 043c eed8 93be 63b3 87be d89b 5f3e
00000210: 7b3d 623e 0e25 4f3e 490e 66be d90f 30be
00000220: 9815 a5bd b61f 8c3e d70e eb3d 73f8 72be
00000230: 8b3c 46be e54e 253e da88 753e 3318 053d
00000240: f730 273e 4334 24be e5a5 173d 0c43 8abc
00000250: 7136 023e c2da 163e

conv_block1.0.bias f4 [6]
-0.10629592 0.059939656 0.113844015 0.19953382 -0.07011077 -0.079360716
00000000: adb1 d9bd 4983 753d 0d27 e93d 9852 4c3e
00000010: 3c96 8fbd df87 a2bd

conv_block2.0.weight f4 [16, 6, 5, 5]
-0.060323123 -0.03820292 0.1304838 0.03325038 0.011046685 -0.089602284 0.16639777 -0.0021665127
0.08116597 0.080319315 0.07057612 0.040365335 0.05135129 -0.03953748 0.010788467 0.05241374
0.1179657 0.045887504 -0.053312227 -0.07755843 0.00991627 0.034661517 -0.038417675 -0.009386014
-0.028734595 -0.0746462 -0.113065384 -0.033671167 0.04643598 0.042291787 -0.0002640284 -0.12196385
-0.07340055 -0.12572367 0.05028527 0.049295705 -0.040706642 -0.09257029 0.13398659 0.13231118
0.0032046072 0.01408376 0.13319609 0.13168345 0.047775038 -0.18189208 -0.062185302 -0.006590488
-0.022696314 0.027257431 0.10365708 0.07990851 0.09373464 -0.0071507306 0.045726553 0.096004024
-0.023664894 0.06526501 -0.060447622 -0.0802335 0.0067017204 0.039868888 -0.041450076 -0.109524935
-0.007955713 0.006394233 -0.0049835998 -0.10958675 -0.006795616 -0.13356541 0.106994875 0.08744009
-0.020499041 -0.12288276 -0.13590908 -0.0048749507 -0.038035493 -0.08141415 0.026518552 0.12785766
0.1295623 0.0030337053 0.037603732 0.09307318 0.07318953 0.15468028 0.08867666 0.08728135
0.112162426 0.106178835 0.15515175 0.16171706 0.122679256 0.077244475 0.10808037 0.052883755
0.039185695 -0.13606924 -0.015856106 0.13072924 0.0507797 -0.040681507 -0.018149577 0.07106934
-0.07322742 0.18765984 0.020003572 0.029895902 0.047438893 0.06621497 0.02533187 0.018401518
-0.00921448 0.041427378 0.014743693 -0.06636538 0.016372323 -0.059722073 -0.06846468 -0.0007788534
-0.2426328 -0.1196558 -0.15223739 -0.15280919 0.04063084 -0.011405333 -0.026983378 0.038351253
-0.011484027 -0.029518597 -0.032685786 -0.0108878855 0.10670911 0.06821356 -0.03902688 -0.062025208
0.17355824 0.035805937 0.11866379 0.0003766209 0.14952528 0.20657766 0.09261511 0.047028583
0.09132984 0.087117106 0.11270869 0.008533003 0.01925368 -0.0427235 -0.03313568 -0.12086739
-0.13034138 -0.1134773 -0.034145 -0.020534672 -0.16956462 -0.20453165 -0.12961362 -0.17765535
0.100424275 0.0010727212 0.06558686 -0.20472966 -0.23765728 0.0023567718 0.07426952 0.13988906
0.12703088 0.12675627 0.05467672 0.09911001 0.14420874 0.15265338 0.055112988 0.1454229
0.07472881 0.06891849 0.0012275226 -0.14077288 0.1918329 0.12576644 0.0945661 0.051393114
-0.17147732 0.018725632 0.054568443 0.032011364 0.030551149 0.02519563 0.054169524 -0.033329617
-0.091841124 0.08815835 0.043226395 0.088796206 0.17319807 0.13871056 0.093898825 0.016694486
-0.043102372 0.013479228 0.083315074 0.09620124 -0.019046184 -0.02102297 -0.040891446 0.04002967
0.13575484 0.081787124 -0.0071279057 -0.10001228 -0.038997997 -0.008804344 0.11108346 -0.042300925
0.03517911 -0.06880418 -0.044801854 0.0142534515 -0.055006184 -0.020163532 -0.08559696 -0.09111049
-0.06626841 0.14820665 0.11960636 -0.027801067 -0.10631302 -0.08135649 0.063997276 0.08107067
0.079001084 0.11573821 -0.005139732 0.104826644 0.1195697 0.15964662 0.08573881 0.123206645
0.12034387 0.04513698 0.11543708 0.04379987 0.06282638 0.035739236 0.08428643 -0.009117652
0.0026727102 0.018469332 0.0656916 -0.028607395 -0.091601625 -0.09141043 -0.101277396 -0.027938291
00000000: 6115 77bd aa7a 1cbd 8c9d 053e 8d31 083d
00000010: 28fd 343c 6781 b7bd 2d64 2a3e 0dfc 0dbb
00000020: 583a a63d 747e a43d 368a 903d 1f56 253d
00000030: bb55 523d 0df2 21bd 1cc2 303c caaf 563d
00000040: 0098 f13d 89f4 3b3d ec5d 5abd f4d6 9ebd
00000050: da77 223c 3cf9 0d3d da5b 1dbd ccc7 19bc
00000060: d064 ebbc 1be0 98bd d38e e7bd c7ea 09bd
00000070: a733 3e3d 273a 2d3d 4b6d 8ab9 2fc8 f9bd
00000080: 0753 96bd b5bd 00be edf7 4d3d 4bea 493d
00000090: 02bc 26bd 7e95 bdbd c833 093e 957c 073e
000000a0: 6304 523b 92bf 663c 8e64 083e 07d8 063e
000000b0: c2af 433d eb41 3abe 04b6 7ebd 05f5 d7bb
000000c0: 9fed b9bc fa4a df3c 2a4a d43d 13a7 a33d
000000d0: f2f7 bf3d ad50 eabb c44b 3b3d c29d c43d
000000e0: e1dc c1bc a9a9 853d ed97 77bd 7651 a4bd
000000f0: 1b9a db3b 8f4d 233d 8ec7 29bd 9c4e e0bd
00000100: ae58 02bc b786 d13b 774d a3bb 056f e0bd
00000110: c2ad debb 5fc5 08be 2120 db3d ca13 b33d
00000120: 9bed a7bc f5a9 fbbd c02b 0bbe 0dbe 9fbb
00000130: 1bcb 1bbd 76bc a6bd 6f3d d93c 1eed 023e
00000140: fbab 043e 21d1 463b 5f06 1a3d 279d be3d
00000150: 64e4 953d 8264 1e3e 1c9c b53d 90c0 b23d
00000160: 6ab5 e53d 4a74 d93d 1ae0 1e3e 2899 253e
00000170: 433f fb3d 5a32 9e3d 3e59 dd3d a39c 583d
00000180: 2e81 203d bc55 0bbe aae4 81bc e3dd 053e
00000190: 60fe 4f3d a7a1 26bd 6cae 94bc cd8c 913d
000001a0: 42f8 95bd e729 403e 88de a33c 40e8 f43c
000001b0: 494f 423d b79b 873d c884 cf3c c8be 963c
000001c0: 55f8 16bc c1af 293d 888f 713c 93ea 87bd
000001d0: 401f 863c 229f 74bd 3637 8cbd f82b 4cba
000001e0: bc74 78be 1a0e f5bd 1ee4 1bbe 037a 1cbe
000001f0: 866c 263d 6fdd 3abc 3f0c ddbc 3416 1d3d
00000200: 8027 3cbc fcd0 f1bc 88e1 05bd 1a63 32bc
00000210: 4e8a da3d 8db3 8b3d a6da 1fbd 250e 7ebd
00000220: 40b9 313e 3fa9 123d 0006 f33d 3475 c539
00000230: 281d 193e 1889 533e feac bd3d 0ba1 403d
00000240: 240b bb3d 746a b23d d0d3 e63d 02ce 0b3c
00000250: e5b9 9d3c d6fe 2ebd 47b9 07bd 5289 f7bd
00000260: 3678 05be c966 e8bd a1db 0bbd 5438 a8bc
00000270: 59a2 2dbe bf70 51be 6fb9 04be 49eb 35be
00000280: 3eab cd3d 8d9a 8c3a 6752 863d a7a4 51be
00000290: 6e5c 73be 1274 1a3b 9e1a 983d 143f 0f3e
000002a0: 6214 023e 65cc 013e b2f4 5f3d 30fa ca3d
000002b0: 75ab 133e 2b51 1c3e 28be 613d bee9 143e
000002c0: 6b0b 993d 2325 8d3d d3e4 a03a c426 10be
000002d0: d86f 443e ebc8 003e dfab c13d 9681 523d
000002e0: c097 2fbe 7f66 993c 2983 5f3d 591e 033d
000002f0: 6746 fa3c 1167 ce3c dde0 5d3d a384 08bd
00000300: 3317 bcbd 5d8c b43d 290e 313d c9da b53d
00000310: d65a 313e 240a 0e3e 074e c03d e0c2 883c
00000320: 1d8c 30bd fbd7 5c3c 18a1 aa3d 2805 c53d
00000330: be06 9cbc 5d38 acbc ca7d 27bd 27f6 233d
00000340: 5103 0b3e 0280 a73d 3591 e9bb 3dd3 ccbd
00000350: 5dbc 1fbd 1840 10bc ba7f e33d bc43 2dbd
00000360: f817 103d 35e9 8cbd 2682 37bd 4f87 693c
00000370: 2a4e 61bd fe2d a5bc 754d afbd 2398 babd
00000380: bbb7 87bd 7cc3 173e 2ef4 f43d 10bf e3bc
00000390: a4ba d9bd 3b9e a6bd 0111 833d 6108 a63d
000003a0: 52cb a13d 2808 ed3d 326b a8bb 5aaf d63d
000003b0: f5e0 f43d 677a 233e d497 af3d c453 fc3d
000003c0: d976 f63d 8ee1 383d 476a ec3d 7e67 333d
000003d0: 1eab 803d 4e63 123d 5d9e ac3d 3462 15bc
000003e0: a328 2f3b ff4c 973c 5189 863d 0e5a eabc
000003f0: a299 bbbd 6435 bbbd 866a cfbd d8de e4bc

conv_block2.0.bias f4 [16]
0.115727544 0.08889482 0.08169466 -0.0080017755 0.05723843 0.03872014 -0.007959754 0.07451964
0.057287954 0.0011139151 -0.0025465265 0.10866182 -0.042157374 0.07454918 -0.01938326 -0.04935623
00000000: 9002 ed3d 7d0e b63d 884f a73d e119 03bc
00000010: d872 6a3d 0299 1e3d a169 02bc c19d 983d
00000020: c6a6 6a3d ca00 923a a0e3 26bb 178a de3d
00000030: 36ad 2cbd 3ead 983d a4c9 9ebc c229 4abd

fc1.weight f4 [120, 256]
0.019788828 -0.03530845 0.008144635 -0.028448304 -0.019690027 -0.012762955 -0.003005049 0.034860805
0.03977077 0.01584542 -0.040491436 0.006899661 -0.068994574 -0.008158294 -0.0107176695 -0.025191637
-0.015523365 0.011435068 -0.05217835 -0.00078296626 -0.006162499 -0.011339563 0.01738203 -0.041951675
-0.056252502 0.020671042 0.0025871536 -0.025982069 -0.04727105 -0.0679749 0.049328625 -0.07005756
-0.0691059 -0.005745847 0.04712585 -0.045782253 -0.060694616 0.022756046 0.018483875 -0.040392645
-0.060676016 0.03161651 -0.0101020085 -0.037067972 0.019202463 -0.001318251 0.032737043 -0.050922323
-0.031311456 0.05094395 0.028773537 0.0268963 0.0120872 0.028548744 -0.019050568 0.0018271976
-0.0070283297 0.03282602 0.024643907 0.013366359 -0.069250844 -0.02883229 0.009182961 -0.019554248
-0.03433727 0.04754494 -0.057606444 0.02993646 0.045603197 -0.05214589 0.05401699 0.048646685
0.015347677 0.021823255 -0.065987825 -0.008879343 -0.03327154 -0.018647064 -0.044718824 0.03173352
-0.048092674 0.03855269 -0.015160088 0.04879221 -0.011033453 -0.038116794 -0.054703243 0.0044915723
0.031007066 0.004540456 0.014273337 -0.026493853 0.024392612 -0.011382425 0.05282295 -0.03581669
0.012405075 -0.0051998417 -0.048801154 -0.04523297 0.013075607 -0.03911204 -0.014623276 -0.038678907
0.011477532 -0.04627673 -0.061925758 0.03922038 0.04744239 -0.035378676 0.022598164 -0.04837834
-0.036330875 0.02513793 -0.03341529 -0.018104691 -0.0685512 0.031209713 0.043566935 0.047371484
0.03946863 -0.031841125 -0.0013062395 -0.019448236 0.02608158 -0.017381435 -0.061879184 0.05158439
-0.026634706 -0.027808428 0.00053595693 -0.02572168 -0.016801743 -0.0156905 0.051936205 0.04675316
0.043857206 0.053966645 0.03138189 -0.041692175 0.022601245 0.015341637 -0.05895271 -0.03446247
0.053973723 -0.018802293 0.051204402 0.0038366194 -0.036609758 -0.06977121 -0.0171491 0.004919852
-0.042641453 0.013617089 -0.03197089 0.037172828 -0.02530769 0.029706677 -0.0305628 0.03380243
0.035830542 0.0025205745 0.05062872 -0.0590059 -0.01428882 -0.050609306 -0.06792737 0.013440704
0.032947257 0.035227306 0.02936351 -0.061713506 0.03265757 -0.003509959 -0.029266903 0.0033683341
0.05256198 0.0109628765 -0.056119945 0.0029038873 0.032587685 -0.054479297 0.029114192 0.021586798
-0.046250515 -0.0678829 -0.009323835 0.0019538112 -0.0645814 -0.025787737 -0.06002498 0.02315533
0.037502635 0.027264912 -0.03454936 0.025660684 0.04321274 0.05474467 0.0065055965 -0.06642435
0.05204327 0.028452696 0.054245304 -0.017666109 -0.025350956 -0.04705276 -0.0060038427 0.053671926
0.011585 0.011225647 0.034308605 0.02360543 0.03129622 -0.040144164 -0.03291415 0.00095482677
-0.0514744 -0.022920186 -0.04122473 0.04165492 -0.049346182 0.002659665 0.009763574 0.035062306
-0.049507793 -0.04042336 0.045565087 -0.044937376 -0.060507804 -0.023927363 -0.0052404534 0.0038706253
0.015601176 -0.017380638 0.033072565 -0.040674526 -0.022576164 0.050404903 -0.052103866 -0.06259651
-0.04605377 -0.06162124 -0.011166257 -0.040940013 0.05187674 0.0006854244 -0.06994283 -0.012138341
-0.041098222 0.049270157 -0.017219001 -0.04506328 0.041604064 -0.045096524 0.03159827 -0.027876208
00000000: 2e1c a23c 989f 10bd 1371 053c 6b0c e9bc
00000010: fb4c a1bc b71b 51bc 5bf0 44bb 34ca 0e3d
00000020: ade6 223d 41ce 813c 59da 25bd 8d16 e23b
00000030: 074d 8dbd 5daa 05bc 2a99 2fbc b15e cebc
00000040: b655 7ebc 275a 3b3c f7b8 55bd fa3f 4dba
00000050: caee c9bb 93c9 39bc c264 8e3c 85d5 2bbd
00000060: 0669 66bd 5156 a93c 3c8d 293b 59d8 d4bc
00000070: 4a9f 41bd 6d36 8bbd d00c 4a3d 577a 8fbd
00000080: 6587 8dbd a847 bcbb 0907 413d 2c86 3bbd
00000090: eb9a 78bd e36a ba3c 7f6b 973c c272 25bd
000000a0: 6a87 78bd 5080 013d e582 25bc 96d4 17bd
000000b0: 7c4e 9d3c 2ac9 acba 4717 063d ed93 50bd
000000c0: 7140 00bd 9aaa 503d 7bb6 eb3c a155 dc3c
000000d0: 6409 463c 0edf e93c f00f 9cbc 947e ef3a
000000e0: e74d e6bb 9474 063d 05e2 c93c 93fe 5a3c
000000f0: 63d3 8dbd b231 ecbc 2174 163c 3b30 a0bc
00000100: 3da5 0cbd 7cbe 423d bcf4 6bbd 4f3d f53c
00000110: 6bca 3a3d ee96 55bd eb40 5d3d bf41 473d
00000120: d374 7b3c afc6 b23c a024 87bd aa7a 11bc
00000130: bd47 08bd bac1 98bc 162b 37bd 02fb 013d
00000140: d3fc 44bd 6de9 1d3d 0562 78bc 57da 473d
00000150: a8c5 34bc 5b20 1cbd 8210 60bd 0a2e 933b
00000160: 8802 fe3c 1bc8 943b b7da 693c a309 d9bc
00000170: 04d3 c73c 5a7d 3abc e15c 583d 86b4 12bd
00000180: a83e 4b3c 6f63 aabb b8e3 47bd 3546 39bd
00000190: 123b 563c f233 20bd 7796 6fbc c66d 1ebd
000001a0: 420c 3c3c ab8c 3dbd dda5 7dbd 8da5 203d
000001b0: f452 423d 3be9 10bd c91f b93c 5e28 46bd
000001c0: afcf 14bd 0fee cd3c 79de 08bd 4a50 94bc
000001d0: 9264 8cbd 83ab ff3c 3e73 323d 9a08 423d
000001e0: dca9 213d d76b 02bd 2036 abba e851 9fbc
000001f0: 0aa9 d53c 8363 8ebc 0775 7dbd 274a 533d
00000200: 0731 dabc 80ce e3bc 767f 0c3a 46b6 d2bc
00000210: cfa3 89bc 5d89 80bc 0fbb 543d 3e80 3f3d
00000220: 9da3 333d 210c 5d3d 4c8a 003d 6ac5 2abd
00000230: 3f26 b93c 7d5b 7b3c 6678 71bd 8528 0dbd
00000240: 8d13 5d3d 4407 9abc b5bb 513d cb6f 7b3b
00000250: 1df4 15bd 35e4 8ebd 457c 8cbc b636 a13b
00000260: cea8 2ebd 361a 5f3c e8f3 02bd 8942 183d
00000270: 1352 cfbc 6b5b f33c d65e fabc 6b74 0a3d
00000280: 0cc3 123d 3930 253b 1060 4f3d 2cb0 71bd
00000290: a81b 6abc b44b 4fbd 811d 8bbd 6636 5c3c
000002a0: b4f3 063d 824a 103d be8b f03c 4dc7 7cbd
000002b0: f2c3 053d 5707 66bb 25c1 efbc 45bf 5c3b
000002c0: 3b4b 573d a39d 333c 07de 65bd 254f 3e3b
000002d0: aa7a 053d af25 5fbd e380 ee3c ccd6 b03c
000002e0: 2e71 3dbd 3106 8bbd 00c3 18bc 830b 003b
000002f0: 4143 84bd ce40 d3bc c1dc 75bd 3fb0 bd3c
00000300: 5d9c 193d aa5a df3c a183 0dbd 5b36 d23c
00000310: d8ff 303d f23b 603d e62c d53b 7d09 88bd
00000320: 532b 553d a115 e93c 5330 5e3d 84b8 90bc
00000330: cfac cfbc 65ba 40bd e2bb c4bb 18d7 5b3d
00000340: 03cf 3d3c c7eb 373c 2e87 0c3d 2d60 c13c
00000350: 7730 003d 356e 24bd fdd0 06bd 574d 7a3a
00000360: d2d6 52bd 1dc3 bbbc 43db 28bd 599e 2a3d
00000370: 391f 4abd c64d 2e3b 66f7 1f3c 7e9d 0f3d
00000380: afc8 4abd f792 25bd 75a2 3a3d 4110 38bd
00000390: 08d7 77bd 5103 c4bc 1cb8 abbb 51aa 7d3b
000003a0: 139c 7f3c d761 8ebc 1977 073d 559a 26bd
000003b0: a6f1 b8bc 5f75 4e3d dd6a 55bd 9932 80bd
000003c0: e1a2 3cbd 8e66 7cbd adf2 36bc b7b0 27bd
000003d0: b47c 543d 0eae 333a 303e 8fbd e4df 46bc
000003e0: 9c56 28bd 81cf 493d dd0e 8dbc 4694 38bd
000003f0: 0669 2a3d 22b7 38bd 306d 013d a55c e4bc

fc1.bias f4 [120]
0.028242726 -0.04659169 -0.023578763 -0.06086734 0.041485127 -0.053530417 0.045319673 0.09542378
-0.058150116 0.045452464 -0.06600271 0.08262701 0.075161256 -0.040141404 0.0102285845 0.0087584425
0.046311032 -0.054613765 -0.012341274 0.0014912625 0.017997185 -0.03697668 -0.05123606 0.066775754
0.025376225 0.039700866 0.020969126 0.055942614 0.04980566 0.07771032 0.028392918 0.051578686
-0.04418933 -0.018599588 0.012774231 0.025351498 -0.042324416 -0.004785112 -0.05905704 0.04326438
-0.063676246 -0.016332733 0.016448632 0.031787243 -0.017753307 -0.028355632 -0.047228325 -0.013741343
-0.014164526 -0.037335098 -0.05347785 0.023991985 0.00087978767 -0.03468096 0.04983187 -0.027803786
-0.0011775106 0.046633597 -0.009037577 -0.008894438 0.03770323 -0.015360957 -0.028154142 0.006717548
0.0078045614 -0.03793215 0.03878148 0.015388935 0.048704993 -0.029254496 0.0071223965 0.05438202
0.026200244 -0.028137678 0.048088104 0.001261043 0.0018392198 -0.025707448 -0.0017550215 0.031106308
0.03648024 0.067773975 0.06274549 -0.018080425 -0.04721442 0.052026786 0.0125036845 -0.048580553
0.018237099 0.061020333 -0.0626436 -0.036977172 0.052932423 0.014977002 -0.025825286 -0.027619744
-0.0045628333 0.023642797 0.079346955 0.01722753 -0.06722732 0.00390803 -0.040326875 0.08179583
-0.049129132 0.09504409 -0.008306034 -0.05182926 0.03474055 -0.01900078 -0.010922264 0.063664235
-0.017542912 0.029396977 0.028244251 0.0076779663 -0.063119255 0.0046779416 -0.047336314 -0.048499424
00000000: 4a5d e73c eed6 3ebd 4028 c1bc 0850 79bd
00000010: 4fec 293d b642 5bbd 1fa1 393d 8b6d c33d
00000020: d12e 6ebd 5d2c 3a3d 6e2c 87bd 5a38 a93d
00000030: 25ee 993d 506b 24bd cb95 273c 927f 0f3c
00000040: a3b0 3d3d afb2 5fbd 0e33 4abc 7776 c33a
00000050: d56e 933c dc74 17bd e7dc 51bd bac1 883d
00000060: cde1 cf3c 609d 223d 72c7 ab3c 1524 653d
00000070: 0501 4c3d 9726 9f3d 4498 e83c 2c44 533d
00000080: dfff 34bd 2a5e 98bc 024b 513c f2ad cf3c
00000090: 5e5c 2dbd 6ecc 9cbb cbe5 71bd fe35 313d
000000a0: b168 82bd 39cc 85bc 48bf 863c 5733 023d
000000b0: 626f 91bc 124a e8bc 7d72 41bd 5f23 61bc
000000c0: 5412 68bc b0ec 18bd 970b 5bbd d78a c43c
000000d0: 8da1 663a 9f0d 0ebd 811c 4c3d c4c4 e3bc
000000e0: b356 9aba df02 3f3d 5812 14bc fab9 11bc
000000f0: b46e 1a3d 86ac 7bbc 84a3 e6bc e01e dc3b
00000100: 68bd ff3b be5e 1bbd 54d9 1e3d df21 7c3c
00000110: e37e 473d 20a7 efbc fe62 e93b aebf 5e3d
00000120: e5a1 d63c fd80 e6bc 08f8 443d 9549 a53a
00000130: fa11 f13a 6d98 d2bc c008 e6ba a8d2 fe3c
00000140: 4e6c 153d 15cd 8a3d b580 803d 661d 94bc
00000150: e863 41bd 0a1a 553d 41dc 4c3c 67fc 46bd
00000160: f865 953c 75f0 793d 4a4b 80bd 6075 17bd
00000170: abcf 583d 1962 753c 8d8f d3bc cd42 e2bc
00000180: d283 95bb 8aae c13c a880 a23d c020 8d3c
00000190: 7aae 89bd ef0e 803b cb2d 25bd 9284 a73d
000001a0: a13b 49bd 7aa6 c23d 0816 08bc eb4a 54bd
000001b0: 1b4c 0e3d 86a7 9bbc 4cf3 32bc 6562 823d
000001c0: 27b6 8fbc eed1 f03c 7d60 e73c 7397 fb3b
000001d0: ab44 81bd 6b49 993b b9e3 41bd 55a7 46bd

fc2.weight f4 [84, 120]
-0.030088887 0.09144013 0.054787636 -0.03990378 -0.00748193 -0.031450596 -0.088042416 -0.010106028
-0.051201068 0.12456458 0.038614877 -0.06499149 0.068552576 0.05166392 0.11019474 -0.08466988
-0.08235417 -0.016058825 -0.06102302 -0.023718575 -0.122119166 -0.033560842 -0.059010193 -0.111988045
-0.110114895 -0.029392622 0.091581166 0.03488861 -0.113697335 0.1323041 0.032540273 0.046403445
-0.057146188 0.015405077 0.050301373 0.0014145565 -0.12031216 0.09115041 0.15282844 -0.081430286
0.08988672 -0.039008662 -0.046618246 0.1194717 0.12260001 -0.08415341 0.054949485 0.04351871
0.08776261 -0.03666935 -0.06729329 0.019299421 0.056253467 0.04892749 -0.14752263 0.012535809
-0.03939742 0.07568421 0.081511505 -0.0041127033 0.113393605 -0.033398326 -0.017733822 -0.006140734
0.016395131 -0.08544879 -0.0014739172 0.072851196 -0.052294582 -0.08646592 0.06645736 0.066408396
0.09652673 -0.03181889 0.07208908 0.07271079 -0.1135107 0.070491225 -0.017566029 0.017360974
0.08236705 -0.08499348 -0.15632556 -0.08170633 -0.12894195 0.12414604 0.028395595 0.03575402
-0.0034785392 0.0482442 -0.0811898 -0.0087449 -0.040767495 -0.14240018 -0.0010254689 0.08278004
-0.11168895 -0.1005366 -0.028526265 -0.010570351 -0.047242597 0.10501896 -0.008996154 0.062368784
-0.045020245 0.09833546 0.127126 0.0491721 0.11284368 -0.01375166 -0.07106157 0.03133404
-0.012322375 -0.019140415 0.07354205 -0.06644803 0.07127858 -0.009991 -0.07641928 -0.061762705
0.0892 -0.08013585 0.0628745 -0.05738371 0.109637864 -0.020381745 0.024559788 0.039231405
0.0154543 0.015128287 0.084945194 -0.044576388 -0.046958257 0.058419123 -0.10867426 0.11231035
0.015011121 0.053107664 -0.030413643 0.11344935 0.11928476 -0.058861196 0.023116019 -0.032723255
-0.012380251 0.012472394 -0.009807477 -0.0573268 -0.047139913 -0.1024464 0.14542532 0.030783
0.017249798 0.16315557 -0.060286947 0.056661732 -0.041413527 0.07474304 -0.1404597 0.088302895
-0.05116167 0.0311924 -0.038920224 0.009171515 -0.014672469 0.067320324 0.0678832 -0.07524131
0.023121016 -0.092913486 -0.041458037 -0.024047477 -0.014622274 0.08454959 0.058891505 -0.031021487
0.010599814 0.05903867 -0.06133498 -0.06729864 -0.12497209 -0.03880556 -0.036292445 -0.05452681
0.071700074 0.12029343 0.029612912 -0.042617027 -0.08680142 0.08270844 -0.06340405 0.02616117
-0.135111 0.08403586 -0.019918263 0.06274017 0.03117494 0.06495441 -0.075501755 0.07520983
0.030959973 -0.043155823 0.12754859 0.04542425 0.11477974 -0.10665277 0.020678364 -0.036072157
0.08295632 0.13812059 -0.030684557 0.12375789 -0.009703903 0.12015446 -0.011381311 0.06648681
0.09513113 -0.013125636 0.0007919747 -0.06327824 0.078273945 0.06561877 -0.014182209 -0.0033885015
0.10236816 0.022314921 -0.063647464 0.12356196 -0.13357332 0.011083328 0.033140466 0.08183361
0.074254714 0.13984631 0.12464713 0.015687933 -0.05340844 0.015022625 -0.078023404 0.0035064924
0.09084823 -0.037742857 -0.0011960376 0.012997021 -0.026209015 0.06619821 0.03632483 0.013298249
0.041859627 0.03168785 0.078575104 -0.043754127 -0.092095666 0.060139272 -0.018361662 0.06179227
00000000: f87c f6bc f644 bb3d 0069 603d 2572 23bd
00000010: fa2a f5bb 57d2 00bd 954f b4bd c193 25bc
00000020: 36b8 51bd b71b ff3d a22a 1e3d 421a 85bd
00000030: 4b65 8c3d 8c9d 533d c8ad e13d 6767 adbd
00000040: 4ea9 a8bd cc8d 83bc 46f3 79bd 754d c2bc
00000050: 9d19 fabd 1877 09bd acb4 71bd fd59 e5bd
00000060: eb83 e1bd ccc8 f0bc e88e bb3d 5ce7 0e3d
00000070: 26da e8bd ba7a 073e f348 053d 8a11 3e3d
00000080: 1f12 6abd 9365 7c3c d008 4e3d a468 b93a
00000090: 3966 f6bd 11ad ba3d 0f7f 1c3e ecc4 a6bd
000000a0: 8716 b83d 8cc7 1fbd c6f2 3ebd 94ad f43d
000000b0: b715 fb3d 9f58 acbd b612 613d ad40 323d
000000c0: e2bc b33d 9a32 16bd 10d1 89bd d219 9e3c
000000d0: 096a 663d 3168 483d 2c10 17be fe62 4d3c
000000e0: 305f 21bd 5300 9b3d 81ef a63d dbc3 86bb
000000f0: e83a e83d afcc 08bd 8546 91bc 3638 c9bb
00000100: 154f 863c c6ff aebd 7430 c1ba 0233 953d
00000110: d832 56bd 0b15 b1bd cc1a 883d 2001 883d
00000120: ceaf c53d 8654 02bd 71a3 933d 65e9 943d
00000130: 4c78 e8bd b45d 903d a2e6 8fbc 9a38 8e3c
00000140: 0eb0 a83d 1011 aebd cf13 20be a655 a7bd
00000150: 5c09 04be 4740 fe3d e19d e83c cf72 123d
00000160: 34f8 63bb b69b 453d d646 a6bd c546 0fbc
00000170: d1fb 26bd 5ad1 11be 0769 86ba 9588 a93d
00000180: 2dbd e4bd 22e6 cdbd eaaf e9bc 442f 2dbc
00000190: 7481 41bd 2e14 d73d 9b64 13bc 6976 7f3d
000001a0: 2667 38bd 1a64 c93d 512d 023e af68 493d
000001b0: 961a e73d a44e 61bc ba88 91bd 1f58 003d
000001c0: c9e3 49bc 5ccc 9cbc 379d 963d e815 88bd
000001d0: 81fa 913d 4bb1 23bc b681 9cbd e4fa 7cbd
000001e0: 7dae b63d 441e a4bd 59c4 803d 2e0b 6bbd
000001f0: d189 e03d 9ef7 a6bc 9c31 c93c 1cb1 203d
00000200: 0834 7d3c a2dc 773c bff7 ad3d bb95 36bd
00000210: 4d57 40bd e448 6f3d 9c90 debd f802 e63d
00000220: 34f1 753c 6c87 593d 0826 f9bc 2258 e83d
00000230: 914b f43d 7018 71bd ce5d bd3c d208 06bd
00000240: 89d6 4abc 0359 4c3c 8aaf 20bc 82cf 6abd
00000250: c815 41bd 6bcf d1bd 60ea 143e a12c fc3c
00000260: 734f 8d3c 4112 273e 72ef 76bd 2216 683d
00000270: 3ba1 29bd e112 993d abd4 0fbe 26d8 b43d
00000280: e68e 51bd 3487 ff3c d06a 1fbd 1f44 163c
00000290: cc64 70bc 3ddf 893d 5906 8b3d 1e18 9abd
000002a0: 4968 bd3c 6d49 bebd e7cf 29bd 37ff c4bc
000002b0: 4392 6fbc 5628 ad3d 3838 713d c620 febc
000002c0: d8aa 2d3c 88d2 713d 633a 7bbd dfd3 89bd
000002d0: 5ef1 ffbd 94f2 1ebd 63a7 14bd 8157 5fbd
000002e0: 7dd7 923d 675c f63d c796 f23c 318f 2ebd
000002f0: f1c4 b1bd 0b63 a93d fcd9 81bd f34f d63c
00000300: 8a5a 0abe fe1a ac3d a02b a3bc eb7d 803d
00000310: 9662 ff3c d106 853d aaa0 9abd 9d07 9a3d
00000320: c59f fd3c 29c4 30bd 199c 023e c70e 3a3d
00000330: a411 eb3d c46c dabd ac65 a93c 66c0 13bd
00000340: 01e5 a93d 7c6f 0d3e 2e5e fbbc c774 fd3d
00000350: 1ffd 1ebc 8b13 f63d ae78 3abc 3d2a 883d
00000360: 1cd4 c23d e80c 57bc 869c 4f3a 0698 81bd
00000370: 174e a03d 2263 863d 7f5c 68bc 9f11 5ebb
00000380: 66a6 d13d c8cd b63c 9a59 82bd 0e0e fd3d
00000390: 72c7 08be d996 353c 4cbe 073d 6198 a73d
000003a0: db12 983d df33 0f3e ff46 ff3d fb83 803c
000003b0: cfc2 5abd 7521 763c bcca 9fbd 2ecd 653b
000003c0: a30e ba3d 4198 1abd 5dc4 9cba 75f1 543c
000003d0: 4ab4 d6bc ed92 873d 58c9 143d e6e0 593c
000003e0: 0075 2b3d 1ecb 013d fceb a03d 8737 33bd
000003f0: a79c bcbd 9954 763d 326b 96bc e419 7d3d

fc2.bias f4 [84]
-0.06443152 0.055180766 -0.030208727 0.050496016 -0.045770265 0.10074753 0.05437357 0.04311343
0.07652198 -0.08863318 -0.09023669 -0.05134968 -0.071968466 -0.064111546 0.023800429 -0.014781771
-0.048704565 0.0058713756 0.0073377783 -0.026669683 -0.07792753 -0.009636699 0.06277993 -0.04190705
0.086182535 0.06043977 0.037916366 0.043928623 0.016760884 -0.042991005 0.0030167084 -0.0917223
-0.014871361 -0.031403683 0.09584577 0.0862908 -0.07700019 -0.047155038 0.10973001 0.07659732
0.0002518947 -0.013692191 0.023606375 -0.098362856 0.10441365 -0.03394318 0.021279292 0.020664977
0.09816988 0.06091326 0.056625478 -0.0522989 0.054734666 -0.027156454 -0.009827768 -0.061361637
-0.045270722 -0.03717407 -0.006056939 -0.0635393 -0.049375188 -0.028477918 -0.056082264 -0.077345595
0.00813641 0.09518476 0.03228232 -0.049774356 0.036777444 0.01683336 -0.04340904 -0.07088106
-0.0033964529 0.027278077 0.034707267 -0.010574609 0.07917854 -0.0179497 0.0975661 0.02287489
-0.023742696 0.025507344 0.013125811 0.02396439
00000000: acf4 83bd 3a05 623d 4b78 f7bc e9d4 4e3d
00000010: 9a79 3bbd b954 ce3d d2b6 5e3d b597 303d
00000020: 8eb7 9c3d 5085 b5bd 04ce b8bd 0b54 52bd
00000030: 3464 93bd ea4c 83bd 1ef9 c23c 3e2f 72bc
00000040: 707e 47bd ab64 c03b bf71 f03b 617a dabc
00000050: 7898 9fbd 3fe3 1dbc c492 803d baa6 2bbd
00000060: 7880 b03d b18f 773d 314e 1b3d 80ee 333d
00000070: 1f4e 893c 5617 30bd f8b3 453b e7d8 bbbd
00000080: 02a7 73bc 26a1 00bd c94a c43d 3bb9 b03d
00000090: 47b2 9dbd a425 41bd 21ba e03d 0edf 9c3d
000000a0: bc10 8439 3655 60bc 2862 c13c 7772 c9bd
000000b0: d3d6 d53d 0108 0bbd e951 ae3c 9949 a93c
000000c0: 4a0d c93d 2f80 793d 1ef0 673d 5f37 56bd
000000d0: 7531 603d 3677 debc a604 21bc 5756 7bbd
000000e0: cb6d 39bd d643 18bd 4979 c6bb e420 82bd
000000f0: a33d 4abd 864a e9bc 84b6 65bd 5e67 9ebd
00000100: 944e 053c 3af0 c23d 773a 043d 32e0 4bbd
00000110: f2a3 163d 1de6 893c adcd 31bd 172a 91bd
00000120: 0697 5ebb 4676 df3c 3529 0e3d 2041 2dbc
00000130: 5c28 a23d 400b 93bc bcd0 c73d 1f64 bb3c
00000140: 0b80 c2bc c7f4 d03c a40d 573c f850 c43c

fc3.weight f4 [10, 84]
-0.04236624 -0.08982744 -0.064842194 -0.102206394 -0.07014915 -0.092108555 0.021845719 0.052006442
0.14706145 -0.10184951 0.07546902 0.018154535 -0.0690547 0.063814715 -0.052566633 0.111656964
-0.13024455 0.061946467 -0.013496529 0.11937099 -0.08044802 0.022865053 0.08919155 -0.030349553
-0.06805807 -0.06511917 -0.02328541 -0.0747149 0.042947486 -0.05454106 -0.03866296 0.02989308
0.09516299 -0.0022197335 -0.01784191 -0.020499704 -0.09014931 -0.08330545 0.13055927 -0.106207564
0.09601888 0.10817787 -0.12937358 -0.012609677 -0.11901589 -0.026581138 0.016544107 -0.062019374
0.020385744 0.069816515 -0.09347749 -0.06962448 0.049530394 -0.0033573858 0.16057596 0.07103059
0.068269834 0.04360235 -0.10202763 -0.04288903 0.056391466 0.031317197 -0.07831241 -0.14050701
-0.020134384 0.041050706 -0.14350054 -0.066281594 -0.021183776 0.16029198 -0.08096209 -0.060735766
0.027512262 0.015550204 -0.13999572 0.06487492 -0.05371572 0.13308042 -0.13122086 0.053074833
-0.023419667 -0.07456316 0.062236518 -0.004551561 0.11133533 -0.15697286 -0.087208234 0.09477016
-0.090167195 0.11588472 0.09360314 0.083070315 0.051112246 -0.09186917 0.048283648 0.09854659
0.1512936 0.037971042 0.086601384 -0.07427011 -0.033355676 -0.12501588 0.044204563 -0.162261
0.1018159 -0.017750032 -0.13119102 -0.15567896 0.08295128 0.07238561 -0.11333064 0.022802617
-0.07105545 0.103704974 -0.1537287 0.12764013 0.05157809 -0.026886215 -0.05362082 -0.020035038
-0.09222284 0.017333707 0.09538636 0.08589604 -0.09040879 0.0868381 0.04377884 -0.058548346
0.12135508 -0.0064191567 0.07929924 0.009697016 0.05764514 -0.15428321 0.08381094 -0.11822241
0.09163954 -0.07011835 0.099814236 0.020524435 -0.16442773 -0.08739537 -0.14907128 -0.25861573
-0.0033556493 0.036441434 -0.0136399865 -0.032482088 0.023705954 0.04955588 0.117731996 0.018745117
-0.05896087 0.12622787 -0.032284785 0.045682993 -0.05792774 -0.004818055 -0.17344227 0.0436223
-0.13435589 0.09187463 0.006039668 -0.048118636 0.09786556 -0.0827816 0.12764929 -0.05724397
0.12571423 -0.15029772 -0.0007406866 -0.10412982 0.02458013 0.1510122 -0.099835694 -0.12044751
0.021616224 -0.049817033 -0.041439276 -0.082463175 0.0020319945 0.05069754 -0.12183776 -0.15124542
-0.17317194 0.009093468 0.06875673 -0.0653024 0.06481185 -0.11151961 0.006632225 -0.11854865
0.013463114 0.110346034 -0.012782189 0.08328431 0.1193068 -0.0078090467 0.03768661 -0.05253638
0.002702787 -0.01270222 -0.08464057 -0.16556406 -0.07561052 0.019825393 -0.04019167 0.10378049
-0.16867746 -0.034309726 0.040374998 0.031355582 0.0728765 -0.07971941 -0.02897875 -0.028425502
0.1480382 -0.08212645 -0.0071367426 0.009787534 0.1483856 0.07669086 0.17601426 0.13043152
0.15681453 0.0239909 0.097132176 -0.056060746 0.101845145 0.08238407 0.07747576 0.006316221
-0.07448304 -0.0069362703 0.009631638 -0.1049892 0.04588261 -0.063877776 -0.11169132 0.015635105
-0.026383232 -0.020126859 -0.14670491 -0.10636076 0.15214051 0.065090664 -0.075317055 0.08021893
0.0068808896 -0.10098201 -0.13015306 -0.12549463 0.066106066 0.0802698 -0.046830676 0.027764084
00000000: 3988 2dbd 73f7 b7bd fccb 84bd 9651 d1bd
00000010: 5caa 8fbd 69a3 bcbd cbf5 b23c b504 553d
00000020: 4797 163e 7a96 d0bd 808f 9a3d d2b8 943c
00000030: 8d6c 8dbd 4ab1 823d 1c50 57bd 68ac e43d
00000040: d45e 05be 94bb 7d3d 8c20 5dbc c778 f43d
00000050: eec1 a4bd 7e4f bb3c 0faa b63d a09f f8bc
00000060: 0862 8bbd 335d 85bd 0bc1 bebc 2004 99bd
00000070: b4e9 2f3d 7266 5fbd 0d5d 1ebd 55e2 f43c
00000080: d0e4 c23d f378 11bb 3229 92bc ffee a7bc
00000090: 34a0 b8bd 0c9c aabd 54b1 053e 5a83 d9bd
000000a0: 8ca5 c43d 5c8c dd3d 827a 04be d298 4ebc
000000b0: 9abe f3bd b0c0 d9bc 8287 873c 0708 7ebd
000000c0: 0100 a73c f6fb 8e3d 2071 bfbd 4897 8ebd
000000d0: 62e0 4a3d 9607 5cbb 066e 243e 7c78 913d
000000e0: 0ed1 8b3d 6198 323d ddf3 d0bd 68ac 2fbd
000000f0: bdfa 663d 7646 003d 4262 a0bd 12e1 0fbe
00000100: ddf0 a4bc c924 283d cef1 12be a5be 87bd
00000110: 9989 adbc 9523 243e 74cf a5bd 11c6 78bd
00000120: 6561 e13c 48c6 7e3c 0a5b 0fbe 24dd 843d
00000130: 0405 5cbd 3c46 083e c35e 06be ff64 593d
00000140: 9ada bfbc 92b4 98bd b8eb 7e3d 4325 95bb
00000150: c703 e43d 7ebd 20be 3b9a b2bd dc16 c23d
00000160: 94a9 b8bd f854 ed3d 01b3 bf3d c520 aa3d
00000170: 135b 513d e725 bcbd 13c5 453d cbd2 c93d
00000180: b6ec 1a3e 8687 1b3d 115c b13d ed1a 98bd
00000190: f69f 08bd 2a04 00be d80f 353d bf27 26be
000001a0: db84 d03d 8468 91bc f056 06be 4e6a 1fbe
000001b0: 5ce2 a93d e83e 943d e519 e8bd 8ecc ba3c
000001c0: 8585 91bd 4663 d43d 0e6b 1dbe 18b4 023e
000001d0: 8c43 533d 7b40 dcbc 81a1 5bbd 8520 a4bc
000001e0: 54df bcbd 6bff 8d3c ed59 c33d 43ea af3d
000001f0: 3e28 b9bd 2cd8 b13d 7151 333d 64d0 6fbd
00000200: 0389 f83d ca57 d2bb a467 a23d 3ce0 1e3c
00000210: 4f1d 6c3d 6bfc 1dbe 12a5 ab3d 971e f2bd
00000220: 83ad bb3d 369a 8fbd 686b cc3d dc22 a83c
00000230: be5f 28be 58fc b2bd 24a6 18be 4869 84be
00000240: 74ea 5bbb 9d43 153d 407a 5fbc f00b 05bd
00000250: fd32 c23c 1bfb 4a3d 791d f13d 5c8f 993c
00000260: f480 71bd e141 013e 0d3d 04bd 171e 3b3d
00000270: a345 6dbd c6e0 9dbb da9a 31be 4cad 323d
00000280: 9794 09be c428 bc3d 68e8 c53b 0c18 45bd
00000290: bd6d c83d 6689 a9bd 7fb6 023e a778 6abd
000002a0: 3bbb 003e a5e7 19be a32a 42ba 0442 d5bd
000002b0: 455c c93c f1a2 1a3e a876 ccbd 2fad f6bd
000002c0: 8214 b13c f20c 4cbd 3bbc 29bd 74e2 a8bd
000002d0: 362b 053b 39a8 4f3d 1386 f9bd 14e0 1abe
000002e0: fc53 31be c5fc 143c 54d0 8c3d 44bd 85bd
000002f0: 13bc 843d 6564 e4bd 2353 d93b a2c9 f2bd
00000300: 6594 5c3c 1afd e13d 636c 51bc f790 aa3d
00000310: 2057 f43d 08e3 ffbb 465d 1a3d 6330 57bd
00000320: 3e21 313b f91c 50bc 0958 adbd a089 29be
00000330: b0d9 9abd dd68 a23c 05a0 24bd de8a d43d
00000340: c9b9 2cbe 5b88 0cbd 4160 253d b66e 003d
00000350: 4640 953d ee43 a3bd d864 edbc 99dc e8bc
00000360: 5397 173e ea31 a8bd 56db e9bb e55b 203c
00000370: 65f2 173e 1910 9d3d 153d 343e d78f 053e
00000380: fd93 203e 9088 c43c 3ced c63d f49f 65bd
00000390: 3094 d03d fbb8 a83d 9cab 9e3d 4df8 ce3b
000003a0: 908a 98bd a749 e3bb 05ce 1d3c 9404 d7bd
000003b0: 67ef 3b3d 5ad2 82bd 6bbe e4bd 3115 803c
000003c0: a621 d8bc 15e1 a4bc d039 16be acd3 d9bd
000003d0: b9ca 1b3e 414e 853d d43f 9abd d349 a43d
000003e0: 1679 e13b a8cf cebd d846 05be aa81 00be
000003f0: 9e62 873d 7e64 a43d 86d1 3fbd 8171 e33c

fc3.bias f4 [10]
-0.028814781 0.050305236 0.05788843 -0.043002456 -0.084906176 -0.037353512 -0.07064297 -0.022436496
-0.029667623 0.08630362
00000000: fa0c ecbc dd0c 4e3d 6b1c 6d3d 5823 30bd
00000010: 4ae3 adbd ffff 18bd 43ad 90bd becc b7bc
00000020: 8409 f3bc f4bf b03d
