lab2-models/hip-5-model.pth (torch, 181175 bytes, 10 tensors)

conv_block1.0.weight f4 [6, 1, 5, 5]
00000000: 2ebe 253e 475e ce3d 1b98 86be f901 31be
00000010: 476e 06be e47e 29be 2a5f 963d 56f7 7cbd
00000020: c023 a7be 94cf 8bbe de16 a7bc ca54 debb
00000030: 1422 0bbe 01ab e13d 16ec aabd 49cb 9a3e
00000040: 2a4b 8d3d d680 4c3e b9de 393e 7841 24be
00000050: 42dd 243e d689 8f3e a240 e53d 487a 543e
00000060: 9327 3c3d 241a 1c3e 982e 6b3e f9f6 ba3d
00000070: 31be 08be ac4d 5ebd f139 03be 19e6 bebd
00000080: 66cb 7bbe 57cd 7cbe fee5 83be 4d5b 2cbd
00000090: 1f1b 8bbe f09c 81be 798d d3bd 6a6d 9fbe
000000a0: acf7 753d 5a68 9cbe 960d bcbd 0fed 9ebe
000000b0: 2ba3 bbbe 44b5 a3bc 8a5e 85be 5704 81be
000000c0: 2d35 64bb 2d7d a53d c9f3 763e 4891 513e
000000d0: 3772 c43e 30dc c93e df3c be3e 3e97 6d3e
000000e0: b094 ba3e 2103 043f 9921 7f3e f8af ce3e
000000f0: 3c0b c7ba f58e 1a3e f036 493d 8864 7f3d
00000100: 9a98 2a3e d2a0 d2be 5f26 04bf caae e9be
00000110: 7572 28be aa7d 3cbe 2bac 9cbe 59c5 d5be
00000120: 7efe b2be 4f28 f9be ee29 9abc ff3a ecbc
00000130: 59cf 843e 577d 093e 4bb2 c3bd ea86 f63c
00000140: fc3f a33e 75a7 9c3d adc2 b33d e710 39be
00000150: 99db e1bd b102 d63d ce3f 8f3e a865 f6bd
00000160: 9cbf 2dbe e711 89be b61b 813e 99ee 5d3e
00000170: 2f68 09be 3dd2 383d fcaf a3be 73b4 de3d
00000180: 69e3 a13d 3324 39be d73e 8c3d 0d0e 49be
00000190: 8f2a 39be 2990 63be de7c aabe ec58 89be
000001a0: 226d 5ebe a037 4bbe d384 31be 273f bfbe
000001b0: 3913 86be 6f80 b0be c65b b3be def9 ccbe
000001c0: 0654 1bbe a2b0 d3be adb3 c9be c8d3 babe
000001d0: b494 4fbe 17f2 8dbe 877d 12be 033f 9abe
000001e0: 1f56 703d 5020 223d 5c8e 89be 1f4b 04be
000001f0: b611 5bbd 8616 323e a09a 893e a0be 2bbe
00000200: 4d0e 5bbe 5eda 66be eda7 48bc b8a9 9b3e
00000210: 4ee5 1e3a 0ada e5bd 03eb 0abd d187 f0bc
00000220: 622e 733e d510 0dbe d626 5dbe af86 6abb
00000230: 925b 0bbe 5b52 cd3d 077c 713e a8d9 243e
00000240: 03f4 bcbd 8dcb 2e3e 82e6 37be 6318 433d
00000250: 5d65 17be 651f 94bd
0.16185829 0.10076576 -0.26287922 -0.17285909 -0.13128005 -0.16552311 0.0734237 -0.061759315
-0.32644463 -0.27306807 -0.020396646 -0.00678501 -0.13587219 0.110189445 -0.08345811 0.3023322
0.06899102 0.19971022 0.18151368 -0.160406 0.16100028 0.28034848 0.11193968 0.20749772
0.04593618 0.15244347 0.22966993 0.091291375 -0.13353802 -0.054273292 -0.12815072 -0.093212314
-0.24589309 -0.24687706 -0.25761408 -0.04207926 -0.2716913 -0.25315046 -0.10329718 -0.31138164
0.06005065 -0.30548364 -0.09182279 -0.31040236 -0.36647925 -0.019983895 -0.2604869 -0.25198624
-0.0034821734 0.08080516 0.24116434 0.20465577 0.3836839 0.39425802 0.37155816 0.23202226
0.36441565 0.51567274 0.2491516 0.40368629 -0.0015185843 0.15093596 0.049124658 0.062351733
0.16659775 -0.4113832 -0.5162105 -0.45641166 -0.16449912 -0.18407312 -0.30600104 -0.41752127
-0.34959787 -0.48663566 -0.018818822 -0.028836725 0.25939444 0.1342672 -0.09555491 0.030093629
0.31884754 0.076491274 0.08777366 -0.18072854 -0.11028213 0.10449732 0.27978367 -0.12031108
-0.16967624 -0.2677147 0.25216454 0.21673049 -0.13418649 0.045122374 -0.31970203 0.10874262
0.07904703 -0.18080215 0.06847923 -0.19634266 -0.18082641 -0.22222961 -0.3329839 -0.26825655
-0.21721318 -0.19845438 -0.17335825 -0.3735287 -0.2618654 -0.34472987 -0.35030955 -0.40034384
-0.15168771 -0.41345698 -0.39394894 -0.364897 -0.2027157 -0.27723762 -0.14305697 -0.301262
0.05867588 0.039581597 -0.26866424 -0.12919281 -0.053483687 0.17391405 0.26875782 -0.16771936
-0.21392174 -0.22544238 -0.012247068 0.30402923 0.0006061391 -0.11223228 -0.03391553 -0.029361637
0.23748162 -0.13775952 -0.21596846 -0.0035785844 -0.1360915 0.10025474 0.23582469 0.16098654
-0.09226229 0.17069836 -0.17959026 0.04763068 -0.14784761 -0.072325505

conv_block1.0.bias f4 [6]
00000000: 8b2b 543e 06b6 c6bd 9298 003f c428 7bbd
00000010: 62d6 d43d 7fa6 d9bc
0.20719735 -0.09702687 0.50232804 -0.061318174 0.10392453 -0.02656865

conv_block2.0.weight f4 [16, 6, 5, 5]
00000000: 1be4 a2bd 2582 3ebd 0760 663d a3da a0bd
00000010: 29d0 88bd b854 28bc 48a5 843c 0e5b 4abd
00000020: ae96 393d d3cc 0b3d 3974 84bd 72da 84bc
00000030: dc81 cabc 99b4 053e 95a8 1b3d 412e 9ebd
00000040: f765 9fbd 2461 6abd cc38 dbbd db0a cbbd
00000050: 1a19 033d 94ad 40bd 19a9 a13d f7ca 66bc
00000060: c587 4839 bc7a 803d 234b 42bd 5288 e4bc
00000070: ddc5 39bd b990 823d d97c 863d 5e05 0dbd
00000080: 0270 3dbc d8da 9e3d 155e 303d 6c0b 76bd
00000090: 6d6c 1939 fd2f 82bd e534 edbd 96ae b2bd
000000a0: 40d8 ab3d 8040 73bd 54fb 0f3d a10c 1dbc
000000b0: 1dfd 923d 945d 65bb 20b8 a23d 10bb dfbc
000000c0: ef91 bcbc eb0a d73d 3321 953d c41e 2f3c
000000d0: a936 d23d 629d 853d 8306 b83d bcc5 a63c
000000e0: 4a23 8dbd 572b c13c 994a 283d 726b e8bd
000000f0: f882 48bc 0b3e b6bc d90d 943c 4937 003d
00000100: 5003 c73b 2379 213c 0e1d 4fba ff4e 4c3e
00000110: 8f20 783e 91d7 9c3e 9c38 0f3d 58d5 d23d
00000120: 3e80 c13d 0c64 233e 4205 d03c 574e 8d3d
00000130: c9af e1ba dd54 90bd 7862 07bd 5c1c 623c
00000140: fb07 99bb e2dd 203d 12d6 34bd f249 41bd
00000150: 598e cfbc 6680 48bd c424 6ebd 04d4 1e3d
00000160: b32e aa3b 1e7c ddbd a187 543d db97 863d
00000170: aa25 43bd c61e bcbd f9e9 88bc 3ffa 203d
00000180: 9906 45bb d1bc 7bbb bda6 493d ea0f d039
00000190: 43f3 85bd 033f 683d dd6c 77bd 0480 2ebd
000001a0: 979f 153d c989 053d eb80 bebb 9e8d 253b
000001b0: b84e a5bc fece 833c ef6d c33c 81fb 5c3d
000001c0: 9289 6c3c 3e35 f93c fd7e adbd 682f 24bc
000001d0: 63d2 0dbd b71b 85bd 58f2 ebbd 2f1b d4bc
000001e0: b3dc 903c be34 e73d 3c37 a23d 6ae6 b13d
000001f0: effe 9b3d be20 683d 4b96 9b3d 8b9c 9c3d
00000200: a2a4 fa3c 888c 31bd 8533 08bd a340 873d
00000210: 8d92 03bd 2d30 41b8 b860 133d d3bc 56bd
00000220: 089a 443d 2011 e43b e544 103d 1a6e 73bd
00000230: 644b 04bd 705c 4b3d d7f8 0b3d 8dfd 863b
00000240: 3ad7 a1bd 6468 4bbd e51a 31bd 3628 25bd
00000250: 2133 c7bd d7c8 01bd c6df b73b 2e9c 083e
00000260: bb99 263e 05de fe3d 0521 4b3d fa63 2b3d
00000270: 3351 fa3c b1d8 103e 8f18 b23c 058a f53d
00000280: 3a6d 883c 517a 73bd 35ce 63bc 931d b93d
00000290: a6fd 673d 1799 4cbd bd59 863d 1c15 e9bc
000002a0: c3eb ce3b b0ac be3d 9d5c afbc e169 5a3d
000002b0: 9a5d 6dbd 0178 bbbd ac33 973c 01db 1abc
000002c0: b656 c93a 9b4a 88bd 2fd0 2d3d 3326 0e3d
000002d0: 102a 0cbd 006b ebbd f2f5 16be f7a3 20bd
000002e0: d1b3 14bd 40b1 ad3c 5b8f 31bd 6913 b9bc
000002f0: 20c8 c8bd aac0 a8bd b025 cc3d ad3c ad3b
00000300: 8603 91bc 1758 063d 2859 fabd c2d4 0e3d
00000310: 48ab 303b a41d a23d 90a3 953d 6940 6a3d
00000320: 1ddd 843d 8c8a 92bb bf01 d3bd 41c6 31be
00000330: 9c8b e8bc 7984 453e f1f0 7f3e f4b5 983e
00000340: 2a00 723e 7308 7f3c 1083 f53d c87d 643e
00000350: 1c27 b03e 3bc7 c03e 21cd 663e 91a9 89bc
00000360: 781a a43d 947d fe3d f3f8 123e b851 cf3d
00000370: e731 f23c eaa1 33bb d608 c8bd 1bba 93bd
00000380: 30fb 363d 92a9 413d 9312 0dbc 7a40 dfbd
00000390: 155e f1bd 6cdb 99bc da17 043d f5d6 0f3c
000003a0: 0f0b b1bd f9d4 96bc 2d5d 5d3c 4b0e b7bc
000003b0: 295c c5bd af15 0abe 2a20 20bc 4f66 4bbd
000003c0: 820c 30bd 86f4 1abd 2222 c1bd aa83 9bbd
000003d0: 2fa4 babc 9fae edbd 6c21 0fbe dd41 58bd
000003e0: 7387 acbd eda4 223d 545f 813c 4922 8cbd
000003f0: f630 c3bc 1cf4 1e3d 38fb e63d 1db6 bf3b
-0.07953664 -0.046510834 0.056243923 -0.07854202 -0.066803284 -0.010274105 0.016192093 -0.049403243
0.045309715 0.034130882 -0.0646748 -0.016217444 -0.024720125 0.13057174 0.03800257 -0.07723666
-0.0778312 -0.057221547 -0.107041925 -0.0991418 0.03200636 -0.047040537 0.07893581 -0.0140864765
0.00019124064 0.0627341 -0.047434937 -0.027897034 -0.045354713 0.0637526 0.065667816 -0.034428947
-0.011562349 0.07756585 0.043058474 -0.060069486 0.00014631609 -0.06356809 -0.115823545 -0.08724706
0.08390856 -0.059387684 0.035151795 -0.0095855305 0.07177184 -0.0034998404 0.07945275 -0.027310878
-0.023018805 0.10500129 0.07281723 0.010688487 0.10264332 0.06524159 0.08985617 0.020357959
-0.068914965 0.023580236 0.041086767 -0.113486186 -0.012238257 -0.022246381 0.01807301 0.031302724
0.006073393 0.009855541 -0.0007900753 0.1995201 0.2423117 0.30633214 0.034966096 0.10294598
0.094482884 0.15956134 0.025393132 0.06899708 -0.0017218526 -0.070474364 -0.03305289 0.013800707
-0.004670141 0.039274104 -0.044149466 -0.04718966 -0.025336431 -0.048950575 -0.05814053 0.038776413
0.0051935553 -0.10814689 0.05188716 0.06571933 -0.04764334 -0.09185557 -0.01671313 0.039301153
-0.0030063747 -0.0038412104 0.04923128 0.00039684708 -0.06540539 0.056700718 -0.060406554 -0.042602554
0.03652915 0.032602105 -0.005813708 0.0025261412 -0.020179138 0.016089913 0.023856131 0.05395079
0.014437096 0.030420896 -0.08471487 -0.010021068 -0.03462447 -0.06499427 -0.11520833 -0.025891868
0.017683363 0.11289357 0.07920691 0.08686526 0.07616984 0.05667185 0.075970255 0.07647046
0.030596081 -0.04334691 -0.033252258 0.06604125 -0.032122184 -4.6059653e-05 0.03598091 -0.05242617
0.04799846 0.0069600493 0.035221953 -0.059431173 -0.03229846 0.049648702 0.03417286 0.004119581
-0.07902379 -0.0496601 -0.04323854 -0.04032155 -0.09726549 -0.031685676 0.0056113927 0.13340828
0.16269581 0.124446906 0.049592037 0.041843392 0.030556297 0.14145161 0.021740226 0.11989216
0.016653646 -0.059442822 -0.013904144 0.09038844 0.056638382 -0.049950685 0.06560085 -0.028452449
0.006314726 0.09310281 -0.021406466 0.05332363 -0.057950594 -0.09153748 0.018457256 -0.009451629
0.0015360925 -0.06654855 0.042434867 0.0347044 -0.0342198 -0.11495018 -0.14742258 -0.03921887
-0.0363043 0.021202683 -0.043349605 -0.022592263 -0.09803796 -0.08239873 0.09968126 0.005286774
-0.017701875 0.032798853 -0.122240365 0.03487087 0.002695756 0.0791581 0.07306588 0.057190333
0.064874865 -0.0044720825 -0.103030674 -0.17360784 -0.028386883 0.19288816 0.24994256 0.2982632
0.23632875 0.015565979 0.11987889 0.22313607 0.34404838 0.37652 0.22539188 -0.016804488
0.08012861 0.12426296 0.14352779 0.101230085 0.02956481 -0.002740974 -0.0976731 -0.07213231
0.044673145 0.047280855 -0.0086103855 -0.1090097 -0.11785523 -0.018781386 0.03224931 0.008779277
-0.086446874 -0.0184121 0.013510984 -0.022345683 -0.09636719 -0.13484834 -0.0097732935 -0.049658116
-0.04298068 -0.037830852 -0.094303384 -0.07593472 -0.022783367 -0.11605572 -0.13977593 -0.052797187
-0.084242724 0.039708067 0.015792526 -0.06842477 -0.023827057 0.03880702 0.11278385 0.005850567

conv_block2.0.bias f4 [16]
00000000: cf64 113d ccc1 883d d545 233d 4ba5 a33d
00000010: be26 9bbc fa4d 01bd 1e1a a23b 4422 7b3b
00000020: a17f 84bd 7cba 3f3d dcd1 3abb 1705 41bd
00000030: 9186 95bc 9156 4d3d c0c3 85bd 37f5 19bc
0.03549653 0.06677589 0.03986152 0.079905115 -0.018939372 -0.031568505 0.004946961 0.0038319984
-0.06469656 0.046808705 -0.0028506434 -0.047123995 -0.018252643 0.050131384 -0.06531477 -0.009396843

fc1.weight f4 [120, 256]
00000000: f6a3 353d cb59 e9bc 0532 1b3d 5416 7e3d
00000010: baa0 b1bc c6b3 b63b 81de bcbc ac64 d5b8
00000020: be2f d83c 3c48 3abd 5362 e03c c58f c3bc
00000030: c2af 503d 7604 663d c6b9 653d 7317 4cbd
00000040: 8761 95bd 7e72 2e3c a813 213d 95bc 77bc
00000050: 23fa 64bd 36a4 40bc 7a65 243d bee6 253d
00000060: ec33 bcbb 210e 4ebc e573 c63a a612 55bd
00000070: 6f80 e33c cb24 6c3c 363b 20bd fcf2 48bd
00000080: 5f82 b93b 191c 84bc 82ed 323c 813e 19bc
00000090: b338 813c 699e 39bd 4cae 2ebc e2a3 503d
000000a0: dae2 693c de02 74bd 7b2a 7a3d e068 f3bc
000000b0: ddd5 85bc 153a 6ebd cf79 8c3d 094c f7bc
000000c0: a447 2cbd 43b6 f13c 2582 1abc 7bd6 32bd
000000d0: e1b5 65bd 19af cd3c a19e 0e3d 84e7 383c
000000e0: d0ab 9bbc b660 70bc 370e 063d e070 2d3d
000000f0: 7b02 0fbd 50c7 53bd dafd 73bb 032e 4f3d
00000100: d1c7 67bd b83c eebc 6f2c e93a 7194 19bd
00000110: a41e e03c 81e8 e33c 086c 0bbd 0cd2 dcbc
00000120: 09d4 9d3d 9fbf 053d 2537 35bd 1f8a 8bbd
00000130: 9ee9 563d f117 1abd 6812 4ebd f2c8 d0bc
00000140: 5f6e 273d 6f4f 483c de54 49bd c238 313d
00000150: 34bb e63c e33a a43c 3361 db3c 863f 723d
00000160: 5ebd 47bc 10c2 1d3d 7695 8a3d b82a 40bd
00000170: 39ba f7bc 780c 87bd 893e f03c 22be 0e3d
00000180: 9e40 65bd 1ddc 77bc ebf5 37bd 5578 1fbd
00000190: b02d 4bbd 9e96 41bd 0460 14bd 3845 823c
000001a0: 2d79 42bd 446d 39bc f0fa 753d cdaf 233c
000001b0: d1ea 29bd ed43 c8bc 0043 8ebc d9de 0fbd
000001c0: 80ae 3c3d 587d 143d ea59 353d 910e 98bc
000001d0: 7077 2bbc 01d3 473d 4815 9c3c de10 dabc
000001e0: e984 02bd faa7 30bd ebf3 9c3c 12bb 80bd
000001f0: 39d0 363c a6f0 973d 218b 313d aeb8 a13c
00000200: 66fb b23c f5cf 13bd f998 663d 2958 ae3c
00000210: fb78 5c3a 452f 4ebc e549 603c af51 4a3d
00000220: 4fb7 003d 6a51 49bd 5894 c63c 6212 84bc
00000230: 8eba fabb 924b 5c3c 78d2 5c3d 564f fd3b
00000240: 0f10 7abc 8bd8 6c3c e46c 333c ce17 843d
00000250: f79d 5abd 41a1 64bd ce6d b03c 6c6e ba3c
00000260: 4e18 3e3c 819d f9bc 4fe3 433d a60e 27bd
00000270: 7afe 363a 3600 853b 5448 55bc b1df 273d
00000280: 7c31 bd3b 8800 08bd 49e2 0d3c 3c3f 5ebd
00000290: be67 3dbc abb9 83bc 840a 593d bbcd 9e3c
000002a0: 9eee c83c ddac 2e3d e250 43bd 197b 5ebd
000002b0: 182c faba 84b4 68bd aeda 8cbc 8ffa 343d
000002c0: 84af 623c 98b4 2b3d c15a 81bd 7ba3 2bbd
000002d0: b234 953d dfe8 213c a351 59bd b8d6 44bc
000002e0: 9018 48bd b8a1 1abc 691b 6f3d 2300 2bbd
000002f0: a209 d3bc a111 3abc adcb 173d c53c 563d
00000300: 7a6a cbbc 35bf 373d 6d53 ef3c b5e5 8d3b
00000310: ebfd 2a3d f06f 46bd 1a96 d93c 2ab8 a13c
00000320: 1dd8 243d 495b 003d 9c81 a2bc e708 b1bc
00000330: 0c86 a2bb a819 2e3d ba3d 193c 2b68 2c3d
00000340: f907 083d 4bf9 ce3b a7e2 4f3d cc8a e8bc
00000350: 903d 34bd b026 d93c bc05 0e3d 9d67 263d
00000360: e6b4 0fbd 6932 033d 759a e1bc 4d49 58bc
00000370: 99ba 49bd af09 69bc 41d7 b93c ca81 b63c
00000380: e1bc b1bc 0326 af3b a6dd fc3b f244 043d
00000390: e55c 1c3d 7676 743d f3df 573d 5ca1 273d
000003a0: f352 723c 55e5 02bd 949c be39 ea68 a6bc
000003b0: 4727 9d3b 43aa 0dbd a5de 37bd f5cf 74bb
000003c0: 4205 2ebd 1ee5 dc3c e3aa 323d d531 b63c
000003d0: 936a 66bd a4c1 fd3c 8356 05bc 4551 c3bc
000003e0: 97b4 94bc 405a 4ebd 5c74 cc3c 7f85 0cbd
000003f0: 47e5 c33c c61c b43c 7ed0 1c3d ff09 a63d
0.04434582 -0.0284852 0.0378895 0.062033013 -0.021683086 0.00557563 -0.023055317 -0.00010175383
0.026389953 -0.045479044 0.027390635 -0.023872266 0.050948866 0.056156598 0.05608537 -0.04982705
-0.072939925 0.010647414 0.039325386 -0.015120645 -0.05590261 -0.011757901 0.040135838 0.040503256
-0.0057434943 -0.012576611 0.001514074 -0.052019738 0.027771203 0.014413069 -0.039118968 -0.049059853
0.0056612934 -0.01612668 0.010920884 -0.009353281 0.015774107 -0.045317087 -0.010661673 0.05093754
0.014275277 -0.059573047 0.06107567 -0.029713094 -0.01633733 -0.05816086 0.06859171 -0.030187624
-0.04206051 0.029505854 -0.009430443 -0.043661576 -0.056081656 0.025107907 0.03481925 0.011285666
-0.019002825 -0.014671495 0.0327284 0.042343974 -0.034914475 -0.05170375 -0.0037230165 0.05058099
-0.056587044 -0.029081687 0.0017789732 -0.03749508 0.02735836 0.027820827 -0.034038574 -0.026955627
0.07706458 0.032653447 -0.044242043 -0.06813454 0.05246889 -0.03762049 -0.050310522 -0.025486443
0.040876742 0.01222597 -0.0491532 0.04326702 0.028165437 0.02004761 0.026779747 0.059142612
-0.012191145 0.03851515 0.06766789 -0.04691574 -0.030240165 -0.06594175 0.029326694 0.034849294
-0.055969827 -0.015128163 -0.04491226 -0.038933117 -0.049604118 -0.04726278 -0.03622438 0.015902147
-0.047478843 -0.011317555 0.060053766 0.009990645 -0.041483704 -0.024446452 -0.017365932 -0.035124633
0.046064854 0.03625235 0.0442752 -0.018561633 -0.010465488 0.048785213 0.019053116 -0.026619371
-0.031865034 -0.043128945 0.019159278 -0.06285681 0.011158043 0.07418947 0.043345574 0.019741382
0.021848392 -0.036086995 0.05629823 0.021282272 0.00084103615 -0.012584512 0.013689493 0.049394306
0.031424817 -0.049149908 0.024240658 -0.016122047 -0.0076516336 0.013445752 0.053911656 0.007730405
-0.015262618 0.014455925 0.0109512545 0.06449853 -0.053373303 -0.055817846 0.021536734 0.022757731
0.011602474 -0.030470612 0.0478242 -0.040785454 0.0006980669 0.004058863 -0.013017733 0.040984813
0.0057737213 -0.03320363 0.008659908 -0.054259524 -0.011560379 -0.016079744 0.052988544 0.01938521
0.024527844 0.042645324 -0.047684558 -0.054316614 -0.0019086627 -0.056812778 -0.017194118 0.044184264
0.0138357915 0.041920274 -0.06316138 -0.041903954 0.072854415 0.009882181 -0.05305637 -0.012014084
-0.04885155 -0.009437971 0.05837575 -0.041748177 -0.02576143 -0.011356742 0.037059475 0.052304048
-0.024831045 0.044860084 0.029214585 0.0043303617 0.04174606 -0.048446596 0.026560832 0.019741137
0.040245164 0.031337056 -0.019837193 -0.02161069 -0.0049598273 0.042504936 0.009353096 0.04209153
0.03321073 0.006316339 0.050753262 -0.028386496 -0.044004023 0.026507705 0.034673437 0.040626157
-0.035084628 0.032030497 -0.027539471 -0.01320107 -0.04925022 -0.0142235 0.022685649 0.022278685
-0.02169651 0.0053451075 0.0077168522 0.032292314 0.03817453 0.059683286 0.05270381 0.04092537
0.014790284 -0.03195699 0.00036356284 -0.020313699 0.004795942 -0.034586202 -0.044890065 -0.0037355397
-0.042485483 0.02696472 0.04362 0.022240559 -0.05625398 0.030976124 -0.008138302 -0.023842463
-0.018152518 -0.050379038 0.024957828 -0.034307 0.023913039 0.021986376 0.03828477 0.08107375

fc1.bias f4 [120]
00000000: 4cd9 f13c 3237 fb3c 8a51 50bd b003 a9bc
00000010: 1eaf 893c 9fe4 cd3c ad92 b23c 0c40 1b3d
00000020: b7e4 50bd 7a3a 33bd 0176 5f3d 04ba 8bbb
00000030: 6507 423d 1685 81bc 08a5 513d e407 913c
00000040: 9e98 58bc 5539 d53c f9b7 6bbc af0f e9bc
00000050: 68f7 23bd 1a0b 403d 8e0e 013c f969 1bbc
00000060: 47c0 7a3d ca36 a8bb 1c93 813d 7e29 763c
00000070: 54fa 443c 49aa 0abd 0929 943c 9f89 0fbc
00000080: 68c0 273d 5cc5 3e3c d6a4 673d 0793 193d
00000090: 4da4 fb3c 17c5 75bc bb12 073d 07c9 66bd
000000a0: ad39 05bd 92ec 4d3d 11f2 3bbd 200f c63c
000000b0: 86b3 d5bc e68d 7cbc 7877 cf3a e421 433d
000000c0: c7e9 1cbd ba8a 273d e001 0a3d bd76 55bc
000000d0: c342 863d eb0f 183d fe6b 42bd 882e 913a
000000e0: c323 47bd 1d7a 093b b1e1 18bd 30db 13bd
000000f0: 6934 6d3d 073e e9bb 9fc7 b7bb d482 893d
00000100: 7f01 b13c f3ac 21bb d3b4 37bd 011c d0bc
00000110: 8236 5f3c abb4 f73c 0808 653d 0a38 c9bc
00000120: e422 173c f347 823d b7fd 49bd a393 0e3d
00000130: d205 003d 18e4 523d 6e58 0d3d e729 163d
00000140: 0504 083c 6830 223d 265e 56bd 3554 ac3b
00000150: a602 5a3d 0a47 9e3c 36e8 b039 dd75 3cbd
00000160: 5e0d a13c 63e4 28bd 09bd bb3c e03a 6a3c
00000170: d6fb 4fbd 5414 903c 582d 3e3d a40d a53a
00000180: c4e5 f3bc 9593 3abd 2b65 82bd 77cb bbbc
00000190: 7f7c cc3b 4757 cebc 3687 f63c 5f80 a0bc
000001a0: 4db0 3c3d beef 5c3d 0066 33bc 6fc4 ae3c
000001b0: 844a 05bd 5c80 f8bc 7411 50bd e093 36bb
000001c0: 4fa0 03bd e23f 273d 37a8 973c 1fc6 9f3c
000001d0: 56b3 663c 728b a2bc 3038 133d 9fa9 17bd
0.02952256 0.030665968 -0.05085901 -0.020631641 0.016807135 0.02513343 0.021798456 0.037902877
-0.05099937 -0.04375694 0.054555897 -0.004264118 0.047370333 -0.01581053 0.051182777 0.017703958
-0.0132199805 0.026028315 -0.014387124 -0.028449861 -0.040030867 0.046885587 0.007877005 -0.009485715
0.061218526 -0.0051334845 0.06326887 0.015024541 0.0120225735 -0.033853803 0.018085973 -0.008760839
0.040954977 0.011643734 0.056553684 0.03749373 0.030717993 -0.015000603 0.032976847 -0.05634406
-0.032525707 0.05027444 -0.04588515 0.024177134 -0.02608658 -0.015414691 0.0015828451 0.047639742
-0.038308885 0.040903784 0.033693194 -0.013028798 0.065557025 0.037124556 -0.04746627 0.001107649
-0.04861809 0.0020977326 -0.03732461 -0.036097705 0.05791131 -0.00711799 -0.0056085135 0.067144066
0.021607159 -0.0024669736 -0.04485018 -0.025403978 0.0136238355 0.030237516 0.055915862 -0.024562854
0.009224627 0.063613795 -0.049314227 0.034808766 0.03125555 0.05148706 0.03450816 0.036661055
0.00830174 0.039596945 -0.05233588 0.0052590617 0.053225182 0.019320983 0.00033742347 -0.04601084
0.019659694 -0.04123343 0.022917287 0.014296263 -0.05077728 0.017587818 0.046429962 0.0012592566
-0.029772647 -0.0455509 -0.063669525 -0.022924168 0.006240427 -0.025188101 0.03009377 -0.019592462
0.04606657 0.053939573 -0.010949612 0.021333901 -0.032541767 -0.030334644 -0.050797895 -0.0027859136
-0.032135304 0.040832408 0.018512828 0.019503651 0.014080843 -0.019841883 0.035942256 -0.037026998

fc2.weight f4 [84, 120]
00000000: 1ced 90bd 5322 b7bc 5533 a63d 9c61 cd3d
00000010: 6e92 89bc e27e 003d c6cd 26bd 2df6 8f3d
00000020: a63e 5fbd 36c6 b539 e61d d53d 107f 3ebc
00000030: 3aeb c5bd 2923 28bd e258 2dbd 843e a7bd
00000040: ccef 893c 1aa4 a83d c689 a13c 42d4 bdbc
00000050: 18a3 9cbc 4cf2 b5bb 0623 ba3c 51e1 d03d
00000060: 2c15 87bd c125 1c3d a71e 49bd c070 233d
00000070: 303f f7b9 63da 84bd 1a3f 683d 3191 57bc
00000080: c123 8c3c 5924 a2bd 4af0 803c bbfe 12bd
00000090: 3361 1fbd 9a3f ac3d 7ae4 64bd 541f 92bd
000000a0: e519 b73d 4c13 35bb dc7a 843c 0de9 743d
000000b0: bc42 1e3c c275 ad3d 3ec2 0d3c 8acd 883d
000000c0: 16a9 523d f3b4 93bd 3ac2 99bd ddf3 8fbc
000000d0: b80b 0b3c f387 a73b 7099 d7bb a3f5 52bd
000000e0: bebc 51bd 5d6d 6c3d 0689 a0bd 2a7e 3ebd
000000f0: 1fbd c7bd 3dc2 00bd 6218 f83b 0c5d da3c
00000100: 6aa7 4bbd 57fe 893d 2588 afbd a7fd 8fbc
00000110: 16cf b8bc d029 2fbd e41e 77bc 806d 333c
00000120: 119a 37bd 45ec 9dbc 549c a53d 57b6 a1bd
00000130: 8a2b 09bc 5787 08bd f7db 28bd b6d3 863d
00000140: 6b58 3abd 6649 803b 2be5 a63c da70 b73a
00000150: b308 be3d 997f a83d 77a9 3cbd 8d5c 5f3b
00000160: d63b 783b 19fb 873d 525d 4bbc 02d9 863d
00000170: 251e 52bd 5df7 93bb eddf 1dbd 4776 bdbb
00000180: 7064 78bd caff 2a3d 7ea9 913d 2a03 9abd
00000190: cd27 94bd f7af 123d 1109 2abd 31ea b1bd
000001a0: d0a0 4f3d d8d1 313d 44b9 c03c 0b77 863b
000001b0: 54ea 18bd 9475 8dbc e1f5 67bd cc36 773d
000001c0: 89c7 223d 8d21 e63b 34c6 9ebd 57b7 3a3c
000001d0: beeb 8a3d 1028 953d 4d7d a63d ea72 8c3a
000001e0: fed4 14bd e16f 963d ca3b 9bbd 1ff8 3a3c
000001f0: 2cef 273c da68 c1bd 0c3c 723d 38ca 923d
00000200: 5b4d a3bd 5515 323c 2376 c43c 5082 c33d
00000210: 66f6 c2bd 446e 64bd 8c40 25bd b728 1d3d
00000220: 599d 593d 58ba 0abd 4e1c 97bd 7a26 91bc
00000230: 8487 b83d b791 80bd 40c2 583c 2e26 71bc
00000240: eefc bdbc bc65 c8bd 6e85 7d3c 0e40 1f3d
00000250: 56f0 4abd b62f e7bb 628a ecbc f8ec 85bd
00000260: 1eff 48bd 2357 773d 4431 3c3c a231 dc3c
00000270: f171 e13a 548a 183d 0fc1 c03d cecc 01ba
00000280: edf8 8cbd 31f5 77bc 2476 91bd a024 8b3d
00000290: 2746 513d 99e2 77bd dc4f 6ebd 49b0 ce3b
000002a0: 2f0b d23c dfde a83b 1cbe 7c3d 2b26 113d
000002b0: 51cf 6b3d 6613 08bd 6c0f 38bd 267b 08bd
000002c0: 042b bbbc 3e72 c7bc 47ad 023e 25bf 5dbd
000002d0: 2580 313c 8814 a3bd 6486 32bc 7faa d03d
000002e0: 7f21 27bd a472 2c3c 33d5 3e3c 018f b33a
000002f0: de14 5abc 0527 9a3d 2cbc 193d 63b1 23bd
00000300: 7a30 d73d 3530 80bd 4376 b6bd 7ef1 afbb
00000310: 1833 8abd 9a4a fbbc 8dee 133c 4a3a 753d
00000320: 7411 233d 8d6f 71bd 2ceb 64bc 741e 78bd
00000330: c7af 763d 78e6 4bbd 9379 023e a739 d8bc
00000340: 4661 943d 362e cc3d 19df d5bd bc29 903d
00000350: b6ca b43d 7473 d0bd 2053 573d eb39 bd3d
00000360: dfd3 643d 7cec dc3d a763 ad3d 6b0e 7c3d
00000370: 809c 013d 1dc0 78bd 4bb7 1f3d 47df 003d
00000380: d431 98bc 3b77 a9bd 692a 7abd f833 81bd
00000390: 27d4 b93b cd77 713d 5e19 c3bc 9346 d83c
000003a0: f352 8a3d 5b28 80bd 0955 34bc add9 7cbc
000003b0: def2 b43d e06f 27bc 877e 2b3d 1200 153d
000003c0: 4146 b83d b6ae 043c 6cdc 133d d263 82bc
000003d0: 7b5e 463d 3cb6 65bd 1a0d 1bbd b0a6 6f3b
000003e0: ff18 e1bc f49f 853d 33f2 9b3d a972 de3c
000003f0: 4fec a1bd 1caf 72bc e54f 8f3d 5d64 f63b
-0.07076475 -0.022355234 0.081152596 0.10028383 -0.016793456 0.031371005 -0.040723585 0.07029376
-0.054503106 0.0003467069 0.10406093 -0.011626974 -0.096640065 -0.041049156 -0.042321093 -0.08166221
0.016837977 0.08234425 0.019719016 -0.023172501 -0.019120738 -0.0055525657 0.022721779 0.10199226
-0.06595835 0.038121942 -0.049101498 0.03990245 -0.0004715859 -0.064869665 0.056700803 -0.013157175
0.017106893 -0.07917089 0.015739579 -0.03588746 -0.038911056 0.084105685 -0.055881955 -0.071348816
0.08940486 -0.002762991 0.016171865 0.059792567 0.009659465 0.08469726 0.008652268 0.066798285
0.051430784 -0.07212248 -0.07507749 -0.017572338 0.008486681 0.005112642 -0.0065795705 -0.05150379
-0.05120539 0.057721484 -0.07838635 -0.04650704 -0.09752869 -0.03143524 0.007571266 0.026655696
-0.049720205 0.067379646 -0.085708894 -0.017577006 -0.022559684 -0.042764485 -0.0150830485 0.0109514
-0.044824664 -0.019277701 0.08086458 -0.07896107 -0.008372197 -0.033332195 -0.0412254 0.065833494
-0.04549448 0.003915 0.020372948 0.0013995424 0.09279003 0.08227462 -0.04606005 0.0034082264
0.0037877462 0.0663969 -0.012412386 0.0658436 -0.05129828 -0.004515572 -0.03854363 -0.005781922
-0.06064266 0.041747846 0.07112406 -0.07520135 -0.07234154 0.035812344 -0.041512553 -0.086872466
0.050690472 0.043413013 0.023525842 0.0041035465 -0.037332848 -0.01726798 -0.056630973 0.060354993
0.039741073 0.0070230425 -0.07752648 0.011396251 0.067832455 0.07283032 0.08129368 0.0010715399
-0.036335938 0.07345558 -0.07579763 0.011411696 0.010249894 -0.09443827 0.059139296 0.071674764
-0.07973739 0.010869344 0.023982113 0.095463395 -0.09519653 -0.05576922 -0.04034476 0.038368907
0.053128574 -0.033869117 -0.073784456 -0.017718542 0.090102226 -0.06277793 0.013229907 -0.014718575
-0.023191895 -0.09785029 0.015473707 0.038879447 -0.04954561 -0.007055248 -0.02887458 -0.06539339
-0.049071424 0.060385834 0.011486355 0.026879136 0.0017200095 0.037241295 0.09411823 -0.0004951478
-0.06883416 -0.015134142 -0.07102612 0.06794095 0.051092293 -0.060518835 -0.05818163 0.006307636
0.025640098 0.0051535214 0.06170474 0.03543679 0.05757076 -0.033221625 -0.044936582 -0.03332057
-0.02284766 -0.024346467 0.12761413 -0.054137368 0.010833775 -0.079629004 -0.010896299 0.101887695
-0.04080343 0.010525379 0.01164751 0.0013699235 -0.013310639 0.07526974 0.03753297 -0.03996409
0.10507293 -0.06259195 -0.089092754 -0.0053693643 -0.067480266 -0.030675221 0.009029043 0.059870042
0.039811566 -0.058944274 -0.013972085 -0.060575917 0.060226228 -0.04978034 0.1274169 -0.026394678
0.07245116 0.099697515 -0.10442943 0.0703921 0.088277265 -0.10178271 0.05256951 0.092395626
0.05586612 0.10787293 0.08466273 0.061537188 0.03164339 -0.06073009 0.03899316 0.031462934
-0.018578447 -0.082746945 -0.0610756 -0.063087404 0.0056710425 0.05895214 -0.023815807 0.02640084
0.067541026 -0.06257697 -0.011006602 -0.015432757 0.08835386 -0.010219544 0.041868713 0.03637702
0.08997775 0.008098295 0.036098883 -0.015916739 0.048429947 -0.056081995 -0.03785429 0.003656786
-0.02747774 0.06524649 0.07614555 0.027154284 -0.079064004 -0.014812257 0.069976605 0.0075192885

fc2.bias f4 [84]
00000000: 2a2e 1e3d de8c ef37 37ed 96bd b6e5 ac3d
00000010: 87b0 68bd bf28 f33c f0f4 993a 0811 a4bd
00000020: 1add 993c e63f 9f3c 3e19 84bd 3525 6f3d
00000030: a705 55bc 5de7 7e3c 3921 a03d ec31 073d
00000040: 9119 67bc b7fa c2bc 9a59 82bd b491 80bd
00000050: 04e7 1e3d 4867 80bd 9204 543d 8bb1 3dbd
00000060: 478b d53d 7567 58bd e299 873d 005b b43d
00000070: 1e6c 07bd f140 0f3d a263 b03c 7797 393d
00000080: f722 aebd df7d a93d 5134 86bc 0bb0 873d
00000090: 025a 9e3d da7b 9d3d 18ce ad3d d313 a3bc
000000a0: e70b 443d 576c a6bd e670 473d b56c 723c
000000b0: 8cc0 ae3b 7807 cc3c 7f87 e53d 6c79 3bbd
000000c0: fed5 c93d eaa5 88bd 0fa6 88bd 5c26 c1bc
000000d0: 09ed 4e3a 78b4 69bd 9ad4 093d 7ad2 0e39
000000e0: 2724 d03d 8961 393d 24e7 6a3c faad 7f3c
000000f0: 09a0 a73d 0367 153d f5f6 b0bd 7896 0e3a
00000100: 5650 2a3d 8447 8f3d f3b7 c13c 0171 5a3d
00000110: 1844 aabb d5ff 9bbd 5306 cdbc 79b1 adbd
00000120: 7af4 773c 70ba bebd 69d3 85bd 40fe 9a3d
00000130: 0ff7 813d 41af 99bd 00ab bb3b 1e88 ae3d
00000140: c99a fc3c f2a9 373d b0e2 823d 1a7a 5abd
0.038618244 2.8556617e-05 -0.07369464 0.084422514 -0.056808975 0.029682515 0.0011745971 -0.08011061
0.018782187 0.019439649 -0.06450127 0.058385093 -0.013001836 0.015558091 0.07818837 0.033006594
-0.014105217 -0.02380119 -0.063647464 -0.06277791 0.038794532 -0.06269699 0.05176217 -0.046311896
0.10426956 -0.05283304 0.06621148 0.088064194 -0.033062093 0.034974042 0.021531884 0.045310464
-0.08502763 0.08275961 -0.016382368 0.066253744 0.077320114 0.076896384 0.08486575 -0.019906914
0.047862913 -0.08126133 0.048691653 0.014796426 0.005333012 0.024905905 0.112074845 -0.045770094
0.09855269 -0.066722706 -0.06672298 -0.023577861 0.00078935974 -0.057056874 0.03365002 0.00013620584
0.101631455 0.045259032 0.014337335 0.015605444 0.08184821 0.036475193 -0.08640853 0.00054392917
0.04158052 0.069960624 0.023647284 0.053330425 -0.0051961057 -0.076171555 -0.02502743 -0.08481116
0.015133971 -0.09312904 -0.06534464 0.075680256 0.06345951 -0.0750413 0.005727172 0.08522056
0.030835526 0.044839807 0.063908935 -0.0533391

fc3.weight f4 [10, 84]
00000000: 7389 013e 9e29 b33c f59b 173d 311c 1fbe
00000010: cbc9 bc3d b113 403d a160 a23d 1bce d8bd
00000020: 580f 2cbd 1fff 883c 1633 0abb 5781 303e
00000030: 5e25 75bd 5bc3 62be 8681 3cbd 5e3f 28be
00000040: 9bff c2bd 08fe a63d b5e6 5dbd 2f11 cd3b
00000050: 356c a1bd da95 1d3d f32e 62be ff58 ad3d
00000060: ee9a f13b 1f28 acbd 10b8 533e 8955 d53d
00000070: 712b d8bd e8bc 55bd 084f 97bd 0114 013e
00000080: d9a2 50bd 9dc4 de3d e292 f03d 98f6 0c3e
00000090: aba1 bd3c d89d bf3c 39a4 98bd 064b 25be
000000a0: 73c7 d1bd 552c f03c 4235 58bd 3248 9d3d
000000b0: 757f 4c3d c0a8 453e 5ae4 13be 199c d6bb
000000c0: dd81 d73d a6f7 3d3d f38e b53d b011 8dba
000000d0: aff6 083e f28d 1c3e 55c1 523d aa9c 05bd
000000e0: 2726 c83c b954 dfbd 0c1d 243e e25b eb3d
000000f0: 4dce 663c 08cd 113c 4303 663d ddff 763d
00000100: 350f b33d 4c8d 073e 2b09 83bd 537b 22be
00000110: 9a59 cb3d 1be9 aaba 1b90 983d 9cce aabd
00000120: 68b8 a73c bd5c 7bbd fcb9 dbbc 64f0 a2bd
00000130: ab8a cfbd 13bf dbbd 6d81 a4bd 5d91 2f3d
00000140: e93b 6cbe 4e23 3bbb 7517 a83d 4275 943d
00000150: 22c6 19bd 1e24 2d3e 23eb c8bd fbef 22bd
00000160: 0738 bd3d 09f3 e8bd dbcc 943d 5b2b 07bd
00000170: 1cba d03d bed9 be3d ffb4 80bc 4a6e 1b3e
00000180: c1ce 393e ba8a 03be 4cf5 563d ab8c ff3d
00000190: 167e 0f3c 5855 f0bd 5ce1 41bd d804 a13c
000001a0: 4a60 7bbd 9852 953d 539c 333e c2e9 93bc
000001b0: 73d4 483e 3201 85bd 172b 1bbd 26ac 993d
000001c0: 0267 63be 1408 adbd 1907 3a3e 59a2 0ebd
000001d0: 1fd9 5d3d d7dc 153d d83a 0a3c 79e0 0cbe
000001e0: 844e a53d 2118 bd3d af0f f23d 9483 5dbd
000001f0: 34b1 1fbe e82f debd b30e 2abe d8ca 95bd
00000200: ef13 0b3c d165 3a3d 818a 1f3d c62f a03c
00000210: 8e64 21be 9593 b43d ab90 ffbb 9bc9 833d
00000220: 7eb7 02be 3891 8bbd e0d2 04be d320 1dbd
00000230: 20f9 91bc 5c44 933d b8c6 32be eb63 b2bc
00000240: 617f 043e d612 cd3c 7922 cbbd d70b 313c
00000250: 976d f1bd e0b0 36be 8582 e13c b996 a7bd
00000260: 7bf6 6b3d a38b f8bd 2cd1 bd3c 64e0 85bd
00000270: 22ee dabd 6cda e33d 923d 843d 9641 fabc
00000280: e987 403d fa66 cebd 9b90 f2bd 9275 323e
00000290: d643 1a3e 5d1b babd fc4b 2d3d a7f1 f5bd
000002a0: 19f0 44bd 688c 893b c5cd c53c dab2 32be
000002b0: 4acc 0abe 46bb 60bd ca2b fd3c 6fd3 94bd
000002c0: d0e4 bc3d d8a8 e1bd a4b9 893d e643 f0bd
000002d0: 4608 ce3d 5e78 b03c 0bc9 073e bc5d 0a3e
000002e0: 5f51 5fbe fe0b e33c 97f5 303d f890 2dbe
000002f0: 2120 eebd 9fc8 3f3d f960 32be ab68 d43c
00000300: 09a5 7abd fc4b 103e 0496 f83d adbb 73bc
00000310: c969 71bd d35d e2bd 2687 86bc 8d95 143e
00000320: b13b 6bbd 808e 02be 563e 8c3b b9d4 2f3d
00000330: 7332 2f3e e3a3 9ebd f07a 92bd 87a3 9f3d
00000340: 3a04 e5bd f09d 49bd dbd3 d83c 37cf 9dbd
00000350: 86c7 913b 408e 6f3e b5e7 bdbc e3c3 c13d
00000360: 3bbc 08be abdf ca3d f763 08be 9455 303d
00000370: 5c62 ef3c 7f1c b7bd e16f 12be 2bc1 9c3d
00000380: 6e61 44bd 8ce0 a4bd 7e67 9abd 812f 03be
00000390: adbe 8fbc 09ef c43d 2c4d 413d 6b02 bfbd
000003a0: 8634 3b3e b5ab ccbd 311f 223d 6046 c03d
000003b0: 53e3 703d 1ef7 2a3e 05fd 773c e02d 233e
000003c0: d95b 06bc ab1e 753d 767c 4f3d 85fe ad3c
000003d0: e9c9 6bbd bc66 8dbd f809 213e c999 803e
000003e0: 4b9e 733d 984a 4ebb 8d33 ae3d b7b5 363e
000003f0: 9b60 7f3d 0c0e 94bc 4e2a 823d 4923 653e
0.12650089 0.02187043 0.037013967 -0.15538098 0.092181765 0.04689378 0.07928587 -0.105861865
-0.04200682 0.016723214 -0.0021087578 0.17236839 -0.05985009 -0.22144835 -0.04602196 -0.16430423
-0.09521409 0.08153921 -0.054175097 0.006258152 -0.07881967 0.038472988 -0.22088222 0.0846424
0.0073732054 -0.0840609 0.20675683 0.10416705 -0.10555161 -0.05218211 -0.07388121 0.12605287
-0.050936554 0.10877345 0.11746766 0.13765943 0.023148378 0.023390695 -0.07453198 -0.161419
-0.1024312 0.029318014 -0.052785166 0.07679786 0.04992624 0.19302654 -0.14442578 -0.00654937
0.10522816 0.046378754 0.08865156 -0.0010762718 0.13375352 0.15288523 0.051453907 -0.03262011
0.024432255 -0.109048314 0.16026706 0.11492135 0.014087272 0.008898981 0.056155454 0.060302604
0.08743135 0.13237494 -0.06398233 -0.15867357 0.099291995 -0.0013039442 0.07449361 -0.08340189
0.020473674 -0.06136774 -0.026822083 -0.07956007 -0.10133871 -0.10729804 -0.080324985 0.04286324
-0.23069729 -0.0028554979 0.08207599 0.07248928 -0.03754247 0.16908309 -0.09810474 -0.039779644
0.09239202 -0.1137448 0.072656356 -0.03300033 0.101917475 0.09318875 -0.015711306 0.1517879
0.18145277 -0.12845889 0.052480027 0.12478002 0.008758089 -0.11735028 -0.04733406 0.01965563
-0.061371125 0.07291144 0.17540102 -0.0180558 0.19612293 -0.064943686 -0.03788289 0.07503538
-0.22207263 -0.084488064 0.1816677 -0.034822796 0.05416214 0.036587562 0.008436881 -0.13757505
0.08071616 0.09233118 0.11819398 -0.05408056 -0.15594941 -0.10848981 -0.1660717 -0.0731408
0.008488639 0.045507256 0.038950447 0.01955403 -0.15761015 0.088172115 -0.007799228 0.064349376
-0.12765309 -0.06814808 -0.12971067 -0.03836138 -0.017818987 0.07190773 -0.17458618 -0.02177616
0.12939216 0.025033396 -0.099186845 0.0108060455 -0.11788481 -0.1784091 0.027528057 -0.08183045
0.05760811 -0.121360086 0.02317103 -0.0653694 -0.106899515 0.11125645 0.06457056 -0.030548852
0.047004614 -0.10078235 -0.118439876 0.17427662 0.1506494 -0.090872504 0.042308792 -0.12008982
-0.048080537 0.004197646 0.02414597 -0.17451039 -0.13554493 -0.054866098 0.03090467 -0.0726689
0.0922333 -0.110185325 0.06724861 -0.117317006 0.10060172 0.02154177 0.13260286 0.1351232
-0.21808384 0.02771568 0.043202963 -0.16949832 -0.11627222 0.046822187 -0.17419805 0.025928816
-0.061192546 0.14091486 0.12137988 -0.014876288 -0.058938775 -0.11053052 -0.016421866 0.14510174
-0.057429973 -0.12749672 0.004279892 0.042927478 0.17109089 -0.07746103 -0.07152355 0.07794862
-0.11182447 -0.049222887 0.026468208 -0.07705539 0.004448834 0.23394108 -0.023181776 0.094611906
-0.13353054 0.099059425 -0.13319384 0.043050364 0.029221706 -0.08940982 -0.14300491 0.07654031
-0.04794448 -0.080506414 -0.07539271 -0.1281109 -0.017546976 0.09615905 0.047192737 -0.09326633
0.18281755 -0.09993688 0.039580528 0.09388423 0.058810543 0.1669583 0.015136008 0.15935469
-0.008200609 0.0598437 0.050655805 0.021239528 -0.057565603 -0.06904361 0.15726459 0.2511733
0.05947713 -0.0031477567 0.08505926 0.17842756 0.06234799 -0.018073104 0.06355725 0.22376741

fc3.bias f4 [10]
00000000: 3380 963d 83c6 583c 093f 9bbd 491f 11bd
00000010: ee85 b7bc 3786 a4bd e6e4 09bd 2857 003d
00000020: 3577 0b3d 3cc8 873d
0.07348671 0.013230923 -0.075803824 -0.035430226 -0.02240273 -0.08033412 -0.03366556 0.03133312
0.03404923 0.066299886
