lab2-models/hip-6-model.pth (torch, 181175 bytes, 10 tensors)

conv_block1.0.weight f4 [6, 1, 5, 5]
-0.22603141 -0.15077318 0.027268067 -0.014600257 0.15068823 -0.16225189 -0.26367673 -0.24118257
-0.20335759 -0.06861928 0.027206147 -0.15912202 -0.16022754 -0.24838191 -0.2571757 0.08436817
0.061094757 -0.07044202 0.031889968 -0.22103572 0.04531518 0.1507704 0.0679256 -0.03634766
0.016143193 -0.06455806 0.116418004 -0.19146797 -0.47802418 -0.18733375 0.2544332 0.26280317
0.21189275 -0.13129927 -0.1608773 0.010613131 0.4876947 0.6060131 0.18672237 0.039437205
-0.34355035 0.13480258 0.3999192 0.24459557 0.019413931 -0.42299005 -0.35766956 -0.15582319
0.09197709 0.2577962 -0.1381668 0.20684375 -0.10919709 -0.13361739 -0.264922 -0.11555792
-0.17874408 -0.010390098 -0.21789496 -0.24778311 0.09485179 0.023932839 -0.23770359 0.10818005
0.16525242 0.21337546 0.20470579 0.01821848 0.32911545 0.39582014 -0.18330118 0.26519552
0.28226483 -0.10116143 -0.11708959 0.056442082 -0.121969946 -0.15232022 -0.21366921 -0.08139517
0.026449168 -0.13093781 -0.17833157 -0.024175208 -0.14661339 -0.21670692 -0.01359 -0.1563731
-0.029926531 -0.16145518 0.047112767 -0.015402937 0.065040216 0.0016080464 -0.038375463 0.097808
-0.06991917 0.19672737 -0.040141318 -0.05637911 -0.24922103 -0.12505022 -0.17022216 -0.03219842
0.023377309 -0.36534587 -0.013526578 -0.17473923 0.21834415 0.0111812325 -0.03719695 0.23457386
0.37433055 0.07999811 0.13740905 0.44301128 0.45556358 0.3096734 -0.066934206 0.105894506
0.0029277254 -0.35969478 -0.44756755 -0.16789517 -0.037850846 0.029597571 -0.029570851 0.0021674817
-0.03179153 0.2619579 -0.24247976 -0.28605992 -0.29405716 0.27076948 0.18143873 -0.27216244
-0.21618374 -0.12361998 0.46008602 0.23243865 -0.46673506 -0.08898047 0.2898146 0.5686862
0.17872043 -0.21389194 0.15275635 0.40233752 0.38111728 -0.24307786
00000000: c774 67be 4964 1abe 4861 df3c eb35 6fbc
00000010: 044e 1a3e 5c25 26be a300 87be 90f8 76be
00000020: f93c 50be 4488 8cbd 6ddf de3c e2f0 22be
00000030: b012 24be d457 7ebe 89ac 83be 38c9 ac3d
00000040: 7f3e 7a3d e843 90bd 0e9f 023d 3057 62be
00000050: 699c 393d 8e63 1a3e 941c 8b3d 49e1 14bd
00000060: bb3e 843c 0437 84bd 906c ee3d 2e10 44be
00000070: 96bf f4be 6bd4 3fbe 1245 823e 238e 863e
00000080: 6afa 583e 5173 06be 05bd 24be b3e2 2d3c
00000090: 1fb3 f93e ad23 1b3f 2634 3f3e e888 213d
000000a0: d5e5 afbe b009 0a3e 36c2 cc3e 4377 7a3e
000000b0: f709 9f3c 2792 d8be 7720 b7be 1d90 1fbe
000000c0: 7c5e bc3d ddfd 833e 997b 0dbe d9ce 533e
000000d0: b9a2 dfbd ffd2 08be dba3 87be a1a9 ecbd
000000e0: b008 37be 3b3b 2abc db1f 5fbe dbba 7dbe
000000f0: a841 c23d cd0e c43c 9268 73be 818d dd3d
00000100: ee37 293e 197f 5a3e 659e 513e ec3e 953c
00000110: d281 a83e f0a8 ca3e 4eb3 3bbe b5c7 873e
00000120: 0485 903e b92d cfbd abcc efbd d02f 673d
00000130: 61cb f9bd d5f9 1bbe 1acc 5abe 83b2 a6bd
00000140: edab d83c 9014 06be 8d9c 36be 160b c6bc
00000150: d221 16be 6be8 5dbe 97a8 5ebc 4520 20be
00000160: 7c28 f5bc 8254 25be 51f9 403d 9a5c 7cbc
00000170: ce33 853d 15c5 d23a 972f 1dbd 904f c83d
00000180: c831 8fbd e672 493e 396b 24bd c8ed 66bd
00000190: cc33 7fbe 2a0d 00be b84e 2ebe 7ee2 03bd
000001a0: c581 bf3c 9d0e bbbe 959e 5dbc d7ee 32be
000001b0: 9c95 5f3e 7d31 373c d45b 18bd 2134 703e
000001c0: 41a8 bf3e 0dd6 a33d f5b4 0c3e 60d2 e23e
000001d0: a13f e93e 838d 9e3e cd14 89bd 38df d83d
000001e0: 15df 3f3b ea29 b8be 9327 e5be b6ec 2bbe
000001f0: 7d09 1bbd 9b76 f23c 923e f2bc 4f0c 0e3b
00000200: d637 02bd 591f 863e 9d4c 78be 7276 92be
00000210: a98e 96be 4ca2 8a3e 13cb 393e e058 8bbe
00000220: 455f 5dbe 792c fdbd 6590 eb3e 6604 6e3e
00000230: e6f7 eebe 653b b6bd 9462 943e 6b95 113f
00000240: 7d02 373e 7d06 5bbe 296c 1c3e 2fff cd3e
00000250: ce21 c33e 67e9 78be

conv_block1.0.bias f4 [6]
0.0121987695 0.12849575 0.28351337 0.056675393 -0.046383996 0.1654669
00000000: 59dd 473c 6494 033e aa28 913e 7524 683d
00000010: 25fd 3dbd 2870 293e

conv_block2.0.weight f4 [16, 6, 5, 5]
0.028764408 -0.04129305 0.02678893 -0.1181605 0.0046893894 0.09878629 -0.014832061 -0.0998116
-0.11901502 0.028133832 -0.020998428 -0.13879266 -0.121752664 -0.18417862 -0.14565611 0.0046708714
0.062425695 -0.06402667 -0.025950111 -0.014441103 0.04739273 0.07472647 0.2161055 0.16568625
-0.009373951 -0.059802514 0.026770642 -0.22331335 -0.19072087 -0.07886085 0.037476413 -0.1638564
-0.10135202 -0.10327041 -0.07748604 0.06149028 -0.009054334 0.060791675 0.10089397 0.010966891
-0.059640873 -0.07726251 0.22236465 0.2869862 0.2555388 -0.055571105 0.26011232 0.010354711
0.26631746 0.2339067 -0.13096459 -0.20987996 0.017362345 0.07198851 0.043517847 -0.023650993
0.03820848 0.05623734 0.07670253 0.08174192 0.04172624 -0.13442338 -0.13452835 0.16678013
0.17549384 -0.26157048 -0.2596863 0.019051615 0.225467 0.2162519 0.046250004 0.018616797
-0.016992277 0.044342026 -0.14067575 0.096273884 0.003468555 0.0659376 -0.0066171363 0.06903978
0.07127431 0.016728956 -0.06936689 -0.0154657 0.11012503 0.028734483 0.045702055 -0.09410207
-0.027781328 -0.009561165 0.025678197 0.0041702413 -0.008493779 -0.1221666 -0.0045387032 -0.014328867
0.014558847 0.06915689 0.0783083 -0.036697146 -0.12423845 0.028588457 0.08204019 0.104497924
0.118454166 0.1604229 -0.0006854444 0.15720129 0.18367136 -0.007846202 -0.054884616 0.10282845
0.14488406 -0.021395514 0.119889945 -0.11263109 -0.0785712 0.071633846 -0.119307324 0.058604386
-0.016070107 -0.013646402 -0.010253589 -0.15772475 -0.1828543 -0.04898318 0.11755093 0.08784117
0.107255735 0.03131223 0.0796857 0.0926888 0.15477271 0.20931573 0.09023081 0.04674241
0.018842619 -0.042791013 -0.019627724 0.017381424 0.07759831 -0.13807021 -0.14613418 -0.25414816
-0.18843801 0.060761023 -0.2884568 -0.4376297 -0.3350286 -0.28168038 0.06930263 0.059261166
0.033812698 0.11896653 0.006738429 0.033759695 -0.031800207 -0.14426033 -0.048171215 0.08682
0.09658263 -0.14272244 -0.19514647 0.031310942 0.10135256 0.052077353 -0.23176265 -0.22557162
0.0091285715 0.014174266 -0.040931318 -0.1839571 -0.06374936 0.03897355 0.13224177 -0.20061655
-0.100821465 -0.34886736 -0.17610908 0.0031171308 -0.23131709 -0.13417071 -0.22431076 -0.18630837
0.059208576 -0.25275287 -0.09043673 -0.15049121 -0.21006407 0.05925565 -0.09243843 -0.033528525
0.05441456 0.032580383 -0.115764834 0.15639305 0.07924843 0.23608296 0.037329186 -0.09238573
-0.0016191382 0.06480234 0.17410338 0.025986537 -0.117817774 -0.106295556 0.11124951 0.06836907
-0.0582357 -0.02414997 -0.19955157 -0.09823702 0.025412034 0.039384037 -0.038523246 -0.16360773
-0.20103493 0.12897551 0.0667685 0.06269292 -0.14284502 0.14317267 0.2934833 0.10475879
0.06686497 0.009769647 0.1295572 0.13595498 0.03724698 0.11473137 0.020160528 -0.005687296
-0.014724899 -0.009366495 0.10335099 0.016132463 -0.14218019 -0.09499176 0.0744734 -0.03668935
-0.0401347 -0.18757549 -0.054117672 -0.035137292 0.054078195 -0.09531457 -0.17915213 -0.050100088
0.029009374 0.009420831 -0.038298167 0.036426496 0.010956522 0.20005435 -0.005127454 0.06301779
00000000: 56a3 eb3c e722 29bd 7574 db3c 22fe f1bd
00000010: 73a9 993b 7750 ca3d 2c02 73bc 066a ccbd
00000020: 26be f3bd ec78 e63c e504 acbc aa1f 0ebe
00000030: 7659 f9bd 5299 3cbe e026 15be 1c0e 993b
00000040: 16b2 7f3d 6a20 83bd 5495 d4bc 609a 6cbc
00000050: e11e 423d 310a 993d c34a 5d3e a8a9 293e
00000060: 3395 19bc 7bf3 74bd 1b4e db3c 41ac 64be
00000070: 554c 43be cc81 a1bd de80 193d f9c9 27be
00000080: a691 cfbd 707f d3bd 00b1 9ebd 3bdd 7b3d
00000090: a158 14bc b100 793d 7fa1 ce3d 7aae 333c
000000a0: fd49 74bd cf3b 9ebd 8fb3 633e dbef 923e
000000b0: fbd5 823e 879e 63bd 712d 853e cea6 293c
000000c0: c35a 883e 3d85 6f3e 951b 06be c6ea 56be
000000d0: 7a3b 8e3c b66e 933d c53f 323d babf c1bc
000000e0: 7f80 1c3d 2059 663d 3716 9d3d 4f68 a73d
000000f0: 22e9 2a3d 48a6 09be cdc1 09be 69c8 2a3e
00000100: a8b4 333e 91ec 85be 9af5 84be 2212 9c3c
00000110: d2e0 663e 2371 5d3e a570 3d3d 4182 983c
00000120: 6333 8bbc fc9f 353d 4e0d 10be 3e2b c53d
00000130: b250 633b 4b0a 873d 90d4 d8bb ba64 8d3d
00000140: 44f8 913d 2a0b 893c 3a10 8ebd d963 7dbc
00000150: 3b89 e13d 9464 eb3c 1432 3b3d 96b8 c0bd
00000160: ab95 e3bc 6fa6 1cbc 155b d23c 85a6 883b
00000170: 7e29 0bbc 7b32 fabd 67b9 94bb a0c3 6abc
00000180: 3b88 6e3c 21a2 8d3d 1a60 a03d bf4f 16bd
00000190: ba70 febd 5732 ea3c b004 a83d 0203 d63d
000001a0: 1998 f23d e745 243e 65af 33ba 60f9 203e
000001b0: 5814 3c3e 5b8d 00bc b1ce 60bd b997 d23d
000001c0: 7d5c 143e a545 afbc dc88 f53d 21ab e6bd
000001d0: f0e9 a0bd c4b4 923d 6657 f4bd 270b 703d
000001e0: 75a5 83bc 2995 5fbc abfe 27bc 9982 21be
000001f0: 283e 3bbe 96a2 48bd 8bbe f03d 12e6 b33d
00000200: e5a8 db3d 4141 003d 4232 a33d a0d3 bd3d
00000210: bd7c 1e3e dd56 563e eeca b83d f874 3f3d
00000220: d65b 9a3c a145 2fbd 52ca a0bc 7d63 8e3c
00000230: ddeb 9e3d 4762 0dbe 33a4 15be b51f 82be
00000240: e5f5 40be 8de0 783d 9cb0 93be 0011 e0be
00000250: de88 abbe 6938 90be 8aee 8d3d d6bb 723d
00000260: 2f7f 0a3d b9a4 f33d 0ace dc3b 9b47 0a3d
00000270: ef40 02bd fbb8 13be 2e4f 45bd afce b13d
00000280: 1dcd c53d d525 12be 7ad4 47be e73f 003d
00000290: ee91 cf3d 104f 553d 3053 6dbe 3ffc 66be
000002a0: 0190 153c 2e3b 683c 99a7 27bd 405f 3cbe
000002b0: 068f 82bd bba2 1f3d 636a 073e 6d6e 4dbe
000002c0: 7c7b cebd be9e b2be f055 34be c748 4c3b
000002d0: 63de 6cbe 0c64 09be b8b1 65be 9fc7 3ebe
000002e0: b184 723d d368 81be e436 b9bd 5e1a 1abe
000002f0: 091b 57be 0db6 723d 5c50 bdbd 3555 09bd
00000300: cde1 5e3d 0273 053d 1d16 edbd 8025 203e
00000310: 004d a23d bbbf 713e 7de6 183d bb34 bdbd
00000320: 4339 d4ba 17b7 843d 2848 323e b8e1 d43c
00000330: 724a f1bd 7cb1 d9bd c8d6 e33d 1505 8c3d
00000340: 8f88 6ebd 28d6 c5bc 3f57 4cbe 7e30 c9bd
00000350: e62c d03c 2851 213d 8dca 1dbd c988 27be
00000360: 1adc 4dbe 2812 043e ecbd 883d 2565 803d
00000370: f745 12be db9b 123e 7143 963e c78b d63d
00000380: 80f0 883d df10 203c a5aa 043e c837 0b3e
00000390: 4a90 183d 48f8 ea3d b127 a53c 7f5c babb
000003a0: b440 71bc ed75 19bc afa9 d33d 3a28 843c
000003b0: af97 11be 0a8b c2bd 8385 983d 9247 16bd
000003c0: 4864 24bd ca13 40be 7eaa 5dbd 1fec 0fbd
000003d0: 1981 5d3d 4934 c3bd a873 37be c035 4dbd
000003e0: 11a5 ed3c d459 1a3c 8ade 1cbd f333 153d
000003f0: fc82 333c 0cdb 4c3e 3404 a8bb 790f 813d

conv_block2.0.bias f4 [16]
0.11812914 -0.048161346 -0.017861558 -0.041002788 0.013645171 0.07299625 -0.02126329 0.081253335
0.013675873 0.045624774 -0.014262206 -0.021293746 -0.01621862 0.08079963 0.05904027 0.00836343
00000000: b1ed f13d d544 45bd 6752 92bc 8af2 27bd
00000010: ff8f 5f3c 0f7f 953d 5a30 aebc 2668 a63d
00000020: c510 603c 0be1 3a3d 07ac 69bc 3970 aebc
00000030: e9dc 84bc 477a a53d 36d4 713d c506 093c

fc1.weight f4 [120, 256]
-0.026534744 0.045683272 0.11747526 0.101018265 0.016700251 0.028232597 -0.04486293 0.1874322
0.081052214 -0.053259127 -0.007398657 -0.032535557 0.015461827 -0.075764805 -0.08455267 0.04605768
0.112565555 0.20150524 0.051681448 0.12171522 0.0488573 0.08402593 -0.25635484 0.014385374
0.013761534 -0.09916684 -0.15266353 0.023094494 -0.02802991 -0.08595237 -0.03244592 -0.094022356
-0.094613425 -0.08890205 -0.12268034 -0.055352226 0.034400694 0.0594942 0.06315286 0.0044932994
0.1456193 -0.04987884 0.0069072284 -1.1867815e-05 -0.018299242 0.022505393 0.100783795 -0.036975805
-0.08847949 -0.035273265 0.11667417 -0.13102192 -0.046852645 -0.029849134 -0.05506893 -0.056860536
0.07701855 0.021913962 0.028229568 0.025104685 0.030621871 0.11493404 0.10707935 0.107485235
-0.10607291 0.118235804 0.08984807 0.0410532 -0.05143508 0.03380367 -0.041421656 0.1278485
0.061262533 -0.044270974 0.04923762 0.08446046 -0.0023441867 0.030365968 -0.071551405 -0.107192844
-0.073303975 -0.022032045 -0.18404508 0.06254814 0.13162145 -0.09238728 -0.08934723 -0.112749144
0.017899506 -0.06657771 -0.09975595 -0.07752654 0.033496667 -0.02794373 -0.036594715 0.05398565
-0.2384987 -0.20249335 -0.046086304 0.14315395 0.030315405 0.009532031 -0.0009984256 0.011555861
0.06554666 -0.028633121 -0.03760422 0.108737126 0.011339297 -0.03563938 0.032093525 0.021129126
0.1392994 0.12870318 0.049522106 0.024326622 0.12218263 0.10650526 0.013973467 -0.09958141
-0.014788845 0.053531576 -0.030726457 0.028524263 -0.040390737 0.12463529 0.037576463 0.058695577
0.16259125 0.006854084 -0.06507445 -0.04858558 0.010239801 -0.01795493 0.09682979 0.09932074
0.010935731 -0.044172246 -0.07963573 0.081853166 -0.00088527385 -0.11222625 -0.068442225 0.009710073
-0.019699262 0.24701521 0.11763635 0.07250515 -0.0048434963 0.07420314 -0.03522452 -0.010506382
0.04509785 0.11607384 0.15538855 -0.009091713 0.10470566 0.051230885 0.033842083 -0.027380003
0.0744101 -0.006171094 0.001300393 0.07169609 0.011913341 0.051542383 0.055340227 -0.090472706
-0.1513125 0.057338487 0.12748675 -0.12785824 0.07504627 0.09743479 0.10091219 0.010644676
-0.06503642 -0.191134 -0.07253275 -0.1207392 0.018851945 0.03393819 0.045685157 -0.12986405
0.07090573 -0.0326991 0.027263043 0.043857407 0.033567965 0.053620227 -0.03574431 0.056617927
-0.05725836 -0.05065955 -0.030887233 0.04343438 0.051946975 -0.14561772 -0.0587506 0.012523074
-0.0064463615 -0.001708954 -0.042940367 -0.047330815 0.028527882 -0.06979825 0.057836477 -0.07215848
0.051882975 0.030227456 -0.045210417 0.040152684 0.11285476 -0.012441652 -0.04771846 0.025522592
0.059908923 -0.040509287 -0.024808537 -0.09797714 0.006292089 0.12305971 -0.050893266 -0.0056762546
-0.008323494 -0.0852972 0.0073904144 0.19792043 -0.08996889 -0.05361023 0.04053093 0.13819145
-0.0529694 -0.013599538 0.05883968 0.16249873 -0.034029216 0.038219295 0.0793712 0.06904391
0.060635563 0.32063606 -0.06642051 -0.034425464 0.18352483 0.23541246 -0.09284457 0.10350348
0.21181601 0.084180884 -0.02243775 0.06321814 0.06547259 -0.071132585 -0.07204276 0.0065273605
00000000: 645f d9bc 621e 3b3d de96 f03d aae2 ce3d
00000010: f7ce 883c 0c48 e73c 31c2 37bd 3aee 3f3e
00000020: b4fe a53d 3e26 5abd 6f70 f2bb 0144 05bd
00000030: 9a53 7d3c 942a 9bbd f329 adbd faa6 3c3d
00000040: c588 e63d 6457 4e3e edaf 533d d445 f93d
00000050: 981e 483d c915 ac3d f140 83be a2b0 6b3c
00000060: 0f78 613c fc17 cbbd d453 1cbe aa30 bd3c
00000070: fb9e e5bc cc07 b0bd 03e6 04bd cb8e c0bd
00000080: afc4 c1bd 4712 b6bd d53f fbbd 04b9 62bd
00000090: bee7 0c3d 31b0 733d 4956 813d 873c 933b
000000a0: 3a1d 153e c14d 4cbd 0856 e23b e11b 47b7
000000b0: 4be8 95bc 3b5d b83c bc67 ce3d f173 17bd
000000c0: bc34 b5bd b37a 10bd def2 ee3d 9c2a 06be
000000d0: 8fe8 3fbd 2c86 f4bc f58f 61bd 98e6 68bd
000000e0: e7bb 9d3d e984 b33c b241 e73c 57a8 cd3c
000000f0: b8da fa3c 8a62 eb3d 6b4c db3d 3821 dc3d
00000100: c13c d9bd 9d25 f23d 4402 b83d 6627 283d
00000110: 97ad 52bd b875 0a3d c1a9 29bd b8ea 023e
00000120: 6cee 7a3d 7b55 35bd 63ad 493d 9bf9 ac3d
00000130: eda0 19bb 0dc2 f83c 8b89 92bd ec87 dbbd
00000140: 6520 96bd 8c7c b4bc 5076 3cbe 3d19 803d
00000150: c6c7 063e 8b35 bdbd aefb b6bd 06e9 e6bd
00000160: fca1 923c e559 88bd d94c ccbd 3cc6 9ebd
00000170: cd33 093d 40ea e4bc 57e4 15bd 0f20 5d3d
00000180: 0139 74be 6b5a 4fbe fec4 3cbd f396 123e
00000190: 0358 f83c 3c2c 1c3c 9bdd 82ba cb54 3d3c
000001a0: 543d 863d 0290 eabc e206 1abd 92b1 de3d
000001b0: 75c8 393c 99fa 11bd 8074 033d fd16 ad3c
000001c0: 80a4 0e3e c4ca 033e b1d7 4a3d a048 c73c
000001d0: e33a fa3d 6e1f da3d f8f0 643c 57f1 cbbd
000001e0: e94c 72bc ed43 5b3d 0db6 fbbc b7ab e93c
000001f0: c270 25bd c940 ff3d c7e9 193d c66a 703d
00000200: 527e 263e 3998 e03b c145 85bd ac01 47bd
00000210: d7c4 273c 3816 93bc b24e c63d ac68 cb3d
00000220: c82b 333c f5ed 34bd 0f18 a3bd a2a2 a73d
00000230: b911 68ba e0d6 e5bd 702b 8cbd ff16 1f3c
00000240: 5960 a1bc 8ef1 7c3e 54eb f03d 957d 943d
00000250: 31b6 9ebb d1f7 973d 9647 10bd f622 2cbc
00000260: 86b8 383d 1fb8 ed3d 2d1e 1f3e 68f5 14bc
00000270: ec6f d63d 7ad7 513d ff9d 0a3d 074c e0bc
00000280: 5364 983d e336 cabb f371 aa3a 66d5 923d
00000290: 2c30 433c 1b1e 533d 6fac 623d c149 b9bd
000002a0: aaf1 1abe c3db 6a3d e38b 023e 45ed 02be
000002b0: dcb1 993d e48b c73d 0dab ce3d 0267 2e3c
000002c0: d131 85bd a2b8 43be 0d8c 94bd 1d46 f7bd
000002d0: 656f 9a3c c602 0b3d 5c20 3b3d 15fb 04be
000002e0: 0637 913d 7eef 05bd bf56 df3c d3a3 333d
000002f0: 907e 093d e2a0 5b3d a068 12bd 33e8 673d
00000300: be87 6abd 6380 4fbd 3907 fdbc 40e8 313d
00000310: 5ac6 543d d01c 15be 78a4 70bd 942d 4d3c
00000320: 003c d3bb fbfe dfba 3de2 2fbd f5dd 41bd
00000330: 4eb3 e93c 63f2 8ebd f1e5 6c3d d3c7 93bd
00000340: 3e83 543d 929f f73c 8f2e 39bd 2477 243d
00000350: 6520 e73d 12d8 4bbc 6f74 43bd c114 d13c
00000360: 0f63 753d 11ed 25bd 463b cbbc 3da8 c8bd
00000370: de2d ce3b bb06 fc3d 7575 50bd e0ff b9bb
00000380: 445f 08bc 4cb0 aebd 4a2b f23b a7ab 4a3e
00000390: 9c41 b8bd 6796 5bbd c303 263d 0f82 0d3e
000003a0: 71f6 58bd 99d0 5ebc e001 713d 1166 263e
000003b0: 3862 0bbd d68b 1c3d 5e8d a23d e566 8d3d
000003c0: ff5c 783d 692a a43e 7a07 88bd b701 0dbd
000003d0: efed 3b3e f70f 713e 4b25 bebd a2f9 d33d
000003e0: 4ce6 583e 0767 ac3d 5fcf b7bc 8378 813d
000003f0: 7e16 863d f6ad 91bd 288b 93bd 78e3 d53b

fc1.bias f4 [120]
0.08910619 -0.040284988 0.004245546 0.041640732 -0.04222513 0.019263355 -0.018327758 0.052077398
0.05452211 0.014279432 0.018422568 -0.079195164 0.09785885 0.059735496 0.018637536 0.04186077
-0.05424303 -0.060241595 0.03491736 -0.03077681 -0.04233542 -0.0064478745 0.050831474 -0.012739268
-0.02061097 -0.07470106 0.012663378 0.023293147 -0.06706885 0.022658033 -0.06450383 0.09785537
0.041382737 -0.026777303 -0.06456229 -0.024795286 -0.06427949 -0.048991717 -0.03480257 0.014410763
0.09217619 0.06744126 0.089073196 -0.0015704156 0.051064238 0.022770898 0.042901054 0.018667482
-0.021468733 -0.034309126 0.0318184 0.06599237 0.04341275 -0.013327429 -0.016182225 -0.025059516
-0.047446825 -0.041757863 -0.05863665 -0.09022108 0.09026455 -0.008693995 0.08773449 0.09806805
0.02998728 -0.00024126435 0.08326018 -0.020829527 -0.031111456 0.022472842 -0.022324124 0.03146259
-0.04625231 -0.014836277 -0.044335533 0.040799845 0.014788892 0.020963738 0.04505266 -0.03842606
0.012566019 0.011105405 0.010851968 -0.071784176 -0.01957518 0.006375442 -0.051993553 -0.041954175
0.029309373 -0.07700603 -0.0837509 -0.036142558 0.055794302 0.00980649 0.014453496 0.049669888
0.029178672 -0.057523314 0.013361619 -0.015346111 0.03188636 -0.0022972757 -0.05361884 0.047175445
0.046167776 -0.02894662 -0.039710358 0.017302964 -0.006651403 -0.012126377 -0.014145836 0.00836473
0.0022491394 0.07012356 0.04610966 -0.016084203 -0.037716486 -0.002480487 0.06965201 -0.046451416
00000000: 4e7d b63d df01 25bd 391e 8b3b 798f 2a3d
00000010: 42f4 2cbd 2fce 9d3c 1824 96bc 1c4f 553d
00000020: 9352 5f3d 47f4 693c edea 963c 1331 a2bd
00000030: 396a c83d 35ad 743d bfad 983c 3376 2b3d
00000040: f02d 5ebd e4bf 76bd 8105 0f3d a61f fcbc
00000050: e867 2dbd b148 d3bb aa34 503d 5db8 50bc
00000060: 56d8 a8bc dffc 98bd 0f7a 4f3c 45d1 be3c
00000070: 655b 89bd 579d b93c 961a 84bd 6568 c83d
00000080: f280 293d 135c dbbc 3c39 84bd 7c1f cbbc
00000090: f7a4 83bd 8aab 48bd 248d 0ebd 1f1b 6c3c
000000a0: dfc6 bc3d a51e 8a3d 026c b63d 67d6 cdba
000000b0: bc28 513d 098a ba3c 04b9 2f3d 8cec 983c
000000c0: 32df afbc ba87 0cbd 0354 023d 0227 873d
000000d0: 91d1 313d 4a5b 5abc 9690 84bc 9d49 cdbc
000000e0: 9a57 42bd 4b0a 2bbd fc2c 70bd d4c5 b8bd
000000f0: 9fdc b83d 4271 0ebc 24ae b33d e7d7 c83d
00000100: e2a7 f53c e8fb 7cb9 5084 aa3d afa2 aabc
00000110: 74dd febc f718 b83c 15e1 b6bc ebde 003d
00000120: 1073 3dbd db13 73bc 2d99 35bd bd1d 273d
00000130: 1c4d 723c 25bc ab3c 2389 383d a564 1dbd
00000140: b4e1 4d3c 72f3 353c 74cc 313c 9503 93bd
00000150: 215c a0bc 15e9 d03b 31f7 54bd 24d8 2bbd
00000160: 361a f03c 56b5 9dbd 9885 abbd 380a 14bd
00000170: 9188 643d 66ab 203c 5bce 6c3c a772 4b3d
00000180: 1c08 ef3c 919d 6bbd b1ea 5a3c 416e 7bbc
00000190: 469b 023d e48d 16bb 6e9f 5bbd 0a3b 413d
000001a0: 6c1a 3d3d 7621 edbc 54a7 22bd f2be 8d3c
000001b0: 03f4 d9bb b6ad 46bc f0c3 67bc 380c 093c
000001c0: 4c66 133b f19c 8f3d 7cdd 3c3d 05c3 83bc
000001d0: 9a7c 1abd ab8f 22bb b7a5 8e3d d743 3ebd

fc2.weight f4 [84, 120]
-0.029876467 -0.009844842 -0.08155729 -0.0050860145 -0.023056744 -0.06453349 0.014708287 -0.07642852
0.02709495 0.00915432 -0.09644884 0.023308584 0.02683046 -0.04899308 0.016736763 -0.035970543
0.06967023 -0.11549844 0.031016847 -0.074118994 -0.03039537 0.0757563 0.01382387 -0.060896903
-0.019662432 -0.035270307 -0.05109611 0.051826444 0.023594745 -0.117447026 0.09086426 -0.09779921
0.042114355 -0.077805765 0.01106085 0.015624066 -0.025327558 0.06659677 0.05527969 0.021265358
-0.052318837 0.027851215 -0.012653979 0.021390265 -0.016664097 0.0008959046 0.1059567 -0.059420537
0.06562669 -0.118403435 -0.017656658 -0.11337828 -0.11530781 0.065884195 0.051903617 -0.0067146462
0.07381064 0.043015346 0.038540676 -0.06493981 0.049595337 -0.119098164 -0.03352804 -0.021215063
-0.134213 -0.033927117 -0.08604765 0.035008803 0.002957936 0.032099668 -0.09252737 -0.05575839
-0.076431856 -0.0780313 -0.09120699 -0.07933853 0.076233745 0.056303326 0.0048351665 -0.06249719
0.16062413 -0.035791513 -0.0145666525 -0.022757808 0.074375205 0.0052942783 0.02069569 0.034060918
-0.03007988 -0.039780702 -0.058351435 0.108401 0.03905594 -0.0012180486 0.017307797 -0.023183368
0.034125697 0.06989583 -0.11865144 -0.03452992 -0.10630447 0.05521658 0.06559488 -0.018014638
-0.03829014 -0.0580972 -0.05683247 -0.074252665 0.028207561 -0.050878767 -0.046501163 0.050353706
-0.083816774 0.04064464 -0.07940096 -0.0027679186 0.023069898 -0.11338361 0.045521345 0.04926117
0.05624947 -0.005440173 -0.08350786 0.105274744 -0.06462376 -0.020981742 0.07560375 -0.022474702
0.06406058 0.045309935 -0.052577432 0.019092774 -0.039017234 -0.111741625 -0.103146 0.008942575
-0.024694646 -0.18043418 0.00016610307 -0.1877465 0.13499458 -0.0008157805 -0.14746977 0.04172101
0.032466598 -0.004126873 -0.07651427 -0.1530399 0.0060618757 0.14868966 -0.10642212 0.048942033
-0.123375595 0.051126454 -0.0022863764 -0.122486286 -0.0141952215 0.07544411 -0.012840952 0.012297266
-0.07532702 -0.06956611 0.05453793 -0.0016246248 -0.07882981 -0.095141955 0.1703091 0.2681419
0.18231834 0.075821035 0.07704903 0.089874096 -0.26806125 -0.045105647 -0.08475691 -0.06815694
0.005997021 0.15622085 -0.029642813 0.009951701 -0.2563712 0.010905909 0.052530322 -0.01339157
-0.0058443733 -0.15324071 -0.06464058 0.07988977 -0.2788734 0.037270922 0.029354267 -0.16257243
0.007848316 -0.15858968 -0.11845238 -0.07826988 0.07385762 0.031144459 -0.043625064 0.019998893
-0.053205553 -0.010993148 0.10906188 -0.019700553 0.032640338 0.052403815 0.054938484 0.022761848
-0.033752408 -0.01427696 -0.028432062 0.06229247 -0.02320827 0.079579905 0.026537227 0.07904594
-0.112261266 0.06756729 0.0077918586 -0.010586947 0.02888854 -0.11720929 0.031886615 -0.001603699
-0.28026882 -0.05480835 0.039162826 0.120177634 0.05685598 0.013017234 0.08045699 0.0078677
-0.08041989 -0.019106615 -0.16739611 0.14300969 -0.102311745 0.05890777 0.08460907 0.031304784
0.13469586 0.25359297 -0.04820915 0.08823967 -0.08249022 0.15868562 0.0048899865 -0.08354273
0.019367756 -0.006686294 -0.08187578 -0.0027921612 0.14190176 0.016599664 0.13650009 0.17200457
00000000: 7ebf f4bc 434c 21bc 8207 a7bd 95a8 a6bb
00000010: 7fe1 bcbc 222a 84bd 07fb 703c 8e86 9cbd
00000020: 3bf6 dd3c 00fc 153c f886 c5bd a5f1 be3c
00000030: 8ecb db3c f8ac 48bd 891b 893c d955 13bd
00000040: 44af 8e3d 728a ecbd 0b17 fe3c b3cb 97bd
00000050: b6ff f8bc 1e26 9b3d 837d 623c 086f 79bd
00000060: 1c13 a1bc 9977 10bd 284a 51bd f747 543d
00000070: c449 c13c 1188 f0bd 0b17 ba3d f44a c8bd
00000080: 1a80 2c3d a158 9fbd 9138 353c 15fc 7f3c
00000090: bd7b cfbc e363 883d f56c 623d b034 ae3c
000000a0: 474c 56bd 3b28 e43c a252 4fbc a33a af3c
000000b0: 2583 88bc 24db 6a3a d4ff d83d f362 73bd
000000c0: 4967 863d 807d f2bd b2a4 90bc df32 e8bd
000000d0: 8026 ecbd 4bee 863d e398 543d 8906 dcbb
000000e0: 082a 973d dc30 303d d4dc 1d3d 2aff 84bd
000000f0: 7b24 4b3d bde9 f3bd b354 09bd 36cb adbc
00000100: 226f 09be 29f7 0abd c039 b0bd 6465 0f3d
00000110: eed9 413b f17a 033d fd7e bdbd e962 64bd
00000120: 4e88 9cbd e0ce 9fbd bbca babd 3d7c a2bd
00000130: 7020 9c3d 519e 663d 5170 9e3b 0efd 7fbd
00000140: a77a 243e 1f9a 12bd f8a8 6ebc 956e babc
00000150: 0752 983d a07b ad3b 028a a93c 7683 0b3d
00000160: 156a f6bc 17f1 22bd ea01 6fbd 5801 de3d
00000170: 1ff9 1f3d eea6 9fba 15c9 8d3c 0ceb bdbc
00000180: 63c7 0b3d 8b25 8f3d 87ff f2bd 3f6f 0dbd
00000190: 28b6 d9bd c82a 623d 9c56 863d 6f93 93bc
000001a0: 1fd6 1cbd 54f7 6dbd 2ac9 68bd c811 98bd
000001b0: 8b13 e73c 4166 50bd 0178 3ebd b03f 4e3d
000001c0: 21a8 abbd fe7a 263d f89c a2bd f865 35bb
000001d0: 15fd bc3c ab35 e8bd 9774 3a3d 15c6 493d
000001e0: d865 663d 7b43 b2bb 2b06 abbd 499a d73d
000001f0: 7659 84bd e7e1 abbc 24d6 9a3d de1c b8bc
00000200: 3232 833d e996 393d 6f5b 57bd 7368 9c3c
00000210: 89d0 1fbd cbd8 e4bd 363e d3bd e183 123c
00000220: 6d4c cabc bdc3 38be f42b 2e39 9e40 40be
00000230: 053c 0a3e 1ada 55ba 5102 17be a6e3 2a3d
00000240: b2fb 043d b83a 87bb 83b3 9cbd 7eb6 1cbe
00000250: b3a2 c63b 1a42 183e d7f3 d9bd 7177 483d
00000260: 58ac fcbd f969 513d 08d7 15bb 17da fabd
00000270: 1393 68bc 7182 9a3d db62 52bc 797a 493c
00000280: 0d45 9abd ad78 8ebd 2a63 5f3d 5df1 d4ba
00000290: 8671 a1bd c9d9 c2bd 8265 2e3e e549 893e
000002a0: a9b1 3a3e 0f48 9b3d e2cb 9d3d e90f b83d
000002b0: 533f 89be b3c0 38bd 0895 adbd de95 8bbd
000002c0: a982 c43b 5cf8 1f3e 7cd5 f2bc 760c 233c
000002d0: 1643 83be b3ae 323c 092a 573d 5168 5bbc
000002e0: 2882 bfbb 22eb 1cbe 4862 84bd 3f9d a33d
000002f0: 7fc8 8ebe 65a9 183d 5c78 f03c 6379 26be
00000300: 3996 003c 5565 22be 2997 f2bd f54b a0bd
00000310: aa42 973d aa22 ff3c 32b0 32bd b8d4 a33c
00000320: 11ee 59bd 9b1c 34bc d65b df3d 0e63 a1bc
00000330: e0b1 053d 62a5 563d 2d07 613d 0e77 ba3c
00000340: f73f 0abd e9e9 69bc 5bea e8bc 6426 7f3d
00000350: 451f bebc cafa a23d 9964 d93c d6e2 a13d
00000360: 3ce9 e5bd b860 8a3d d952 ff3b e074 2dbc
00000370: a9a7 ec3c 6d0b f0bd 8a9b 023d 3633 d2ba
00000380: 657f 8fbe b87e 60bd 3369 203d b11f f63d
00000390: d1e1 683d 3d46 553c a2c6 a43d 87e7 003c
000003a0: 2fb3 a4bd 7a85 9cbc e369 2bbe 2271 123e
000003b0: d288 d1bd 4649 713d 8547 ad3d 7239 003d
000003c0: b6ed 093e f0d6 813e f576 45bd 00b7 b43d
000003d0: a2f0 a8bd 7c7e 223e 2e3c a03b 7318 abbd
000003e0: 21a9 9e3c b318 dbbb 7dae a7bd b1fc 36bb
000003f0: b24e 113e 05fc 873c aec6 0b3e f721 303e

fc2.bias f4 [84]
-0.082449004 0.0006981177 0.011996842 -0.024767604 -0.080919 -0.09524146 0.02320149 0.028967576
0.03514254 -0.00059780217 0.057062067 -0.09889922 -0.027145276 -0.076863594 0.077064104 0.010921964
0.055852775 -0.01770232 -0.040494032 0.06586666 0.037616547 0.061391212 0.04017279 0.11310852
0.09719822 -0.06826552 0.0654425 -0.019750008 0.08871488 0.1000666 0.11788292 -0.06765668
-0.07354026 0.09955165 -0.03778968 0.020811101 -0.014266056 0.03536523 -0.05424093 0.11574159
0.10949926 -0.09278936 -0.05850714 0.04921309 -0.011399855 0.021654762 0.12122861 0.023593986
0.052224904 -0.07367868 -0.064507 -0.03319032 -0.10032571 -0.11002319 0.058773115 -0.1042409
0.0971001 -0.05330578 0.057585377 -0.0040098038 -0.037616685 0.072825655 0.15015996 -0.019315742
-0.034475923 0.08792951 -0.123099014 -0.002621356 0.079897955 -0.007325729 0.050358504 -0.03729234
-0.044554435 0.07840568 -0.031735364 0.028378008 0.032709133 0.062626205 0.10795776 0.023291498
0.04885061 -0.03203182 0.08082571 0.009119395
00000000: 06db a8bd e301 373a 678e 443c 6ee5 cabc
00000010: dcb8 a5bd f40d c3bd 0d11 be3c 694d ed3c
00000020: a0f1 0f3d d3b5 1cba eab9 693d ad8b cabd
00000030: c55f debc a96a 9dbd c9d3 9d3d 0af2 323c
00000040: e1c5 643d 7504 91bc 12dd 25bd 19e5 863d
00000050: cf13 1a3d 5a75 7b3d 398c 243d 71a5 e73d
00000060: dc0f c73d cbce 8bbd b806 863d c5ca a1bc
00000070: 26b0 b53d b8ef cc3d 9a6c f13d 968f 8abd
00000080: 479c 96bd bce1 cb3d 5ac9 1abd 0b7c aa3c
00000090: 2dbc 69bc 22db 103d bd2b 5ebd ed09 ed3d
000000a0: 2641 e03d 5908 bebd 2fa5 6fbd aa93 493d
000000b0: 75c6 3abc 5465 b13c b546 f83d 2d48 c13c
000000c0: c8e9 553d d9e4 96bd 3f1c 84bd 93f2 07bd
000000d0: 9177 cdbd d753 e1bd 14bc 703d 417c d5bd
000000e0: 6bdc c63d 2957 5abd a5de 6b3d ac64 83bb
000000f0: f413 1abd 9e25 953d 88c3 193e 0c3c 9ebc
00000100: a036 0dbd 6314 b43d 561b fcbd 0ecb 2bbb
00000110: 8aa1 a33d ab0c f0bb b844 4e3d dabf 18bd
00000120: b67e 36bd 2893 a03d f1fc 01bd ff78 e83c
00000130: 03fa 053d 2b42 803d f518 dd3d d0cd be3c
00000140: 9417 483d cc33 03bd f387 a53d 8469 153c

fc3.weight f4 [10, 84]
-0.02082225 -0.24398015 0.04708164 0.11110148 -0.22977012 -0.14956504 -0.22180393 0.09100731
0.1349375 0.02749437 0.03691698 0.018119365 0.05632007 0.070788614 0.01024973 -0.26799768
-0.05037353 -0.013300922 0.0026770756 0.07902251 -0.06691301 0.09047847 -0.013841017 -0.10245668
0.12950648 -0.03136001 -0.31124464 -0.18721789 0.083064154 0.13016897 0.14159486 0.09920292
0.10554294 0.038952492 0.0071389424 -0.037056956 -0.033403043 0.10879278 -0.06907535 0.2740641
-0.13198961 0.069453396 0.02361061 -0.25157788 0.007966075 -0.020000609 -0.032371074 0.14364268
-0.0072676023 0.0068661044 -0.017036634 0.020280192 -0.06805491 -0.14921802 -0.0592396 -0.12495395
-0.19026047 0.057532866 -0.24131751 0.0057571786 -0.19115844 -0.07839523 -0.07412729 -0.28337714
-0.21790887 0.103764854 -0.09102007 -0.015143889 -0.060352776 0.15770143 -0.0015665094 -0.08759386
0.060445413 -0.09099393 -0.054764315 -0.14023526 0.040876575 -0.1616234 0.15318045 0.15162934
-0.23082365 -0.07041223 0.14015858 -0.22151425 0.044988878 -0.017361335 0.17414786 -0.06261932
-0.021748712 0.0062028137 0.12026874 0.14491303 -0.17455909 -0.15824708 -0.017957065 -0.06274488
-0.07283938 -0.11476632 0.18365519 0.06398915 0.08799391 -0.18672787 -0.086991705 -0.12607698
0.15760836 0.087713346 -0.08374267 -0.21203314 -0.17925656 -0.10631917 0.1650781 -0.15375358
-0.26886395 -0.18229622 -0.12601402 -0.18429978 0.060249157 -0.11481154 -0.35274798 -0.06337673
0.12334634 -0.23700278 -0.027151022 0.20985952 -0.148789 -0.09501827 -0.1809899 -0.07714137
-0.02710756 0.067951575 -0.18759626 0.004646571 0.123320386 -0.04231916 -0.110574156 -0.07116399
-0.06842498 -0.11836182 -0.10132898 -0.06274087 -0.024353405 -0.10983876 -0.17617019 0.022918472
-0.22894889 -0.017294794 0.038801603 -0.16015677 0.10655305 -0.111820504 -0.17372163 0.05242272
0.193488 -0.05513377 -0.104716785 -0.26078296 -0.061025243 0.13091852 -0.17277192 0.052129466
0.1076963 0.01630011 0.10311148 0.048053544 -0.094501376 -0.103139855 -0.06808101 0.12178186
0.029698605 -0.098571114 -0.19507521 -0.039639376 0.021870712 0.12011263 -0.14234252 0.09829
0.13953714 -0.13359536 -0.14589977 0.02084581 -0.12416817 -0.24485973 -0.06383774 -0.1576953
-0.06790156 0.112653285 0.023602262 -0.062453333 -0.07123897 -0.0009024994 0.0632198 -0.08291359
-0.027745958 -0.12647946 0.010993758 -0.051861938 -0.0949902 -0.13046324 -0.17684467 0.116693355
0.120107345 -0.02644179 -0.032617867 0.0012106518 0.044276487 0.1390369 0.0042331833 -0.18572938
-0.2699572 -0.04194702 0.003093416 -0.11868442 -0.05803406 0.026954964 0.045566756 0.10228223
0.11838869 0.04884988 0.003955537 -0.041380998 0.18323503 0.027640752 -0.12245911 -0.11060519
-0.13403675 0.18982387 -0.2187685 0.055496126 -0.09774431 0.062174927 -0.030034587 0.18253042
-0.09107355 0.0940225 -0.0044445097 0.07600086 -0.2746837 0.16364698 -0.113891795 0.026310531
0.177121 0.13671182 0.1343075 -0.07287736 -0.15505823 -0.005257439 -0.11645513 0.113052934
0.18630266 -0.014440775 -0.02388212 0.123994745 -0.014777343 0.110353716 -0.13239017 0.13586684
00000000: 6c93 aabc efd5 79be aed8 403d 2c89 e33d
00000010: dc48 6bbe 9427 19be 9220 63be 0a62 ba3d
00000020: 0e2d 0a3e df3b e13c 4236 173d 106f 943c
00000030: e0af 663d 9ff9 903d 7cee 273c fe36 89be
00000040: 7954 4ebd 1cec 59bc e071 2f3b 8ed6 a13d
00000050: b009 89bd c74c b93d 6fc5 62bc cfd4 d1bd
00000060: 599d 043e 5b73 00bd 755b 9fbe 0cb6 3fbe
00000070: 8a1d aa3d 044b 053e 3efe 103e e72a cb3d
00000080: e626 d83d a68c 1f3d caed e93b 09c9 17bd
00000090: a1d1 08bd c0ce de3d 6177 8dbd 2152 8c3e
000000a0: 4928 07be 953d 8e3d 0a6b c13c d1ce 80be
000000b0: 2484 023c 51d8 a3bc 8897 04bd 1117 133e
000000c0: 1125 eebb 0ffd e03b 6990 8bbc a522 a63c
000000d0: 5f60 8bbd 9ccc 18be 39a5 72bd dbe7 ffbd
000000e0: a4d3 42be 95a7 6b3d f01b 77be b7a6 bc3b
000000f0: 0abf 43be ae8d a0bd 0cd0 97bd cf16 91be
00000100: 8123 5fbe ab82 d43d bb68 babd 131e 78bc
00000110: 7934 77bd 7c7c 213e 5553 cdba 6964 b3bd
00000120: 9c95 773d 075b babd 8c50 60bd d599 0fbe
00000130: 326e 273d 9b80 25be 56db 1c3e b944 1b3e
00000140: 095d 6cbe 4a34 90bd bb85 0f3e a2d4 62be
00000150: 4246 383d 5c39 8ebc d153 323e 8f3e 80bd
00000160: 5b2a b2bc f940 cb3b 754f f63d 1564 143e
00000170: 9ebf 32be 860b 22be b21a 93bc 6380 80bd
00000180: d02c 95bd 9b0a ebbd 1b10 3c3e be0c 833d
00000190: 2736 b43d 9735 3fbe b528 b2bd 531a 01be
000001a0: 1664 213e 0ea3 b33d 4781 abbd 371f 59be
000001b0: 088f 37be ddbd d9bd 3c0a 293e 9471 1dbe
000001c0: 89a8 89be dcab 3abe d209 01be 15b9 3cbe
000001d0: d2c7 763d 5022 ebbd 629b b4be a9cb 81bd
000001e0: 029d fc3d dbb0 72be d26b debc 6ae5 563e
000001f0: 255c 18be f098 c2bd 6b55 39be 4bfc 9dbd
00000200: ac10 debc 322a 8b3d 3c19 40be 4342 983b
00000210: 668f fc3d db56 2dbd b474 e2bd 6dbe 91bd
00000220: 6522 8cbd af67 f2bd 9185 cfbd 497e 80bd
00000230: cb80 c7bc 25f3 e0bd f565 34be 85bf bb3c
00000240: 9471 6abe d0ad 8dbc 6eee 1e3d 2300 24be
00000250: 7c38 da3d 2602 e5bd 15e4 31be 35b9 563d
00000260: b821 463e f3d3 61bd c175 d6bd 5885 85be
00000270: 9bf5 79bd 810f 063e 1feb 30be b585 553d
00000280: e18f dc3d cf87 853c 1d2c d33d cbd3 443d
00000290: f089 c1bd fd3a d3bd 0e6e 8bbd c568 f93d
000002a0: 7d4a f33c a7df c9bd ccc1 47be e65c 22bd
000002b0: 352a b33c 9cfd f53d 3dc2 11be 444c c93d
000002c0: d3e2 0e3e 39cd 08be c066 15be d5c4 aa3c
000002d0: e24b febd 82bc 7abe 5cbd 82bd e07a 21be
000002e0: f90f 8bbd c4b6 e63d 8859 c13c 11cf 7fbd
000002f0: bde5 91bd b695 6cba 6279 813d 9ace a9bd
00000300: 7e4b e3bc d583 01be 2a1f 343c 2f6d 54bd
00000310: 398a c2bd 2898 05be c516 35be edfc ee3d
00000320: d7fa f53d 749c d8bc 509a 05bd bcae 9e3a
00000330: 435b 353d b05f 0e3e 84b6 8a3b d82f 3ebe
00000340: d537 8abe a3d0 2bbd e9ba 4a3b d110 f3bd
00000350: 1fb5 6dbd a8d0 dc3c 35a4 3a3d 5979 d13d
00000360: c575 f23d d016 483d 739d 813b 1f7f 29bd
00000370: f7a1 3b3e dc6e e23c d8cb fabd f984 e2bd
00000380: ee40 09be 3061 423e da04 60be e84f 633d
00000390: 2b2e c8bd 23ab 7e3d 180b f6bc 41e9 3a3e
000003a0: c584 babd de8e c03d 40a3 91bb 57a6 9b3d
000003b0: 58a3 8cbe 1393 273e 1a40 e9bd 2f89 d73c
000003c0: 355f 353e 2ffe 0b3e e887 093e ba40 95bd
000003d0: 96c7 1ebe 9846 acbb 0780 eebd 4c88 e73d
000003e0: 20c6 3e3e 0099 6cbc 70a4 c3bc f5f0 fd3d
000003f0: ab1c 72bc 2101 e23d 4a91 07be ad20 0b3e

fc3.bias f4 [10]
0.11353846 0.01924873 0.034208477 -0.02140713 0.11459086 0.03722406 -0.1045106 0.054406386
-0.061645262 -0.09965267
00000000: da86 e83d 83af 9d3c 301e 0c3d 015e afbc
00000010: 9dae ea3d 4278 183d a709 d6bd 3bd9 5e3d
00000020: be7f 7cbd b316 ccbd
