lab2-models/hip-7-model.pth (torch, 181175 bytes, 10 tensors)

conv_block1.0.weight f4 [6, 1, 5, 5]
-0.27297118 -0.32658687 -0.33288005 -0.33643526 -0.29219297 0.17748214 -0.035983335 -0.15032434
-0.25792927 -0.17991604 0.12665766 -0.0956866 0.09058715 0.28618628 0.19651107 0.27861235
0.32575002 0.4138984 0.15761302 -0.078738086 0.0754168 0.07939897 -0.04016655 -0.054176647
0.22545262 0.30726334 -0.015760047 0.38180628 0.31644195 0.21367009 -0.1164169 0.15576945
-0.059139382 0.18240675 0.27034092 -0.13874993 -0.1499375 -0.20743343 -0.046882678 0.2937967
-0.10068453 -0.2475317 -0.14557227 -0.31681558 -0.11836648 -0.024074806 0.03440774 -0.2600048
-0.23067005 -0.06941095 0.09088187 0.26725942 -0.065837756 -0.044282302 -0.27158007 0.26725343
0.1147205 0.037017357 -0.074420966 -0.19457656 0.40026522 -0.021926299 -0.18481876 -0.05377501
-0.05085153 0.111942045 -0.014159746 -0.1504646 0.032891344 -0.012008404 0.110312626 -0.21631011
-0.25680456 0.101973735 -0.054885145 -0.27101186 -0.18687116 -0.0427413 0.2038974 0.1453205
-0.08428895 0.42948446 0.26642162 0.35767293 0.2869846 0.16859762 0.18942513 0.19389431
-0.18091093 -0.21163338 0.20116015 0.014563402 -0.099877864 -0.3703946 -0.076635115 -0.21017618
-0.108765215 -0.20786089 -0.14858282 -0.03467724 0.08476122 0.3073913 -0.04479858 -0.14072609
-0.01720431 0.19828446 0.14775218 -0.049776956 -0.2688039 -0.08353294 0.426081 0.02971112
-0.16899717 -0.20816241 -0.1281697 0.23308744 0.23497568 0.1315632 -0.24383667 0.09875357
0.0016110453 0.22799206 0.26839748 0.07084757 -0.058149394 -0.05519484 0.10285722 -0.05712787
-0.24869257 -0.24148554 -0.15257043 0.1893605 0.11846463 -0.3365827 -0.3137965 0.16708824
0.31111524 0.18662879 0.10048197 -0.12594903 -0.08631643 0.18970612 0.4323595 0.056843046
-0.18250859 -0.3810497 0.073733896 0.20796171 0.08022594 -0.10143043
00000000: e1c2 8bbe 6536 a7be 416f aabe 3e41 acbe
00000010: 519a 95be e1bd 353e 4363 13bd a0ee 19be
00000020: 4e0f 84be e93b 38be 8cb2 013e 56f7 c3bd
00000030: c185 b93d 0287 923e 333a 493e 47a6 8e3e
00000040: b5c8 a63e 7eea d33e 4f65 213e 6f41 a1bd
00000050: 2074 9a3d ed9b a23d ae85 24bd 55e8 5dbd
00000060: 0ddd 663e 9f51 9d3e 371b 81bc 1d7c c33e
00000070: ae04 a23e 55cc 5a3e fc6b eebd 0782 1f3e
00000080: 233c 72bd d6c8 3a3e 206a 8a3e 7614 0ebe
00000090: 3789 19be 6e69 54be 0d08 40bd 856c 963e
000000a0: b133 cebd f378 7dbe e610 15be a735 a2be
000000b0: 206a f2bd 8738 c5bc 21ef 0c3d 591f 85be
000000c0: c534 6cbe 5427 8ebd 4620 ba3d 3ad6 883e
000000d0: f2d5 86bd 5c61 35bd 8b0c 8bbe 71d5 883e
000000e0: 95f2 ea3d 839f 173d 056a 98bd 143f 47be
000000f0: 90ef cc3e c89e b3bc 2141 3dbe 2f43 5cbd
00000100: b249 50bd df41 e53d 47fe 67bc 6413 1abe
00000110: 13b9 063d e6be 44bc 96eb e13d 6680 5dbe
00000120: e37b 83be 9bd7 d03d 3fcf 60bd 11c2 8abe
00000130: 275b 3fbe 8011 2fbd 7bca 503e e6ce 143e
00000140: af9f acbd 63e5 db3e 6a68 883e e820 b73e
00000150: a5ef 923e dba4 2c3e a9f8 413e 3b8c 463e
00000160: b740 39be 6cb6 58be edfc 4d3e 569b 6e3c
00000170: c48c ccbd 5ca4 bdbe dff2 9cbd 6d38 57be
00000180: 4cc0 debd 7cd9 54be 1826 18be b909 0ebd
00000190: 4a97 ad3d 6462 9d3e b77e 37bd 801a 10be
000001a0: 0ef0 8cbc 150b 4b3e 594c 173e ece2 4bbd
000001b0: aaa0 89be 5113 abbd 4a27 da3e bc64 f33c
000001c0: 980d 2dbe 8728 55be eb3e 03be 79ae 6e3e
000001d0: 779d 703e 81b8 063e 52b0 79be 503f ca3d
000001e0: b629 d33a c076 693e 656b 893e 8818 913d
000001f0: 0f2e 6ebd fc13 62bd cea6 d23d eafe 69bd
00000200: 44a9 7ebe fc47 77be 6c3b 1cbe b8e7 413e
00000210: 959d f23d 9154 acbe efa9 a0be 2e19 2b3e
00000220: 7f4a 9f3e 9e1b 3f3e 7ec9 cd3d c8f8 00be
00000230: abc6 b0bd 5242 423e 395e dd3e 41d4 683d
00000240: 88e3 3abe f218 c3be cc01 973d eaf3 543e
00000250: 7f4d a43d c2ba cfbd

conv_block1.0.bias f4 [6]
-0.08162343 -0.09703842 -0.21042098 0.14671597 0.08591762 -0.10927083
00000000: 2f2a a7bd 14bc c6bd 9978 57be b63c 163e
00000010: 94f5 af3d 63c9 dfbd

conv_block2.0.weight f4 [16, 6, 5, 5]
-0.11903576 -0.14871855 -0.14603777 -0.020991717 0.019916128 0.14022887 0.012449218 -0.14489765
-0.046063565 -0.024866447 0.0643693 -0.09702948 -0.13434328 -0.14222889 -0.08943076 -0.025293654
-0.016872823 -0.13121057 -0.28037295 -0.091649614 -0.038814045 -0.18391524 -0.38361832 -0.13023843
0.018123975 0.009901973 -0.026988506 -0.014056768 -0.036322754 -0.03194785 0.09408806 -0.018406432
-0.06031418 -0.06537244 -0.04233762 0.10096119 0.011970829 -0.14829451 -0.134836 -0.01796449
0.002130614 -0.023314334 -0.1391505 -0.026782721 -0.0078023956 -0.064007625 -0.1478497 0.05016733
0.13532868 -0.005943592 -0.040923063 -0.0062721963 0.043193158 0.09361366 0.01928331 0.15189281
0.012646929 -0.20168774 0.066868715 0.06545462 0.23272696 0.029208848 -0.05515343 0.07744993
0.11198999 0.098214485 -0.11287548 0.085912816 -0.020336675 0.08476467 0.023943441 -0.01604408
0.07435783 0.04910432 0.067606 -0.017037386 -0.028357917 -0.16119877 -0.12256474 0.008000314
0.025804548 -0.13078932 -0.12402281 0.05286886 0.06872556 0.04550157 0.006221535 -0.057020634
0.056473967 0.15659186 -0.04457107 -0.25211233 -0.049934745 -0.09511002 -0.023838598 -0.12585819
-0.11302502 -0.06235926 -0.11075468 0.07185605 0.027535744 -0.009517285 0.031041041 0.060180146
0.04339098 0.11450837 -0.093884535 -0.03237924 0.09314483 0.0894445 0.109653585 -0.37030426
-0.022118296 0.10786346 0.16405164 -0.09267355 -0.23219949 -0.0572168 0.19348466 0.18650039
-0.20819315 -0.15923646 0.15529057 0.11033256 0.20520814 -0.05437638 -0.009031991 0.039395224
0.11404203 -0.0072751115 0.13669375 0.049905818 0.0334972 0.10017551 0.044115648 0.049528975
-0.11014373 0.06411157 0.032889653 0.12334229 0.012863003 -0.062646694 0.018180836 0.01359313
0.110175826 -0.1674696 0.030495197 0.054453533 0.19122723 0.2486905 -0.0788871 -0.032591376
-0.041609596 -0.007091866 -0.023643887 -0.14650717 -0.18302158 -0.26305294 -0.18274556 -0.02232317
-0.24257566 -0.2638726 -0.168588 -0.15175863 -0.0044029825 -0.20009477 -0.050180435 -0.120048694
0.05628083 0.02418065 -0.08413025 0.034463562 -0.004349677 0.10801597 0.111131646 0.13152988
0.04726744 0.06721493 0.05203479 0.08680398 0.078312635 0.027696384 0.069120176 -0.022915382
-0.08249878 0.049838625 -0.10672917 -0.16295141 -0.0380281 -0.04149964 -0.10028719 -0.10268674
-0.12025798 0.021783495 0.007979189 -0.04451246 -0.12293485 -0.14882705 -0.16196421 -0.15893179
-0.03570158 0.17000298 0.18322909 0.05256486 0.15220438 0.09868014 0.14364141 -0.055157617
0.17048974 0.06016842 0.13848683 -0.002190463 -0.120333254 -0.049611006 0.021293486 0.09603845
0.044531688 -0.08647996 -0.12679781 -0.108907044 0.118082464 0.05274056 0.049764507 0.05826099
0.07314312 0.15551062 0.059841882 0.066350974 0.08586115 0.010718264 0.024224956 -0.00035109895
0.04220597 0.04291529 -0.06961479 -0.057272356 -0.079547465 -0.20213577 -0.14472978 -0.0035667035
-0.050472923 -0.075919054 -0.22031613 -0.041337684 0.062070742 0.00407642 -0.18056294 -0.1700774
-0.104075655 -0.022934906 0.0006273693 0.1033359 0.14220338 -0.07886214 0.082878225 0.06920893
00000000: 05c9 f3bd ad49 18be ed8a 15be d2f6 abbc
00000010: 2627 a33c 2898 0f3e cef7 4b3c 0d60 14be
00000020: 26ad 3cbd b8b4 cbbc 0dd4 833d 64b7 c6bd
00000030: 4991 09be 73a4 11be 7927 b7bd a334 cfbc
00000040: e038 8abc 105c 06be 0b8d 8fbe cbb2 bbbd
00000050: 7afb 1ebd 4754 3cbe 9f69 c4be 395d 05be
00000060: bb78 943c e33b 223c 0017 ddbc 5c4e 66bc
00000070: 2bc7 14bd c0db 02bd 3eb1 c03d 16c9 96bc
00000080: 000c 77bd fce1 85bd 366a 2dbd bec4 ce3d
00000090: 4c21 443c 84da 17be 7312 0abe 442a 93bc
000000a0: c5a1 0b3b b4fd bebc 787d 0ebe 7067 dbbc
000000b0: 3dab ffbb 6e16 83bd e965 17be 427c 4d3d
000000c0: 9a93 0a3e 77c2 c2bb f19e 27bd ff86 cdbb
000000d0: 4feb 303d 85b8 bf3d 08f8 9d3c ca89 1b3e
000000e0: 1135 4f3c 3b87 4ebe 77f2 883d 120d 863d
000000f0: fa4f 6e3e 6547 ef3c 90e8 61bd 129e 9e3d
00000100: 025b e53d ad24 c93d 422b e7bd 0ff3 af3d
00000110: 1999 a6bc 1999 ad3d 0925 c43c e06e 83bc
00000120: eb48 983d 9d21 493d 0475 8a3d fd91 8bbc
00000130: dd4e e8bc 4a11 25be 3903 fbbd c013 033c
00000140: 0f64 d33c a3ed 05be acff fdbd 058d 583d
00000150: fdbf 8c3d db5f 3a3d 05de cb3b 788e 69bd
00000160: 3f51 673d 9e59 203e 2790 36bd de14 81be
00000170: 6088 4cbd 0bc9 c2bd 2a49 c3bc f8e0 00be
00000180: a979 e7bd 6c6c 7fbd 5ad3 e2bd 4429 933d
00000190: a492 e13c 63ee 1bbc c849 fe3c 757f 763d
000001a0: beba 313d 5d83 ea3d 8946 c0bd 18a0 04bd
000001b0: b7c2 be3d ae2e b73d 0f92 e03d 8598 bdbe
000001c0: 6e31 b5bc 85e7 dc3d 27fd 273e a1cb bdbd
000001d0: b4c5 6dbe 2a5c 6abd d820 463e f5f9 3e3e
000001e0: 9630 55be e20e 23be 7e04 1f3e 0af6 e13d
000001f0: 1522 523e c4b9 5ebd eafa 13bc e35c 213d
00000200: de8e e93d 0f64 eebb 72f9 0b3e 0b6a 4c3d
00000210: 5c34 093d d128 cd3d 9cb2 343d e5de 4a3d
00000220: 0993 e1bd ed4c 833d 4db7 063d e29a fc3d
00000230: 58bf 523c e94c 80bd faef 943c b8b5 5e3c
00000240: dda3 e13d 277d 2bbe 10d1 f93c ab0a 5f3d
00000250: 12d1 433e b9a8 7e3e 8f8f a1bd 897e 05bd
00000260: d36e 2abd e262 e8bb d3b0 c1bc fa05 16be
00000270: 026a 3bbe e0ae 86be a721 3bbe 15df b6bc
00000280: c165 78be 4f1a 87be 55a2 2cbe 9d66 1bbe
00000290: e546 90bb a5e5 4cbe 008a 4dbd 17dc f5bd
000002a0: ba86 663d 8016 c63c 7b4c acbd aa29 0d3d
000002b0: bc87 8ebb 7a37 dd3d fd98 e33d c5af 063e
000002c0: 819b 413d fba7 893d 6f22 553d 49c6 b13d
000002d0: 6062 a03d 87e3 e23c e18e 8d3d 0ab9 bbbc
000002e0: 1ff5 a8bd 9623 4c3d d394 dabd bcdc 26be
000002f0: 5ac3 1bbd 87fb 29bd 5f63 cdbd 6d4d d2bd
00000300: d149 f6bd 4d73 b23c 25bb 023c b252 36bd
00000310: 44c5 fbbd 1e66 18be f2d9 25be 04bf 22be
00000320: d23b 12bd 4315 2e3e 68a0 3b3e 404e 573d
00000330: 77db 1b3e d018 ca3d bc16 133e f4ec 61bd
00000340: dd94 2e3e 2973 763d 7ecf 0d3e df8d 0fbb
00000350: 4871 f6bd e934 4bbd ad6f ae3c cfaf c43d
00000360: dc66 363d 681c b1bd 49d7 01be a80a dfbd
00000370: 38d5 f13d 7c06 583d ded5 4b3d 13a3 6e3d
00000380: 0fcc 953d 2d3e 1f3e c31c 753d 05e3 873d
00000390: f8d7 af3d a89b 2f3c 6a73 c63c b413 b8b9
000003a0: 2be0 2c3d f1c7 2f3d 3392 8ebd 6b96 6abd
000003b0: c8e9 a2bd aefc 4ebe 0b34 14be 5bbf 69bb
000003c0: b2bc 4ebd 737b 9bbd 8d9a 61be b451 29bd
000003d0: e43d 7e3d 7d93 853b 7ee5 38be c528 2ebe
000003e0: 9e25 d5bd fce1 bbbc 0b76 243a c6a1 d33d
000003f0: c39d 113e 7982 a1bd 0fbc a93d 69bd 8d3d

conv_block2.0.bias f4 [16]
-0.028344806 0.01581674 -0.10973061 -0.05358983 -0.09833887 -0.036470246 0.011746876 0.021890037
-0.024133325 -0.057527922 0.119490474 -0.062124018 -0.094129816 -0.024582244 -0.015401543 -0.07908469
00000000: 5e33 e8bc 1c92 813c 71ba e0bd 0281 5bbd
00000010: e465 c9bd d361 15bd f875 403c bc52 b33c
00000020: 40b3 c5bc 66a2 6bbd 6cb7 f43d c175 7ebd
00000030: 22c7 c0bd b460 c9bc c156 7cbc 27f7 a1bd

fc1.weight f4 [120, 256]
-0.1174194 -0.0627587 0.10737317 -0.0228731 0.054192524 -0.056125496 0.12090445 2.3657287e-05
0.11402867 0.113635086 0.07604711 -0.019096179 0.1445107 0.08436991 0.03986914 0.13985252
0.08947542 -0.13608275 -0.099789 0.026804345 -0.06444934 -0.0532346 0.006664546 -0.054045036
-0.011172081 -0.06144289 -0.033174753 -0.06345837 0.0031432942 -0.0039598057 -0.15452972 0.07385597
0.16635248 0.08097473 0.0053896704 0.0782848 -0.0022721572 -0.1265252 -0.10586704 0.17960908
0.08781994 -0.04566659 0.04849278 0.24592657 0.024483133 -0.02780898 0.0030155017 -0.075268194
-0.08798883 -0.027192757 0.049805783 -0.068660036 0.02417367 0.17697126 0.063685216 0.14767012
0.020085527 0.008640198 -0.043422814 -0.2197792 -0.018526597 -0.08826151 -0.08114825 -0.1837209
-0.20010214 -0.18117696 0.02134578 0.056428596 -0.046680428 0.010574625 0.03135323 0.2566626
-0.01442502 -0.010138831 0.12245944 0.06903582 -0.07060278 0.014628649 -0.05329929 0.077154994
-0.08328701 -0.107167624 0.021693906 -0.02066486 -0.018095952 -0.047416337 0.059931967 -0.18001291
0.01709813 -0.05140872 -0.05570666 -0.3397644 0.0025895087 0.07457065 -0.07022802 -0.25935552
-0.08154083 -0.05643388 -0.099525385 -0.057134345 0.021066459 -0.09401856 -0.17577758 0.040578563
-0.05835356 -0.0689491 -0.13451904 -0.08023897 -0.11957804 0.0018941605 -0.006245326 0.15189472
-0.0113874655 0.16894995 -0.13275227 -0.027637923 -0.046509407 0.12421997 0.033089824 -0.10882053
-0.12182597 -0.04332611 -0.05388515 0.022154247 -0.09069847 -0.10013506 0.02611844 0.010499953
-0.014231632 0.030194534 -0.0319727 -0.058420476 -0.031131905 0.015781362 -0.1504003 0.081628375
-0.052567504 -0.032678336 -0.1446106 -0.053233873 0.09931092 0.029405653 -0.09647008 -0.14712954
0.06665195 0.10717757 -0.05218314 -0.15397137 0.083371 0.038874812 0.039125722 -0.16824421
-0.05272853 -0.1602692 -0.1896675 -0.28474525 -0.07037008 -0.123656385 -0.23880413 -0.3766738
0.008326447 0.0023144728 -0.20602114 -0.10184676 0.1147194 -0.030593712 -0.1208096 -0.100130044
0.079578586 0.010781165 -0.13419753 -0.079034545 -0.12413995 0.08904827 -0.030206697 -0.0073919916
0.105227314 -0.0658808 -0.033859804 0.082464896 -0.029974926 -0.106768675 -0.005800604 -0.00021671857
-0.034348693 -0.12908968 -0.08602895 0.11960774 0.1584988 -0.017876169 -0.14936306 -0.13881809
0.01370204 0.05168412 -0.04398542 0.09741937 0.057805784 0.0884192 0.16203 0.008720108
-0.06369877 0.058507368 0.06984618 -0.08783212 -0.07112664 -0.027621116 -0.05715601 -0.05571164
-0.0048673535 -0.08582391 0.01686537 -0.05522512 0.00633575 0.03485452 -0.08433291 -0.10867999
0.10549946 0.04279417 0.07905335 0.06047686 0.05328998 0.041825626 0.029640593 0.08325302
0.10971955 0.019952118 0.050780404 -0.15573628 -0.07948449 0.005982073 -0.051507425 0.020554211
0.036171857 0.025178824 -0.0024772082 -0.1703581 0.015156986 0.097066976 -0.0038753815 -0.17723812
0.0249309 0.09454865 0.022337437 -0.118384175 -0.06482914 0.028929016 -0.12815434 -0.19504546
-0.006451488 -0.1456127 -0.13402241 -0.24847993 -0.044024266 -0.09660937 -0.3247724 -0.24362548
00000000: 9579 f0bd a287 80bd 77e6 db3d 5e60 bbbc
00000010: fbf8 5d3d d9e3 65bd c19c f73d a373 c637
00000020: dd87 e93d 83b9 e83d 96be 9b3d 976f 9cbc
00000030: 9dfa 133e 22ca ac3d d34d 233d 8035 0f3e
00000040: e43e b73d 4759 0bbe 2d5e ccbd c994 db3c
00000050: 04fe 83bd 860c 5abd 4462 da3b 545e 5dbd
00000060: 1b0b 37bc 8aab 7bbd 40e2 07bd 76f6 81bd
00000070: baff 4d3b 42c1 81bb 0a3d 1ebe cc41 973d
00000080: 4e58 2a3e 14d6 a53d d59b b03b c853 a03d
00000090: 79e8 14bb d28f 01be d2d0 d8bd 71eb 373e
000000a0: f1da b33d e40c 3bbd 5ea0 463d 2dd4 7b3e
000000b0: da90 c83c a8cf e3bc b99f 453b 3626 9abd
000000c0: 7d33 b4bd 58c3 debc 2601 4c3d a29d 8cbd
000000d0: dc07 c63c f437 353e 656d 823d d636 173e
000000e0: 678a a43c 9e8f 0d3c 1fdc 31bd cc0d 61be
000000f0: 17c5 97bc 73c2 b4bd 0e31 a6bd 5521 3cbe
00000100: 93e7 4cbe 7486 39be 58dd ae3c ac21 673d
00000110: fa33 3fbd 3141 2d3c 3f6c 003d 4869 833e
00000120: eb56 6cbc 571d 26bc 04cc fa3d a762 8d3d
00000130: 3198 90bd 00ad 6f3c 5b50 5abd 7003 9e3d
00000140: 6192 aabd b37a dbbd 6bb7 b13c 5a49 a9bc
00000150: f63d 94bc a237 42bd 397b 753d 4e55 38be
00000160: 6111 8c3c f391 52bd ab2c 64bd 99f5 adbe
00000170: bfb4 293b 7fb8 983d b5d3 8fbd 3fca 84be
00000180: e1fe a6bd 3627 67bd f7d3 cbbd b405 6abd
00000190: 9193 ac3c ce8c c0bd 0aff 33be b535 263d
000001a0: 2404 6fbd 3035 8dbd 5cbf 09be 5454 a4bd
000001b0: 55e5 f4bd 7b45 f83a 97a5 ccbb 4a8a 1b3e
000001c0: 7e92 3abc 3701 2d3e 36f0 07be ed68 e2bc
000001d0: a680 3ebd 0a67 fe3d 3289 073d 4cdd debd
000001e0: e57f f9bd b876 31bd adb6 5cbd d37c b53c
000001f0: 1fc0 b9bd 9c13 cdbd 57f6 d53c ff07 2c3c
00000200: cb2b 69bc 875a f73c cef5 02bd 4f4a 6fbd
00000210: 5608 ffbc ea47 813c 8902 1abe c72c a73d
00000220: 0651 57bd b8d9 05bd cd14 14be c30b 5abd
00000230: 8663 cb3d 20e4 f03c 1b92 c5bd 20a9 16be
00000240: d180 883d ea7f db3d fdbd 55bd acaa 1dbe
00000250: 6abe aa3d 323b 1f3d 4b42 203d 3648 2cbe
00000260: dff9 57bd 9c1d 24be 3238 42be 21ca 91be
00000270: 301e 90bd 8f3f fdbd 1289 74be 63db c0be
00000280: a66b 083c 69ae 173b 35f7 52be 0995 d0bd
00000290: 01f2 ea3d aa9f fabc 066b f7bd fb10 cdbd
000002a0: 19fa a23d 7ca3 303c 146b 09be dddc a1bd
000002b0: 163d febd f05e b63d 0974 f7bc 8538 f2bb
000002c0: 6b81 d73d 83ec 86bd 94b0 0abd 5be3 a83d
000002d0: fa8d f5bc 89a9 dabd fe12 bebb f33e 63b9
000002e0: 37b1 0cbd 1630 04be f22f b0bd e7f4 f43d
000002f0: 824d 223e 0b71 92bc a1f2 18be 5426 0ebe
00000300: 857e 603c bab2 533d 0e2a 34bd cf83 c73d
00000310: c2c5 6c3d 2015 b53d 31eb 253e c9de 0e3c
00000320: 8074 82bd 6ca5 6f3d 840b 8f3d 54e1 b3bd
00000330: d8aa 91bd ae45 e2bc 6c1c 6abd e331 64bd
00000340: 527e 9fbb 72c4 afbd 3f29 8a3c bc33 62bd
00000350: 209c cf3b 9dc3 0e3d bcb6 acbd 9d93 debd
00000360: 1a10 d83d f148 2f3d b9e6 a13d 95b6 773d
00000370: 9846 5a3d 5951 2b3d d4d0 f23c 8f80 aa3d
00000380: a5b4 e03d a072 a33c 1dff 4f3d 5579 1fbe
00000390: c4c8 a2bd 4405 c43b 73f9 52bd 4e61 a83c
000003a0: f128 143d d243 ce3c a858 22bb 5b72 2ebe
000003b0: 0255 783c 0dcb c63d 1dfa 7dbb e97d 35be
000003c0: e33b cc3c b9a2 c13d 00fd b63c 6773 f2bd
000003d0: 24c5 84bd 8bfc ec3c e43a 03be ffb9 47be
000003e0: 0167 d3bb 7f1b 15be 2c3d 09be 8671 7ebe
000003f0: ca52 34bd 22db c5bd 9148 a6be f578 79be

fc1.bias f4 [120]
-0.006847386 -0.021612618 0.020508101 -0.062874585 0.095029086 -0.07826423 0.0009072347 -0.05979657
-0.047413852 0.078218654 -0.039415315 0.012343996 0.022303289 0.01350546 0.024574671 -0.05557399
-0.037011985 -0.022328274 -0.093742624 0.023350993 -0.079164736 0.058496084 0.03986909 0.060765028
0.09733282 -0.036509063 -0.041354537 0.01987223 0.048253164 0.0012893758 -0.042158984 -0.038310055
0.047320724 -0.017304666 0.014235213 -0.02438261 0.007767486 0.018341504 -0.058614958 0.036276095
0.026720403 0.05844375 0.029863723 -0.070130855 -0.041712746 0.040077735 -0.050117902 -0.09177508
-0.016935226 0.024789367 0.04807791 0.040915415 0.04064813 0.08657621 0.009447388 0.022336658
-0.0029809233 -0.021239148 -0.006168833 0.04237964 -0.020926945 0.046260428 -0.07029654 0.036057387
-0.08017132 0.008950576 0.0028055815 0.08210057 0.027985068 0.077218436 0.031754628 0.03131184
-0.06675776 0.038704935 -0.05582186 0.013514818 0.02977299 0.03434489 0.07835278 0.08866516
-0.0012825612 0.05399597 0.0078024934 -0.075691506 -0.031063542 -0.0346725 0.038421173 -0.04064426
-0.012336764 -0.05284593 0.0019401661 -0.0051503456 -0.03187252 0.06813183 0.01659275 0.012297682
-0.021554613 -0.020054678 -0.050342295 -0.07442009 -0.039260965 0.005885394 -0.014172663 0.04757428
-0.023643916 0.012007794 -0.08013231 0.003910257 0.03886931 0.059575606 -0.000955704 -0.004814241
-0.0049391785 -0.04126286 -0.011833837 0.024057992 0.0047708172 -0.06401788 0.029232038 0.05700386
00000000: 0960 e0bb f20c b1bc 9b00 a83c 64c4 80bd
00000010: 9c9e c23d ff48 a0bd 7dd3 6d3a 40ed 74bd
00000020: 0735 42bd 1a31 a03d f471 21bd 793e 4a3c
00000030: 63b5 b63c 0146 5d3c d250 c93c 8da1 63bd
00000040: e199 17bd c9e9 b6bc 22fc bfbd 954a bf3c
00000050: 1f21 a2bd 9799 6f3d c54d 233d c0e4 783d
00000060: 6e56 c73d 878a 15bd 6063 29bd 16cb a23c
00000070: 1ca5 453d 4600 a93a e6ae 2cbd 01eb 1cbd
00000080: 60d3 413d 84c2 8dbc d03a 693c 0abe c7bc
00000090: 6586 fe3b ec40 963c 3d16 70bd 3e96 143d
000000a0: bfe4 da3c b762 6f3d c4a4 f43c c4a0 8fbd
000000b0: fcda 2abd 8d28 243d 6e48 4dbd 93f4 bbbd
000000c0: bebb 8abc 1213 cb3c 58ed 443d ec96 273d
000000d0: a77e 263d de4e b13d 38c9 1a3c 5efb b63c
000000e0: 985b 43bb b9fd adbc ec23 cabb 4696 2d3d
000000f0: fc6e abbc 937b 3d3d a2f7 8fbd e9b0 133d
00000100: dc30 a4bd 70a5 123c d9dd 373b 5824 a83d
00000110: f140 e53c b324 9e3d 2411 023d d840 003d
00000120: 4bb8 88bd 1189 1e3d 76a5 64bd 416d 5d3c
00000130: 7ce6 f33c 3aad 0c3d 6c77 a03d 1496 b53d
00000140: 9d1b a8ba e12a 5d3d 0fac ff3b 2604 9bbd
00000150: f878 febc c004 0ebd 855f 1d3d 987a 26bd
00000160: 2320 4abc f974 58bd 2c4d fe3a 3bc4 a8bb
00000170: c28c 02bd b388 8b3d 85ed 873c 387c 493c
00000180: 4d93 b0bc b549 a4bc b933 4ebd 8f69 98bd
00000190: 1bd0 20bd 43da c03b 7534 68bc 40dd 423d
000001a0: e3b0 c1bc 57bc 443c 691c a4bd 9d21 803b
000001b0: 6d35 1f3d 8d05 743d 3688 7aba c8c0 9dbb
000001c0: d5d8 a1bb 3f03 29bd b6e2 41bc 4415 c53c
000001d0: 8454 9c3b ce1b 83bd 0778 ef3c e17c 693d

fc2.weight f4 [84, 120]
0.07493371 -0.1410042 -0.10214623 -0.07882817 -0.11191091 -0.02946659 -0.029892378 -0.009357708
0.14522085 0.10658541 0.037507646 0.10218011 0.022633504 -0.055728555 -0.052156243 0.07402839
0.1086491 -0.12758954 -0.07374905 0.041604605 0.003882246 0.014512207 -0.20824526 -0.1001556
-0.07064739 -0.056798104 0.17300738 -0.22732306 -0.10307618 -0.11956182 0.19723092 -0.009566593
-0.1546661 0.050985657 0.12103002 -0.11442456 -0.046309806 0.035455413 -0.09329751 0.10783095
-0.10200859 -0.03385991 -0.06892047 -0.11230048 -0.15703082 -0.1875734 0.11317946 0.086262055
0.07828801 -0.13930033 0.08059926 -0.02761245 0.098506756 -0.13772333 0.010016139 -0.046497915
0.086426914 0.040649943 0.110685445 0.057517394 0.16316758 0.007862734 -0.040503524 -0.1486182
0.09135248 0.1158252 0.016508555 0.019422907 -0.12055152 0.07771695 -0.004477989 -0.0925343
-0.01953262 0.07297288 -0.017470157 -0.016865036 -0.11280698 -0.18559095 0.029462872 0.10675798
-0.049080364 0.0050115585 -0.0047696326 -0.055673357 0.042251963 0.061787415 0.096103415 0.04913323
-0.09897082 -0.27414048 0.02824334 -0.04018341 0.20938939 0.03322016 0.02686804 0.06618387
-0.08769685 0.0042994423 0.009171109 0.0480003 0.06086827 -0.07734714 0.18541487 -0.28089994
0.09751812 -0.038132705 0.10537957 0.05754846 -0.0044288402 0.021145476 0.12916143 -0.044117182
0.02348862 0.073510334 0.07160145 0.09502959 -0.12561357 -0.028540935 -0.09288817 0.033089057
0.12002942 -0.11774958 -0.10729542 0.116489805 0.11474194 0.049863603 0.024986511 0.01854216
-0.3606654 0.11248976 -0.101677276 0.22673707 0.09969279 0.08627078 0.048306048 -0.035170797
-0.25182414 0.1154541 0.116213806 0.098822586 -0.0025529487 -0.027854644 -0.0074924226 0.14431779
-0.024223493 -0.09458945 -0.0049490603 -0.13697086 0.04224963 0.062087405 0.05599122 0.093167976
-0.14956851 -0.10280469 -0.12518021 0.048331168 0.21366858 -0.014067854 -0.006795533 -0.15584646
0.10331965 0.1261915 0.08356535 0.0669283 0.10909462 0.0068522394 -0.104108855 0.07109319
-0.08854925 0.23035143 0.049065493 -0.1759171 -0.058509115 -0.018990703 0.13452813 0.005341745
0.025604026 0.15213215 0.00021774277 -0.13050148 -0.015645547 0.020096743 0.06105837 -0.11427746
0.031913355 0.115363345 0.048649937 0.13173446 0.08733303 0.10069126 -0.042568464 -8.112248e-05
0.13976295 -0.0220343 -0.039727867 0.020558931 0.036789186 0.054347124 -0.04019784 0.09722755
-0.19372433 0.07368916 0.057889517 0.083001666 0.058129687 -0.21664953 0.09174332 -0.0889876
-0.04301402 0.08038379 0.07890658 -0.005848092 -0.17455366 -0.119052924 -0.027495557 0.17030303
-0.17953798 -0.062222824 -0.088860095 -0.08696067 -0.029306322 0.16631141 0.05502341 -0.12373468
-0.052225996 0.026484458 -0.060588297 -0.13515961 0.112329274 -0.00451659 0.06452196 -0.14375083
0.00030306392 0.07516946 0.122513555 -0.060868613 -0.14009228 0.076217584 0.081978776 0.14761184
-0.0230552 -0.16584305 -0.064244516 -0.031808306 0.082985766 -0.12624818 0.13237822 -0.05718468
-0.22204593 0.16371943 -0.28591684 0.25547457 0.013052963 -0.14659266 -0.16654338 0.08669058
00000000: d876 993d 6863 10be 0b32 d1bd aa70 a1bd
00000010: 8c31 e5bd eb63 f1bc dce0 f4bc 1251 19bc
00000020: c6b4 143e 7449 da3d 9ea1 193d ce43 d13d
00000030: e669 b93c a043 64bd c9a1 55bd 329c 973d
00000040: 6b83 de3d d5a6 02be be09 97bd 9769 2a3d
00000050: 486d 7e3b 9cc4 6d3c 3f3e 55be 611e cdbd
00000060: 94af 90bd 21a5 68bd d928 313e 60c7 68be
00000070: 9b19 d3bd d4dc f4bd e7f6 493e 33bd 1cbc
00000080: ca60 1ebe 56d6 503d 96de f73d 6c57 eabd
00000090: 5aaf 3dbd b239 113d c412 bfbd 79d6 dc3d
000000a0: e1e9 d0bd b0b0 0abd 2d26 8dbd cbfd e5bd
000000b0: b0cc 20be 3e13 40be a2ca e73d 29aa b03d
000000c0: 7755 a03d bfa4 0ebe 3a11 a53d 8133 e2bc
000000d0: e9bd c93d 5807 0dbe bb1a 243c 9974 3ebd
000000e0: 9800 b13d 8e80 263d 0daf e23d 5c97 6b3d
000000f0: 6715 273e b2d2 003c 06e7 25bd 5f2f 18be
00000100: 0217 bb3d c335 ed3d f33c 873c ca1c 9f3c
00000110: b7e3 f6bd 102a 9f3d 18bc 92bb a082 bdbd
00000120: e002 a0bc ce72 953d 931d 8fbc 8b28 8abc
00000130: 5907 e7bd 8e0b 3ebe 1f5c f13c eea3 da3d
00000140: 7e08 49bd 0038 a43b 944a 9cbb bf09 64bd
00000150: 6510 2d3d cd14 7d3d ded1 c43d ed3f 493d
00000160: 37b1 cabd 245c 8cbe 945e e73c 5c97 24bd
00000170: 2c6a 563e dd11 083d 5d1a dc3c 698b 873d
00000180: 689a b3bd 56e2 8c3b 6b42 163c f69b 443d
00000190: 0251 793d 2d68 9ebd 65dd 3d3e 1ed2 8fbe
000001a0: 95b7 c73d 0a31 1cbd 3ed1 d73d efb7 6b3d
000001b0: ce1f 91bb 4739 ad3c e542 043e 38b4 34bd
000001c0: 356b c03c 968c 963d c8a3 923d e09e c23d
000001d0: d8a0 00be aece e9bc 273c bebd 6488 073d
000001e0: fcd1 f53d b126 f1bd b3bd dbbd 3592 ee3d
000001f0: d2fd ea3d c73d 4c3d 83b0 cc3c bae5 973c
00000200: 23a9 b8be 0861 e63d 2d3c d0bd c32d 683e
00000210: bc2b cc3d bcae b03d 90dc 453d 410f 10bd
00000220: 18ef 80be 3373 ec3d 8101 ee3d 7f63 ca3d
00000230: 5f4f 27bb 6c2f e4bc ff82 f5bb 0bc8 133e
00000240: 5970 c6bc 1db8 c1bd ba2b a2bb 1742 0cbe
00000250: f30d 2d3d 5d4f 7e3d 0d57 653d dace be3d
00000260: 7d28 19be 448b d2bd 3e2f 00be e7f6 453d
00000270: f0cb 5a3e db7c 66bc 10ad debb 3796 1fbe
00000280: 4199 d33d 5838 013e 4f24 ab3d b411 893d
00000290: 006d df3d c088 e03b 0637 d5bd 4e99 913d
000002a0: 4f59 b5bd 3fe1 6b3e e6f8 483d 9d23 34be
000002b0: 41a7 6fbd 6492 9bbc bec1 093e ce09 af3b
000002c0: 89bf d13c 88c8 1b3e e151 6439 2ea2 05be
000002d0: 172b 80bc eda1 a43c 5718 7a3d 4d0a eabd
000002e0: 94b7 023d 9e43 ec3d 2845 473d 66e5 063e
000002f0: a9db b23d 3837 ce3d 455c 2ebd 4d20 aab8
00000300: 051e 0f3e 4781 b4bc b0b9 22bd 346b a83c
00000310: 42b0 163d 179b 5e3d 7ea6 24bd 3d1f c73d
00000320: ac5f 46be 58ea 963d 8f1d 6d3d c7fc a93d
00000330: 6519 6e3d 60d9 5dbe ece3 bb3d 213f b6bd
00000340: 782f 30bd 42a0 a43d c699 a13d 5aa1 bfbb
00000350: 32be 32be 05d2 f3bd 5d3e e1bc eb63 2e3e
00000360: ced8 37be 5cdd 7ebd 48fc b5bd 7018 b2bd
00000370: d013 f0bc 8a4d 2a3e 3a60 613d 9c68 fdbd
00000380: edea 55bd eff5 d83c 6f2b 78bd 4867 0abe
00000390: e40c e63d e7ff 93bb 1724 843d 6b33 13be
000003a0: 8de4 9e39 72f2 993d 63e8 fa3d 5e51 79bd
000003b0: 5a74 0fbe f717 9c3d 7de4 a73d 8f27 173e
000003c0: 42de bcbc c3d2 29be a192 83bd 6d49 02bd
000003d0: 71f4 a93d 3447 01be 288e 073e 7c3a 6abd
000003e0: 0260 63be 11a6 273e b163 92be 90cd 823e
000003f0: 18dc 553c 631c 16be 598a 2abe d58a b13d

fc2.bias f4 [84]
0.050827492 0.12003035 0.018035572 -0.08210216 -0.12415828 0.09541434 -0.09769784 0.06670558
-0.011471753 -0.021464232 0.055663396 0.015975488 0.08385234 -0.12987623 0.08795675 0.07220209
0.0033483384 -0.02021266 0.0014095682 0.031907804 -0.036290117 0.078484595 0.11791607 0.17694099
-0.080520704 -0.0850819 0.099398434 0.12867627 0.007996445 -0.052166242 0.016595667 -0.04991687
0.18778335 -0.030755473 0.091469884 0.004017535 0.016038414 -0.0066675055 0.018587623 0.07738036
0.0088063525 -0.04565601 -0.073677756 0.11567867 0.060079187 0.009234252 -0.011695754 -0.06814783
-0.10796516 -0.082531825 0.006203035 -0.008607118 0.07111105 -0.018124023 0.05802704 -0.09315562
0.11270873 0.015157298 0.039942063 0.09313853 0.09073049 0.027093673 0.119575985 0.07452858
0.06084108 0.06464033 0.028892025 -0.06299086 -0.10981817 -0.11002242 -0.056954663 -0.08436114
0.07629173 0.051097106 -0.016325414 -0.10188963 0.028905861 0.05004642 -0.06279373 -0.044121712
0.00050128676 0.009032804 0.026325716 -0.13829362
00000000: 7d30 503d 79d2 f53d 56bf 933c 2d25 a8bd
00000010: b246 febd 9868 c33d ce15 c8bd ef9c 883d
00000020: 05f4 3bbc c2d5 afbc 4dff 633d 07df 823c
00000030: c7ba ab3d 46fe 04be ab22 b43d b0de 933d
00000040: cc6f 5b3b 0595 a5bc 43c1 b83a c2b1 023d
00000050: f2a4 14bd 88bc a03d fb7d f13d 0530 353e
00000060: 0ae8 a4bd 6b3f aebd 6891 cb3d b6c3 033e
00000070: 8503 033c 45ac 55bd a3f3 873c a275 4cbd
00000080: 474a 403e e7f2 fbbc 9054 bb3d 87a5 833b
00000090: fe62 833c 177b dabb 1245 983c 9879 9e3d
000000a0: 8548 103c cc01 3bbd 5de4 96bd f0e8 ec3d
000000b0: 9815 763d 434b 173c 8c9f 3fbc 1791 8bbd
000000c0: d61c ddbd 7206 a9bd d442 cb3b df04 0dbc
000000d0: aca2 913d d578 94bc c3ad 6d3d 60c8 bebd
000000e0: d6d3 e63d 5156 783c 4a9a 233d 6abf be3d
000000f0: e8d0 b93d 8df3 dd3c 41e4 f43d 71a2 983d
00000100: 7f34 793d 2662 843d f8ae ec3c 5a01 81bd
00000110: 59e8 e0bd 6f53 e1bd 4b49 69bd 89c5 acbd
00000120: d73e 9c3d 334b 513d e0bc 85bc 83ab d0bd
00000130: fccb ec3c 7afd 4c3d 009a 80bd f8b8 34bd
00000140: c968 033a 53fe 133c 07a9 d73c d89c 0dbe

fc3.weight f4 [10, 84]
-0.19838858 0.09560377 -0.0937108 0.05541463 0.023901187 -0.01156401 -0.24496381 0.07494846
-0.16176315 -0.008691657 -0.06871607 -0.16928522 -0.22415039 0.12137407 -0.22479837 0.10858735
0.18139106 0.039542187 -0.10926665 0.042702366 -0.1235785 -0.013992686 -0.14971274 -0.13884366
0.20104377 0.09950996 -0.027260495 -0.23147543 -0.04637171 0.052787717 0.13977481 -0.18390587
-0.07546123 -0.33849713 -0.043237325 -0.11319556 -0.18838972 -0.29687566 0.01654266 -0.08180427
0.020038908 0.03561749 0.09246141 0.023489293 -0.2603561 -0.12918979 -0.08484666 0.08829489
0.0059259203 -0.007386859 -0.2213115 -0.17335273 -0.10092088 -0.23459361 0.07556266 -0.13989879
0.012623364 -0.21421078 0.15940093 -0.27423286 0.07914702 -0.16690427 -0.1576709 0.055079818
0.020259453 -0.17310429 0.19678327 -0.18551573 0.14278309 -0.0502242 -0.10067928 -0.0527926
-0.26982576 0.003338703 -0.13731155 -0.21549611 -0.023545612 0.108748965 0.13505684 -0.30982345
0.098236896 0.05979349 -0.40098736 -0.031288106 0.07829676 -0.4087777 -0.17517474 -0.10380259
-0.05559532 -0.013748456 -0.13462274 -0.17878208 0.095122755 -0.20152627 0.17265749 0.07014351
0.096534 -0.079904385 0.018480456 0.19582239 0.24773702 -0.27522516 0.14148422 0.025094068
-0.16306938 0.11583066 0.14645164 0.092302404 -0.47360498 0.029253112 0.13050161 -0.03407022
0.022567336 0.07498319 -0.21419214 0.08047586 -0.29156396 -0.20502603 -0.11130919 0.06805704
-0.14102438 -0.011651975 -0.16085047 0.05991216 -0.2154577 -0.14171576 -0.26072738 -0.23129308
-0.2844396 -0.21188743 -0.07162071 -0.14751245 0.15945867 -0.027366491 0.03477381 -0.026004145
-0.23422211 -0.06194106 -0.10610536 0.05135024 0.18283428 -0.044264145 -0.02200901 -0.079244465
-0.096885085 -0.27200678 0.17799939 -0.15064497 -0.35130972 -0.044516746 -0.18128814 -0.24868363
-0.112574466 0.07596331 0.14304739 -0.17294921 -0.21222791 0.046162724 0.1067303 -0.043006595
0.053023186 -0.16733062 -0.27785128 -0.24651568 -0.11129796 -0.3129942 0.11442728 0.05066876
-0.111346416 -0.18925312 -0.29370898 -0.110831395 0.12776592 0.028354857 -0.12884101 -0.06564984
0.07484007 -0.32207373 0.014127761 0.04993894 -0.17187287 -0.03514641 -0.2810266 -0.02101284
-0.24630795 -0.16892926 0.05348019 -0.17356752 -0.001323291 -0.17304347 -0.27589005 -0.3258081
-0.037661515 0.08887597 -0.07510769 -0.016868375 -0.16701205 0.07917381 0.10114417 -0.0031077412
-0.4256711 -0.07871527 -0.1665458 -0.10618707 0.100901015 -0.1453796 0.14401013 0.058119647
-0.05510643 0.13058588 0.07412364 -0.10389157 0.036437407 0.081873395 0.08888295 0.06578645
0.0039187325 -0.1314261 0.15646072 -0.04140799 -0.27178085 -0.11109146 0.028533073 0.10829031
0.021463469 -0.051766217 0.12617622 -0.2334604 -0.066941276 0.19535092 0.13018605 -0.16017896
-0.15023921 0.14329925 -0.27010328 0.12094896 0.02080356 0.006122458 -0.23137622 -0.10750122
-0.18211268 -0.04480025 -0.020748192 0.12755187 0.021456491 0.11462777 -0.30922493 0.167709
-0.16678225 -0.34124598 -0.27919933 0.07663528 -0.16471827 0.14359808 -0.023572894 -0.14550771
00000000: 6026 4bbe e9cb c33d 73eb bfbd 73fa 623d
00000010: 6ccc c33c f976 3dbc cbd7 7abe 947e 993d
00000020: 3da5 25be 7467 0ebc 03bb 8cbd 1b59 2dbe
00000030: ae87 65be f892 f83d 8b31 66be 0b63 de3d
00000040: 94be 393e fdf6 213d 32c7 dfbd ade8 2e3d
00000050: b916 fdbd 9441 65bc 4c4e 19be 082d 0ebe
00000060: 6bde 4d3e e1cb cb3d 6751 dfbc e507 6dbe
00000070: 43f0 3dbd ef37 583d 2121 0f3e d251 3cbe
00000080: 6b8b 9abd 7f4f adbe 9f19 31bd 13d3 e7bd
00000090: 3ce9 40be 1600 98be 7984 873c ff88 a7bd
000000a0: a328 a43c a5e3 113d 685c bd3d 9e6c c03c
000000b0: 654d 85be 544a 04be 16c4 adbd f4d3 b43d
000000c0: 392e c23b 770d f2bb 7b9f 62be 6183 31be
000000d0: 9baf cebd 4f39 70be 99c0 9a3d a141 0fbe
000000e0: 3ad2 4e3c 125a 5bbe ff39 233e 4068 8cbe
000000f0: d517 a23d f4e8 2abe 7b74 21be 609b 613d
00000100: 27f7 a53c 4042 31be 8e81 493e d6f7 3dbe
00000110: bb35 123e e4b7 4dbd f030 cebd 0e3d 58bd
00000120: 9a26 8abe 24ce 5a3b 669b 0cbe 03ab 5cbe
00000130: bae2 c0bc c7b7 de3d 574c 0a3e 2ea1 9ebe
00000140: 6d30 c93d 05ea 743d 374e cdbe f527 00bd
00000150: 0d5a a03d 504b d1be 0261 33be 7496 d4bd
00000160: ebb7 63bd 3441 61bc 8bda 09be a612 37be
00000170: b8cf c23d e75c 4ebe 20cd 303e 67a7 8f3d
00000180: 9eb3 c53d e9a4 a3bd 5364 973c aa85 483e
00000190: c6ae 7d3e 50ea 8cbe 3de1 103e 1392 cd3c
000001a0: a9fb 26be a038 ed3d 6bf7 153e 0b09 bd3d
000001b0: 5a7c f2be 39a4 ef3c 37a2 053e 378d 0bbd
000001c0: 22df b83c c990 993d 2f55 5bbe 87d0 a43d
000001d0: df47 95be 58f2 51be 13f6 e3bd 7d61 8b3d
000001e0: b268 10be ede7 3ebc fcb5 24be 7466 753d
000001f0: f1a0 5cbe f01d 11be 0f7e 85be 18d8 6cbe
00000200: 11a2 91be 05f9 58be e1ad 92bd 810d 17be
00000210: 2249 233e b12f e0bc fc6e 0e3d a506 d5bc
00000220: ecd7 6fbe e9b5 7dbd c44d d9bd a154 523d
00000230: e938 3b3e 524e 35bd 3d4c b4bc ec4a a2bd
00000240: b06b c6bd 7944 8bbe 7945 363e ad42 1abe
00000250: dede b3be 3157 36bd 99a3 39be eca6 7ebe
00000260: 718d e6bd a792 9b3d 047b 123e 9919 31be
00000270: 4652 59be 2015 3d3d 6a95 da3d af27 30bd
00000280: d72e 593d b858 2bbe 8642 8ebe 9b6e 7cbe
00000290: 2ff0 e3bd c740 a0be da58 ea3d 0c8a 4f3d
000002a0: 9709 e4bd 92cb 41be 0661 96be 92fb e2bd
000002b0: 12d5 023e 7248 e83c e6ee 03be 6c73 86bd
000002c0: c045 993d d9e6 a4be 2078 673c c68c 4c3d
000002d0: 71ff 2fbe aff5 0fbd b8e2 8fbe 1f23 acbc
000002e0: 2738 7cbe cbfb 2cbe 0b0e 5b3d afbb 31be
000002f0: 4772 adba 4f32 31be 7641 8dbe 52d0 a6be
00000300: f642 1abd 9b04 b63d 10d2 99bd 8c2f 8abc
00000310: 3505 2bbe e125 a23d ad24 cf3d 3fab 4bbb
00000320: 90f1 d9be 7935 a1bd fb8a 2abe 9b78 d9bd
00000330: 31a5 ce3d 64de 14be 6477 133e de0e 6e3d
00000340: 48b7 61bd 4eb8 053e 23ce 973d 1ac5 d4bd
00000350: 643f 153d 3dad a73d 4408 b63d 0cbb 863d
00000360: b668 803b 9094 06be 3d37 203e 6d9b 29bd
00000370: dc26 8bbe eb83 e3bd 31be e93c 4fc7 dd3d
00000380: 28d4 af3c d008 54bd 5734 013e 3e10 6fbe
00000390: 8218 89bd 120a 483e 7e4f 053e f405 24be
000003a0: 4fd8 19be 0abd 123e fa4a 8abe 17b4 f73d
000003b0: 3a6c aa3c e69e c83b e3ed 6cbe 9a29 dcbd
000003c0: bf7b 3abe 7880 37bd 1df8 a9bc f59c 023e
000003d0: 86c5 af3c f7c1 ea3d bb52 9ebe e8bb 2b3e
000003e0: f7c8 2abe cbb7 aebe 37f3 8ebe f5f2 9c3d
000003f0: e8ab 28be 600b 133e f11b c1bc f9ff 14be

fc3.bias f4 [10]
0.10538977 0.11436311 0.030463768 -0.010478258 -0.024341093 0.10790391 0.023634316 -0.099698134
0.097863674 0.057734907
00000000: 97d6 d73d 3537 ea3d 278f f93c 00ad 2bbc
00000010: f966 c7bc bafc dc3d c19c c13c 892e ccbd
00000020: c06c c83d 707b 6c3d
