lab2-models/hip-6-model.pth (torch, 181175 bytes, 10 tensors)

conv_block1.0.weight f4 [6, 1, 5, 5]
00000000: 3b67 e1bb 15f1 a8bd 7be3 153e a7c0 ac3e
00000010: b89e fdbc 5fbc 0c3e dd7a 963e 241b 3e3e
00000020: 05a5 eb3e f09f 323e e8dc 88be 65f2 8dbe
00000030: d4ab 7fbe 9882 903e 1c56 0c3f 2c5d 88bc
00000040: 4748 5fbe eb64 87be 47b1 64bd 4cf3 ab3d
00000050: fd32 90bb 2073 4dbe 583c debe 273c dabe
00000060: 58ea af3d f142 3d3e 3058 b73d a1a8 41be
00000070: a32e 0abe 9652 3c3e 3690 6b3d 1aad 49be
00000080: 88e6 73be cc1c 0abe 8d14 b03d 71ab 31be
00000090: 86e1 3bbe 40b7 02be 2cff 3bbe e711 b73e
000000a0: 6cb6 a7be a5e7 d9bd fca1 a2be b49d 113e
000000b0: 58cd ba3e 8a4f 85be 77af c9bc 2ae0 9bbc
000000c0: b180 353e 26b7 b43e 6e56 5fbe f505 83be
000000d0: bf8c 8bbe 24f7 debd 1409 6abe 941d f2bd
000000e0: 6fa2 d0be 836e d0be b077 45be 5e32 03be
000000f0: 7337 893d 9a07 bb3c 6d1a 12bd a8f8 403d
00000100: d72f 31be 1e07 163e 6979 cd3e 6f06 f83e
00000110: 3866 153e 995f d63d c3b0 af3e b25c 8e3e
00000120: 2600 a53c e0b2 b43d 8593 f03d 1ab3 1a3e
00000130: 2ccc 963e 8028 cebd f24a babe 5220 043b
00000140: a152 b53e 56e4 853d c70c 6bbe 1827 66be
00000150: 2647 f4bd 3408 da3e 1fbb 803e 3bbb 97be
00000160: 2063 6fbe 0742 57be 9d6f 6f3e 3e69 a73e
00000170: 4dc9 bfbd faf8 c5bd 739a 46bb 748d 713d
00000180: d5f2 043e 6b24 573e 02c3 0fbe b3ed 33bc
00000190: 602b afbb 75cf 58be 4450 9b3e cab7 df3d
000001a0: 0c07 1c3d 6e9c efbc 8a40 c43e cfd6 983e
000001b0: ada6 c23e 7ae5 453e 091f 643e da86 f53e
000001c0: e319 7ebd 00a2 15be 130e 62be 58d4 243e
000001d0: 5640 5cbe 1997 e8be c383 bdbe 76be 49be
000001e0: 1e49 4a3d 9920 d5be 83a1 67bd a9cb 503d
000001f0: a136 57bb 75ec 263e fc09 1fbd 024e 693e
00000200: bf2a 673d 7060 153e b904 86be 0bcc f2bd
00000210: 5ea5 39be a89f 3fbd 1954 573d 343a 5dbe
00000220: 39b7 03be dc64 edbc e63a 50be ac6b 9abd
00000230: 0da0 11be 0273 d9bd 52d7 b8bd c1d1 1fbd
00000240: f589 44bd d0f6 c53d 109d c9bd 8045 7abc
00000250: 92a1 45bc 943f e1bd
-0.006878761 -0.08249108 0.14637558 0.33740732 -0.030959472 0.13743733 0.29390612 0.18565041
0.46024337 0.17443824 -0.26731038 -0.27723995 -0.24967891 0.28224635 0.5481889 -0.01664599
-0.21804915 -0.26444182 -0.055833127 0.083960146 -0.0044006095 -0.20063448 -0.43405414 -0.42624018
0.085896194 0.18482567 0.08952367 -0.18911983 -0.13494353 0.18390879 0.057510577 -0.1969494
-0.2381841 -0.13487548 0.0859767 -0.17350556 -0.18347749 -0.12765217 -0.18359059 0.35755846
-0.32756364 -0.10639886 -0.3176421 0.14220315 0.3648479 -0.26037246 -0.024619801 -0.019027788
0.17724873 0.3529598 -0.21810314 -0.25590482 -0.27255818 -0.10886982 -0.22855026 -0.11822048
-0.40748927 -0.40709314 -0.19283938 -0.12812182 0.06700029 0.022830773 -0.035669733 0.047112137
-0.17303406 0.14651152 0.4013169 0.48442408 0.14589775 0.104674526 0.34314546 0.27805096
0.020141672 0.0882318 0.11746887 0.15107384 0.29452646 -0.100663185 -0.36385304 0.0020160866
0.35414603 0.06537692 -0.22954093 -0.2247585 -0.11927633 0.42584383 0.25142762 -0.29635033
-0.23377657 -0.21021281 0.23382421 0.3269748 -0.09364567 -0.09666629 -0.0030304461 0.05897279
0.12983258 0.21009986 -0.14039233 -0.010981965 -0.005345747 -0.21172889 0.30334675 0.10923727
0.038092658 -0.029249396 0.3833049 0.29851386 0.3801779 0.1932582 0.22277464 0.47954446
-0.062036406 -0.1461258 -0.22075681 0.16096628 -0.21508917 -0.45427778 -0.3701459 -0.19701561
0.049386136 -0.41626433 -0.056550514 0.050975475 -0.0032838958 0.16301139 -0.03882788 0.22783664
0.05643725 0.14587569 -0.26175478 -0.11855324 -0.18129489 -0.04678312 0.052570436 -0.21604234
-0.12862863 -0.028978758 -0.20334968 -0.07540068 -0.14221211 -0.10617639 -0.09025444 -0.039018396
-0.04798313 0.096662164 -0.098444104 -0.015275359 -0.012062447 -0.10998455

conv_block1.0.bias f4 [6]
00000000: 00cf 223e 4c35 4ebe ff43 2c3e ecbe 483e
00000010: 2776 2e3e a690 d1bc
0.15899277 -0.20137519 0.16822813 0.19604081 0.17037259 -0.025581669

conv_block2.0.weight f4 [16, 6, 5, 5]
00000000: 9ac0 81bd bd88 45be e718 58be 6028 dd3d
00000010: 25e5 113e ee1b 2e3d 89e2 263e bcf8 b9bd
00000020: 71b0 debd 7dfd 083d 63dc 7b3d 60ac f83d
00000030: 8afc 7b3e 5e96 b63d 40cf 1abe 6aae e6bc
00000040: 6baa f2bc 1a83 de3d 6b0e 5ab9 cee7 03be
00000050: 21ef a4bc a329 39bd dd95 1dbe 9cd7 16bd
00000060: 2cec 75be 9d4b 8b3d a162 883b 9b17 d9bc
00000070: bdf7 b2bd bf89 023c 73ec 6f3d 103b dfbd
00000080: bd40 e4bd 8f04 10be 7fde 05bc 4d0c 11bd
00000090: aa02 a5bd b614 02be 0cd1 61be 4034 343d
000000a0: cdb4 2f3c 6ec6 3bbd eb82 18bc e8a2 d7bd
000000b0: c6ff 76bb 23c4 43bc 14a5 223d b076 3d3d
000000c0: 997a 743c 92fa 8b3d d7cd 07bd 95cd 0e3e
000000d0: 90ad 863d 7eed 4abd f2c4 1fbe ec36 d5bd
000000e0: e29a 31bb cca7 6e3c f60d 1a3e ebb6 113d
000000f0: 004b 1fbe df35 d3bd 4a38 fb3b e373 fe3d
00000100: e682 273e aa4c 8abc eccb 01bc 5896 3fbd
00000110: 70a7 683d 40e8 b03a 0ac9 5b3d be23 033e
00000120: 99d9 783c 2544 303d 82ad 0fbe ab3c 9bbd
00000130: e6f8 93bc 14b3 afbd f820 44be e361 05be
00000140: d7b4 2dbe 58ed 8dbd a131 713d 0d3d 1e3e
00000150: b6e1 d33d c161 a1bd 9b6f b4bd f887 8f3d
00000160: 32dd 2f3e 3880 433e e0cb e2bc f875 2abe
00000170: 17f8 073d 48c9 5abc 852b 0b3e ec03 93bd
00000180: 961e 3cbe 1e7f 0cbe 5192 703d e775 d03d
00000190: f788 af3d 69e6 38bd 46f1 f23d 1892 3d3e
000001a0: 50cf 9b3d 0e25 c03d 133a 15be c551 a2bd
000001b0: 0dfc e1bd fbb5 85bd a617 413c faa2 b3bd
000001c0: 7a91 c9bd 92cc b4bb 11bb 00bd f22e 3ebd
000001d0: f50a 2e3d d849 4ebc bcbb 67bd 7695 f2bd
000001e0: 0d40 75bd d39b 393d f803 d63d 1fb8 723d
000001f0: 05d9 4a3d eaa9 90bd b268 473c 21ac 683c
00000200: 7b32 e53d a2b1 4a3d 7ce2 13bd 32dd 67bd
00000210: 8d7e 9fbd 4d85 843d 99c2 1f3e 35d9 15bd
00000220: b736 ecbc 4810 e7bd 37a6 08bc 2f5b 843d
00000230: 3b1c 3a3d 0b08 da3c 37ac acbd 6bc5 e3bc
00000240: 1c53 463d d834 a63c 7e5b 723d 77c1 4ebd
00000250: 31dd 953b a9cf bdbc a203 cdbc 9892 353c
00000260: 47cd 47be 2b4d 91bd 281b 7fbd 98bb 3c3d
00000270: cd29 5abc 924c 81be 848f 8dbd 718a 08be
00000280: 742e cbbd 07f7 373e 3e49 d93d 3f33 0e3d
00000290: 9fbd 8a3d cc44 1c3d efe2 2a3d 3a74 363e
000002a0: d938 873d 41f9 9dbd c783 543d d285 e7bb
000002b0: d9bc fabd 622f 88bd d9bf 3d3d b530 df3d
000002c0: f780 63bd 860d 70bd 3fe7 1f3c 5a5f e93d
000002d0: 6117 0f3d c3b4 693d 63e8 57be 2091 b1bc
000002e0: 1fbc 6bbd e98d 7a3b 6e04 dcbd 5a87 4ebe
000002f0: ddcc 44be 7458 83bc 88d9 e2bb 62b8 98bd
00000300: c7e8 25be 14d1 2bbe 84b0 663c 407b 473d
00000310: a725 bc3d fdbc 593d 66ad 4ebd e120 243e
00000320: 0925 0e3c a681 a83a 2b1d 12be 922d 65bd
00000330: bd2e 6c3d 8032 22be d5ad 55be 9970 c1bd
00000340: c0ab 833d 720b fb3c 8c47 f4bd 2848 89be
00000350: 4813 9a3c 5e2e f23c 8948 013d e0f6 f6bd
00000360: 09b5 8cbe 4a11 b2bd 1592 c53d a93e 353d
00000370: 20ba a0bd 988b 29bc a2ca 093d 45c9 fabd
00000380: ff5d b9bb 047d b4bc a27b 003e a0bc 1e3e
00000390: 2a3b d23c bc39 263d eaf4 1abe ae78 893d
000003a0: 9900 6f3e a49e 073d d538 b4bd fd3a 2ebe
000003b0: 430c 08be c4ae c23d 414d 6f3e ab04 8bbb
000003c0: c30d 8dbd 08de 1cbd a014 b2bd 6fb6 263e
000003d0: 9f0c 0a3e abea bebd 5c91 0bbe 4be9 5dbd
000003e0: 2f56 e43d 51c5 a53d 8cf5 b0be 1e31 03be
000003f0: ff04 56bd e186 293d 560e cabc 1dca 18be
-0.06335564 -0.19290443 -0.2110325 0.107987165 0.14247568 0.042507105 0.16297354 -0.090806454
-0.10873497 0.03344487 0.061489474 0.12142253 0.24608055 0.08915399 -0.15118122 -0.028159339
-0.029622277 0.108648494 -0.00020795471 -0.12881395 -0.020133557 -0.045205723 -0.153892 -0.036826715
-0.24015874 0.068015315 0.004162148 -0.026500514 -0.087386586 0.007967412 0.058575105 -0.10899937
-0.1114516 -0.14064239 -0.008170723 -0.03541212 -0.08057149 -0.12703213 -0.22052401 0.043995142
0.010724259 -0.045843534 -0.009308557 -0.10529119 -0.0037689074 -0.011948618 0.039708212 0.046255767
0.014921808 0.06834902 -0.03315529 0.13945611 0.06576073 -0.049542896 -0.15602472 -0.10410866
-0.0027100374 0.014566373 0.15044388 0.035574835 -0.15555954 -0.103130095 0.0076666223 0.124244474
0.16358528 -0.01688226 -0.007922154 -0.04677424 0.056800306 0.001349695 0.053658523 0.12806603
0.015188598 0.043033738 -0.14031032 -0.07579931 -0.01806302 -0.08579078 -0.19153202 -0.13025622
-0.16963516 -0.06930035 0.05888522 0.15452977 0.10345785 -0.07879973 -0.088103496 0.07008356
0.17174223 0.1909188 -0.027685106 -0.16646564 0.03319558 -0.013353653 0.1359082 -0.071784824
-0.18371043 -0.13720366 0.05873329 0.10178738 0.08571046 -0.04514161 0.118624255 0.18512762
0.07607901 0.093820676 -0.14572935 -0.079257526 -0.11034403 -0.06528851 0.011785423 -0.0877132
-0.098422006 -0.0055175507 -0.0314284 -0.04643149 0.04249092 -0.012590848 -0.05657552 -0.11844914
-0.059875537 0.04531462 0.10449976 0.059257623 0.049523372 -0.070636585 0.012170957 0.014201195
0.11191269 0.04948581 -0.036104664 -0.056607433 -0.077878095 0.064707376 0.15601577 -0.036584098
-0.028834684 -0.11282402 -0.00834041 0.064627044 0.04543708 0.026615163 -0.08431285 -0.027804097
0.048419103 0.02028887 0.059169285 -0.05047747 0.004573487 -0.02317031 -0.025026146 0.011082314
-0.19511901 -0.07094797 -0.062281758 0.04607734 -0.01331563 -0.2525373 -0.06912139 -0.13334061
-0.099209696 0.17965327 0.10609673 0.03471684 0.067744486 0.038151547 0.041720327 0.17817774
0.0660264 -0.07713557 0.051883485 -0.007065513 -0.12243051 -0.066496626 0.04632554 0.10897962
-0.055542912 -0.058606647 0.009759723 0.1139514 0.034934405 0.057057153 -0.21084742 -0.021675646
-0.057552453 0.0038231558 -0.107430324 -0.2016882 -0.19218774 -0.016033389 -0.0069229044 -0.07457043
-0.16202079 -0.16778976 0.014080171 0.048701525 0.09186869 0.05315875 -0.050458334 0.16028167
0.008675822 0.0012856021 -0.14268939 -0.055951662 0.05766176 -0.15839577 -0.20867093 -0.094453044
0.06429243 0.030645106 -0.11927709 -0.26812863 0.018808022 0.029563125 0.031563316 -0.120588064
-0.2748187 -0.08694704 0.096470036 0.04424921 -0.078480005 -0.010348223 0.03364051 -0.1224542
-0.005656957 -0.022032268 0.12547162 0.15501642 0.025662977 0.040582404 -0.1513249 0.06712471
0.23340072 0.033110276 -0.08799902 -0.1701469 -0.13285927 0.0950599 0.23369314 -0.0042425
-0.068873905 -0.038297683 -0.0869534 0.1628053 0.13481377 -0.09322103 -0.13629669 -0.054177564
0.11149251 0.08094276 -0.34562337 -0.12811705 -0.05225086 0.041388396 -0.024665039 -0.1492085

conv_block2.0.bias f4 [16]
00000000: 979e 55bc 36f8 d8ba f4e7 28bd 56e8 e3bb
00000010: 419c a2bd da42 363d 59f8 df3c eabc 1ebd
00000020: e6f3 49bc 5e7f 453b 03b2 bd3c 7f57 08bd
00000030: 0cc5 4dbd bdbf 033d 0c71 64bd 4dd6 63bd
-0.013038299 -0.0016553465 -0.041236833 -0.006955187 -0.07939959 0.04449735 0.027340101 -0.03875438
-0.012326216 0.0030135731 0.023156172 -0.033286568 -0.050236747 0.032165278 -0.055771872 -0.055624295

fc1.weight f4 [120, 256]
00000000: 306e f9bd 26c9 b73c aa52 a83b a08f 913d
00000010: 3451 b2bd 080e e93c 7a67 fe3c 4205 0b3c
00000020: a62f 923a 925b c8bd 2894 e33c 5000 3d3d
00000030: 34d4 b2bc 5c5a 59bd b1f0 de3c cef8 ef3d
00000040: 2e9d b33c a6e8 113d 9d20 9b3d 9d94 d83d
00000050: 3806 9fbd b356 93bc 39bd 7d3c 52ee 9c3d
00000060: abbd c9bc 9323 523c 21d6 87bc b531 42bd
00000070: c94b 123e d29d e33d f9f4 b23b 8987 7a3d
00000080: 7b79 fe3c 949b fe3c ef50 e23b f8db 00be
00000090: afef 93bc 984c ca3c 2570 ce3b 87a1 e9bc
000000a0: 0fcf ab3d b005 f23d af90 ec3d 929f c23c
000000b0: 1b5e 193d 9926 513d 20df c73c 70e8 193e
000000c0: 7391 b5bd 6aeb 30be 910d c0bd 9c29 4fbd
000000d0: a20e 87bd 8c02 7bbe db1b d5bd f838 3bbe
000000e0: 30c4 2e3d cc2f 4a3c 817b 913c 7ae2 fbbb
000000f0: a7dd a33d ff62 2f3d 2b69 6b3d 450e ba3d
00000100: f256 94bd 1859 b4bd 0c5c 82bb 0689 2e3e
00000110: 720e 89bd e5b6 febd e0f5 dfbd 3d00 a2bc
00000120: 4553 6b3a 6ff4 7f3d ee99 693d d61d 123c
00000130: afcf a7bd 2013 abbd 9bc5 6bbd 5851 3fbe
00000140: b9ee 6a3d 22ca 763d 46be 503d 6e53 93bd
00000150: d52f 96bc 120d 2a3d 1bf9 1b3e 0047 f2bc
00000160: 3421 13bd 3d64 b83c b427 023c 561f 873d
00000170: 89fb 86bb 8d39 61bd 5e85 963a 2b95 6ebd
00000180: 0db2 b43d e2ce 233e d847 d93d f3b1 9d3e
00000190: 8cb2 cf3d f8f9 3abd de95 bdbd d646 d33d
000001a0: 9b43 e23c ace5 b9bd 6d0e a6bd 0350 55bd
000001b0: 713c 52be b04a 853d a9d5 a2bb e908 1b3c
000001c0: 7da4 943d bab2 1c3d c0db 0c3e b263 9f3d
000001d0: 6579 ca3b 6b00 23bd fab2 54bc 464d 713d
000001e0: 38aa 4fbd 9405 243e 194d f73c 15ee e2bd
000001f0: aa96 07bd 2228 a73d 42db b23d 5f1f b8bd
00000200: 9236 38be a56d c2bd c6e3 9dbc 1846 0ebe
00000210: 01b9 cdbd 8d8c a23d db85 3a3d 869d 833c
00000220: 73d7 50bd aa3b 3e3c dd74 0f3d fadf 02be
00000230: 7db2 82bd ba1e f5bc 9876 ff3b b27d 633b
00000240: 9e56 7f3c 4f01 94bc 8905 953c e20f 1bbc
00000250: df30 7c3d dbfe 5cbd 4fe5 813c 1e95 123e
00000260: ba05 b13c 1f87 34bc 6993 513d f55a e9bc
00000270: 7f1e 67bd bf80 11be f76b 3ebd eae5 263d
00000280: 3294 04bd ddd3 383d 85b9 813c b83e 503a
00000290: 80cf 1abd 6a86 9b3c df9a 453c d3b1 13bd
000002a0: 546d c13d ef36 a53b 5081 c63d ec4d 22bd
000002b0: 89b5 a5bd 762c f1bd 3da0 37bc 9517 363d
000002c0: 3a32 29bd 52e2 91bd 36e0 76bd 0c18 9bbb
000002d0: 728f 21be 85ab 36bd 0426 083d 98aa 36bd
000002e0: 044a 3ebd ba86 8a3d 67bd 9b3d be2a 3abd
000002f0: 6b11 73bc b463 2fbd 967b 363c 0a2f b8bd
00000300: 442c e5bd 63c1 1abe f427 49be ba59 823d
00000310: f160 61bc 221c 15bc 9131 a43c 2650 e6bc
00000320: 7832 543d d237 4b3d 3f2b 4d3c 8f2c 90bd
00000330: bc1b 65bc 76ab 103e 7948 213e efd4 b5bd
00000340: 776c 27bc e4a9 f7bb 4cea db3d 14ba 7d3d
00000350: c677 7a3d 9a02 523d cea0 663d 51e9 cf3c
00000360: a4b4 7fba bdaf 94bb 7d10 1a3e f119 0b3c
00000370: 7f62 d0bc 6cef 78bd 8100 853c 2c49 c03c
00000380: 917d 473d 5975 123e 9998 6d3d e425 b4bd
00000390: 8892 f93c b079 9f3c eeeb 623e 5687 71bd
000003a0: 698e ba3d b89f febc 8744 ec3d 62a5 3139
000003b0: c319 bbbd 6158 66bd 51b7 4ebd 9945 bfbc
000003c0: 4175 433c 7092 54bc 46aa 6f3c 42ae f1bc
000003d0: 0d25 89bd 2936 02be 32c0 1abc 7f18 093e
000003e0: 4993 0dbe 7fb5 82bd 9b0b 08bd 1376 943d
000003f0: bee8 10be c838 30be 48a5 1b3d 2e7f c73d
-0.1217922 0.022434782 0.0051368074 0.071074724 -0.087068945 0.028449073 0.0310552 0.00848514
0.0011153116 -0.09783091 0.027780607 0.046142876 -0.021829702 -0.05306469 0.02721438 0.117173776
0.021925535 0.03562226 0.0757458 0.10575221 -0.07764858 -0.017985677 0.015487009 0.076626435
-0.024626574 0.012825864 -0.016581597 -0.047410686 0.14286722 0.11114086 0.005461332 0.061164413
0.031063786 0.031080045 0.0069066207 -0.12583911 -0.018058626 0.024694726 0.0062999898 -0.028519405
0.08389103 0.11817491 0.11551034 0.02375773 0.03744326 0.0510622 0.024398386 0.15030074
-0.08865633 -0.17277303 -0.093775876 -0.05057679 -0.06594588 -0.2451269 -0.10405704 -0.1828345
0.042667568 0.012340497 0.017759087 -0.00768691 0.08001261 0.04281902 0.057473343 0.09084753
-0.07243146 -0.08806056 -0.003978258 0.17044458 -0.06692208 -0.12437228 -0.10935569 -0.019775504
0.00089769467 0.06248897 0.057031564 0.008918246 -0.081939094 -0.08353257 -0.057561498 -0.18683374
0.05735657 0.060251363 0.05096271 -0.07193647 -0.018333355 0.04151637 0.15231745 -0.029574871
-0.035920337 0.022508735 0.007944036 0.06597774 -0.004119341 -0.054986525 0.0011483838 -0.058247726
0.08823023 0.15996888 0.10609406 0.30799827 0.10141477 -0.045648545 -0.092571005 0.10316245
0.027620127 -0.090770096 -0.0810822 -0.05207826 -0.20530869 0.06508386 -0.004969318 0.009462574
0.07257936 0.038256384 0.13755703 0.07782687 0.006179022 -0.03979532 -0.012982124 0.058911584
-0.050699443 0.16017753 0.03018813 -0.11080567 -0.03310267 0.081619516 0.08733226 -0.089903586
-0.17989567 -0.09493569 -0.01927365 -0.13893926 -0.10045052 0.07936964 0.04553781 0.016066324
-0.05098672 0.011610905 0.03502356 -0.12780753 -0.063817 -0.029921878 0.00779612 0.0034712371
0.015584616 -0.01806703 0.018191116 -0.009464236 0.061570045 -0.053953987 0.015856413 0.14314696
0.021609176 -0.0110185435 0.051165972 -0.028485755 -0.056425568 -0.14209269 -0.046489682 0.040746607
-0.032367893 0.045123924 0.015835533 0.0007943916 -0.037795544 0.018984992 0.01206085 -0.03605826
0.09444681 0.005041949 0.09692633 -0.039625093 -0.08091266 -0.117760584 -0.011207637 0.044456083
-0.041307665 -0.07123245 -0.060272418 -0.004733091 -0.15777376 -0.044597168 0.03323938 -0.044596285
-0.046457306 0.06763978 0.07604485 -0.04545092 -0.014835696 -0.042819694 0.011137864 -0.08993347
-0.111900836 -0.15112834 -0.19644147 0.0636477 -0.013756023 -0.009100946 0.020043166 -0.02811439
0.051805943 0.04961378 0.012522518 -0.07039749 -0.013983663 0.14127907 0.15750302 -0.088785045
-0.010218731 -0.0075580943 0.10738048 0.061945036 0.06114938 0.051272012 0.0563057 0.025379809
-0.00097543956 -0.004537551 0.15045352 0.008490072 -0.025437592 -0.060775205 0.016235592 0.023472391
0.048703734 0.14302577 0.058006857 -0.087962896 0.03046538 0.019467205 0.22160313 -0.058966957
0.09109194 -0.03108202 0.11536508 0.00016941645 -0.09135773 -0.05623663 -0.050467793 -0.023348616
0.011929811 -0.012974367 0.014627999 -0.029502038 -0.0669652 -0.12715973 -0.009445237 0.13388251
-0.13825716 -0.06382274 -0.033214193 0.07249083 -0.14151284 -0.1720916 0.03799942 0.097410545

fc1.bias f4 [120]
00000000: 05ed 963c a860 7f3d 5764 8cbd 530d cdbc
00000010: 7321 2fbd f8bd e33a fde2 7a3c 5c9d 7cbc
00000020: 4f49 7abd b7dd 0dbc 0f28 4d3d 751b 8dbd
00000030: 25a1 8bbd c907 02bd 3510 2d3d b339 14bd
00000040: 6242 6d3d 00e4 96bb 16b0 a43d 3d86 a93c
00000050: 7cbc c13c 4d43 cd3b c1f3 92bd 7072 2dbd
00000060: b457 aabc 579e f3bc ef76 72bc 5349 8c3d
00000070: dafc b33c 8e82 7bbd af68 31bd 1eb5 643c
00000080: 2a2c 20bc 4d02 a1bd 25f6 b83d 849c e93c
00000090: 5f00 a73c 4b24 293d 1310 1b3d 26bf b53b
000000a0: aecc 61bc 1cba 3fbc 360c 31bd 5c27 9fbd
000000b0: 9c93 ad3c de51 823d 6a4c b23d 6ab5 85bd
000000c0: 797a 223c c92b b03c 8535 d03c 8035 993c
000000d0: 4883 7bbc 625f e13c 6ac2 6abd c9b1 363d
000000e0: e89f fb3c 2d64 27bc 6929 8c3d a2a4 8b3d
000000f0: 0b9a 16bc ad7b bb3d 15e9 8b3d 63e9 243d
00000100: c9df 8dbc 7220 653c 5d6c b13c 0ea8 b2bc
00000110: e05c 2bbd db6f c5bc de97 753d db55 983b
00000120: f908 0c3d 05d8 933c fbb1 853b 3332 44bd
00000130: 3f37 f4bc 4a13 513d 38ac 4a3d 2574 fe3c
00000140: ae8f d33c 7ef8 67bd 113f 823c a751 733d
00000150: 4474 3fbc f3d3 b93d 4b8e ffbc c663 6f3d
00000160: ee89 f23a 898c 95bd 2c08 5dbd 2800 a1bc
00000170: 3937 ee3c c377 a83c 4ccd 393d 1bd0 003c
00000180: 3b22 693c c9b5 09bd b078 c13b bf7c f23c
00000190: 5fac 74bc e95d a1bc 2b6b 1a3d f8d0 85b9
000001a0: 6852 753d 5cbe c13b 368d 2fbc 3b10 6f3d
000001b0: 03aa 25bd 6183 4fbc e077 f73c ca6b a5bd
000001c0: 8641 99bd dc0b 5fbc 8cf7 0c3b c406 a23d
000001d0: 1685 303d 9354 d8bc 5510 a43d 0159 583d
0.018423567 0.062348038 -0.06855076 -0.025030768 -0.04275651 0.0017375341 0.015312907 -0.015418377
-0.06110507 -0.008658818 0.05008703 -0.06890003 -0.06817845 -0.031745706 0.042251784 -0.03618784
0.057924636 -0.0046048164 0.08041398 0.020693893 0.023649447 0.0062641264 -0.071753986 -0.042345464
-0.020793773 -0.029738588 -0.014798864 0.06849923 0.021971155 -0.061403804 -0.043312725 0.013959197
-0.0097761545 -0.07861767 0.09031323 0.028517015 0.02038592 0.041294377 0.037857126 0.0055464683
-0.01378171 -0.011702087 -0.043224536 -0.07771179 0.02118855 0.06363271 0.08705981 -0.065287426
0.009916895 0.021505253 0.025416145 0.018702269 -0.015351124 0.027511302 -0.057314314 0.044603143
0.030715898 -0.010216755 0.06843836 0.068185106 -0.009192 0.09154449 0.06831566 0.040261637
-0.017318623 0.013984786 0.021658117 -0.02180865 -0.04183662 -0.024101188 0.059959285 0.0046489066
0.034188244 0.018047342 0.004080055 -0.047899436 -0.0298115 0.051043786 0.049480647 0.031061241
0.025825348 -0.056633465 0.015899213 0.05940404 -0.011685435 0.09073629 -0.03119578 0.05844476
0.0018504241 -0.073021956 -0.05396287 -0.019653395 0.029079067 0.02056492 0.045361802 0.007862116
0.014229353 -0.03362063 0.0059042796 0.0296005 -0.014933675 -0.0196981 0.03769986 -0.0002552343
0.05989304 0.005912585 -0.01071482 0.058365088 -0.04044534 -0.0126656005 0.030208528 -0.080772
-0.07483201 -0.013613667 0.0021509854 0.07911447 0.04309567 -0.026407516 0.080109276 0.052819256

fc2.weight f4 [84, 120]
00000000: 5e8c 953c 9f6a e8bd d795 bb3b 4af3 c83d
00000010: 8291 433d 6a8b f13a 30a9 debd f130 843d
00000020: 0555 09bd ae34 f53d 40cb a33d f8b6 103c
00000030: 3c08 06bd c42a a13c 4184 16bd f19c 783d
00000040: 1b1f 4b3c 0338 05bd 76cc b8bd 8202 aebd
00000050: 0c73 43bd 8b65 813d 72a3 633d 2df9 a5bc
00000060: 76ea dd3d 1418 18bd 8a72 0d3d 055c 17bd
00000070: 2cd3 3cbd cf8b 8cbd 114c 753d ed81 e5bd
00000080: 94bc afbd 8ab1 31bd 042c 55bd 9a1e 443d
00000090: 02dc 6cbc eee0 db3d 4ff2 09be d3c8 12bd
000000a0: 1dce 973c 042c a63d 3192 5bbd e33b 84bd
000000b0: 20e7 8dbd ae3b 843d a3e6 05be 163e 293d
000000c0: 18cb f03d bd0c aabd 16e8 d23c 8320 0e3e
000000d0: e896 dd3c a04b c53d 72bc dfbd 8bcf 01be
000000e0: 61ce 503c 0826 eebd c6c7 64bd 4f4c 98bd
000000f0: 1db7 c63c 71d6 3dbc 8422 a83d 644d 8cbd
00000100: fe5b 943d a9df 7b3d 876f fcbd 0e21 dfbd
00000110: a4f0 2fbd fc4a 2dbd ccb8 cdbd 0bad b03d
00000120: 488a ce3d df3b 8ebd 0c95 33bd 35a0 d93d
00000130: c99b 373e 9ab0 de3d f66b 9c3d fac4 40bd
00000140: 5a52 91bd 8e51 1c3d ae17 cfbd e162 c03d
00000150: 268c be3d 95c7 833c 2478 82bd 67d2 d2bd
00000160: 93f2 bf3d b1e4 973c fd86 83bd 5222 243c
00000170: 4f29 2b3c 5a5e 843d 8d0d 1b3d d13e dc3d
00000180: 85b0 ca3d 208f ae3c 819e c63d f5af a33d
00000190: e774 ae3d 0224 eebc 9cc3 51bd 4df4 07bd
000001a0: 7a94 873d fb0d 853d 065d f83c adab 2ebe
000001b0: 2b6b 1e3e 9a7b 333e c4e3 76bb f1f9 0b3d
000001c0: b820 693d b5eb 7c3d 03cc 8f3d 6faa 15be
000001d0: 260c 2c3d 8fc0 783e 168f 4cbc 2a85 0a3d
000001e0: d3c9 833d b884 dd3c c2e3 3dbd 6aa7 1d3d
000001f0: 7f8f 3cbd 85c1 3d3c e637 acbd 4a35 c8bd
00000200: a662 383d e0d6 2f3b abcf 403d 7e22 283d
00000210: 2f99 51bd e059 b0bc 8ca7 f93c 1a19 1ebd
00000220: 41b0 e5bc 1ca4 513d f7be 17bd 7147 5dbd
00000230: f575 80bc c0fd 323c c81e 8e3d 26dc 89bd
00000240: d98e 133d 4ada 863d ec47 32bd 96a8 85bc
00000250: e710 463c fa9f 40bd 8bb1 7a3d e6aa a1bd
00000260: 84d7 e9bc 463e 27bd 4640 653d ba2d 7bbd
00000270: f5ea 91bd 3460 673c 63c0 87bd cfd8 76bd
00000280: 0498 8e3c 51be dcbc a4b4 13bd 4d9d 573d
00000290: acac 9dbd 3ff0 50bd b1be ddbc a400 383c
000002a0: 1261 87bd f874 5bbd 4bd0 943d 64cf d8bd
000002b0: e34c 9bbd 2ffc 83bd 0f28 793c e112 863d
000002c0: a04b 39bd 9cff 2a3d caeb cc3c 8a18 273d
000002d0: 5646 a4bd 9fe6 5b3d 5cb2 c8bd 890d ffbc
000002e0: debb 6bbc 28b5 d4bd e758 b4bd 3140 98bc
000002f0: 29cf acbd 33c1 2a3d 15c5 7a3c 9083 b9bd
00000300: 124e adbd b032 9dbc 0d20 b1bd dc79 9ebd
00000310: a4ef b0bd 2a44 b53c 0c03 bdbd dbc1 babd
00000320: 48d7 a1bd bd58 d6bc d8bb a0bd 613a 143c
00000330: cab5 2f3b 00ad 9ebd 9484 12bd bf2c a03a
00000340: 3b5e 02bd 6df9 0fbd f6a7 5ebc f9cb 233d
00000350: 0277 5fbd 3d88 8c3d c511 3cbc 3182 a93d
00000360: 000f 86bd 765d b2bd d9bf 74bd fa01 dcbd
00000370: f2c4 d2bd f0f5 bb3c fbd1 b63b ee77 b23d
00000380: 7c72 393d 3f50 82bd c9e1 5e3d 851e b4bd
00000390: fcd7 89bd 077c 643d 9eb3 98bc d223 e93c
000003a0: 4f05 2e3d bedc d1bb 3f43 33bd 8489 e9bc
000003b0: 6031 50bb e525 abbd eede 4ebd 3919 d1bd
000003c0: 938b c73d a6bc efbd 5350 233e f30e a13d
000003d0: 0164 323e fae9 4f3d 3e09 b33c 9977 0d3e
000003e0: 7e51 d3bc f0b5 de3b 96f0 c83d 5fb2 473d
000003f0: da92 febd 917c 39be 541f a8bd 76ef 39bd
0.018255409 -0.11348461 0.0057246494 0.09812029 0.04774619 0.001842839 -0.10872114 0.06454647
-0.033528347 0.119729385 0.07997751 0.008832686 -0.032722697 0.019673713 -0.03674722 0.060696546
0.012397553 -0.03252412 -0.09023373 -0.08496572 -0.04771714 0.06318196 0.055575795 -0.020260418
0.108357355 -0.037132338 0.03453306 -0.03695299 -0.046099827 -0.06862604 0.059886996 -0.11206422
-0.0858089 -0.043382205 -0.05204393 0.047880746 -0.014456751 0.10736261 -0.1347134 -0.035836052
0.0185309 0.08113864 -0.053606216 -0.06456735 -0.06928849 0.064566955 -0.13076262 0.041318975
0.11757487 -0.08303211 0.025745433 0.1387959 0.027049497 0.09633565 -0.10924615 -0.12676828
0.012744517 -0.11628348 -0.05585458 -0.0743643 0.024257237 -0.011586771 0.08209708 -0.068506986
0.072441086 0.061492596 -0.1232596 -0.108949766 -0.042954102 -0.04230784 -0.10045013 0.08626755
0.10084969 -0.06945013 -0.043843314 0.1062626 0.17930521 0.10873528 0.076377794 -0.04706285
-0.070957854 0.038163714 -0.101119384 0.0939386 0.09304075 0.016086379 -0.06370571 -0.10294037
0.09372439 0.018541666 -0.06422231 0.010017948 0.01044686 0.06463309 0.03785472 0.10754169
0.0989695 0.021308482 0.09698201 0.079925455 0.08518391 -0.029069904 -0.05121194 -0.033191968
0.066201165 0.06496807 0.030317795 -0.17057677 0.15470569 0.17527619 -0.003767238 0.03417391
0.05691597 0.061748225 0.07021334 -0.14615797 0.042003773 0.24292205 -0.012485286 0.0338184
0.06434979 0.027040824 -0.046359785 0.038489737 -0.046035286 0.011581783 -0.08409099 -0.09775789
0.045015953 0.0026830956 0.047073048 0.04104852 -0.051171478 -0.02152723 0.0304754 -0.038598157
-0.028038146 0.051181898 -0.037047353 -0.05402321 -0.015681246 0.0109247565 0.06939465 -0.06731443
0.036024902 0.06584604 -0.04352562 -0.01631574 0.012088991 -0.047027566 0.061204474 -0.078939244
-0.028545149 -0.040830873 0.0559695 -0.061322905 -0.071248926 0.014122058 -0.06628492 -0.06026536
0.017406471 -0.026946219 -0.036060944 0.052640248 -0.0769895 -0.051010367 -0.027068468 0.0112306215
-0.066103116 -0.053578347 0.07266291 -0.105864316 -0.07583024 -0.064445846 0.015207305 0.065465696
-0.045238137 0.041747674 0.025014777 0.040794887 -0.08021228 0.053686734 -0.09799644 -0.031134384
-0.014388053 -0.10386115 -0.08806019 -0.018585296 -0.0843795 0.041688155 0.015305777 -0.09058297
-0.08462156 -0.019189209 -0.08648691 -0.077380866 -0.08639458 0.02212723 -0.09229097 -0.09119006
-0.0790239 -0.02616536 -0.07848328 0.009047122 0.0026811236 -0.07747841 -0.035770968 0.0012220367
-0.031828146 -0.03514998 -0.01358985 0.039989445 -0.054556854 0.06861923 -0.011478846 0.08276785
-0.0654583 -0.087092325 -0.059753273 -0.107425645 -0.102914706 0.02294442 0.005579231 0.08714281
0.045275196 -0.06362962 0.054414544 -0.08794884 -0.06730649 0.055782344 -0.018640336 0.028459463
0.04248553 -0.0064044883 -0.043765303 -0.028507955 -0.003176771 -0.08356837 -0.05050557 -0.10209889
0.097434185 -0.11705904 0.1594861 0.078641795 0.17420961 0.050760247 0.021854993 0.13815154
-0.025795694 0.006796591 0.09811513 0.048754092 -0.124303535 -0.18113925 -0.082091 -0.045394383

fc2.bias f4 [84]
00000000: cabc d0bd bda1 2e3c 3f7d 75bd 7237 e23c
00000010: e179 d03d 9f33 3cbd 297c c8bd 99bf ba3c
00000020: b0f4 033b b3d0 3bbd ca5e bb3c d15e 583d
00000030: 382e 343d 638f 9bbd c016 64bd 1a86 d7bc
00000040: 1a42 b03d 2e84 a13d 0374 b03d 34b6 47bd
00000050: 4110 603d db6a 18bd 217b a4bd 747e 823d
00000060: f916 023e 92d2 a33d 1fea 943c 1dbb a33b
00000070: a131 413d d801 60bd 51ba debc e5be 9e3d
00000080: 34c9 1d3c 604d ba3d 0d3b 42bc 1616 bd3d
00000090: 33f4 473d 7782 e03d f709 4e3c b15d 0c3e
000000a0: f352 353d 85da dabd 1c9e aebd c729 cabd
000000b0: 79a4 7a3d 80ad b23c 02d9 90bc a6af 67bd
000000c0: 4eea 313d 6406 713d d1e6 a7bd c797 00be
000000d0: 83a1 a9bd aafb 8c3d 00d1 a13c b179 993d
000000e0: b218 753d 7ffd cbbc e985 123d 7ac4 0d3d
000000f0: f19b 03be 851e 49bd 2ff6 003c a827 df3d
00000100: 48ca dc3c 4b98 e13d c44d 2cbc 6464 e1bb
00000110: cd29 52bd 4c75 8abd 6362 1dbc 3773 a73d
00000120: b247 483d 7d46 9b3d ce31 d8bc 5cc4 843d
00000130: 8b1d 113d 3d4c e9bd 8e61 43bd 86bf 4dbd
00000140: af1c 65bd e3d9 e53c b3a0 6cbd 620f 033c
-0.10192259 0.010658679 -0.059933897 0.027614329 0.101794966 -0.045947667 -0.09789307 0.022796439
0.0020134859 -0.045853328 0.022872347 0.0528248 0.04398939 -0.07595708 -0.05568576 -0.026309062
0.08606358 0.078865394 0.086158775 -0.048757747 0.054703 -0.03721128 -0.080312975 0.06371775
0.12704076 0.079991475 0.018178044 0.004996671 0.04716647 -0.05468926 -0.027188452 0.07751254
0.00963049 0.09096789 -0.011854899 0.09232728 0.04881687 0.10962384 0.012575618 0.13707615
0.04426856 -0.106862105 -0.08526251 -0.0987125 0.06119201 0.021811247 -0.017681602 -0.056563996
0.04343634 0.058843985 -0.081983216 -0.12557898 -0.08282759 0.068839386 0.01975298 0.07493914
0.059838004 -0.02490115 0.035772238 0.034611203 -0.12852456 -0.04910137 0.007871195 0.10896236
0.026951924 0.11015376 -0.010516588 -0.0068784226 -0.051309396 -0.06760654 -0.009605977 0.08176272
0.0488965 0.07581804 -0.026390936 0.06482765 0.035428565 -0.113914944 -0.047700457 -0.05023148
-0.055935558 0.028057998 -0.057770442 0.007999273

fc3.weight f4 [10, 84]
00000000: ee43 c23b ba46 953d e218 2ebb 868a 7d3d
00000010: 3673 f2bd ff80 973d dc15 073d 4401 283e
00000020: c24d 8abe baf1 a03d f7d4 31bc 42e2 a5bd
00000030: b129 043d 1b1b 3abd 15c3 16bd 21fe 79bc
00000040: 41fa dcbd 571e a93b 00be 7e3d eef9 a1bd
00000050: de3a 80bd bc68 f2bb 68ca f9bd 0bea 073d
00000060: 1e12 b7bd 20ea 183d d009 883d bc65 a9bd
00000070: 9110 1fbe 64cb afbc fec3 4c3d 8795 8e3d
00000080: fee7 023e 9f6b 5d3e ba62 5c3d 431e fabd
00000090: 37f7 463d 3beb f23c fa0a e13d 6c15 bf3c
000000a0: 7bb4 8bbd 4c0b 11bd 3e1d 1dbd 7a9a 9f3c
000000b0: a27c 2dbe 67b1 0ebe 0048 553d c6b3 d93d
000000c0: ae56 ed3d 4982 003b 2837 e43d b826 83be
000000d0: 5ed4 94bd d9be 3ebe 935b 5dbe e82a f23d
000000e0: abee 63be 880a febc 5cce 1cbd 0d70 273b
000000f0: 8308 2d3e c9df 9bbd ef49 173e bfa1 0a3e
00000100: d826 17be 3cf7 483d 3a25 ffbd 02a1 45be
00000110: 38a1 9bbd 91e3 36bd 9e8a 7dbe 4bc3 233d
00000120: aba1 003e 76e2 fd3d c316 3bbe d222 0e3e
00000130: 1611 303d 623c a2bd 064c 19be 1425 dcbd
00000140: b1bf 31be aff9 0cbe 9459 043c dec1 1bbe
00000150: a9fe b43d 35f0 d03c 2065 e43d b11e f8bd
00000160: 7721 c1bd affa d4bd f03f 9ebb 5756 26b9
00000170: 949a debd b3c9 dabd 84da 2ebc 277b 353e
00000180: 3512 18be de98 c63c eae9 5ebd eed0 ed3d
00000190: 9325 aebd 5aa6 c43d 4694 e43d 5db7 d1bd
000001a0: c4f0 6bbd e554 f23d 382e 0e3e 1604 a5be
000001b0: 28b4 d83d 10f7 be3d ab1d 533d 8fd0 09bb
000001c0: 533d 523d 0e46 39be 304b 7fbe bfe5 34be
000001d0: 1b8a 05be ccd5 d33d fdc5 7ebe e77c 0f3d
000001e0: a992 273e 7d04 873d f5d8 35be 0a06 463d
000001f0: ea3c dfbd 1f8d a53e 0e58 323d 80ab 82be
00000200: 9c21 103e 28fa 563c 41d5 92bd c935 9abd
00000210: 7b0a 01be 6a5e b23c 06c8 473e 7eb2 a43c
00000220: 9440 e7bd 5fbd 45bd 9ce7 d73d 3b36 60bd
00000230: c922 2a3d 5611 1e3c 84cf 443b 3703 0bbb
00000240: f661 83be 5d46 f13d 5c8a 983d fc65 c8bd
00000250: f68c 233e 6bd0 013d 660c 173c b755 f8bd
00000260: 9d5d c1bd b88d aabd fad8 053e fb70 f33d
00000270: 0ef9 12be 157c f4bd 6416 113d aa1d 20be
00000280: 6198 45be 79e2 cabd 02ec 32be 0296 dc3b
00000290: e0c3 c43c c5cf 46be cb4b ecbd 5cf2 a53d
000002a0: 9651 e73d 4834 5fbd 4aa3 3fbe b37c 053e
000002b0: e157 813b 7cf3 5bbe 3a83 a9bd 5b3c d13c
000002c0: 5e07 0abe 2386 a03d 0ee1 863d 81ce cd3d
000002d0: 3428 f9be d267 1dbd 5755 07bd ebd0 d93b
000002e0: 6415 2cbe 48ee eabd 218d 5bbe a1ae 96bc
000002f0: 3042 903d 011f 28be 8690 01be 3ca1 ac3d
00000300: 4523 fcbd 9ab8 113c 55d2 663d 8135 dabd
00000310: c2ea 653d b631 a7be 6295 9fbc 2f7a 49be
00000320: 8cb6 dbbd f048 2c3e d7cb cb3d e172 7d3d
00000330: 341b 173e 8de6 de3d 8d93 3c3c 2355 ea3d
00000340: 2e5e 0c3e 23fc 31be 8347 b4bd 12e5 0bbe
00000350: cfba 09bd 7795 c1bd 8003 be3a d62b e73d
00000360: a855 963c 18fc 9fbe 5fa0 2fbe a717 cfbd
00000370: 773e 0fbd d3c6 acbd 9557 18bd 67bf aebd
00000380: 2aaf 90bd 64e7 35bc c726 0fbd 16f3 6a3d
00000390: c8b2 41bd 8c8e 383b 8051 7ebd b8eb 413d
000003a0: 063e 80be 7bfa f0bc dbc1 5bbe 46d7 ba3d
000003b0: 3b23 bfbd 727b babd 26f2 003e 82b3 253e
000003c0: aaa5 233d 2884 083e 4778 1f3e 3965 5a3c
000003d0: 53c4 03bd 030d 03be e1ed cbbd 2ccf 083d
000003e0: 1416 543e 1b32 d03c 95bd fb3c a732 883d
000003f0: 7512 18be 7548 efbd d5bf cb3c fe79 11be
0.005928508 0.07288881 -0.0026565124 0.061899684 -0.11838381 0.07397651 0.03297983 0.16406733
-0.2701245 0.07858606 -0.010853997 -0.08099796 0.032266323 -0.045436006 -0.03680714 -0.015258343
-0.1078992 0.0051610875 0.062192917 -0.079089984 -0.06261228 -0.007397739 -0.12196809 0.033182185
-0.089390025 0.037332654 0.066424966 -0.082713574 -0.15533663 -0.021459289 0.0499916 0.06962114
0.1278381 0.21623085 0.05380509 -0.12212803 0.048575606 0.029653182 0.10988422 0.023325644
-0.06821533 -0.035411164 -0.038357966 0.01948284 -0.16942075 -0.13934861 0.052070618 0.10629992
0.115887985 0.0019608906 0.11143333 -0.25615478 -0.07267068 -0.1862749 -0.21616964 0.1182459
-0.22259013 -0.031010881 -0.038282737 0.0025548965 0.16897778 -0.07611043 0.14774297 0.13538264
-0.14760911 0.049063906 -0.12458272 -0.19299701 -0.075991094 -0.044650618 -0.2475991 0.039981168
0.12561671 0.123967096 -0.18270402 0.1388047 0.042985044 -0.07921673 -0.14970407 -0.107492596
-0.1735828 -0.13767122 0.008077998 -0.15210673 0.08837635 0.025505165 0.111521006 -0.12115229
-0.09430211 -0.103993766 -0.0048293993 -0.00015863158 -0.10869327 -0.10683002 -0.010672215 0.1772276
-0.14850695 0.024242815 -0.054422297 0.11612116 -0.085032605 0.096020415 0.111610934 -0.10240052
-0.05760266 0.118325986 0.13884819 -0.3222968 0.10581237 0.09324467 0.051541965 -0.0021028852
0.051328015 -0.1809313 -0.24931026 -0.17665766 -0.13040964 0.10343513 -0.24880214 0.035031226
0.1636454 0.06592653 -0.17758544 0.048345603 -0.1090029 0.3233423 0.043541007 -0.2552147
0.14075321 0.013121165 -0.07169581 -0.0752979 -0.12601654 0.021773536 0.19509897 0.020104643
-0.11291614 -0.0482763 0.10542223 -0.05473922 0.04153708 0.009647688 0.0030030916 -0.0021211633
-0.25660676 0.11780999 0.07448265 -0.09785077 0.15971741 0.031692903 0.009219265 -0.12125724
-0.094416834 -0.08327812 0.13071051 0.11886784 -0.1435282 -0.11937729 0.035421744 -0.15636316
-0.19296409 -0.099064775 -0.17472842 0.0067317495 0.024019182 -0.19415195 -0.11537894 0.08102867
0.11294858 -0.05449322 -0.18714634 0.1303585 0.0039472436 -0.214796 -0.082769826 0.025541475
-0.13479373 0.078380845 0.065858945 0.10049153 -0.48663485 -0.03842909 -0.03304037 0.0066472194
-0.16805035 -0.1147123 -0.21440555 -0.018393816 0.07043874 -0.16418077 -0.12652788 0.084291905
-0.12311415 0.00889411 0.056352932 -0.10654736 0.056132086 -0.32655114 -0.019480411 -0.19675516
-0.107281774 0.16824698 0.09950989 0.061877135 0.14756471 0.10883818 0.011509788 0.1144202
0.13707802 -0.17381339 -0.08802702 -0.13661602 -0.03362542 -0.09452336 0.0014496893 0.11287658
0.018351391 -0.3124702 -0.1715102 -0.10111933 -0.03497168 -0.0843636 -0.0371929 -0.08532601
-0.0706466 -0.011102531 -0.03494909 0.05736073 -0.04728964 0.0028161136 -0.062089443 0.04734394
-0.2504732 -0.029416313 -0.21460669 0.091230914 -0.093328916 -0.091055766 0.12592372 0.16181758
0.03995291 0.13331664 0.15573226 0.013329797 -0.03216965 -0.12797932 -0.09957481 0.0334007
0.20711547 0.025414517 0.030730048 0.06650286 -0.14850791 -0.11683742 0.024871746 -0.14206693

fc3.bias f4 [10]
00000000: 16d5 a3bd 2b70 463d c890 b1bd 9b38 2abd
00000010: caa8 d03d 4c6a 70bd aa5e 1cbe 38ec 00bd
00000020: 7391 85bb 4f05 433d
-0.07999627 0.048446815 -0.08670193 -0.04155789 0.10188444 -0.058695123 -0.15270486 -0.031475276
-0.004076177 0.047612485
