lab2-models/hip-2-model.pth (torch, 181175 bytes, 10 tensors)

conv_block1.0.weight f4 [6, 1, 5, 5]
0	0x3da6a310	0.081365705
1	0xbcb9921a	-0.022652674
2	0xbdfc4853	-0.12318482
3	0x3c768e8b	0.015048633
4	0x3e61234e	0.21986124
5	0xbda5c060	-0.08093333
6	0xbe15b4cd	-0.14619751
7	0xbe32c787	-0.17458926
8	0xbe481d8e	-0.19542524
9	0x3e56a9b9	0.20963182
10	0xbdd16a72	-0.10225381
11	0xbdaadc86	-0.08342843
12	0xbe59a056	-0.2125257
13	0xbe229680	-0.15877724
14	0x3dd9ef8b	0.10641392
15	0xbe25f52a	-0.16206804
16	0xbe03772a	-0.12838426
17	0xbe392b29	-0.1808287
18	0x3c5508aa	0.013002554
19	0x3e49501a	0.19659463
20	0x3d32af31	0.043624107
21	0xbd38abf8	-0.045085877
22	0x3ce7d3b9	0.0282992
23	0x3d11f9ea	0.035638727
24	0x3ebfda2a	0.37471133
25	0x3dab64ba	0.083688214
26	0x3e1c3b5f	0.15257023
27	0x3e1f65b8	0.15566146
28	0xbe020bec	-0.1269986
29	0xbdba0144	-0.09082273
30	0xbcae24fb	-0.021257868
31	0x3e74ca06	0.23905191
32	0x3e0a2b12	0.13492993
33	0xbc87b013	-0.01656345
34	0xbdcc533f	-0.099768154
35	0xbce7b7b9	-0.028285848
36	0x3f16d960	0.5892544
37	0xbe3d76d4	-0.1850236
38	0xbe7ade11	-0.24498774
39	0xbde464f9	-0.111520715
40	0xbe8873a3	-0.26650724
41	0x3f19334b	0.5984389
42	0x3e32e2b0	0.17469287
43	0xbe5c921f	-0.21540116
44	0x3e59c0cc	0.21264952
45	0xbe746a08	-0.23868573
46	0x3ed12680	0.40849686
47	0x3e2c2019	0.1680912
48	0xbd1d0c07	-0.03834155
49	0x3d5497ab	0.051902454
50	0xbe0dff45	-0.13866909
51	0xbe0b6ae8	-0.13615
52	0xbd05a965	-0.03263225
53	0xbe3456fc	-0.17611307
54	0xbe4977a2	-0.19674543
55	0xbc99346c	-0.018701755
56	0x3e6e3849	0.23263659
57	0xbb9b2cc6	-0.004735562
58	0xbeb841cb	-0.35987696
59	0xbef0c060	-0.4702177
60	0x3dc24666	0.09486084
61	0x3dc9b4a8	0.098489106
62	0x3e1e7b4c	0.15476722
63	0x3e7f4a44	0.24930674
64	0xbeb0d930	-0.345407
65	0xbcae0a0f	-0.02124503
66	0x3e1d9297	0.15387951
67	0x3e8f5254	0.279925
68	0x3f071837	0.52771324
69	0x3e9126df	0.2834997
70	0xbe18dd80	-0.14928246
71	0xbe03b04f	-0.12860225
72	0xbdaf3872	-0.08555688
73	0x3d887395	0.066626705
74	0x3e9fe87f	0.31232068
75	0x3ebd5758	0.369807
76	0x3d3aa758	0.045569748
77	0xbe5e5c4e	-0.21714899
78	0xbdb26819	-0.08711261
79	0xbddd27a0	-0.107985735
80	0x3eeace97	0.4586074
81	0xbe382a51	-0.17984892
82	0xbe7faf8b	-0.24969308
83	0xbe595ed4	-0.2122758
84	0x3de093b1	0.1096567
85	0x3edbc16f	0.42921016
86	0xbd789cd2	-0.06069643
87	0xbe36b8ba	-0.17843905
88	0x3b7c1d40	0.0038469583
89	0xbe7a020a	-0.2441484
90	0x3e48f5c1	0.19624998
91	0x3e09c370	0.1345346
92	0x3da9f1c9	0.0829807
93	0x3d5c46c2	0.053778417
94	0xbe2ef6d3	-0.17086343
95	0xbe168cf2	-0.14702204
96	0x3e1a46c5	0.15066059
97	0xbd2e103c	-0.04249595
98	0x3ca60430	0.020265669
99	0x3d329f82	0.04360915
100	0x3c2ff513	0.010739583
101	0x3df78098	0.12085074
102	0xbe0b9ec8	-0.13634789
103	0xbdc3e90e	-0.09565936
104	0x3dc12776	0.09431355
105	0xbd9cd13a	-0.07657094
106	0xbe086e98	-0.13323438
107	0xbdefeb88	-0.11714846
108	0x3d8272d6	0.063695595
109	0x3eedb79f	0.46429154
110	0xbdc71c37	-0.097221784
111	0xbde2a4c6	-0.11066584
112	0x3d61f08a	0.055161037
113	0x3f0242bb	0.5088307
114	0xbd49cb0e	-0.049265914
115	0xbe918459	-0.28421286
116	0xba59b808	-0.0008305316
117	0x3ed02af9	0.40657786
118	0x3e13cdd5	0.14433987
119	0xbdf3263b	-0.11872526
120	0x3e14e7bc	0.14541525
121	0x3e7aee51	0.24504973
122	0x3ebc7617	0.36808845
123	0xbc1ac4d9	-0.009446346
124	0xbdad63b3	-0.08466282
125	0x3e98d34b	0.29848704
126	0xbdd570a8	-0.10421878
127	0xbe3e472b	-0.18581836
128	0xbe2d8c0a	-0.16947952
129	0xbe15fc2f	-0.14646982
130	0x3cd22dd4	0.025656618
131	0xbe571786	-0.21005067
132	0xbe522d0b	-0.20524995
133	0x3cfceae2	0.03087372
134	0x3e63df2f	0.22253107
135	0x3d9ec50b	0.07752427
136	0xbd4ded68	-0.050275236
137	0x3edca549	0.43094853
138	0x3f039f66	0.514151
139	0x3e8853ea	0.2662652
140	0x3e9736fb	0.29534134
141	0x3e5176b0	0.20455432
142	0x3e7fa2a6	0.24964389
143	0xbdf28ff3	-0.118438624
144	0xbe4d31d4	-0.20038539
145	0xbcd283fb	-0.025697699
146	0xbe554685	-0.20827682
147	0xbe80e2b2	-0.25172955
148	0xbeabec20	-0.33578587
149	0xbc1a6438	-0.009423308

conv_block1.0.bias f4 [6]
0	0xbd8833b4	-0.066504866
1	0xbe8d3897	-0.27582237
2	0x3dd878ac	0.10569891
3	0xbd4b7bec	-0.049678728
4	0xbd21241f	-0.03934109
5	0x3bf51676	0.007479484

conv_block2.0.weight f4 [16, 6, 5, 5]
0	0xbe0430ea	-0.12909284
1	0xbdeb897a	-0.11500831
2	0xbd4b74a8	-0.0496718
3	0xbd9cfe63	-0.07665708
4	0xbdb98f20	-0.09060502
5	0xbdff9337	-0.12479251
6	0xbaf335d9	-0.0018555477
7	0xbd6c6f7a	-0.0577235
8	0xbd54b24f	-0.05192786
9	0xbce76fb5	-0.028251508
10	0xbc8ee314	-0.017442264
11	0xbd1871b3	-0.037217807
12	0xbd34973c	-0.04408954
13	0xbe100a19	-0.14066352
14	0xbd0bd73c	-0.03414081
15	0xbdb5b20b	-0.088718496
16	0xbdd49709	-0.1038037
17	0xbdf67651	-0.12034286
18	0xbd45cd93	-0.048291754
19	0xbdea5a50	-0.11443007
20	0xbcbed416	-0.02329449
21	0xbdd7b6b6	-0.10532896
22	0x3c25e113	0.010124463
23	0xbdeb8998	-0.11500853
24	0x3c291160	0.010319084
25	0x3c9d2e37	0.019187076
26	0x3c8813b2	0.016610954
27	0xbdb42a1d	-0.08797095
28	0xbd9b6dd0	-0.075893044
29	0xbcb53e22	-0.022124354
30	0xbd29b03c	-0.041427836
31	0x3c82421c	0.015900664
32	0xbcbc3b7f	-0.022977589
33	0xbd241bf9	-0.04006574
34	0xbdbab07b	-0.09115692
35	0xbe0a8339	-0.1352662
36	0xbaad5d0b	-0.0013226582
37	0xbc2b0ef9	-0.0104405815
38	0xbc8bf896	-0.017086308
39	0xbe05093d	-0.12991805
40	0xbe03bba6	-0.12864551
41	0xbdf53c0f	-0.11974346
42	0xbd466a6f	-0.048441347
43	0xbd80538d	-0.06265936
44	0xbdb530fa	-0.08847232
45	0xbdf77dab	-0.12084516
46	0xbd73b4df	-0.059498664
47	0xbe0d68fd	-0.13809581
48	0xbc12a803	-0.00895119
49	0x3c410693	0.011781353
50	0xbd2b1edb	-0.041777473
51	0xbdc15241	-0.09439517
52	0xbd964e0b	-0.07339104
53	0xbdf1754d	-0.117899515
54	0x3c808b80	0.015691519
55	0xbd47376e	-0.048636846
56	0xbdb6b765	-0.089216985
57	0xbdd04203	-0.10168841
58	0xbe0c4d9a	-0.13701478
59	0xbd4fc60b	-0.050725978
60	0x3b0a5b0c	0.0021111397
61	0xbbb64f86	-0.005563679
62	0xbd61a551	-0.0550893
63	0x3be560a9	0.007000048
64	0xbd75e171	-0.06002945
65	0xbd829d00	-0.063776016
66	0xbcf11a11	-0.029431375
67	0x3bc5ac6e	0.006032518
68	0xbd8e51a2	-0.06949164
69	0xbdea16e7	-0.114301495
70	0xbde09c45	-0.10967306
71	0xbd6d75de	-0.057973735
72	0xbd090367	-0.03345051
73	0xbd81fcbc	-0.063470334
74	0x3cac65a1	0.021044554
75	0xbc531d2d	-0.012885374
76	0x3ca9a2a5	0.020707438
77	0xbd5a8fd6	-0.05335983
78	0xbe0e4f9f	-0.1389756
79	0xbe0285df	-0.1274638
80	0xbd865499	-0.065591045
81	0x3c5650c3	0.0130807785
82	0xbdd708a6	-0.104996964
83	0xbc6940b5	-0.014236619
84	0xbd978a70	-0.07399452
85	0xbdff3b8f	-0.12462532
86	0xbd38855c	-0.045049056
87	0xbcbeb835	-0.023281196
88	0xbd9f32b9	-0.077733465
89	0xbd8dad46	-0.06917815
90	0x3ada2d80	0.001664564
91	0x3c3d812d	0.011566442
92	0xbc15e982	-0.009149911
93	0xbd3faec7	-0.04679754
94	0xbda5b45f	-0.08091044
95	0x3c071ed2	0.008247094
96	0xbe07eafa	-0.1327323
97	0xbd96dd04	-0.07366374
98	0xbda4d302	-0.08048059
99	0xbe07e3ec	-0.13270539
100	0xbda824d2	-0.08210148
101	0x3c4b06ee	0.012391789
102	0xbb66e1e0	-0.0035229847
103	0xbd871541	-0.06595851
104	0xbe09b755	-0.13448842
105	0xbe0eb98f	-0.13937972
106	0xbd9a75ec	-0.07542023
107	0xbdcc1fa1	-0.0996697
108	0xbd35b4c3	-0.04436184
109	0xbd0be9b9	-0.034158442
110	0xbe023d3b	-0.1271867
111	0xbc46a944	-0.012125317
112	0xbb097666	-0.0020975112
113	0xbd80f6ab	-0.06297048
114	0xbd6d9ae7	-0.058009055
115	0xbcf5e842	-0.030017976
116	0xbcadd97d	-0.02122187
117	0xbd9499b9	-0.07255883
118	0xbd7f7345	-0.06236579
119	0xbd31b556	-0.043385826
120	0xbd029ffc	-0.031890854
121	0xbd03a695	-0.032141287
122	0xbe0861a4	-0.13318497
123	0xbd219a1a	-0.039453603
124	0xbdb0df5a	-0.08636351
125	0xbdc9929f	-0.09842419
126	0xbb90ef6d	-0.004423073
127	0xbd83be5b	-0.06432792
128	0xb99aed42	-0.0002954994
129	0xbe0142a6	-0.1262308
130	0xbd9e0859	-0.07716436
131	0xbdc0dd57	-0.09417217
132	0xbe026bb5	-0.127364
133	0xbcb7b966	-0.022427272
134	0xbca5eb21	-0.02025372
135	0xbdf7ffce	-0.12109338
136	0xbd8ffe25	-0.07030896
137	0xbd8331a6	-0.06405954
138	0x3c79dbaf	0.015250131
139	0xbe105185	-0.14093597
140	0xbdeeba36	-0.11656611
141	0x3c8983e4	0.016786523
142	0xbdf6f08c	-0.120575994
143	0xbdb37855	-0.08763186
144	0xbde5a240	-0.11212587
145	0xbd7106c5	-0.058844347
146	0xbd844435	-0.06458322
147	0xbdadc769	-0.084853
148	0xbd190e98	-0.037367433
149	0xbbf2d67b	-0.007410822
150	0xbd4bbca4	-0.04974045
151	0xbcc1fe67	-0.023680879
152	0xbdfcc389	-0.12341983
153	0xbad9a22a	-0.0016604115
154	0xbdd1cc92	-0.10244097
155	0x3cc71e7b	0.024306526
156	0xbe040707	-0.12893306
157	0xbe01f064	-0.12689358
158	0xbdd9e28b	-0.10638913
159	0xbe080bfc	-0.13285822
160	0x3deb9a2c	0.11504015
161	0xbe837886	-0.2567789
162	0xbe590349	-0.2119266
163	0xbd8ce293	-0.06879153
164	0xbdc0f7e0	-0.094222784
165	0x3e128eed	0.14312334
166	0xbe87c81b	-0.26519856
167	0xbe1c4496	-0.15260538
168	0xbd5e5b88	-0.05428651
169	0xbd93c26d	-0.07214818
170	0x3dfa5a1b	0.122242175
171	0xbdb0be99	-0.086301036
172	0x3ca2637b	0.019822827
173	0xbd91635b	-0.07099029
174	0xbd8a385a	-0.067490295
175	0x3e717977	0.23581491
176	0x3d1903af	0.03735703
177	0xbe065da1	-0.13121654
178	0xbe42a187	-0.1900693
179	0xbd9f692f	-0.07783734
180	0x3e2bb45b	0.16768019
181	0x3eac3573	0.3363453
182	0x3d1063b4	0.035251334
183	0x3e0d1ed8	0.13781297
184	0x3d9ba731	0.076002486
185	0xbe868b5a	-0.26278192
186	0x3eb15657	0.34636185
187	0x3ea736cd	0.32658997
188	0x3d93b41d	0.07212088
189	0x39465cf3	0.00018917378
190	0xbf1022e2	-0.56303227
191	0x3e9cac03	0.30599985
192	0x3c6b990a	0.014379749
193	0xbe4dcd32	-0.20097807
194	0x3d6c25bc	0.057653174
195	0xbee343cd	-0.44387665
196	0x3d09dbaf	0.033656772
197	0xbba56fbe	-0.005048721
198	0xbd625650	-0.055258095
199	0x3d9e9873	0.07743921
200	0x3e0b3f51	0.13598372
201	0x3d097622	0.033559926
202	0x3da2f374	0.07956591
203	0x3e065196	0.1311706
204	0x3dae6d4f	0.08516943
205	0x3bb6de78	0.0055807196
206	0xbd6200b8	-0.055176467
207	0x3a30c1ab	0.0006742726
208	0x3d7bb09b	0.06144772
209	0xbc7d355e	-0.015454618
210	0xbe09cb32	-0.13456419
211	0x3e3c1513	0.18367414
212	0x3da4bfd0	0.08044398
213	0xbd5143f6	-0.051090203
214	0xbd52674f	-0.051368054
215	0xbe4e69fd	-0.20157619
216	0x3eb058eb	0.3444284
217	0x3e269614	0.16268188
218	0x3d927b58	0.07152432
219	0xbcf4e0c5	-0.029892335
220	0xbe0c12c9	-0.13679041
221	0x3da998a9	0.08281071
222	0xbdb03e8b	-0.08605679
223	0xbe33fea0	-0.175776
224	0xbe567e19	-0.2094654
225	0x3e0668da	0.13125935
226	0xbd19adbb	-0.037519198
227	0xbe48c094	-0.19604713
228	0xbc81ee1a	-0.015860606
229	0x3c30666e	0.010766609
230	0xbcbd243c	-0.023088567
231	0x3df199b5	0.117968954
232	0x3d851ff2	0.06500234
233	0xbaaf402c	-0.0013370565
234	0x3d17e462	0.037083037
235	0x3e43ed71	0.19133545
236	0x3e9e2060	0.30884075
237	0x3e891f9c	0.2678193
238	0x3c1480d1	0.009063915
239	0x3df1d7d7	0.11808746
240	0x3df871db	0.12131091
241	0x3c84b99c	0.016201787
242	0x3e990c01	0.2989197
243	0x3c295880	0.010336041
244	0x3e024987	0.12723361
245	0x3d0cf999	0.034417722
246	0xbe606244	-0.21912485
247	0x3cfcd5da	0.030863691
248	0xbe3448ac	-0.17605847
249	0xbd6d9a15	-0.058008272
250	0x3c9a9dd9	0.018874096
251	0x3e201431	0.15632702
252	0x3dcce336	0.100042745
253	0xbda410fb	-0.08011051
254	0xbd809e5e	-0.06280206
255	0xbdc5ae0b	-0.09652337

conv_block2.0.bias f4 [16]
0	0xbd86f9ef	-0.0659064
1	0xbd8c0861	-0.06837536
2	0x3d227e1f	0.03967106
3	0xbcb0061c	-0.021487288
4	0x3d6862bd	0.05673479
5	0xbd8b61d8	-0.068057716
6	0xbcb5b341	-0.022180201
7	0xbd85430e	-0.0650693
8	0xbda32de6	-0.07967739
9	0xbc6968ee	-0.014246209
10	0xbd1c2b98	-0.03812751
11	0x3d241a3f	0.040064093
12	0x3d946c3f	0.07247209
13	0x3d4402ea	0.04785434
14	0x3d2544c7	0.040348794
15	0xbdc9acdb	-0.09847423

fc1.weight f4 [120, 256]
0	0xbc401795	-0.011724372
1	0x3c88898d	0.016667152
2	0xbd97bb0a	-0.07408722
3	0x3d2bf735	0.041983802
4	0x3da6bda3	0.08141639
5	0x3ca35c10	0.01994136
6	0x3dd5b7ea	0.104354694
7	0xbc8b3750	-0.016994148
8	0x3dd6c175	0.10486118
9	0xbcdc86fa	-0.02691983
10	0xb8988111	-7.271965e-05
11	0x3c4ab945	0.012373273
12	0x3d537de8	0.051633745
13	0x3dd8f825	0.10594205
14	0x3d85087b	0.06495758
15	0x3d9e260d	0.07722101
16	0xbc12c732	-0.008958625
17	0xbdbcc71a	-0.09217663
18	0xbde1d1bf	-0.11026334
19	0xbd6eca20	-0.05829823
20	0x3d6aa449	0.05728558
21	0xbc858966	-0.016300868
22	0xbde35efe	-0.11102103
23	0xbdacacf4	-0.08431426
24	0x3d58ef38	0.05296251
25	0x3e2ee74a	0.17080417
26	0xbd1cdf56	-0.038298927
27	0x3d8aeacb	0.067830645
28	0x3aa3b4ed	0.0012489833
29	0xbc6a0d61	-0.014285416
30	0xbde4da96	-0.111745045
31	0xbb8e2321	-0.004337684
32	0xbd1fdc6f	-0.03902858
33	0xbd0c2522	-0.0342151
34	0xbdae1422	-0.08499934
35	0xbe400606	-0.18752298
36	0x3d357d28	0.04430881
37	0xbe01b143	-0.12665276
38	0xbddf7dd0	-0.10912669
39	0xbdbe9cbf	-0.09307241
40	0xbc9a22e8	-0.018815473
41	0x3d61d414	0.055133894
42	0x3de26d8a	0.11056049
43	0x3ddc2326	0.107488915
44	0xbd8b31c4	-0.067966014
45	0x3cb69263	0.0222866
46	0xbdde0a09	-0.10841758
47	0x3d52d6c9	0.051474366
48	0xbdc58fe8	-0.096465886
49	0xbe1df396	-0.15424952
50	0xbe294f2c	-0.16534108
51	0x3dab9647	0.083782725
52	0xbd87afab	-0.06625303
53	0x3d4c2571	0.049840394
54	0xbe4035c1	-0.18770505
55	0xbe03cae5	-0.12870367
56	0x3d8d7719	0.06907482
57	0x3d667a6f	0.056269106
58	0x3d7fb6bf	0.06243014
59	0x3c786eec	0.015163165
60	0xbdf8dd4d	-0.12151585
61	0x3d9ae290	0.075627446
62	0x3db0c655	0.08631579
63	0xbdefb574	-0.11704531
64	0x3e8ad836	0.2711808
65	0x3ef01432	0.46890408
66	0x3e03ba1a	0.12863961
67	0xbd1af786	-0.037833713
68	0x3dde2347	0.10846572
69	0xbe2af55e	-0.16695163
70	0xbb10e5ac	-0.0022109551
71	0xbe23ce1f	-0.15996598
72	0xbe082746	-0.13296232
73	0xbdaa5488	-0.08316904
74	0xbcece242	-0.028916482
75	0x3c939898	0.018017098
76	0xbc523046	-0.012828892
77	0xbe52e389	-0.2059461
78	0xbd9995b1	-0.074992545
79	0x3d329de5	0.04360761
80	0xbda97fd1	-0.08276332
81	0xbc12e39f	-0.008965402
82	0xbce73533	-0.02822361
83	0x3e11718d	0.14203472
84	0x3d1c666a	0.038183607
85	0x3db801a2	0.089846864
86	0xbdabcf95	-0.083892025
87	0x3db9962d	0.09061847
88	0xbd19d40a	-0.03755573
89	0x3df02364	0.117255
90	0x3d97a8fb	0.07405277
91	0xbe21bdf6	-0.1579512
92	0x3d99e87d	0.07515047
93	0x39ddd9ac	0.00042314583
94	0xbde99ca6	-0.114068314
95	0xbe365261	-0.17804863
96	0xbda33645	-0.079693355
97	0xbddec384	-0.108771354
98	0xbdc629b2	-0.096759215
99	0xbe0b5479	-0.13606443
100	0x3dad0807	0.08448797
101	0x3cf57afe	0.029965874
102	0x3a1f7f2a	0.00060843176
103	0x3dba0e5c	0.0908477
104	0x3d4d6969	0.050149355
105	0xbd1a0927	-0.037606385
106	0x3caa961e	0.020823535
107	0xbe2d9fce	-0.16955492
108	0xbd0feaef	-0.03513616
109	0x3c920d02	0.017828468
110	0xbd597513	-0.053090166
111	0xbea05a3a	-0.31318837
112	0x3da36e12	0.079799786
113	0x3dabe69e	0.08393596
114	0x3ccc60bf	0.024948476
115	0x3d09076e	0.03345435
116	0x3cd4988b	0.025951644
117	0x3daf8fe7	0.08572369
118	0xbd78d419	-0.060749147
119	0x3d8b17a9	0.06791622
120	0x3d9de7c9	0.07710225
121	0xbc12372a	-0.008924285
122	0x3d824fa6	0.06362848
123	0x3d36c2e5	0.04461946
124	0x3d4b01c0	0.049562216
125	0xbc82b960	-0.015957534
126	0x399fb3e3	0.0003046087
127	0x3d5bdb82	0.053676136
128	0xbd66be4c	-0.056333825
129	0x3ce2e79f	0.027698336
130	0x3d5862e2	0.052828677
131	0x3d6511ee	0.055925302
132	0xbda6a43d	-0.08136795
133	0x3a34ba52	0.0006894219
134	0x3b20ce48	0.0024537016
135	0x3db84f83	0.08999541
136	0x3de44c84	0.11147407
137	0x3c82d52a	0.015970785
138	0xbaf4c515	-0.0018674458
139	0xbdd884c9	-0.10572202
140	0x3d3b68de	0.045754306
141	0x3cf54301	0.029939177
142	0xbdd4a4ec	-0.10383019
143	0xbd3a79b4	-0.04552622
144	0xbda75832	-0.08171119
145	0x3e62550b	0.22102754
146	0xbdd403f4	-0.103523165
147	0x3dc23ce9	0.09484274
148	0x3e403a53	0.18772249
149	0xbe24d393	-0.16096334
150	0xbeb36fcd	-0.35046235
151	0x3d5910d1	0.052994553
152	0x3e8803ff	0.2656555
153	0xbcc2e5c8	-0.023791209
154	0x3ebb57f5	0.36590543
155	0xbe439729	-0.19100632
156	0x3dbb6831	0.09150732
157	0xbe0fab79	-0.14030255
158	0xbe157c7f	-0.14598273
159	0xbd36ecff	-0.04465961
160	0xbe488ca4	-0.195849
161	0xbe885782	-0.26629263
162	0x3c7e2a6d	0.015513045
163	0x3e47719e	0.19476935
164	0xbe57d084	-0.21075636
165	0xbdc55667	-0.096356206
166	0x3d4f04f6	0.05054184
167	0x3e07e5a2	0.13271192
168	0xbe2b0746	-0.16701993
169	0x3c8daf1b	0.01729541
170	0x3e270f1d	0.16314359
171	0xbe3e0dbf	-0.18559931
172	0x3e0f0016	0.13964877
173	0x3d9a647e	0.075386986
174	0x3ca25a52	0.019818459
175	0xbdbfe8c8	-0.093705714
176	0xbe6a0f92	-0.22857502
177	0xbe65b5a9	-0.22432579
178	0xbda34830	-0.07972753
179	0xbbbbf73c	-0.0057362597
180	0xbe1ff86b	-0.15622108
181	0xbd6275ac	-0.055288002
182	0x3c388d0d	0.011264098
183	0xbd18825e	-0.037233703
184	0x3d1aac79	0.03776214
185	0x3b329db8	0.0027254652
186	0x3da0b867	0.07847672
187	0xbcdb4371	-0.026765557
188	0x3dc188e5	0.09449939
189	0x3df3f074	0.11911097
190	0xbd51a12a	-0.05117909
191	0xbe1e2b2e	-0.15446159
192	0x3ecf981b	0.40545735
193	0x3e8f40c8	0.27979112
194	0x3ec18f80	0.37804794
195	0xbc91d991	-0.017803939
196	0x3e90523f	0.2818775
197	0x3ee779c7	0.45210096
198	0x3e12e901	0.14346696
199	0x3dd9a376	0.10626881
200	0xbc993b51	-0.018705042
201	0x3e1d24a5	0.1534601
202	0xbe50f257	-0.20404945
203	0xbdf6c883	-0.12049963
204	0xbd0ea149	-0.034821782
205	0xbd956e18	-0.07296389
206	0x3e78cfc6	0.2429801
207	0x3e001ce9	0.12511028
208	0xbc74acb6	-0.014933756
209	0xbd8de1e2	-0.06927849
210	0xbd8c34dc	-0.068460196
211	0xbd62c86e	-0.055366926
212	0xbec88b0b	-0.3916858
213	0x3decf2f9	0.11569781
214	0x3eb3c0eb	0.35108122
215	0x3ea38f6f	0.3194537
216	0x3e569b8a	0.20957771
217	0x3d86af3f	0.06576394
218	0x3d6eaf1e	0.058272474
219	0xbdbc6207	-0.09198385
220	0x3d4bed9e	0.049787156
221	0x3cdd15b5	0.02698789
222	0x3d8608d1	0.0654465
223	0xbef21d62	-0.47288042
224	0xbd7b332f	-0.06132811
225	0xbe0c3998	-0.13693845
226	0xbc0b408e	-0.008499278
227	0xbe3e18d2	-0.18564156
228	0xbe4273b1	-0.18989445
229	0xbe5177fa	-0.20455924
230	0xbde9be22	-0.11413218
231	0xbd4f931b	-0.0506774
232	0x3ccc7ed1	0.024962815
233	0x3d6a2aba	0.057169653
234	0xbd5d9f54	-0.054107025
235	0xbd5a88ab	-0.053352993
236	0x3d9cee79	0.076626725
237	0x3e0aa808	0.13540661
238	0x3c3e8513	0.011628407
239	0x3ba768d7	0.0051089334
240	0x3dddfc16	0.10839097
241	0xbcc3bf40	-0.023894906
242	0x3df16084	0.11785987
243	0x3c953d0d	0.018217588
244	0x3e115ab3	0.14194755
245	0x3e013420	0.1261754
246	0xbd7c1f71	-0.061553422
247	0xbdd94f46	-0.10610823
248	0x3de05de7	0.109554105
249	0xbd274c38	-0.040844172
250	0xbdcd81b8	-0.100345075
251	0x3cc1e974	0.02367089
252	0x3bfdafb1	0.0077418913
253	0xbe13b42b	-0.14424197
254	0x3d8ef244	0.06979802
255	0x3d772e17	0.06034669

fc1.bias f4 [120]
0	0x3d1f79be	0.03893446
1	0xbd0fbdfd	-0.035093296
2	0x3d2ad30c	0.041705176
3	0xbdbd30cb	-0.09237822
4	0xbccfa715	-0.025348226
5	0xbb8b1c9a	-0.004245353
6	0x3cb07d8d	0.021544242
7	0x3c98384e	0.018581536
8	0xbc10c032	-0.008834885
9	0x3d29a577	0.041417565
10	0xbd3d9d30	-0.046292484
11	0x3d932ac8	0.07185894
12	0xbc1646c1	-0.0091721425
13	0xbda40a3a	-0.08009763
14	0xbdaf2cee	-0.085534915
15	0xbd6fa5a9	-0.058507595
16	0xbc85c4f8	-0.016329274
17	0xbd727d0b	-0.05920128
18	0xbdb76408	-0.08954626
19	0xbd201513	-0.039082598
20	0xbdaba01f	-0.0838015
21	0xbdb1eb2e	-0.08687435
22	0x3d8b11c2	0.067904964
23	0xbdc6467d	-0.09681413
24	0x3d57417a	0.052552678
25	0x3d119269	0.03554002
26	0x3ca8e406	0.020616543
27	0x3b3b2a9e	0.0028559337
28	0xbe044962	-0.12918618
29	0xbd63f48b	-0.055653136
30	0xbc93a100	-0.018021107
31	0xbd8d4d0a	-0.0689946
32	0xbd99ddf6	-0.07513039
33	0xbd94b594	-0.07261196
34	0xbd19fe29	-0.0375959
35	0xbca49c55	-0.020094076
36	0xbdc919c3	-0.09819367
37	0xbde07776	-0.10960285
38	0xbdc8aafc	-0.09798238
39	0xbcac994b	-0.02106919
40	0x3daca1e0	0.08429313
41	0xbd831aef	-0.064016216
42	0xbd8a7963	-0.06761434
43	0xbd94587c	-0.072434396
44	0xbd308055	-0.043091137
45	0xbc0069a2	-0.007837685
46	0x3d1d9016	0.03846749
47	0x3db933f6	0.09043114
48	0xbd240bb6	-0.04005023
49	0xbdad7415	-0.084694065
50	0xbd77c343	-0.06048895
51	0x3d7916f9	0.060812924
52	0x3d6698ad	0.056297947
53	0xbd2f4179	-0.04278705
54	0x3883547d	6.262304e-05
55	0x3d648aa0	0.055796266
56	0x3ce48623	0.027895993
57	0x3d4ca3a0	0.049960732
58	0x3d24a468	0.040195853
59	0xbcf31a39	-0.02967559
60	0x3d2d533d	0.04231571
61	0xbde2ce84	-0.11074546
62	0xbde0e9e5	-0.10982112
63	0x3d552324	0.052035466
64	0x3c4f2f15	0.012645503
65	0xbcf774be	-0.030207034
66	0xbd864dfd	-0.06557844
67	0xbdf07534	-0.11741105
68	0x3d36219d	0.04446565
69	0xbd1bd5c3	-0.038045656
70	0xbdf15908	-0.117845595
71	0xbaa83c2d	-0.0012835317
72	0xbc5697b5	-0.013097693
73	0xbb5fdef3	-0.0034159988
74	0x3d8397fe	0.064254746
75	0x3d940ccd	0.07229004
76	0xbd88ed02	-0.06685831
77	0x3a631e9d	0.00086639245
78	0xbdab54eb	-0.08365806
79	0xbdaa8d9c	-0.08327791
80	0xbc6cc612	-0.0144515205
81	0x3db582ed	0.08862863
82	0xbc86eb27	-0.016469551
83	0x3d90da9e	0.07072948
84	0xbbbe86ed	-0.0058144243
85	0xbd014810	-0.031562865
86	0xbbf4a954	-0.0074664745
87	0xbdf7b16c	-0.120943874
88	0xbd649ea8	-0.05581537
89	0x3dae19e8	0.08501035
90	0xbda2812f	-0.07934796
91	0xbdfb80eb	-0.122804485
92	0xbbec961e	-0.007220044
93	0xbd363496	-0.044483744
94	0xbc642a10	-0.013926044
95	0x3cc5e129	0.024155216
96	0x3c021f98	0.007942103
97	0xbd36a63e	-0.044592135
98	0x3c24f6a1	0.010068567
99	0x3d9c5e0e	0.07635127
100	0x3d918bdb	0.071067534
101	0x3d887d92	0.06664576
102	0x3d8cf820	0.068832636
103	0x3cc78b14	0.02435831
104	0xbe1a6a05	-0.15079506
105	0x3d0ca385	0.034335632
106	0x3cfbcdfa	0.030737866
107	0x3ceb47b9	0.028720723
108	0xbdd5d5a9	-0.10441143
109	0x3e00aa99	0.12565078
110	0xbdc705a2	-0.09717871
111	0x3c59df0b	0.0132978065
112	0x3da7e217	0.0819742
113	0x3db1d03a	0.08682294
114	0xbd37aa6d	-0.044840265
115	0xbd8154a8	-0.06314975
116	0x3cf5f54c	0.030024193
117	0xbcbd2590	-0.0230892
118	0xbdbf0c0a	-0.09328468
119	0x3dbfcfcb	0.09365805

fc2.weight f4 [84, 120]
0	0xbc52a102	-0.01285577
1	0x3c30ec5d	0.010798541
2	0x3d39cc5b	0.045360904
3	0xbd8e3efc	-0.06945607
4	0x3e1086b2	0.14113882
5	0xbd5bff84	-0.053710476
6	0x3dc65ee4	0.09686068
7	0x3c67b6db	0.014142717
8	0x3df8a7d7	0.12141388
9	0x3e6f7962	0.23386148
10	0x3e3a4b58	0.18192804
11	0xbc4b654f	-0.012414291
12	0xbd8c0b49	-0.0683809
13	0x3e03dc36	0.12876973
14	0x3d835f84	0.064147025
15	0xbbe61554	-0.0070215855
16	0xbd697974	-0.057000592
17	0x3c502b69	0.012705662
18	0xbdb3b45a	-0.08774634
19	0xbd77b6ca	-0.060477056
20	0xbdd2f632	-0.10300864
21	0x3d1aef0b	0.037825625
22	0x3d47a1b2	0.04873819
23	0x3dca7c30	0.09886968
24	0xbe560fb3	-0.20904426
25	0xbe5c4bb4	-0.21513253
26	0xbc7ca483	-0.015420082
27	0x3cc5b7ce	0.024135496
28	0xbcf91913	-0.030407464
29	0x3d68989c	0.056786165
30	0x3da5b389	0.08090884
31	0x3ef35031	0.4752212
32	0x3d0552d5	0.032549698
33	0x3d938074	0.07202235
34	0xbde2b551	-0.110697396
35	0x3dc1b369	0.09458048
36	0xbb949d2b	-0.0045353374
37	0x3c6633dd	0.014050451
38	0xbdc8baaf	-0.09801232
39	0xbcbbe76d	-0.0229375
40	0xbd83699d	-0.064166285
41	0x3cfefe23	0.031127041
42	0x3b7d706c	0.0038671745
43	0x3d07ee77	0.033186402
44	0x3df03722	0.11729266
45	0x3d814963	0.063128255
46	0x3e3f4197	0.18677364
47	0xbd193319	-0.037402246
48	0x3d69ada1	0.05705035
49	0x3d1bbdfe	0.038022988
50	0x3cf09176	0.029366236
51	0x3db3ba02	0.087757125
52	0xbdd6a0b7	-0.10479873
53	0xbd9232df	-0.07138609
54	0x3de19bff	0.11016082
55	0x3cfb8ec3	0.030707723
56	0xbd6f6612	-0.05844695
57	0xbcbf7e7d	-0.023375744
58	0x3db184cd	0.08667908
59	0xbb8e5acf	-0.0043443213
60	0x3d8e93e5	0.069618024
61	0x3c94ea0b	0.018178007
62	0x3d43f245	0.047838468
63	0x3cc09e2e	0.023512926
64	0x3e204bf5	0.15653975
65	0xbcaa458a	-0.020785112
66	0x3e7245d0	0.23659444
67	0x3db01ae3	0.08598878
68	0xbd669a16	-0.05629929
69	0xbe251d78	-0.16124523
70	0xbd6b6053	-0.05746491
71	0x3dedec56	0.11617343
72	0xbcc97d04	-0.024595745
73	0x3d89f76a	0.067366436
74	0xbc85eca1	-0.016348185
75	0x3d53bed8	0.051695675
76	0xbd840fde	-0.06448339
77	0x3dd15280	0.10220814
78	0x3d82d130	0.063875556
79	0x3d4b5c5e	0.049648635
80	0xbcb57385	-0.02214981
81	0x3d93b051	0.07211364
82	0x3e1d0f0c	0.15337771
83	0x3d7de649	0.061987195
84	0x3d539f07	0.051665332
85	0x3d5aba50	0.053400338
86	0x3d346fda	0.044051982
87	0xba9d9a57	-0.0012024146
88	0xbcbabc57	-0.022794886
89	0xbc999983	-0.018749958
90	0xbe0aceaa	-0.13555399
91	0x3d8b4286	0.06799798
92	0x3e017852	0.12643555
93	0xbc1939b6	-0.009352138
94	0x3dea74cc	0.114480585
95	0x3dd736e8	0.105085194
96	0x3c2bbbea	0.010481814
97	0xbdf05194	-0.1173431
98	0x3d8d0dd3	0.068874024
99	0x3cb3c14b	0.021942755
100	0x3d035cb3	0.032070827
101	0x3df66b69	0.120322056
102	0x3d9b830a	0.07593353
103	0x3cfbbbe7	0.030729247
104	0xbdd088af	-0.1018232
105	0x3e200bc5	0.1562949
106	0x3d3b2db4	0.045697883
107	0x3dec3b72	0.11534776
108	0x3d199303	0.037493717
109	0x3e5aeccb	0.21379392
110	0xbd297d70	-0.041379392
111	0xbd99f6f5	-0.075178064
112	0xbb2b75da	-0.0026162774
113	0x3e004a2e	0.12528297
114	0x3e18f532	0.14937285
115	0x3cb6b30d	0.022302175
116	0xbe07b5b3	-0.13252907
117	0xbc94414f	-0.018097548
118	0xbcd5beda	-0.026091982
119	0xbd14a3e7	-0.036289122
120	0xbcfa4eb9	-0.030555116
121	0x3dbcbed6	0.092160866
122	0x3d829000	0.06375122
123	0xbca5dc3a	-0.020246614
124	0x3cc17cf4	0.023619153
125	0xbca7b01f	-0.020469723
126	0x3d03ce9a	0.032179452
127	0x3d5888d7	0.052864876
128	0xbdb31c13	-0.08745589
129	0x3de439db	0.111438476
130	0x3e358e42	0.17730048
131	0x3cd37b88	0.02581574
132	0xbcbbf21d	-0.022942597
133	0xbdb41129	-0.087923355
134	0xbcfbc5f4	-0.03073404
135	0x3dc20b1c	0.09474775
136	0x3d6d6db8	0.057965964
137	0x3c72e2be	0.014824567
138	0x3e03c7eb	0.12869231
139	0x3d15ea7d	0.03660058
140	0xbc8765ff	-0.016528128
141	0xbaa52d31	-0.0012601969
142	0xbe0df15b	-0.13861601
143	0xbdbf7367	-0.09348183
144	0x3cb508c2	0.022098903
145	0x3e5121e8	0.2042309
146	0x3ca034f5	0.019556502
147	0xbd91e647	-0.07124
148	0x3d8d56c8	0.06901318
149	0x3e105d69	0.14098133
150	0xbdf27ee0	-0.11840606
151	0xbe5c9b8d	-0.21543713
152	0x3d99ee34	0.07516137
153	0xbd3da9be	-0.046304457
154	0x3d8de272	0.06927957
155	0xbb8198fe	-0.0039550057
156	0x3c3daf16	0.011577388
157	0x3d12ae14	0.035810545
158	0x3bcf180f	0.0063200067
159	0xbda2c724	-0.07948139
160	0x3e2b0e51	0.1670468
161	0xbb93ce7d	-0.0045106993
162	0xbd81f649	-0.06345803
163	0xbddc0935	-0.107439436
164	0xbc9f572c	-0.019450746
165	0x3b9f8049	0.0048675877
166	0x3e4275ee	0.18990299
167	0x3dd4037c	0.10352227
168	0x3d05150a	0.032490768
169	0x3c93cd23	0.018042153
170	0x3df2e6a1	0.11860395
171	0x3e0d2665	0.13784178
172	0x3d842552	0.06452431
173	0x3d9c3616	0.076275036
174	0x3dbc7a00	0.09202957
175	0x3cf638ae	0.030056324
176	0x3d0203a0	0.03174174
177	0x3c86da65	0.01646156
178	0xbd4702a0	-0.048586488
179	0xbd967522	-0.0734656
180	0x3d686139	0.056733344
181	0x3d5290e3	0.051407706
182	0xbc04f931	-0.0081160525
183	0x3cc48103	0.023987299
184	0x3d54d243	0.051958334
185	0x3cb4b33d	0.022058124
186	0xbde7f01c	-0.11325094
187	0xbc6f67bc	-0.014612135
188	0xbdc60792	-0.09669413
189	0x3d5eec3d	0.054424513
190	0x3d23227b	0.039827805
191	0xbcefbdd8	-0.02926533
192	0x3dad0db5	0.0844988
193	0xbd8d8aa1	-0.06911207
194	0x3c255648	0.010091372
195	0x3cbe4832	0.023227785
196	0x3e40758a	0.18794838
197	0x3d81a1c2	0.06329681
198	0xbcfa1a82	-0.030530218
199	0xbd923877	-0.07139676
200	0x3d736742	0.059424646
201	0x3de10ced	0.109887935
202	0xbd20be58	-0.039244026
203	0xbd12758c	-0.035756633
204	0xbe05d3ef	-0.13069128
205	0xbdd1835b	-0.10230132
206	0xbc8acbc6	-0.01694287
207	0x3cf28ac7	0.02960719
208	0xbda4c99a	-0.08046265
209	0x3dced61c	0.10099432
210	0xbc061d5f	-0.008185714
211	0x389f99ee	7.6103825e-05
212	0xbdb2a969	-0.08723719
213	0xbd41e0a2	-0.047333367
214	0xbddbecb5	-0.10738508
215	0xbd2e6836	-0.042579852
216	0x3c33eb09	0.01098133
217	0x3dc99f17	0.09844797
218	0xbce760d7	-0.028244419
219	0x3dc3b6bb	0.095563374
220	0x3d032e71	0.03202671
221	0x3ddb8e8e	0.107205495
222	0x3c9eb31e	0.01937252
223	0x3b18e3a3	0.0023329041
224	0x3d4b4dfb	0.049634915
225	0x3db8258d	0.08991537
226	0x3dd6dc45	0.10491232
227	0x3d9a47be	0.07533215
228	0x37dffe88	2.6702197e-05
229	0x3e994766	0.29937285
230	0x3dcca025	0.09991483
231	0x3e3742d7	0.17896591
232	0x3ce17d2c	0.027525507
233	0xbd3defdf	-0.046371337
234	0x3cf164ba	0.029466975
235	0x3d1a8616	0.03772553
236	0xbaae37a3	-0.0013291728
237	0x3d3b69fb	0.045755368
238	0x3d107464	0.03526725
239	0x3d690284	0.056887165
240	0x3ca80814	0.020511664
241	0x3d82dd7a	0.063898996
242	0xbe0f01bf	-0.1396551
243	0x3c7acb83	0.01530731
244	0xbd79e0f0	-0.061005533
245	0xbd7bac90	-0.061443865
246	0xbdc338b8	-0.095323026
247	0xbe2218ec	-0.1582982
248	0xbd83c8e5	-0.06434802
249	0xbd2f2b38	-0.042765826
250	0xbc4a10a9	-0.012333074
251	0x3cfb10fc	0.030647747
252	0x3d03dc15	0.03219231
253	0xbcba9c65	-0.022779653
254	0x3ce8cc23	0.028417652
255	0x3ca3fb21	0.020017209

fc2.bias f4 [84]
0	0x3d65a1f3	0.05606265
1	0x3df46f9f	0.119353525
2	0xbda4f6f3	-0.08054914
3	0xbc39120e	-0.0112958085
4	0xbd8efad7	-0.06981438
5	0xbd4c168f	-0.0498262
6	0x3e01da9e	0.12681052
7	0xbcb88d04	-0.022528179
8	0x3d3364e1	0.043797377
9	0xba6a1dd7	-0.0008930838
10	0xbddaf00f	-0.10690319
11	0xbccebfb2	-0.025237892
12	0xbd8e1e32	-0.06939353
13	0xbc5601ee	-0.0130619835
14	0x3da442e3	0.0802057
15	0xbae8eb3b	-0.00177703
16	0x3e3515b5	0.17684062
17	0x3dd6d034	0.1048893
18	0xbd076672	-0.033056684
19	0xbd6f1410	-0.058368742
20	0x3d1d65d8	0.038427204
21	0x3dd87dec	0.10570893
22	0xbce9d048	-0.028541699
23	0x3e0ea8f9	0.13931645
24	0xbdd41c6b	-0.10356983
25	0x3e032b76	0.12809548
26	0x3a6e20dc	0.0009083876
27	0xbd508e39	-0.050916884
28	0xbe477261	-0.19477226
29	0x3dc66bf1	0.09688557
30	0xbeca0dc8	-0.3946364
31	0xbdf77800	-0.12083435
32	0x3bdaa3a3	0.006672339
33	0xbb98e2f4	-0.004665727
34	0xbd99f2d3	-0.07517018
35	0x3e072346	0.1319705
36	0xbe4d486b	-0.20047157
37	0xbe926fa2	-0.28600794
38	0xbde64801	-0.112442024
39	0xbca1ccd4	-0.01975099
40	0x3db7f8e1	0.08983017
41	0xbdaec4ce	-0.08533631
42	0x3d57ceb8	0.052687377
43	0x3cb2f452	0.021845017
44	0xbdbc1809	-0.09184272
45	0xbd81038e	-0.06299506
46	0x3e09f0d7	0.1347078
47	0xbe073d3e	-0.13206956
48	0x3cab5642	0.020915154
49	0x3bbe318a	0.0058042454
50	0x3db8aa65	0.09016875
51	0x3d2fe1e5	0.04294004
52	0x3dad9c96	0.08477132
53	0xbdd8bce9	-0.10582907
54	0xbd6deeba	-0.058088996
55	0xbd9d3cfa	-0.07677646
56	0xbd55aa9f	-0.05216467
57	0x3d7defcb	0.061996263
58	0x3c080413	0.008301753
59	0xbe05935d	-0.13044496
60	0xbd052378	-0.03250453
61	0x3dbcc2a0	0.09216809
62	0xbdf7fddf	-0.12108969
63	0xbdb23586	-0.08701615
64	0x3d85a115	0.065248646
65	0xbc1dcdf4	-0.009631623
66	0x3b5b0f3a	0.0033425824
67	0x3d8cf84d	0.06883297
68	0xbde3f708	-0.11131102
69	0xbe069550	-0.13142896
70	0xbdb73b23	-0.08946826
71	0xbde8f4d3	-0.113748215
72	0x3d3cb5c8	0.046071798
73	0xbcfd08c7	-0.030887974
74	0xbdd37da0	-0.103266954
75	0xbe7e6d4b	-0.2484638
76	0xbdc39312	-0.09549536
77	0xbc943935	-0.018093685
78	0x3c73df22	0.014884742
79	0x3c432ec2	0.011913003
80	0x3db36cdb	0.08760997
81	0xbe035d9d	-0.1282868
82	0xbd56a965	-0.05240764
83	0xbe3576ce	-0.17721102

fc3.weight f4 [10, 84]
0	0xbde45976	-0.11149876
1	0x3dbc42cf	0.0919243
2	0x3a9efeb7	0.0012130354
3	0xbd783543	-0.06059767
4	0x3d0de97e	0.034646504
5	0x3dac62ae	0.08417259
6	0xbea41728	-0.32048917
7	0x3c6ac2e8	0.014328696
8	0xbdbfe3fb	-0.09369656
9	0xbe5c7c4b	-0.21531789
10	0xbcc58649	-0.024111884
11	0xbececacf	-0.40389106
12	0xbd4514a2	-0.04811538
13	0x3d8893eb	0.06668838
14	0xbd0d55f8	-0.034505814
15	0xbe4e0b16	-0.20121416
16	0x3dbab57e	0.09116648
17	0x3e283455	0.16426213
18	0xbd33fc74	-0.04394193
19	0x3e02c43f	0.12770174
20	0x3e3fedab	0.18743007
21	0x3ca77492	0.020441327
22	0x3df7a93b	0.12092825
23	0xbd6904b2	-0.056889243
24	0x3d2e9f8c	0.042632625
25	0x3e98eddc	0.29868972
26	0xbe46f2dc	-0.19428581
27	0x3d9668f9	0.07344241
28	0x3e5e1ad2	0.21689919
29	0x3dd072df	0.1017816
30	0x3c80854a	0.015688557
31	0xbdca5318	-0.0987913
32	0x3e7d2d8e	0.24724409
33	0xbe8c324b	-0.2738212
34	0x3cd78d5f	0.026312528
35	0xbd492afa	-0.04911325
36	0xbc8e22df	-0.017350612
37	0x3e01d901	0.12680437
38	0x3baea2c3	0.0053294613
39	0x3e028946	0.12747678
40	0xbc8e1a02	-0.017346386
41	0xbc1daada	-0.009623254
42	0xbdf3fe6d	-0.11913762
43	0x3dd22db7	0.10262626
44	0xbe631f68	-0.2217995
45	0xbdefe2fc	-0.11713216
46	0xbe6ef875	-0.23336966
47	0x3bf8b329	0.007589717
48	0x3dedc1f7	0.116092615
49	0xbe10dd9f	-0.14147042
50	0xbdfd5e5d	-0.12371514
51	0x3e1b5a19	0.15171088
52	0x3d33ee80	0.043928623
53	0xbc0d0d14	-0.008609075
54	0x3d8d8257	0.06909626
55	0xbc1eb747	-0.009687251
56	0xbd48d7b2	-0.049033828
57	0xbdea2a4f	-0.11433851
58	0xbe058768	-0.13039935
59	0xba9a0f28	-0.0011753784
60	0x3d256863	0.040382754
61	0xbd695eec	-0.05697529
62	0xbed3e19c	-0.41383064
63	0xbda49025	-0.08035306
64	0x3d17ff21	0.037108544
65	0x3d5ee900	0.054421425
66	0x3cbc664c	0.022997998
67	0x3e07ef4f	0.13274883
68	0xbe1afb72	-0.15134981
69	0xbe121073	-0.14264087
70	0xbd6bd3d9	-0.05757508
71	0x3cc78a96	0.024358075
72	0x3d829b0f	0.06377231
73	0xbdd6ae29	-0.10482437
74	0x3c1e6c5a	0.009669388
75	0xbdc0561c	-0.09391424
76	0xbdf7b5c1	-0.12095214
77	0x3d8a68c7	0.06758266
78	0xbd7b2019	-0.061309908
79	0x3dccc13f	0.09997796
80	0xbdaa9ab3	-0.08330288
81	0xbde2def9	-0.11077685
82	0x3d8ec6d5	0.06971518
83	0xbc7f8583	-0.0155957965
84	0xbdc8a6da	-0.097974494
85	0x3db65135	0.08902208
86	0x3c53149c	0.012883332
87	0x3d1b2a0f	0.037881907
88	0xbcfb7bd8	-0.030698702
89	0xbee4ea48	-0.44709992
90	0x3e0ae7d4	0.13564998
91	0xbe07a137	-0.13245092
92	0x3d8e31c0	0.06943083
93	0x3d53a164	0.051667586
94	0x3ba5aeaa	0.005056222
95	0xbe3566f0	-0.17715049
96	0xbe983dbf	-0.2973461
97	0xbe39d995	-0.18149407
98	0xbc41c14a	-0.011825869
99	0xbd9ac2ad	-0.07556663
100	0xbd065aab	-0.03280131
101	0xbcc90737	-0.024539573
102	0x3be8d8be	0.007105916
103	0xbe8d8faa	-0.2764867
104	0xbddff327	-0.109350495
105	0xbdf8a5a0	-0.121409655
106	0xbdfc42b2	-0.123174086
107	0x3e644f6b	0.2229592
108	0x3e18c6ab	0.14919536
109	0x3e7f2de6	0.24919853
110	0x3e354b06	0.177044
111	0x3d9d01f3	0.076663874
112	0xbe9e37f4	-0.30902064
113	0x3d6ddb48	0.05807045
114	0xbe754405	-0.23951729
115	0xbd3f74fc	-0.046742424
116	0xbc68f687	-0.014218933
117	0xbd46d78d	-0.04854541
118	0xbdb99f12	-0.090635434
119	0x3e2dc8c9	0.16971125
120	0xbe25e4ec	-0.16200608
121	0xbe7b4490	-0.24537873
122	0xbe2af533	-0.16695099
123	0xba29057f	-0.00064476574
124	0x3e06f125	0.13177927
125	0xbd1b6c98	-0.03794536
126	0x3ceb5728	0.028728083
127	0x3daa90b9	0.08328385
128	0xbcd2191a	-0.025646735
129	0xbe066d27	-0.13127576
130	0x3e16fc83	0.14744763
131	0xbe03067c	-0.12795442
132	0xbdf79fa8	-0.12090999
133	0xbc0086bf	-0.007844626
134	0x3e69fdc3	0.22850709
135	0xbe54fcc1	-0.20799543
136	0xbe9725a7	-0.29520914
137	0x3d1a7f7a	0.037719227
138	0xbd0de079	-0.034637902
139	0xbdf1a7f7	-0.11799615
140	0xbe3ba61f	-0.18325089
141	0x3e256bf1	0.16154458
142	0x3e0b959c	0.1363129
143	0x3d0357ef	0.032066282
144	0xbe3aee1f	-0.18254898
145	0xbcd7d722	-0.0263477
146	0xbded4100	-0.115846634
147	0xbe04f899	-0.12985457
148	0xbd11903d	-0.035537947
149	0xbe3be05c	-0.18347305
150	0xbe48f7e0	-0.19625807
151	0xbe71338e	-0.23554823
152	0xbd945e22	-0.07244517
153	0xbdac42c4	-0.08411172
154	0x3d29ab5e	0.041423194
155	0xbd0193cc	-0.03163509
156	0x3d9ba94a	0.07600649
157	0xbd571bf1	-0.05251688
158	0x3d11fc28	0.035640866
159	0x3e8de9f2	0.2771755
160	0x3d5919ba	0.05300305
161	0xbe47ad13	-0.19499616
162	0xbd339900	-0.043847084
163	0x3d805318	0.06265849
164	0xbd0b7c7b	-0.03405426
165	0xbe2252c0	-0.15851879
166	0x3ddb4e7a	0.107083276
167	0xbd61af23	-0.055098664
168	0xbe3a1930	-0.18173671
169	0x3e0f83c0	0.14015102
170	0xbd0e6783	-0.034766685
171	0x3e1f6c16	0.15568575
172	0xbbc87ab7	-0.0061181444
173	0xbc38a120	-0.011268884
174	0x3d36c5c1	0.044622187
175	0x3d9dca4e	0.07704602
176	0x3d905a9f	0.070485346
177	0xbd8ecc93	-0.06972613
178	0xbde66e11	-0.11251462
179	0x3eef0a2f	0.46687457
180	0xbded3cb3	-0.11583843
181	0x3d8e50d2	0.06949009
182	0xbdcae14a	-0.09906252
183	0xbdf06538	-0.11738056
184	0xbdbb86c3	-0.09156563
185	0x3e4b2274	0.19837362
186	0xbe94944f	-0.290194
187	0xbb7d5993	-0.0038658127
188	0xbb824663	-0.003975676
189	0xbdf1def7	-0.11810105
190	0xbd810f22	-0.063017145
191	0x3da94001	0.08264161
192	0xbe19874d	-0.1499302
193	0xbed9b688	-0.42522073
194	0xbdf40540	-0.11915064
195	0x3e1a0b4b	0.1504337
196	0x3df04dcb	0.11733588
197	0x3cb66b17	0.022267861
198	0x3df03fba	0.11730905
199	0x3e211f3e	0.15734574
200	0x3d3e6eaa	0.046492256
201	0xbccb0e99	-0.024787234
202	0x3dc5e3c7	0.09662586
203	0x3e0b1b30	0.1358459
204	0x3d20c4e3	0.039250266
205	0xbeb629ce	-0.3557877
206	0x3cc4cea8	0.024024323
207	0xbd84aaa6	-0.06477861
208	0x3dd1ed76	0.1025037
209	0x3db69d1a	0.089166835
210	0x3e0f019d	0.13965459
211	0x3d0efc64	0.034908667
212	0xbe02cfb7	-0.1277455
213	0x3dbd2cbc	0.09237048
214	0xbe039425	-0.12849481
215	0x3e2987c0	0.16555691
216	0xbdd4d902	-0.103929535
217	0xbddff1ff	-0.10934829
218	0x3d875797	0.06608503
219	0xbc33d770	-0.010976657
220	0x3c090cd7	0.008364878
221	0xbddf05ea	-0.108898
222	0xbda8e269	-0.08246309
223	0xbd24c122	-0.04022325
224	0x3c84cef3	0.016211962
225	0xbd902706	-0.07038693
226	0xbe0d8970	-0.1382196
227	0xbb57bb94	-0.0032918202
228	0x3dc0b5bc	0.09409663
229	0x3e1c7eec	0.15282792
230	0xbe0c291b	-0.13687555
231	0x3d492f61	0.04911745
232	0xbe4e512f	-0.20148157
233	0x3ca77369	0.020440774
234	0x3e377c74	0.17918569
235	0xbceb1b4b	-0.028699538
236	0x3cd55f8f	0.026046542
237	0x3e240be8	0.16020167
238	0xbd25db3b	-0.040492278
239	0xbd3098a0	-0.043114305
240	0xbdca223f	-0.09869813
241	0x3967dddd	0.00022112527
242	0x3df12b9c	0.11775896
243	0x3daa40b7	0.083131246
244	0xbbdc84d9	-0.006729704
245	0x3e1e76c8	0.15474999
246	0x3d679aa5	0.056543965
247	0xbd6d78d0	-0.057976544
248	0xbc627224	-0.013821159
249	0xbcaeefb4	-0.021354534
250	0xbdd0a5d4	-0.10187879
251	0xbdcb78f5	-0.0993518
252	0xbd85ad7b	-0.065272294
253	0xbdae63b1	-0.085151084
254	0xbe316783	-0.17324643
255	0x3d5fe6ee	0.05466359

fc3.bias f4 [10]
0	0xbd45ce08	-0.04829219
1	0x3d810f6f	0.06301772
2	0xbd8d255d	-0.06891892
3	0x3e121834	0.14267045
4	0xbc085d8e	-0.008323086
5	0xbc9f7c77	-0.01946853
6	0xbe08f4ef	-0.13374685
7	0x3e346d2c	0.17619771
8	0xbcdac9b6	-0.026707511
9	0xbd9ebc82	-0.07750799
