lab2-models/hip-3-model.pth (torch, 181175 bytes, 10 tensors)

conv_block1.0.weight f4 [6, 1, 5, 5]
0	0xbd0c1a7d	-0.03420495
1	0x3e36e883	0.17862134
2	0x3d94dc11	0.07268537
3	0xbdcc195b	-0.09965774
4	0x3af2764a	0.0018498388
5	0xbdb4f584	-0.08835891
6	0xbdfade1c	-0.12249395
7	0xbdf48ee2	-0.11941315
8	0x3e528e6a	0.20562139
9	0x3cde2531	0.027117344
10	0xbd5ae519	-0.05344114
11	0xbde48d66	-0.11159782
12	0xbd6ebdc0	-0.05828643
13	0x3e5687a0	0.20950174
14	0x3e51449a	0.20436326
15	0x3d27c487	0.040958907
16	0xbe0b2806	-0.13589486
17	0x3e1a233f	0.15052508
18	0x3afddc29	0.0019367981
19	0x3da60494	0.08106342
20	0xbdb16809	-0.08662421
21	0xbe1d0ced	-0.15336962
22	0xbdc1839d	-0.09448931
23	0x3bfe233b	0.0077556646
24	0x3dd67f4c	0.10473499
25	0xbe363690	-0.17794251
26	0xbd000589	-0.03125528
27	0xbd8f3058	-0.06991643
28	0x3dbe91cd	0.09305153
29	0x3d9a64c9	0.075387545
30	0x3dcd5594	0.10026088
31	0x3d163c0d	0.036678363
32	0xbc50c59f	-0.012742429
33	0xbcce463f	-0.02517998
34	0x3e385436	0.18000874
35	0xbd7a7bd4	-0.061153248
36	0xbdff049d	-0.12452052
37	0xbe40437e	-0.18775746
38	0xbcba4df1	-0.022742243
39	0x3d5de8eb	0.054177206
40	0xbe53bcdb	-0.20677511
41	0xbd73f571	-0.059560243
42	0x3dd62784	0.10456756
43	0xbdc1650c	-0.09443101
44	0xbc5e1a70	-0.013556108
45	0x3d063f31	0.032775108
46	0xbdaa0a28	-0.083027184
47	0xbd15c51f	-0.036564942
48	0x3e1b42eb	0.15162246
49	0xbd21071b	-0.039313417
50	0x3d481b6c	0.048854277
51	0xbde9930b	-0.11404999
52	0xbb8c4aa9	-0.004281361
53	0xbe009a61	-0.12558891
54	0xbc394498	-0.011307858
55	0xbcda5a62	-0.026654426
56	0x3e2970fd	0.16547008
57	0x3d424e2e	0.04743784
58	0x3df39a02	0.11894609
59	0x3bd3d8bf	0.006465047
60	0x3d94e70b	0.072706304
61	0xbda09c99	-0.07842369
62	0x3dbf1b39	0.09331364
63	0x3bb43aa6	0.0055001555
64	0xbdfd9e55	-0.12383715
65	0x3e21db84	0.15806395
66	0x3d438c92	0.04774148
67	0x3dfd9da7	0.123835854
68	0xbe364297	-0.1779884
69	0x3e1cc041	0.15307714
70	0x3ba9a3fb	0.0051770187
71	0xbe31802a	-0.17334047
72	0xbd5ff9c8	-0.05468157
73	0x3d3032d8	0.04301724
74	0xbbe5f27a	-0.007017431
75	0xbd271202	-0.040788658
76	0x3d502087	0.05081227
77	0x3dca90db	0.0989091
78	0xbd7d18b2	-0.06179113
79	0xbe10750c	-0.1410715
80	0xbdfce827	-0.12348967
81	0xbe2079e3	-0.15671496
82	0xbd9743b1	-0.07385958
83	0xbe4d3d8c	-0.2004301
84	0x3e3f156f	0.1866052
85	0x3d7e6219	0.062105272
86	0xbdd920e6	-0.10601978
87	0x3dbed917	0.0931875
88	0xbe2150ef	-0.1575353
89	0xbbe96c56	-0.0071235104
90	0xbdb77c6a	-0.08959277
91	0xbd9ffb1b	-0.078115664
92	0xbe24a265	-0.16077574
93	0x3d599338	0.053118914
94	0xbe28518b	-0.16437356
95	0xbd900e8f	-0.07034027
96	0xbe239fe9	-0.1597897
97	0xbe455697	-0.19271313
98	0xbc3ad113	-0.011402386
99	0xbd294707	-0.041327503
100	0x3e51d4b4	0.20491296
101	0x3e25bcce	0.16185305
102	0xbe174557	-0.14772545
103	0x3cc75875	0.024334172
104	0x3d71a467	0.058994677
105	0x3d1d01d7	0.038331833
106	0xbdf9c2c6	-0.12195353
107	0xbde31fcf	-0.110900514
108	0xbda7c92c	-0.08192667
109	0xbe2dc8dd	-0.16971155
110	0x3df29c49	0.11846215
111	0x3db2e1ad	0.087344505
112	0x3e528a59	0.20560588
113	0x3e586ae4	0.21134526
114	0x3df24751	0.11830009
115	0x3e022b21	0.12711765
116	0xbd1b203b	-0.037872534
117	0x3d35b96c	0.044366285
118	0x3d840868	0.06446916
119	0x3de6f0f5	0.11276428
120	0x3e107a7b	0.14109223
121	0xbe380fde	-0.17974803
122	0xbd47e03e	-0.04879784
123	0x3de19d6e	0.110163555
124	0xbd9647a0	-0.0733788
125	0x3e419e7b	0.18908112
126	0x3b7f692e	0.0038972604
127	0xbd525371	-0.051349107
128	0x3d9bdbf1	0.0761031
129	0xbc706c72	-0.014674293
130	0xbd55849b	-0.052128416
131	0x3e22e035	0.1590584
132	0xbe3cf9c2	-0.1845465
133	0x3e20ff95	0.15722497
134	0x3dcef14e	0.10104619
135	0x3e29108b	0.16510217
136	0x3e04b3fc	0.12959284
137	0x3db82099	0.089905925
138	0xbe06c642	-0.13161567
139	0xbe430c92	-0.19047764
140	0x3bc01bc1	0.0058626835
141	0x3c42bae8	0.011885382
142	0x3bc84f0e	0.0061129397
143	0x3e1f7d8c	0.15575236
144	0xbe03b283	-0.12861066
145	0x3e22ec33	0.15910415
146	0x3d08b8e3	0.033379447
147	0x3e23e6b3	0.16005974
148	0xbe456f53	-0.19280748
149	0x3defb274	0.11703959

conv_block1.0.bias f4 [6]
0	0xbcf4d442	-0.029886369
1	0xbce9c6a4	-0.028537102
2	0x3e3fc423	0.18727164
3	0xbad281b2	-0.0016060381
4	0xbe107598	-0.14107358
5	0xbe35eda0	-0.17766428

conv_block2.0.weight f4 [16, 6, 5, 5]
0	0xbd323917	-0.043511476
1	0xbd9da0c1	-0.07696677
2	0xbcf08de5	-0.029364536
3	0xbcc0652e	-0.023485746
4	0xbda55a89	-0.08073909
5	0x3c3b85c7	0.011445469
6	0xbceb1d0a	-0.02870037
7	0x3d3af31a	0.045641996
8	0xb9d6e68f	-0.0004098904
9	0xbc984267	-0.01858635
10	0xbd5e1e9f	-0.05422842
11	0xbb81e39b	-0.0039639003
12	0x3d2772f5	0.040881116
13	0xbd3c5041	-0.045974974
14	0x3c90b49a	0.017664243
15	0x3cf140d1	0.029449852
16	0xbca2e541	-0.019884707
17	0x3d7b6afd	0.06138133
18	0xbd9b7615	-0.07590882
19	0xbd64708b	-0.05577139
20	0x3c931b4b	0.01795735
21	0x3d608127	0.05481067
22	0xbd40d9e9	-0.047082815
23	0xbcb3c32d	-0.021943653
24	0xbcc4dff7	-0.024032576
25	0xbd827046	-0.06369071
26	0xbcdf8038	-0.02728282
27	0xbd9e70e6	-0.077363774
28	0x3c5de14f	0.013542487
29	0x3d337c4c	0.04381971
30	0x3da00729	0.07813866
31	0x3c46bab1	0.012129472
32	0xbbd799fa	-0.0065796347
33	0xbd572142	-0.05252195
34	0xbd97f0c0	-0.07418966
35	0xbd793db8	-0.060849875
36	0xbaab5fed	-0.0013074853
37	0xbd8bde24	-0.06829479
38	0x3d8ae98b	0.06782826
39	0x3d3195ff	0.043355938
40	0x3d98798b	0.074450575
41	0x3d2cbf4b	0.04217462
42	0x3d1b02b3	0.03784437
43	0x3d89e871	0.06733788
44	0xbcc671a0	-0.024224102
45	0xbd2bfafb	-0.0419874
46	0x3da7ca3a	0.081928685
47	0x3c9060e6	0.01762433
48	0x3bee1acf	0.0072663794
49	0x3ce58118	0.028015658
50	0x3d8b28eb	0.06794914
51	0x3d20f3e3	0.03929509
52	0xbd430d11	-0.047619883
53	0xbd82a4fa	-0.06379123
54	0x3c8b7d9e	0.017027672
55	0x3cc35771	0.023845406
56	0x3d30c16f	0.043153223
57	0x3d943b08	0.07237822
58	0xbc324682	-0.010881068
59	0xbd16eedd	-0.03684889
60	0xbd1b23e5	-0.03787603
61	0x3d447fce	0.047973447
62	0x3bde28fd	0.0067797885
63	0xbd35bacc	-0.044367597
64	0xbc5c0b86	-0.013430482
65	0xbd47a64c	-0.048742577
66	0x3ba0cc67	0.004907179
67	0xbda5282b	-0.08064302
68	0x3d2ff97c	0.042962536
69	0x3d266865	0.040626902
70	0xbca138d9	-0.019680427
71	0x3c2b3342	0.0104492325
72	0xbc41b6da	-0.01182338
73	0x3bb1a082	0.0054207454
74	0x3d0c2177	0.034211602
75	0xbd8d3e5a	-0.06896658
76	0xbd1434aa	-0.036183037
77	0xbd8f5ff8	-0.070007265
78	0x3c9a5b25	0.01884229
79	0xbd46306c	-0.048386022
80	0x3d75f5db	0.06004892
81	0xbb59fceb	-0.0033262323
82	0x3d94440c	0.072395414
83	0xb98e079b	-0.00027090017
84	0xbd76445e	-0.060123794
85	0x3d5db918	0.054131597
86	0x3d0447db	0.03229509
87	0x3d9c4d06	0.076318786
88	0xbd2d30a7	-0.042282727
89	0x3d168b4b	0.036753934
90	0xbd991a61	-0.074757345
91	0x3d25c9ce	0.04047566
92	0xbd98afa6	-0.07455377
93	0xbd8b5d64	-0.06804922
94	0x3d4c713b	0.049912672
95	0x3d3f3306	0.04667952
96	0xbceb29fa	-0.02870654
97	0xbd12f01b	-0.035873514
98	0x3d3b9583	0.045796882
99	0x3d8ca501	0.068674095
100	0x3da8b45f	0.08237528
101	0xbd76716e	-0.06016677
102	0xbd4596f7	-0.048239674
103	0x3d429e3a	0.047514178
104	0xbd57894d	-0.052621175
105	0x3d633207	0.05546763
106	0xbd8a2d2e	-0.067468986
107	0x3d3091e3	0.04310788
108	0xbd26b39e	-0.04069864
109	0x3da50754	0.08058038
110	0xbd61c6f1	-0.055121366
111	0xbd5e38ad	-0.05425327
112	0x3d6643f8	0.056217164
113	0xbcc4dfc3	-0.02403248
114	0x3d5755c9	0.052572045
115	0x3d026b7c	0.031840786
116	0xbcb884f6	-0.022524338
117	0xbca7dce0	-0.020491064
118	0xbd7562d0	-0.059908688
119	0xbc524330	-0.012833402
120	0xbd8722e8	-0.06598455
121	0x3d1adf89	0.037810836
122	0xbd237b5a	-0.03991256
123	0x3ca628ae	0.02028307
124	0xbd907181	-0.07052899
125	0xbcbc2ef8	-0.022971615
126	0xbcdf94b0	-0.02729258
127	0xbc8fcffd	-0.017555231
128	0x3cb37f43	0.021911269
129	0x3dad90cc	0.084748834
130	0x3d571ba3	0.05251659
131	0xbaa7d4d8	-0.0012804521
132	0xbce3b41c	-0.027795844
133	0x3d3d428d	0.046206046
134	0xbd844f8b	-0.06460484
135	0xbd075e53	-0.03304894
136	0x3d8bb0b1	0.068208106
137	0x3d8142f6	0.063116
138	0xbd57c3ef	-0.05267709
139	0xbd9f2cc6	-0.07772212
140	0xbd8705a7	-0.06592875
141	0xbc27b92d	-0.01023702
142	0x3d6a21af	0.05716103
143	0xbd555eeb	-0.052092474
144	0xbd811406	-0.06302647
145	0xbd9c3414	-0.076271206
146	0x3d75b0a6	0.05998292
147	0xbd742888	-0.059608966
148	0xbd6f94cc	-0.058491513
149	0x3d5ea7ab	0.05435912
150	0xbd09a185	-0.033601303
151	0x3cdb6dcb	0.026785752
152	0xbc4e8aec	-0.012606364
153	0xbd43393b	-0.047662
154	0x3c80e6cb	0.01573505
155	0xbb0563d3	-0.002035369
156	0xbbc15fc4	-0.0059013087
157	0x3c99c491	0.018770488
158	0xbda4a113	-0.08038535
159	0x3d985982	0.07438947
160	0xbc336e8c	-0.010951649
161	0xbd2738f0	-0.040825784
162	0xbd720d92	-0.059094973
163	0xbd0fc914	-0.035103872
164	0x3d690d74	0.056897596
165	0x3d08d57d	0.033406723
166	0x3d2c0c91	0.04200417
167	0xbc4caf1f	-0.012492924
168	0xbd8e0697	-0.06934851
169	0xbc371886	-0.01117528
170	0xbd12da58	-0.03585276
171	0xbb5a1512	-0.003327672
172	0x3cbaca8e	0.022801664
173	0xbc74b273	-0.014935124
174	0x3d3a2125	0.045441765
175	0x3c425b59	0.011862599
176	0xbac7e0f1	-0.0015249533
177	0xbc44d32d	-0.012013239
178	0x3db113bb	0.086463414
179	0x3d909ed8	0.07061547
180	0xbd86bea7	-0.06579333
181	0xbd5aa5b2	-0.053380676
182	0xbd2df51d	-0.042470086
183	0xbd2576bb	-0.040396433
184	0x3c4efb13	0.012633103
185	0xbca99ef4	-0.020705678
186	0xbb19a8e6	-0.0023446619
187	0x3c5cd0b5	0.013477494
188	0x3d80d1cf	0.06290018
189	0xbd9b2a85	-0.07576469
190	0xbda0dc6f	-0.07854544
191	0xbd6680ff	-0.056275364
192	0x3c2dc3c3	0.010605755
193	0xbccfda6e	-0.02537271
194	0xbd2c4f43	-0.042067777
195	0x3ca4703a	0.020073045
196	0xbd682a5f	-0.056681033
197	0x3c292992	0.010324853
198	0x3d32207b	0.043488007
199	0xbd506d7c	-0.050885662
200	0xbd95873c	-0.073011845
201	0xbc8c8cc4	-0.017156966
202	0x3d979119	0.07400722
203	0xbd528835	-0.05139943
204	0x3c91f7af	0.0178183
205	0x3be1e8b3	0.006894195
206	0x3cee2063	0.029068178
207	0x3c6c355e	0.014417021
208	0xbd0302f0	-0.031985223
209	0x3cd3e2fc	0.02586507
210	0x3cec2873	0.028827881
211	0xbbb7a5e7	-0.005604494
212	0xbd2ca7db	-0.042152267
213	0x3c8b6312	0.017015014
214	0x3b95b7d8	0.004569035
215	0x3cf219ba	0.029553283
216	0x3cbd53a1	0.023111166
217	0x3b8026bd	0.003910868
218	0x3d4002fe	0.046877854
219	0xbbdb9762	-0.006701396
220	0x3cda0c5b	0.02661722
221	0xbd8e5bb8	-0.06951088
222	0x3ca904c1	0.02063215
223	0xbd52be0f	-0.051450785
224	0xbcff8e3b	-0.03119575
225	0xbd7c8f03	-0.061659824
226	0x3d98112a	0.07425149
227	0xbbda8300	-0.0066684484
228	0x3d50e6b9	0.051001284
229	0x3d0dbc0b	0.03460316
230	0xbd267d29	-0.040646706
231	0x3a2d984f	0.0006622122
232	0x3c461860	0.012090772
233	0x3a0cca66	0.0005370736
234	0x3cf148d4	0.029453672
235	0xbd40106d	-0.046890665
236	0x3db50665	0.0883911
237	0xbd5d6054	-0.054046944
238	0x3ce464ab	0.027880033
239	0x3d8304e7	0.063974194
240	0x3c76fe07	0.015075213
241	0xbd1f0a95	-0.03882845
242	0xbd25031d	-0.040286172
243	0x3d7c45a6	0.06158986
244	0x3c91c02e	0.017791834
245	0xbc4d853b	-0.012543972
246	0x3d363f3d	0.044493902
247	0x3d479fe4	0.048736468
248	0xbcea8277	-0.028626664
249	0xbd33f130	-0.043931186
250	0x3d7f1b09	0.062281642
251	0xbd1e58e7	-0.038659003
252	0x3d8b50f8	0.06802553
253	0x3d0bff2c	0.034178898
254	0x3d87a532	0.066233054
255	0x3c497b5c	0.012297478

conv_block2.0.bias f4 [16]
0	0x3d4701dd	0.04858576
1	0x3d9a9e91	0.075497754
2	0xbd7bf6a4	-0.06151451
3	0xbd623c6f	-0.055233415
4	0xbd62ddda	-0.055387355
5	0x3d49c6cb	0.04926185
6	0x3db1fc31	0.0869068
7	0x3cf05908	0.029339328
8	0xbc532e15	-0.012889405
9	0xbd6c6ffa	-0.057723977
10	0xbd5976ed	-0.053091932
11	0x3d8bf870	0.06834495
12	0xbc7e7f0f	-0.015533223
13	0xbd9cafae	-0.07650696
14	0x3c5e008f	0.013549938
15	0x3da0d50c	0.078531355

fc1.weight f4 [120, 256]
0	0xbd634fa2	-0.055495866
1	0xbd76b423	-0.060230386
2	0xbd4cfcf9	-0.05004594
3	0x3d14e671	0.03635258
4	0xbc65ca75	-0.01402532
5	0x3d7d47e4	0.06183614
6	0xbd56754d	-0.05235796
7	0xbd41e14b	-0.047333997
8	0x3d7878d5	0.06066211
9	0xbccef9b8	-0.02526556
10	0x3ccffc63	0.025388902
11	0x3d30c2a0	0.04315436
12	0x3be96006	0.0071220426
13	0xbd34aadf	-0.044108268
14	0x3d7ba753	0.06143887
15	0x3d407bf5	0.046993215
16	0x3d715c3b	0.05892585
17	0x3d25ed9c	0.040509805
18	0xbd2e9757	-0.042624798
19	0xbd320635	-0.04346295
20	0x3d0e0ffb	0.03468321
21	0xbd18d500	-0.037312508
22	0xbb3112ef	-0.0027019342
23	0xbc22d073	-0.0099373935
24	0xbc6012d4	-0.013676364
25	0x3c1d0cd9	0.009585583
26	0xbd68eeab	-0.056868237
27	0x3c9c7e6d	0.019103253
28	0xbce919f9	-0.028454768
29	0xbcf63a70	-0.030057162
30	0xbcd0bddb	-0.025481155
31	0xbd6876fa	-0.05675409
32	0x3d6d17d2	0.057884045
33	0xba39a280	-0.00070814043
34	0x3c5658d0	0.013082698
35	0xbc127778	-0.008939616
36	0x3ce6dbbc	0.02818095
37	0x3d2a8573	0.041631173
38	0xbc407fa8	-0.011749186
39	0x3d51643c	0.05112098
40	0xbc8c464c	-0.017123364
41	0xbc02d2a8	-0.007984795
42	0x3cf7b070	0.0302355
43	0x3cce2634	0.025164701
44	0x3d1b4258	0.037905067
45	0xbc7295e8	-0.014806248
46	0xbc7a2fe8	-0.015270211
47	0xbd78d932	-0.06075401
48	0x3d1837d9	0.037162635
49	0x3b096147	0.0020962523
50	0xbc8fff03	-0.017577654
51	0x3d6bd014	0.057571486
52	0x3d70f2ae	0.058825187
53	0xbd0d5752	-0.034507103
54	0xbd61a35f	-0.055087443
55	0x3b229baa	0.0024812021
56	0xbd264096	-0.040588938
57	0xbc9fdf19	-0.019515561
58	0x3d4416a6	0.04787316
59	0xbd641fe7	-0.055694487
60	0xbd20c893	-0.039253782
61	0xbc32aefc	-0.010905977
62	0x3c22bdf7	0.009932986
63	0xb8acecf7	-8.245737e-05
64	0xbc4282b0	-0.011871979
65	0xbcba4a28	-0.022740439
66	0x3d6f56e0	0.05843246
67	0x3d7c53a4	0.061603203
68	0x3d5b24d0	0.053501904
69	0x3c3e3408	0.011609085
70	0xbb950d70	-0.004548721
71	0xbb8569f3	-0.004071468
72	0xbd39357c	-0.045217022
73	0xbd3ab8d8	-0.045586437
74	0xbca25ebf	-0.01982057
75	0x3befcff4	0.007318491
76	0x3d4930af	0.049118694
77	0xba1e6dab	-0.00060435635
78	0x3d38915b	0.045060497
79	0xbd6dc3df	-0.058048125
80	0x3d43cec7	0.04780462
81	0x3d54eae7	0.051981833
82	0xbc82fcfe	-0.015989777
83	0xbd6de365	-0.05807819
84	0x3cb8cfd1	0.022560032
85	0x3d1f67cd	0.03891735
86	0x3d567e08	0.052366287
87	0xbd714bca	-0.05891017
88	0xbcfcd073	-0.030861115
89	0x3c121cc4	0.008917991
90	0xbd1ed11d	-0.038773645
91	0xbd1e4eb1	-0.038649265
92	0x3cab00e5	0.02087445
93	0xbd6cc85d	-0.05780827
94	0xbd20deb1	-0.039274875
95	0x3d188544	0.037236467
96	0x3c5af7be	0.01336473
97	0xbd23d32f	-0.039996322
98	0xba417e49	-0.00073811837
99	0xbcf1d04e	-0.029518273
100	0xbc618c14	-0.013766307
101	0xbcd68788	-0.026187673
102	0x3cd550f1	0.026039572
103	0x3ceeb926	0.02914102
104	0x3ced9046	0.028999459
105	0xbd41560c	-0.0472012
106	0xbd7fe1f1	-0.062471334
107	0xbd42db25	-0.047572274
108	0x3d3119b8	0.043237418
109	0x38fbc11e	0.000120045836
110	0xbd232f57	-0.03984007
111	0x3cfc6315	0.030808965
112	0xbd039693	-0.03212602
113	0x3d3312ea	0.04371921
114	0xbd5753f4	-0.0525703
115	0xbd61d806	-0.055137657
116	0xbc905060	-0.01761645
117	0x3ca5c328	0.02023466
118	0x3c848020	0.016174376
119	0x3d0af156	0.033921562
120	0x3d053711	0.03252322
121	0x3c8f0a2b	0.017460903
122	0x3d4f79d2	0.050653286
123	0x3d35e1a7	0.044404652
124	0x3c442572	0.011971818
125	0xbd1f113c	-0.038834795
126	0x3b471b25	0.003038117
127	0x3cf08014	0.029357947
128	0xbc0c9d70	-0.008582458
129	0xbc792451	-0.015206412
130	0x3b616713	0.0034393712
131	0x3c9d7b84	0.019223936
132	0x3d701f30	0.058623493
133	0x3c2200a0	0.009887844
134	0x3d1c6b3a	0.038188197
135	0xbd608782	-0.05481673
136	0xba981cfc	-0.0011605318
137	0x3d3e6507	0.046483066
138	0xbd7f5aca	-0.062342443
139	0xbbf1145d	-0.007357164
140	0xbb3cbcac	-0.002879898
141	0x3d2fba09	0.042902026
142	0xbcfe1560	-0.031016052
143	0x3c448adf	0.011996
144	0xbca031e6	-0.019555043
145	0x3a783096	0.0009467689
146	0x3d0ffe46	0.035154603
147	0xbd247a40	-0.04015565
148	0xbaafcb10	-0.0013411958
149	0xbd5cd814	-0.053917006
150	0xbd5782d2	-0.052614994
151	0xbd1de667	-0.038549807
152	0xbc13f0d6	-0.009029588
153	0xbc69168b	-0.014226566
154	0xbd1c3d4d	-0.0381444
155	0xbd62ec7f	-0.05540132
156	0xbb056461	-0.002035402
157	0xbd258294	-0.040407732
158	0x3bc994a9	0.006151755
159	0xbd68960d	-0.056783725
160	0x3bb0c169	0.00539415
161	0x3c544428	0.012955703
162	0xbc24d5ef	-0.010060771
163	0xbd219fda	-0.039459087
164	0x3c6a98af	0.014318629
165	0xbd129ccd	-0.035794068
166	0xbb9e8d1e	-0.0048386
167	0x3d37ec47	0.044903066
168	0xbc53d568	-0.012929298
169	0xbcb93bc2	-0.022611503
170	0xbd1f5360	-0.038897872
171	0x3cd713b6	0.026254516
172	0x3d10e480	0.035374165
173	0x3d718c7b	0.058971863
174	0xbd3ce55f	-0.046117183
175	0x3d21c0e5	0.0394906
176	0x3c86e009	0.01646425
177	0x39a04b87	0.0003057385
178	0xbc256ba2	-0.010096462
179	0xbc11b975	-0.008894314
180	0x3b9f2e55	0.004857818
181	0xbd4735ae	-0.048635177
182	0x3cfe3154	0.03102938
183	0xbc9046e7	-0.017611934
184	0xbd336c2c	-0.043804333
185	0xbd0bc9e1	-0.034128074
186	0x3c37ffd0	0.011230424
187	0x3d5f0deb	0.054456633
188	0xbd5d509b	-0.05403195
189	0x3c563be8	0.013075806
190	0xbd6ddc4e	-0.058071427
191	0x3d0a7431	0.033802215
192	0xbd22ecdf	-0.03977668
193	0xbd4d8aad	-0.05018108
194	0x3c3ce1c6	0.011528438
195	0x3cb479e8	0.022030786
196	0x3d518b98	0.051158518
197	0xbcf84027	-0.030304028
198	0x3cc3e18a	0.023911256
199	0xbcd79e5a	-0.026320625
200	0x3d6c7a7a	0.05773399
201	0x3cfb268b	0.030658027
202	0xbd3966b1	-0.04526395
203	0xbcda75be	-0.026667472
204	0xbd0fe5f4	-0.03513141
205	0x3cf69aad	0.030103052
206	0xbcc31450	-0.023813397
207	0x3d4248a2	0.04743255
208	0xbd59ce75	-0.05317541
209	0x3cd7b4cc	0.026331328
210	0x3d64f2e3	0.055895697
211	0xbd73485c	-0.05939518
212	0x3d4a0bc4	0.049327627
213	0x3b834bd6	0.004006843
214	0xbca5adbe	-0.020224448
215	0xbba7ef2f	-0.0051249485
216	0xbc435ef3	-0.011924493
217	0x3d6b4859	0.057442043
218	0xbd2852bd	-0.04109453
219	0xbd4702ec	-0.04858677
220	0xbcbb279e	-0.02284604
221	0x3c9aec4f	0.018911509
222	0x3ada3ee0	0.0016650818
223	0x3ccf3f48	0.02529873
224	0x3c9f31ed	0.019432986
225	0xbcf687a8	-0.030093983
226	0xbd0a608c	-0.03378348
227	0xbc89694a	-0.016773839
228	0xbd52a543	-0.051427137
229	0x3d33598a	0.043786563
230	0x3d54bc55	0.05193742
231	0xbc8c7bf4	-0.01714895
232	0x3ceecd3c	0.029150598
233	0xbce994e9	-0.028513389
234	0xbd4061a9	-0.046968136
235	0xbd618a0a	-0.055063285
236	0xbbe3d47b	-0.00695282
237	0xbd0052fb	-0.031329136
238	0xbc23522f	-0.009968325
239	0xbc816127	-0.015793396
240	0x39de4645	0.00042395495
241	0x3d011d77	0.03152224
242	0xbd2a87f8	-0.041633576
243	0x3cd965c8	0.02653779
244	0x3cdb6d7b	0.026785603
245	0x3cb34799	0.021884726
246	0xbd0302e0	-0.031985164
247	0xbc09544c	-0.008381914
248	0xbc175434	-0.009236384
249	0x3d462de3	0.048383605
250	0xbb950f11	-0.004548915
251	0x3b0d716d	0.00215825
252	0x3c1ce1a8	0.009575285
253	0x3c81d89a	0.015850354
254	0x3c755e20	0.014976054
255	0x3cd6e7d4	0.026233591

fc1.bias f4 [120]
0	0x3b9cd85a	0.0047865333
1	0x3c583a06	0.013197428
2	0xbd4c5aa2	-0.04989112
3	0x3d170d37	0.036877837
4	0x3d6451e0	0.055742145
5	0x3ca8153a	0.020517934
6	0xbc0a6e79	-0.00844919
7	0x3c071310	0.008244291
8	0xbb19dfe1	-0.002347939
9	0xbd2c3358	-0.042041153
10	0xbd4e2019	-0.05032358
11	0x3ce5471b	0.027988007
12	0xbcce27ec	-0.02516552
13	0xbb419756	-0.0029539666
14	0xbc8984e5	-0.016787002
15	0x3d4cfa14	0.05004318
16	0xbccb3067	-0.024803353
17	0x3ce5ed83	0.028067356
18	0xbbb87648	-0.0056293346
19	0x3bedf523	0.0072618886
20	0x3cee6d3b	0.02910482
21	0x3c6f5ce6	0.014609551
22	0x3c9ccc1a	0.019140292
23	0xbc7b5623	-0.015340361
24	0x3cb25337	0.021768196
25	0xbc746732	-0.014917182
26	0xbcf1b17e	-0.02950358
27	0xbc32aca7	-0.010905421
28	0xbd461571	-0.048360292
29	0xbc9bd682	-0.019023184
30	0x3d2ac061	0.041687373
31	0x3c99a325	0.018754551
32	0xbcb5107d	-0.022102589
33	0x3ace9ecd	0.0015763879
34	0x3c833b20	0.016019404
35	0xbc50d48e	-0.0127459895
36	0xbd5eb774	-0.054374173
37	0xbb96b04d	-0.0045986534
38	0x3c847ffa	0.016174305
39	0x3d450600	0.048101425
40	0x3b3fc04c	0.0029258905
41	0xbd3943ec	-0.04523079
42	0xbd535188	-0.051591426
43	0xbc1b45af	-0.009477063
44	0x3d1f1ef8	0.038847893
45	0xbd39f13b	-0.04539607
46	0x3d661563	0.05617274
47	0xbcf48656	-0.029849213
48	0x3c836ffa	0.016044606
49	0x3d84815d	0.064699866
50	0xbd3367ab	-0.043800037
51	0xbd33fc6e	-0.043941908
52	0xbb9e0813	-0.00482274
53	0x3d722483	0.05911685
54	0xbd3a19a3	-0.045434605
55	0x3d32d743	0.04366232
56	0x3d01dbc2	0.031703718
57	0x3c82e169	0.015976625
58	0x3d7aafcf	0.06120282
59	0x3cd71089	0.026253002
60	0xbd5a3f62	-0.053283103
61	0xbc641ee5	-0.013923381
62	0xbd6a91d4	-0.05726798
63	0xbce43946	-0.027859341
64	0x3c9bc04d	0.019012595
65	0xbcc31e34	-0.023818113
66	0x3d3a5db8	0.045499533
67	0x3d6e7509	0.058217082
68	0x3ad99892	0.0016601256
69	0xbcd154f8	-0.025553212
70	0xbc0d9e86	-0.008643752
71	0x3d126156	0.035737358
72	0x3c6e3608	0.014539249
73	0x3d5eaab5	0.054362018
74	0x3d2dafe3	0.042404067
75	0xbd15cfe3	-0.03657521
76	0xbc303345	-0.010754411
77	0x3d41df14	0.047331885
78	0x3d6eb849	0.058281217
79	0x3d367144	0.044541612
80	0x3d02dcbf	0.0319488
81	0x3d62fc17	0.055416193
82	0xbd1ba393	-0.037997793
83	0x3cc2c9b5	0.023777822
84	0xbcbf11f6	-0.023323994
85	0x3d095c0f	0.03353506
86	0x3c26e327	0.010185993
87	0xba1dfe00	-0.00060269237
88	0x3d3eeadf	0.04661071
89	0x3cee0b6e	0.029058184
90	0xbd5abff0	-0.053405702
91	0xbbfc29f3	-0.0076954304
92	0x3c5dca7a	0.013537044
93	0x3be01ad1	0.0068391343
94	0x3b02e14b	0.001997071
95	0xbc87fdf0	-0.016600579
96	0x3ce70a05	0.02820302
97	0x3c31268e	0.010812415
98	0xbd20788a	-0.039177455
99	0x3d65a867	0.056068804
100	0x3c1b5397	0.009480379
101	0xbb881d37	-0.0041538733
102	0x3d7e59cf	0.062097367
103	0xbd35a91a	-0.04435072
104	0x3ca140a5	0.019684145
105	0x3d6a6246	0.057222627
106	0xbd775d7a	-0.06039188
107	0xbc340703	-0.010988
108	0x3c3052f8	0.010761969
109	0x3d5379de	0.051629893
110	0x3d4df69d	0.050284017
111	0x3c86b24e	0.016442444
112	0xbd4d3730	-0.05010146
113	0x3d1a00b9	0.037598345
114	0xbce0a186	-0.02742077
115	0x3d4193ea	0.047260202
116	0x3d434a68	0.04767838
117	0xbc3748d7	-0.0111868
118	0xbcf6b790	-0.030116826
119	0x3cf5e466	0.030016135

fc2.weight f4 [84, 120]
0	0xbc221b28	-0.00989417
1	0xbd0f35bb	-0.03496335
2	0x3d9f5427	0.07779723
3	0xbd992eb9	-0.07479615
4	0xbd447919	-0.04796705
5	0xbc104153	-0.008804637
6	0x3c971697	0.018443389
7	0x3ce18d24	0.027533121
8	0x3c8201b9	0.015869962
9	0x3d0bdcb7	0.034146037
10	0xbcec4c65	-0.028845022
11	0x3d69fa5e	0.057123534
12	0x3c18091e	0.009279517
13	0xbd763d9b	-0.060117345
14	0x3cf218bf	0.029552815
15	0x3c9fe219	0.019516991
16	0x3d76dc9e	0.06026899
17	0x3c804484	0.01565767
18	0x3d855b00	0.065114975
19	0x3da1c322	0.07898547
20	0x3d445932	0.047936626
21	0x3c87ac3a	0.016561616
22	0x3d9a5ff0	0.0753783
23	0xbd74b28c	-0.059740588
24	0xbd8f3c83	-0.069939636
25	0xbd46215e	-0.048371665
26	0x3ca562d1	0.02018872
27	0xbd3a465b	-0.045477252
28	0x3d2bbd87	0.041928794
29	0x3d377822	0.044792302
30	0xbda7300b	-0.0816346
31	0xbb6c1b31	-0.003602695
32	0xbd84126b	-0.064488254
33	0xbd15814a	-0.036500253
34	0x3c38de1b	0.011283423
35	0x3d0ec6bf	0.034857508
36	0xbd517b23	-0.051142823
37	0x3d8ba0a4	0.06817749
38	0x3c606d38	0.013697915
39	0xbdb1eba6	-0.086875245
40	0xbcf14cdb	-0.029455593
41	0x39ff1fe6	0.00048661156
42	0xbd25c054	-0.04046662
43	0xbce4d14e	-0.027931836
44	0xbda43e6b	-0.08019718
45	0x3c10f390	0.008847132
46	0x3da3899e	0.07985233
47	0xbcffa0c6	-0.031204592
48	0xbd8a76bd	-0.06760929
49	0xbd0c44ce	-0.034245305
50	0xbc11ed99	-0.008906745
51	0x3d93117f	0.071810715
52	0xbd8ccb38	-0.068746984
53	0xbc652f43	-0.013988319
54	0x3d928264	0.07153776
55	0xbcf68fa3	-0.030097788
56	0x3d9eb480	0.077492714
57	0xbd9d9fae	-0.07696472
58	0x3d041662	0.03224791
59	0x3cc753a3	0.024331873
60	0xbd6fc61a	-0.058538534
61	0xbd74bee8	-0.059752375
62	0x3da2a318	0.07941264
63	0x3d493d67	0.049130823
64	0x3d36d8f1	0.044640485
65	0x3d18f67d	0.037344445
66	0xbd402889	-0.046913657
67	0x3c0f220c	0.008736145
68	0xbd1fb968	-0.038995177
69	0xbd396945	-0.04526641
70	0x3d88e9c5	0.06685213
71	0xbd326db3	-0.04356165
72	0xbdaf13b4	-0.0854868
73	0x3cab4bac	0.020910107
74	0xbd1035b0	-0.03520745
75	0xbc91caef	-0.017796962
76	0xbd6c784e	-0.05773192
77	0xbbb90680	-0.005646527
78	0xbd9d1ee8	-0.076719105
79	0x3db9020c	0.090335935
80	0x3cc99ed1	0.024611862
81	0x3c517eb6	0.012786558
82	0x3da38cef	0.07985865
83	0xbdb91a16	-0.090381786
84	0x3d3a5fc8	0.0455015
85	0xbc496af7	-0.012293569
86	0x3c82794f	0.015926985
87	0xbda729bf	-0.08162259
88	0x3d68d0b1	0.05683965
89	0xbc33c325	-0.010971819
90	0xbd278afd	-0.040904034
91	0x3cf3003a	0.029663194
92	0xbd677541	-0.056508306
93	0xbd0eaf95	-0.034835417
94	0xbc52d287	-0.012867576
95	0xbda1de92	-0.0790378
96	0x3d91016f	0.070803516
97	0xbd836a74	-0.06416789
98	0x3d71a224	0.05899252
99	0xbd83cfbd	-0.06436107
100	0x3b2ed067	0.002667451
101	0xbd375742	-0.04476095
102	0x3d936794	0.0719749
103	0xbce14075	-0.027496556
104	0xbd74742d	-0.059681106
105	0x3d3f321b	0.046678644
106	0x3da11367	0.07865029
107	0xbcd3ef92	-0.025871072
108	0xbda922f2	-0.082586184
109	0xbcd496e0	-0.025950849
110	0xbca88da1	-0.020575346
111	0x3ce8a485	0.028398762
112	0xbd6ae0ac	-0.05734317
113	0x3daff31c	0.08591291
114	0x3d453497	0.048145857
115	0xbcb149fb	-0.021641722
116	0xbd4dedeb	-0.050275724
117	0x3d362933	0.044472884
118	0xbd09bd02	-0.033627518
119	0x3a6ef83a	0.0009115968
120	0xbd4c7770	-0.049918592
121	0xbd82b16a	-0.06381495
122	0x3db06dad	0.08614669
123	0x3c0dd227	0.008656061
124	0x3cef1761	0.029185953
125	0xbd0f1284	-0.034929767
126	0x3b5b86b5	0.003349704
127	0x3d13018f	0.03589016
128	0xbd25f35f	-0.0405153
129	0x3d622b43	0.05521704
130	0xbd339de4	-0.043851748
131	0x3b8794e7	0.0041376236
132	0x3d908c77	0.070580415
133	0xbd8f56f7	-0.06999009
134	0x3cfc5a47	0.030804766
135	0xbc7e58cd	-0.015524101
136	0xbc3306bb	-0.010926898
137	0x3d3ac5e8	0.045598894
138	0xbd79a115	-0.060944635
139	0x3d0dd2f7	0.03462502
140	0xbd9bd0ec	-0.07608208
141	0xbcb42132	-0.021988485
142	0xbd9644e8	-0.073373616
143	0x3d910cf5	0.070825495
144	0xbd9681f4	-0.07349005
145	0xbc9c92a8	-0.0191129
146	0x3d8b0d15	0.067896046
147	0xbc001f22	-0.007819923
148	0x3beb6abc	0.0071843546
149	0xbd8fefec	-0.07028183
150	0x3b3fa353	0.0029241636
151	0x3b3fc0b8	0.0029259156
152	0xbd3d4bd2	-0.046214886
153	0xbd13f032	-0.03611774
154	0x3d26f9ac	0.04076545
155	0x3dadb05b	0.08480903
156	0x3c17600e	0.00923921
157	0xbd554a0d	-0.052072573
158	0xbd200f80	-0.039077282
159	0xbd69f6ac	-0.05712001
160	0xbd92dcad	-0.07170997
161	0xbc6aa929	-0.0143225575
162	0x3d90ce99	0.070706554
163	0x3c8c00fa	0.01709031
164	0xb92c221b	-0.00016415904
165	0x3b8d0999	0.0043041226
166	0x3d0b69e6	0.03403654
167	0x3c84062e	0.016116228
168	0x3b518e52	0.0031975699
169	0xbd9693b4	-0.07352391
170	0x3d0a2a85	0.033731956
171	0xbc9d66f7	-0.019214137
172	0x3d34f2a7	0.044176724
173	0xbd150748	-0.036383897
174	0x3d947943	0.07249691
175	0xbd927129	-0.0715049
176	0x3b3f151a	0.0029156865
177	0x3cada171	0.021195145
178	0xbd0820ff	-0.033234593
179	0xbd9425fb	-0.07233807
180	0x3d8127e5	0.063064374
181	0x3d856fda	0.065154746
182	0x3cc2fa18	0.023800895
183	0x3d4d0714	0.05005558
184	0x3d4b21b7	0.0495927
185	0x3d3cc23a	0.046083666
186	0x3d2ea983	0.042642128
187	0xbd4148b5	-0.04718848
188	0xbdb94e34	-0.09048119
189	0xbd45143b	-0.048114996
190	0x3d12e3b0	0.03586167
191	0xbd7d913f	-0.061906096
192	0xbcf74183	-0.030182606
193	0xbb473eaa	-0.003040234
194	0x3db39cf6	0.08770172
195	0xbcb522cf	-0.022111325
196	0x3c930b0e	0.017949607
197	0x3cb89a5e	0.022534546
198	0xbca7ff1b	-0.020507386
199	0x3d888a59	0.06667013
200	0x3adc7e76	0.0016822356
201	0xbd7f0ac4	-0.062266126
202	0x3d805261	0.062657125
203	0xbd503065	-0.050827403
204	0x3d168263	0.03674544
205	0xbdb55a05	-0.088550605
206	0xbd393cdf	-0.045224067
207	0xbda35962	-0.07976033
208	0x3b2b55ce	0.0026143673
209	0x3d3b2966	0.045693778
210	0xbbfb17e6	-0.007662761
211	0xbdb6465f	-0.08900141
212	0xbd6d7d0b	-0.05798058
213	0x3b3722ad	0.0027944252
214	0x3d07b29b	0.033129316
215	0xbc2d5dde	-0.010581462
216	0xbd562d64	-0.05228938
217	0x3d80b8ef	0.06285273
218	0x3cacd614	0.021098174
219	0xbd8cf9b6	-0.06883566
220	0x3d2be728	0.041968495
221	0x3cbd0643	0.023074275
222	0xbb2a2141	-0.0025959762
223	0x3d9406ed	0.072278835
224	0x3db6314f	0.088961236
225	0x3c44d893	0.012014526
226	0xbc9ddc3a	-0.019270051
227	0xbd918c1f	-0.07106804
228	0xbba3cfa6	-0.004999119
229	0xbd4b12aa	-0.049578346
230	0x3cb90096	0.022583287
231	0x3c75e2c9	0.015007683
232	0xbbc81c09	-0.0061068577
233	0x3c88c997	0.016697688
234	0xbd968e94	-0.07351413
235	0x3c51cac0	0.012804687
236	0xbc9aba62	-0.018887702
237	0x3c57a66b	0.013162236
238	0xbd6541fa	-0.055971123
239	0x3c04c1d2	0.008102851
240	0xbd424372	-0.047427602
241	0x3db227d0	0.08699
242	0xbc16e271	-0.009209261
243	0xbbcabcb0	-0.006187044
244	0xbc529466	-0.012852764
245	0xbcc954a2	-0.024576489
246	0x3d57f6ab	0.052725475
247	0x3c4ccdb1	0.0125002125
248	0x3d7f48c5	0.062325258
249	0xbb1039da	-0.0022007138
250	0x3d96517b	0.0733976
251	0xbb048603	-0.0020221479
252	0x3d82b885	0.063828506
253	0xbd9daa7c	-0.07698533
254	0x3c24b5a3	0.010053071
255	0x3d8265c6	0.06367068

fc2.bias f4 [84]
0	0xbd457250	-0.04820472
1	0xbd9c4b72	-0.076315776
2	0xbd8e1e4f	-0.06939375
3	0xbc80d787	-0.015727771
4	0xbdb17120	-0.08664155
5	0xbb1798e9	-0.0023131913
6	0xbd725a21	-0.059167985
7	0x3d9a6fc2	0.07540847
8	0x3d855ca6	0.06511812
9	0x3d86d18c	0.06582937
10	0xbda92a17	-0.08259981
11	0x3d1b2a26	0.037881993
12	0x3d8bb330	0.06821287
13	0x3d939947	0.0720697
14	0xbd53c184	-0.051698223
15	0x3da6935a	0.08133574
16	0x3d9ff8db	0.07811137
17	0x3db9aa22	0.090656534
18	0xbc31913b	-0.010837848
19	0xbd8f6ee1	-0.0700357
20	0xbda7c57b	-0.08191963
21	0xba87e66a	-0.0010368351
22	0x3da43bc0	0.08019209
23	0x3d29cc49	0.041454587
24	0x3dcba2fa	0.09943195
25	0x3d6eb4c5	0.058277864
26	0x3d57619a	0.052583314
27	0x3cd14919	0.025547551
28	0x3dac39e7	0.084094815
29	0x3cef347a	0.029199827
30	0x3d3fed7c	0.046857342
31	0x3da33aff	0.07970237
32	0x3d2a5ac7	0.04159048
33	0x3d1f8f8a	0.03895525
34	0xbd85107c	-0.06497285
35	0xbd326c63	-0.043560397
36	0xbcb00479	-0.021486508
37	0x3d3b75f0	0.04576677
38	0xbd54ed8c	-0.051984355
39	0x3c7233e4	0.0147828795
40	0x3d4bd08a	0.049759425
41	0xbc0e424d	-0.0086827995
42	0xbc462b0f	-0.012095227
43	0x3c488869	0.012239554
44	0x3d7a7604	0.061147705
45	0xbd0e4fd2	-0.03474409
46	0x3d3f8fdb	0.04676805
47	0x3da7b990	0.0818969
48	0xb9fad419	-0.0004784174
49	0x39b43d9c	0.00034378178
50	0xbd090b11	-0.03345782
51	0x3da9dde0	0.082942724
52	0x3dbd9a2a	0.0925792
53	0xbce9b3c9	-0.028528111
54	0x3ceb7341	0.02874148
55	0xbd820d82	-0.06350233
56	0xbd0a6ea8	-0.033796936
57	0x3d8fd8a7	0.07023745
58	0xbd2c6d3a	-0.042096354
59	0x3d13f04b	0.036117833
60	0x3daa2fc7	0.08309894
61	0x3daa9934	0.083300024
62	0x3c123770	0.00892435
63	0xbd3dc28c	-0.046328112
64	0xbd4b3492	-0.04961068
65	0xbcd02ca1	-0.025411906
66	0xbd2349b2	-0.039865203
67	0x3bf7a772	0.007557803
68	0x3d9933e1	0.07480598
69	0x3d17076d	0.036872316
70	0x3d0c668e	0.03427749
71	0x3d02dbe6	0.031947993
72	0x3dc12009	0.09429938
73	0x3d549ec8	0.051909238
74	0xbd448e27	-0.04798713
75	0xbd0e8636	-0.034795962
76	0xbdb80159	-0.08984632
77	0x3cc43a9f	0.023953734
78	0x3dbef92a	0.09324868
79	0xbd5e57f9	-0.054283116
80	0x3c3460a9	0.011009374
81	0x3d6214c0	0.05519557
82	0x3d69a3dd	0.057041038
83	0x3d276b89	0.040874038

fc3.weight f4 [10, 84]
0	0xbd81dd50	-0.0634104
1	0xbd2dcd36	-0.042432033
2	0xbd858588	-0.0651961
3	0xbde82c13	-0.113365315
4	0xbd8fa81f	-0.070144884
5	0xbd641198	-0.05568084
6	0x3dbacff0	0.09121692
7	0xbda81f9d	-0.08209155
8	0xbcad2e62	-0.021140281
9	0x3d9f867e	0.07789324
10	0xbce1ef3f	-0.027579902
11	0xbd6151cd	-0.055009652
12	0x3d8c79c4	0.068591624
13	0xbc15ea16	-0.009150049
14	0xbd14deff	-0.03634548
15	0x3d063ed8	0.032774776
16	0x3d2742ae	0.040835075
17	0xbcaf304a	-0.02138533
18	0xbd817d99	-0.06322784
19	0xbdb5e257	-0.088810615
20	0xbc33ce4d	-0.010974479
21	0x3d2010c1	0.039078478
22	0xbd8eaa2e	-0.06966053
23	0x3dba6895	0.09101979
24	0x3d96ddad	0.073665
25	0xbcd1ada8	-0.025595501
26	0x3c6771cb	0.014126251
27	0x3dbd951f	0.09256958
28	0x3b8e8066	0.0043488024
29	0xbdce7aad	-0.10081992
30	0x3d0a8dde	0.0338267
31	0xbcc616bc	-0.024180762
32	0xbd9d85cd	-0.07691536
33	0xbd3d9651	-0.04628593
34	0x3d18c444	0.03729655
35	0x3dd30c51	0.103050835
36	0xbc918b6c	-0.017766677
37	0xbdf5d835	-0.12004129
38	0x3d7fa23b	0.062410574
39	0x3d6dd2c4	0.05806233
40	0x3dc718cb	0.09721526
41	0xbd154572	-0.03644318
42	0x3cf58d13	0.029974496
43	0xbdb99dae	-0.09063278
44	0x3dae5633	0.08512535
45	0xbd5c4189	-0.053773437
46	0xbda4005a	-0.080078796
47	0xbda020a1	-0.078187235
48	0xbd3fc324	-0.04681696
49	0x3d30f19a	0.04319916
50	0x3db9d18d	0.09073172
51	0x3d66ec80	0.056377888
52	0x3d33b3e7	0.04387274
53	0x3d16ceae	0.0368182
54	0xbda2d755	-0.079512276
55	0x3dbf518a	0.09341724
56	0x3d8a4290	0.06750977
57	0x3a70222e	0.00091603666
58	0x3d82d30b	0.063879095
59	0x3d9271ad	0.07150588
60	0x3d9372c2	0.07199623
61	0xbd649913	-0.055810045
62	0xbda6e8d9	-0.08149881
63	0x3d1a13c6	0.037616514
64	0x3dd5d181	0.1044035
65	0xbd065341	-0.03279424
66	0xbd56a348	-0.05240181
67	0xbda994b3	-0.08280315
68	0xbc066d74	-0.008204807
69	0x3d6fb213	0.058519434
70	0x3d4bae0f	0.049726542
71	0x3d75aaa4	0.05997719
72	0x3cee2d92	0.029074464
73	0xbdbdcd3c	-0.09267661
74	0xbda0108c	-0.07815656
75	0xbd99a714	-0.07502571
76	0xbbcd56f2	-0.006266468
77	0x3de3cdd5	0.11123244
78	0xbde05d04	-0.10955241
79	0xbd614c32	-0.055004306
80	0xbd27f77b	-0.0410075
81	0xbd8c25ac	-0.06843123
82	0xbdd0a0a2	-0.10186888
83	0x3c691f94	0.01422872
84	0xbd826e6a	-0.06368716
85	0xbc58ede4	-0.013240311
86	0x3c57400b	0.013137828
87	0x3da1bcbb	0.078973256
88	0xbc34e71d	-0.01104143
89	0xbd76e96a	-0.060281195
90	0xbd0940e6	-0.033509158
91	0xbd7eee55	-0.06223901
92	0x3dd1dee0	0.10247588
93	0x3d4c2373	0.049838495
94	0xbd7525f7	-0.05985066
95	0x3d421df9	0.047391865
96	0xbbeab18f	-0.00716228
97	0xbc36dc8a	-0.011160979
98	0xbb6df66f	-0.0036310216
99	0xbdc557a6	-0.09635858
100	0xbd8bdb6c	-0.06828961
101	0xbc2492e7	-0.01004479
102	0x3c075233	0.008259344
103	0xbd711efb	-0.058867436
104	0x3d868ad2	0.065694466
105	0xbdc78faf	-0.09744202
106	0xbcbd5269	-0.023110585
107	0x3d0468cb	0.0323265
108	0x3daae11f	0.0834372
109	0x3d7fce57	0.06245264
110	0xbd0ef45e	-0.034901015
111	0x3c24a59b	0.010049249
112	0x3dc77371	0.097388156
113	0xbd9229c9	-0.07136876
114	0x3d0fd007	0.0351105
115	0x3de41ba0	0.111380816
116	0xbc9a9541	-0.018869998
117	0x3c887376	0.016656619
118	0xbddc3190	-0.10751641
119	0xbb8894ec	-0.0041681435
120	0xbd8752e3	-0.06607606
121	0xbdbc7250	-0.09201491
122	0xbca16f15	-0.019706288
123	0xbd9cb127	-0.07650977
124	0xbd87c047	-0.06628471
125	0xbd2a95b6	-0.04164668
126	0x3cfb03ce	0.030641463
127	0xbdb66b87	-0.08907228
128	0x3cbd5048	0.02310957
129	0xbd068034	-0.032837108
130	0x3dbe83a1	0.0930245
131	0xbda698f6	-0.08134644
132	0x3dcedd90	0.101008534
133	0xbc70f274	-0.014706243
134	0xbc3e09b7	-0.011598996
135	0xbd151801	-0.036399845
136	0xb9f88ee9	-0.00047408722
137	0x3d81ba3d	0.0633435
138	0x3d660907	0.056160953
139	0x3ddb393b	0.10704275
140	0xbd856268	-0.0651291
141	0xbdedfad3	-0.116201065
142	0xbdb47787	-0.088118605
143	0x3daabdd1	0.08336986
144	0x3cbbf7fe	0.0229454
145	0xbdb6d935	-0.08928148
146	0xbdba2940	-0.09089899
147	0x3d8dc831	0.06922949
148	0x3def74ad	0.11692176
149	0xbcb2f780	-0.021846533
150	0x3ce99545	0.02851356
151	0xbcf0b3d2	-0.02938262
152	0xbd7a7128	-0.06114307
153	0xbdb83394	-0.08994213
154	0x3d9073a4	0.07053307
155	0xbd858401	-0.06519318
156	0xbdc7b305	-0.09750942
157	0x3d45d3c5	0.048297662
158	0xbd3aafe0	-0.045577884
159	0x3c323ee4	0.010879252
160	0x3d5d8285	0.05407955
161	0x3de181b1	0.11011065
162	0xbcfa2d85	-0.030539284
163	0xbbcfb234	-0.006338382
164	0xbda6fd7a	-0.081538156
165	0x3c3ea888	0.011636861
166	0xbdbfb381	-0.093604095
167	0xbda10bea	-0.078636006
168	0x3d90e711	0.070753224
169	0xbd384241	-0.04498506
170	0x3d425fa1	0.04745448
171	0x3d718fc2	0.05897499
172	0x3d329278	0.043596715
173	0xbc7caab0	-0.015421554
174	0x3dde05c1	0.10840941
175	0x3db9b1fb	0.0906715
176	0xbc87ae22	-0.016562525
177	0x3c4b5d40	0.012412369
178	0x3ace696f	0.0015747974
179	0xbd46f4d4	-0.04857333
180	0x3d1572e1	0.03648651
181	0x3cfa3537	0.030542953
182	0xbcf4f754	-0.029903091
183	0x3dc78636	0.097423956
184	0x3d1dc61c	0.03851901
185	0xbddf18ab	-0.10893377
186	0xbc11935c	-0.008885231
187	0x3d0ecd93	0.03486402
188	0xbd7c0a30	-0.061533153
189	0xbda49833	-0.08036842
190	0x3db53fb2	0.088500395
191	0x3da77575	0.081767
192	0xbddff29e	-0.109349474
193	0xbd4bbf90	-0.049743235
194	0x3cb965ee	0.022631612
195	0xbc96d48b	-0.018411895
196	0xbd8b8615	-0.068126835
197	0x3cd84090	0.026397973
198	0x3b2c8f46	0.0026330515
199	0xbc1a5892	-0.009420531
200	0xbc06d829	-0.008230248
201	0xbcba1b29	-0.02271803
202	0xbdd48708	-0.10377318
203	0x3d943a3a	0.07237668
204	0x3c518665	0.01278839
205	0xbc2c67f0	-0.0105228275
206	0xbd08b80a	-0.03337864
207	0x3d410480	0.047123432
208	0x3d146de6	0.03623762
209	0x3d260053	0.040527653
210	0x3dd71592	0.10502161
211	0x3cb8d914	0.022564448
212	0xbc078a03	-0.008272651
213	0xbc398c65	-0.011324977
214	0x3dc499f4	0.09599677
215	0x3d905334	0.0704712
216	0xbc1827b1	-0.009286807
217	0x3dc13e26	0.09435682
218	0xb9f637cd	-0.0004696235
219	0x3b4e3898	0.0031466838
220	0xbdbb010f	-0.09131061
221	0xbcbea2b0	-0.023270935
222	0xbd961305	-0.073278464
223	0xbc29b095	-0.010357042
224	0x3dadf967	0.08494835
225	0xbd23fb59	-0.040034626
226	0xbd6a7bf3	-0.057247113
227	0x3bced5c6	0.006312105
228	0xbdda53b2	-0.10660495
229	0x3dcc972f	0.099897735
230	0x3da9a11a	0.08282681
231	0x3d063388	0.032763988
232	0xbdc28bb4	-0.094993025
233	0xbd1e676b	-0.038672846
234	0xbd65ef29	-0.056136284
235	0xbcda214d	-0.026627207
236	0xbda69eb9	-0.08135743
237	0xbd456d44	-0.048199907
238	0xbd2026dd	-0.039099563
239	0xbda06766	-0.07832222
240	0x3d7136d8	0.058890194
241	0xbd6107f9	-0.054939244
242	0x3ddc9da2	0.107722536
243	0xbd882afd	-0.06648824
244	0x3d421366	0.04738178
245	0xbcf10318	-0.02942042
246	0xbd37d5c3	-0.044881593
247	0xbd8a569d	-0.067548014
248	0x3cde7eec	0.02716013
249	0xbad7f304	-0.0016475623
250	0xbd7318cc	-0.05934982
251	0xbdc0b4fd	-0.09409521
252	0xbcb2c03d	-0.021820182
253	0xbdb1d2d1	-0.08682788
254	0xbd822b22	-0.06355883
255	0xbdcdc4ff	-0.1004734

fc3.bias f4 [10]
0	0xbd37b1b3	-0.0448472
1	0x3d9d5996	0.07683103
2	0x3d26497d	0.040597428
3	0x3b2d8b33	0.0026480674
4	0xbcf79b0a	-0.030225296
5	0x3c9e9d2b	0.019362053
6	0xbd618424	-0.05505766
7	0xbcf707fe	-0.030155178
8	0x3d223b98	0.039607614
9	0xbd06329c	-0.03276311
